hyperglue/weights/checkpoint_400.tar (torch, 461855 bytes, 160 tensors)

penc0.lin.weight f4 [36, 100]
0.06498398 0.08066056 -0.02362806 0.20987885 -0.16279466 -0.20213126 -0.09604854 0.036771227
0.0038416625 0.052450012 -0.09333649 0.008482064 -0.054397706 -0.038138036 -0.04260768 0.07420175
0.067118816 -0.19669597 0.11429459 0.21033224 -0.07260773 -0.036301583 0.051913194 -0.14882919
-0.07560856 0.050012317 -0.041178428 -0.2510576 0.08046013 0.096136294 0.0073178303 -0.05230911
0.02746732 0.11322833 -0.11533374 -0.22661851 0.010796171 0.028217891 0.0119541595 -0.12360089
-0.0718177 -0.017899914 0.0666291 0.01464419 -0.09434759 0.121423386 -0.075830154 0.07457077
0.059616126 0.09714204 -0.038204215 -0.0017057144 -0.101891555 -0.12230598 0.12774064 -0.07344562
-0.030333085 0.008367827 0.16510189 -0.05173576 0.0653866 -0.019420799 0.09981558 -0.41222274
0.13620734 0.18989834 0.01208261 -0.38535315 0.1545102 0.2973923 0.09632593 0.06808843
0.030605357 -0.05137857 -0.12919983 -0.16329329 0.06402113 -0.07937875 -0.09637628 -0.13948983
-0.052301824 -0.0270165 -0.066940464 0.0912252 -0.065264694 0.1955808 -0.055829953 0.1306666
-0.07379177 0.22720909 0.00656188 0.035217673 0.032904364 0.12869363 -0.06729632 0.052275192
0.037827782 0.17319049 -0.04299136 0.068614356 -0.09572909 0.004754023 0.0037413742 -0.030147389
-0.118305415 -0.027612312 -0.009614989 -0.015644943 0.07191338 0.09814431 -0.08786593 -0.090528354
0.08363959 0.2203974 0.075582094 0.087184526 0.07516845 0.20532572 0.21842867 0.08152897
0.104669 0.08496505 0.025285615 0.12526262 0.20924531 -0.15908569 0.0893172 0.23438373
0.20681934 -0.303032 0.0112077985 0.011239412 0.053369146 -0.28900743 -0.014694712 0.27610412
-0.0020553155 -0.25334585 0.11258987 0.18209036 -0.040596835 0.015743254 0.011987145 -0.120572925
0.010136558 0.09133183 0.089253925 -0.10055186 0.07993942 -0.10023164 0.06144985 -0.02490279
-0.104964346 0.020154042 -0.024345592 -0.12853737 -0.113679506 -0.05991104 0.15926006 -0.09362669
-0.0005336145 0.06733826 -0.0464809 0.13308573 0.0075667687 -0.027867517 0.06438116 0.07854711
-0.008543722 -0.022532035 -0.06728476 0.06964466 -0.013352105 -0.11270961 -0.022579845 0.014407441
-0.0049297195 -0.17240801 0.009412883 0.050398365 0.025875995 0.034150902 -0.047711655 -0.12650144
-0.08006217 0.21095313 -0.00081633 -0.036379702 -0.049567226 0.12309648 0.08882851 -0.066914804
-0.028013445 0.1611136 0.08541632 -0.07106504 -0.0060569323 0.18260959 0.05295913 0.011337674
-0.06090924 -0.033692557 0.1184358 0.18433623 0.027504938 -0.048988387 0.09638317 -0.009298849
-0.003269732 0.02681731 -0.002583409 -0.09376929 0.08997892 0.04223683 -0.07506465 0.020567045
-0.0479988 -0.13971326 -0.22097981 0.1447876 0.10025817 0.07617997 -0.09578667 -0.0628157
0.10017772 -0.23218451 0.012263124 0.021876708 -0.105154924 -0.2274331 -0.07093664 -0.015582401
-0.05391165 -0.12022824 0.28586942 0.11169358 0.014477332 -0.20570076 0.08092297 0.02762677
0.09465732 0.022803746 -0.033354484 0.12855586 0.043371096 -0.06724566 -0.07956338 -0.01043916
0.09306183 -0.032927673 0.01551641 0.027682694 -0.0735561 0.092274636 0.13711677 -0.13210599
00000000: 5216 853d 5d31 a53d a28f c1bc 7bea 563e
00000010: a5b3 26be 7ffb 4ebe 19b5 c4bd 6d9d 163d
00000020: 67c4 7b3b d3d5 563d 3427 bfbd 5bf8 0a3c
00000030: 21d0 5ebd a136 1cbd 6485 2ebd 16f7 973d
00000040: 9775 893d ab6a 49be 4813 ea3d 5661 573e
00000050: 5db3 94bd f8b0 14bd eea2 543d ae66 18be
00000060: a9d8 9abd b7d9 4c3d b6aa 28bd 9f8a 80be
00000070: 48c8 a43d 1be3 c43d 69ca ef3b 1442 56bd
00000080: 2503 e13c 41e4 e73d 1934 ecbd af0e 68be
00000090: 6ce2 303c 3529 e73c 61db 433c 7722 fdbd
000000a0: 2915 93bd d7a2 92bc d674 883d 2fee 6f3c
000000b0: 4f39 c1bd d3ac f83d d74c 9bbd 8fb8 983d
000000c0: 0a30 743d 68f2 c63d 067c 1cbd 4792 dfba
000000d0: 85ac d0bd 8f7b fabd 71ce 023e a86a 96bd
000000e0: 177d f8bc 3619 093c 7810 293e e0e8 53bd
000000f0: 69e9 853d 5e18 9fbc 1c6c cc3d dc0e d3be
00000100: f079 0b3e b674 423e 24f6 453c 024d c5be
00000110: ec37 1e3e ce43 983e 8746 c53d f271 8b3d
00000120: 16b8 fa3c 5672 52bd f64c 04be 5b36 27be
00000130: 831d 833d 5391 a2bd ed60 c5bd 6cd6 0ebe
00000140: 703a 56bd b551 ddbc 1518 89bd 47d4 ba3d
00000150: 7fa9 85bd 5546 483e f3ad 64bd 77cd 053e
00000160: 2420 97bd 80a9 683e 0a05 d73b 6840 103d
00000170: bac6 063d 43c8 033e a7d2 89bd 831e 563d
00000180: 4ef1 1a3d d958 313e b517 30bd af85 8c3d
00000190: 9d0d c4bd a3c7 9b3b d831 753b a8f7 f6bc
000001a0: 1c4a f2bd 3733 e2bc 3088 1dbc d329 80bc
000001b0: 5247 933d e2ff c83d 0df3 b3bd ee66 b9bd
000001c0: 3c4b ab3d dbaf 613e c9ca 9a3d cd8d b23d
000001d0: ebf1 993d e840 523e c4ab 5f3e a9f8 a63d
000001e0: b35c d63d 2802 ae3d c723 cf3c d844 003e
000001f0: 6744 563e 5ce7 22be f0eb b63d 4a02 703e
00000200: 73c8 533e 0327 9bbe eaa0 373c 8325 383c
00000210: 9b99 5a3d c8f8 93be 17c2 70bc 855d 8d3e
00000220: 79b2 06bb 8cb6 81be 8595 e63d e575 3a3e
00000230: de48 26bd fff7 803c bb65 443c f0ee f6bd
00000240: ce13 263c 2f0c bb3d c3ca b63d 22ee cdbd
00000250: 47b7 a33d 3f46 cdbd d7b2 7b3d f000 ccbc
00000260: 8cf7 d6bd 171a a53c 6870 c7bc 4d9f 03be
00000270: cdd0 e8bd 4765 75bd 1215 233e 5abf bfbd
00000280: 43e2 0bba a4e8 893d c262 3ebd a047 083e
00000290: a8f2 f73b 6b4a e4bc 45da 833d 4fdd a03d
000002a0: f8fa 0bbc 1a95 b8bc 98cc 89bd dca1 8e3d
000002b0: cac2 5abc 4cd4 e6bd 5ef9 b8bc 300d 6c3c
000002c0: 7c89 a1bb ba8b 30be 7e38 1a3c 846e 4e3d
000002d0: e5f9 d33c d1e1 0b3d 4c6d 43bd 9889 01be
000002e0: a3f7 a3bd 1904 583e fbfe 55ba e202 15bd
000002f0: 0107 4bbd 021a fc3d b9eb b53d a10a 89bd
00000300: 747c e5bc f7fa 243e c0ee ae3d 8c8a 91bd
00000310: 3b79 c6bb 02fe 3a3e aceb 583d a7c1 393c
00000320: f87b 79bd 3501 0abd 788e f23d a3c2 3c3e
00000330: 0952 e13c 0ca8 48bd 8a64 c53d 335a 18bc
00000340: 0049 56bb faaf db3c 694e 29bb 1d0a c0bd
00000350: de46 b83d 8700 2d3d 7fbb 99bd 387c a83c
00000360: 649a 44bd fe10 0fbe 8848 62be 3343 143e
00000370: 2854 cd3d 3e04 9c3d cd2b c4bd 85a5 80bd
00000380: fa29 cd3d c7c1 6dbe 45eb 483c c836 b33c
00000390: 775b d7bd 39e4 68be 3b47 91bd 544d 7fbc
000003a0: 76d2 5cbd 393a f6bd 7a5d 923e 9bbf e43d
000003b0: 5532 6d3c 38a3 52be f1ba a53d 8951 e23c
000003c0: b2db c13d ecce ba3c b69e 08bd 26a4 033e
000003d0: e4a5 313d 18b8 89bd 20f2 a2bd 0309 2bbc
000003e0: 3397 be3d 2bdf 06bd 8a38 7e3c d1c6 e23c
000003f0: 95a4 96bd 7cfa bc3d 5768 0c3e cb46 07be

penc0.bn.weight f4 [36]
1.1552509 1.0363024 1.1246299 1.1819711 0.9089689 0.98229563 0.8786714 0.9757902
1.0205389 1.0795786 0.904681 1.0427867 0.9571258 0.9630925 1.0231425 1.0373751
0.9595508 0.93086606 1.0862055 0.97016364 1.084079 1.0305979 1.1165122 0.9726046
1.1007434 1.0082883 0.93142307 1.0244671 0.92788 0.9826007 0.9543617 1.0628738
1.172232 0.9899297 1.0433075 0.97514594
00000000: 43df 933f 8fa5 843f dff3 8f3f d44a 973f
00000010: 30b2 683f ba77 7b3f 9cf0 603f 63cd 793f
00000020: 05a1 823f a22f 8a3f 2d99 673f 097a 853f
00000030: 3206 753f 3b8d 763f 55f6 823f b5c8 843f
00000040: 1fa5 753f 3d4d 6e3f c808 8b3f a55c 783f
00000050: 1ac3 8a3f a2ea 833f dfe9 8e3f 9dfc 783f
00000060: 29e5 8c3f 970f 813f be71 6e3f bd21 833f
00000070: 8b89 6d3f b88b 7b3f 0c51 743f 400c 883f
00000080: b30b 963f 086c 7d3f 1a8b 853f 2aa3 793f

penc0.bn.bias f4 [36]
0.0825134 0.056136187 0.02327946 0.025769342 0.14883943 0.058208764 -0.18644115 0.030313255
0.16864666 -0.01745858 0.013306325 0.04012709 0.028855123 0.19455983 0.09556101 -0.04965253
0.0021952312 0.10897645 0.051271886 0.07806315 -0.08368264 0.07024607 0.13993089 0.08213654
0.106962316 0.045773126 0.008181209 -0.021193644 0.06261709 0.13594833 -0.09925098 -0.07172005
0.09333341 0.110857986 0.12788166 -0.0893358
00000000: c9fc a83d 0fef 653d 91b4 be3c 3a1a d33c
00000010: 5d69 183e 506c 6e3d 6eea 3ebe 8153 f83c
00000020: b6b1 2c3e 4c05 8fbc c602 5a3c 4e5c 243d
00000030: 9461 ec3c b13a 473e 7eb5 c33d 7460 4bbd
00000040: dedd 0f3b 0c2f df3d 7802 523d 93df 9f3d
00000050: ce61 abbd 2cdd 8f3d 0b4a 0f3e 3437 a83d
00000060: 0f0f db3d 9a7c 3b3d 7a0a 063c 4b9e adbc
00000070: 643d 803d 0a36 0b3e 1944 cbbd f6e1 92bd
00000080: 9625 bf3d 8309 e33d 69f3 023e b0f5 b6bd

penc0.bn.running_mean f4 [36]
-0.0690914 0.11896474 -0.022884445 -0.0641134 0.033823043 0.042629212 0.014410991 -0.094164364
0.115539044 0.12879907 -0.07696067 -0.069174215 -0.05955401 0.063638486 0.10249565 -0.056493748
-0.15484437 0.12384277 -0.0144001655 -0.11293285 -0.024242584 0.16063455 0.01560463 0.020944323
-0.108309105 0.11495642 0.00046435508 -0.03676345 0.11820657 0.0031596764 -0.089494355 -0.09502
-0.09988765 -0.10581452 -0.083033204 -0.024554966
00000000: cb7f 8dbd c9a3 f33d 2978 bbbc e34d 83bd
00000010: 088a 0a3d f89b 2e3d 141c 6c3c 3fd9 c0bd
00000020: bc9f ec3d e7e3 033e 8e9d 9dbd 36ab 8dbd
00000030: e8ee 73bd e554 823d 3de9 d13d fd65 67bd
00000040: 868f 1ebe 47a1 fd3d acee 6bbc 5749 e7bd
00000050: 6298 c6bc 627d 243e 90aa 7f3c 6e93 ab3c
00000060: 2ad1 ddbd 466e eb3d af74 f339 4595 16bd
00000070: 4916 f23d 9312 4f3b d148 b7bd d999 c2bd
00000080: e591 ccbd 48b5 d8bd 500d aabd 7f27 c9bc

penc0.bn.running_var f4 [36]
0.0050793653 0.006471068 0.00567238 0.00398997 0.006839789 0.0068724505 0.025091121 0.0061171246
0.012408197 0.005479368 0.0110305 0.012984601 0.00685847 0.003387612 0.009087806 0.005406173
0.011392664 0.0048470865 0.004618594 0.008568245 0.007068682 0.014916934 0.0041678837 0.005535352
0.003967314 0.0069558164 0.016294349 0.004593961 0.0067900303 0.003696037 0.006770578 0.0073839617
0.00654075 0.018334175 0.0023969419 0.0048973463
00000000: ce70 a63b 410b d43b 5fdf b93b 4bbe 823b
00000010: 4f20 e03b 4b32 e13b e58b cd3c 2972 c83b
00000020: c04b 4b3c 458c b33b 45b9 343c 5dbd 543c
00000030: 04bd e03b b302 5e3b 05e5 143c 4426 b13b
00000040: 4ca8 3a3c 4fd4 9e3b 9357 973b d361 0c3c
00000050: 67a0 e73b 2866 743c be92 883b e661 b53b
00000060: 3e00 823b 9eed e33b ba7b 853c f088 963b
00000070: e77e de3b 3639 723b badb dd3b 29f5 f13b
00000080: ca53 d63b 8d31 963c 0316 1d3b eb79 a03b

penc1.lin.weight f4 [36, 100]
0.0021282716 0.02997416 -0.08530734 0.27005023 -0.09940385 -0.028022317 0.035085924 -0.03589126
0.005383325 -0.069412135 -0.0050969683 -0.09033908 0.11268617 -0.07480796 -0.07610463 0.36569744
-0.052286807 -0.12299217 -0.014674767 0.41743574 0.040933948 0.038906135 -0.005624488 -0.082782924
-0.12153046 -0.0712907 -0.02970486 -0.18225567 -0.05479011 0.09364398 -0.05408047 0.050115697
-0.05477494 0.11681121 0.2280608 -0.08899982 0.089529715 -0.077515684 0.15620193 -0.08825163
0.011450731 0.03941694 -0.08827539 -0.029897505 -0.08233076 -0.13939212 -0.021873903 -0.26402563
-0.11661442 -0.03016209 -0.0484759 -0.07549716 0.08507275 0.15324487 -0.033508994 -0.04457373
-0.06418606 0.05360751 -0.118171595 -0.042857584 0.034736488 -0.008536506 -0.019199794 0.0064273654
-0.057894498 0.10137577 0.0074700965 -0.15652165 -0.09999647 0.06088512 -0.0072222245 0.07143798
-0.0565811 -0.009911042 -0.036252756 0.13103777 0.10386427 -0.0686591 0.12979636 0.08864921
0.09321859 -0.0025999942 -0.0348962 0.18875429 0.11188093 0.014827567 -0.10984764 -0.054797675
0.08611068 0.092017666 -0.08218406 0.06847292 -0.09407851 -0.026031671 0.02677826 -0.044515673
0.014126239 -0.10446272 0.16056827 0.024039198 0.0013239668 -0.022257097 -0.10571865 0.11177518
0.21390289 -0.014839899 0.012576132 0.0075275186 0.063993216 0.020544112 -0.083146945 0.10563723
0.028649531 -0.038259055 0.27927884 -0.023836138 -0.03461225 -0.19899757 0.27012154 -0.0040076273
0.040233616 -0.09199729 -0.0715842 0.12414062 -0.20025209 -0.03816898 -0.02468665 0.07740995
-0.18283348 -0.0023920175 0.031589486 0.07948472 -0.088902816 0.09603875 0.25711986 -0.03778558
0.02342422 -0.13820915 0.1831034 0.14367387 0.023609184 -0.05636012 0.041675948 -0.12920095
0.03993872 0.09808786 0.03637209 -0.067271575 -0.1422172 0.13481285 -0.02331915 -0.043248165
0.057644986 0.037997257 0.0828561 0.19062556 0.06217619 -0.026465926 -0.03224077 0.077791736
0.05233076 0.06484685 0.040479854 -0.049045373 -0.044346858 0.054873865 0.02684819 -0.03621848
-0.09878786 0.06480005 0.09115852 -0.062623374 0.07066565 0.16610046 -0.3013014 0.07360385
-0.08598655 0.13474354 -0.37434697 0.13405466 0.0043419935 0.02586619 0.07619717 0.076054774
0.020475892 -0.01317454 -0.008773587 -0.041318547 -0.032141514 -0.076291725 -0.03551042 0.06963308
-0.10078472 -0.12429419 0.05205561 -0.08880756 -0.07506378 -0.057408545 -0.024469957 -0.18262842
0.04860182 -0.1088812 0.062273942 0.21057926 -0.15565313 0.09281219 -0.09926073 0.089306824
0.0673095 -0.013103378 0.107677646 0.021031566 0.07735662 0.18410963 -0.012148242 0.19964603
-0.11134894 0.1717944 -0.05416373 0.119902946 -0.068768665 0.08584574 0.006816488 -0.05845853
0.30712146 0.025350139 -0.031003539 0.0070301434 0.34382567 -0.06792947 -0.006230544 0.031974252
0.04911821 -0.14147699 -0.050652895 -0.16742913 0.061640847 -0.17457731 0.0076089073 -0.3891501
0.05016757 0.08680106 -0.08784769 -0.14579588 0.008409622 0.066507265 -0.03564891 -0.09213341
0.12104947 -0.10141476 -0.04742247 0.062396538 0.027660575 0.11874183 -0.19331513 0.1697747
00000000: 797a 0b3b 5f8c f53c 9db5 aebd 0644 8a3e
00000010: 3f94 cbbd 0f8f e5bc 42b6 0f3d b702 13bd
00000020: 9a66 b03b f327 8ebd 7804 a7bb b203 b9bd
00000030: 02c8 e63d ea34 99bd bfdc 9bbd b23c bb3e
00000040: b12a 56bd 52e3 fbbd 6f6e 70bc 23ba d53e
00000050: 5baa 273d 0a5c 1f3d a04d b8bb 188a a9bd
00000060: f6e4 f8bd dc00 92bd 9b57 f3bc 3ba1 3abe
00000070: 986b 60bd 6ac8 bf3d 7c83 5dbd 1e46 4d3d
00000080: b05b 60bd b73a ef3d c588 693e 8a45 b6bd
00000090: 5b5b b73d 8bc0 9ebd 66f3 1f3e 45bd b4bd
000000a0: d99b 3b3c a873 213d bac9 b4bd 9deb f4bc
000000b0: 089d a8bd cfbc 0ebe e630 b3bc 5e2e 87be
000000c0: 8bd3 eebd 7d16 f7bc aa8e 46bd 419e 9abd
000000d0: 9f3a ae3d 39ec 1c3e ba40 09bd f292 36bd
000000e0: fb73 83bd 8c93 5b3d f303 f2bd 6f8b 2fbd
000000f0: d947 0e3d b4dc 0bbc e348 9dbc a69c d23b
00000100: c822 6dbd 1a9e cf3d b6c7 f43b 3647 20be
00000110: f3ca ccbd ad62 793d 69a8 ecbb 134e 923d
00000120: 95c1 67bd ec61 22bc c57d 14bd c42e 063e
00000130: cab6 d43d 249d 8cbd 56e9 043e b88d b53d
00000140: 63e9 be3d aa64 2abb 51ef 0ebd ce48 413e
00000150: d421 e53d 53ef 723c cdf7 e0bd 8773 60bd
00000160: cc5a b03d c273 bc3d 1e50 a8bd 883b 8c3d
00000170: 3cac c0bd 5f40 d5bc 155e db3c 1156 36bd
00000180: be71 673c 8df0 d5bd 026c 243e daed c43c
00000190: f488 ad3a 8454 b6bc 0583 d8bd 63ea e43d
000001a0: 5c09 5b3e 0c23 73bc 1f0c 4e3c 67a9 f63b
000001b0: e00e 833d 204c a83c f248 aabd 5558 d83d
000001c0: 6cb2 ea3c 87b5 1cbd a3fd 8e3e 0144 c3bc
000001d0: 93c5 0dbd 05c6 4bbe 5f4d 8a3e 6a52 83bb
000001e0: 01cc 243d 1369 bcbd bd9a 92bd 703d fe3d
000001f0: e20e 4dbe 1457 1cbd a83b cabc 1c89 9e3d
00000200: b338 3bbe 65c3 1cbb fa63 013d e3c8 a23d
00000210: ae12 b6bd f7af c43d 37a5 833e 0dc5 1abd
00000220: 26e4 bf3c b386 0dbe 757f 3b3e 3e1f 133e
00000230: 0c68 c13c dfd9 66bd 66b4 2a3d 414d 04be
00000240: c996 233d 4ae2 c83d e7fa 143d aec5 89bd
00000250: 63a1 11be 610c 0a3e cd07 bfbc fd24 31bd
00000260: 261d 6c3d 03a3 1b3d 75b0 a93d 5933 433e
00000270: 76ac 7e3d 12cf d8bc e60e 04bd 4651 9f3d
00000280: c758 563d 6dce 843d 34ce 253d cde3 48bd
00000290: 0da5 35bd 6bc3 603d bcf0 db3c d459 14bd
000002a0: 4a51 cabd e3b5 843d 51b1 ba3d af40 80bd
000002b0: 27b9 903d 3d16 2a3e 2d44 9abe 9ebd 963d
000002c0: b719 b0bd 36fa 093e 68aa bfbe a045 093e
000002d0: 4847 8e3b 55e5 d33c 430d 9c3d 9bc2 9b3d
000002e0: 0fbd a73c 07da 57bc 17bf 0fbc a33d 29bd
000002f0: d2a6 03bd d63e 9cbd 6073 11bd ca9b 8e3d
00000300: 3868 cebd f48d febd 4338 553d bde0 b5bd
00000310: 0abb 99bd 3925 6bbd 3875 c8bc f202 3bbe
00000320: b412 473d 1bfd debd f612 7f3d 17a2 573e
00000330: 8963 1fbe 5114 be3d 3649 cbbd 7fe6 b63d
00000340: 90d9 893d 8daf 56bc 1986 dc3d 644a ac3c
00000350: 266d 9e3d 3c87 3c3e 6c09 47bc 0270 4c3e
00000360: ea0a e4bd dfea 2f3e cada 5dbd ad8f f53d
00000370: 96d6 8cbd e4cf af3d d95c df3b 3672 6fbd
00000380: 063f 9d3e 18ab cf3c 22fb fdbc 1e5d e63b
00000390: eb09 b03e 9b1e 8bbd 9729 ccbb 6ff7 023d
000003a0: 2d30 493d 58df 10be 6979 4fbd 8b72 2bbe
000003b0: 1d7b 7c3d 65c4 32be 2454 f93b af3e c7be
000003c0: 837c 4d3d c1c4 b13d 7de9 b3bd 844b 15be
000003d0: 83c8 093c f634 883d 9704 12bd 71b0 bcbd
000003e0: c9e8 f73d 8bb2 cfbd 103e 42bd 8393 7f3d
000003f0: 6e98 e23c eb2e f33d 67f4 45be 6bd9 2d3e

penc1.bn.weight f4 [36]
1.0602652 1.0552822 0.98990846 0.95523584 1.1626157 1.010473 1.218814 1.0227793
0.9252531 1.1328914 0.92832637 1.0736314 1.1127834 0.9846733 0.9433499 0.885102
1.0217004 0.9565119 1.0320727 1.0567553 1.0723909 0.9739352 1.037906 0.9486624
0.9941469 1.0368702 1.098524 0.99532855 1.0272094 0.96663743 1.0681001 1.1350733
0.8555937 0.944742 1.011542 1.0708381
00000000: c5b6 873f 7d13 873f a46a 7d3f 568a 743f
00000010: 97d0 943f 2e57 813f 1902 9c3f 6fea 823f
00000020: 63dd 6c3f 9602 913f cca6 6d3f c16c 893f
00000030: b06f 8e3f 8d13 7c3f 617f 713f 0b96 623f
00000040: 14c7 823f f7dd 743f f51a 843f c243 873f
00000050: 1b44 893f d153 793f 1bda 843f 8adb 723f
00000060: 6980 7e3f 2ab8 843f 6f9c 8c3f dacd 7e3f
00000070: 997b 833f 8d75 773f 81b7 883f 154a 913f
00000080: 3008 5b3f 9dda 713f 357a 813f 3911 893f

penc1.bn.bias f4 [36]
-0.028341392 0.0069266795 -0.07641531 0.0078599425 0.1174247 0.10084544 0.2081778 0.025861273
0.01771356 0.058724027 0.009551134 0.01875956 0.066949174 0.15766239 -0.0066218367 0.028152362
0.083385214 -0.0184177 0.0029463754 -0.04198609 0.06330731 0.0012060705 0.011737034 -0.037395187
-0.021692516 0.022356369 0.111247346 0.1295854 0.026762296 -0.031261276 -0.018410971 0.090011515
0.027108373 -0.037498087 -0.0034560845 0.01885176
00000000: 352c e8bc 33f9 e23b a17f 9cbd fdc6 003c
00000010: 5c7c f03d 0e88 ce3d 902c 553e 05db d33c
00000020: 071c 913c 9b88 703d 5c7c 1c3c a6ad 993c
00000030: a61c 893d 4072 213e fefb d8bb c89f e63c
00000040: dec5 aa3d b7e0 96bc fa17 413b 9bf9 2bbd
00000050: 43a7 813d 0315 9e3a b04c 403c b22b 19bd
00000060: 81b4 b1bc b424 b73c a6d5 e33d 09b2 043e
00000070: 9a3c db3c d30b 00bd 9bd2 96bc f557 b83d
00000080: 6112 de3c 9897 19bd 7a7f 62bb 026f 9a3c

penc1.bn.running_mean f4 [36]
-0.02051014 -0.047109004 -0.16434176 0.06647177 -0.050294884 0.045665026 -0.054736298 0.029173331
0.051316667 -0.0641667 0.035917047 -0.07955408 -0.057501223 -0.02949669 -0.043236315 -0.02617811
-0.088023655 0.17106377 -0.26725605 -0.23491432 -0.10774974 -0.0026103612 -0.08348199 0.020884851
-0.04195349 0.015380091 0.117593415 0.07652327 -0.029008588 -0.18152642 -0.09565554 -0.1340054
0.123706 0.057321623 0.025908194 0.029453568
00000000: e204 a8bc 5ff5 40bd 3549 28be 5a22 883d
00000010: 0202 4ebd 400b 3b3d 2b33 60bd e9fc ee3c
00000020: 6d31 523d d569 83bd c11d 133d 40ed a2bd
00000030: 6786 6bbd 0ba3 f1bc 9018 31bd 7a73 d6bc
00000040: bf45 b4bd 572b 2f3e c9d5 88be 618d 70be
00000050: e5ab dcbd 9812 2bbb 9bf8 aabd b516 ab3c
00000060: 6cd7 2bbd c7fc 7b3c d1d4 f03d 3bb8 9c3d
00000070: 6ba3 edbc 10e2 39be 0de7 c3bd b638 09be
00000080: 9259 fd3d 14ca 6a3d 6c3d d43c 9c48 f13c

penc1.bn.running_var f4 [36]
0.010778189 0.0065311356 0.021167845 0.005510625 0.0029110867 0.01183479 0.0027088122 0.005848462
0.009161453 0.0036689416 0.009213022 0.004915698 0.0039027613 0.00521866 0.020837123 0.031913325
0.011040739 0.016061962 0.03933968 0.03198462 0.005148857 0.0051217233 0.013080482 0.007253425
0.0057838527 0.0039588343 0.0047292756 0.0057417452 0.008828578 0.023067491 0.0071331537 0.009248616
0.011165747 0.010874827 0.006891659 0.003806904
00000000: 0097 303c 2303 d63b 3068 ad3c 7992 b43b
00000010: eec7 3e3b b5e6 413c 5486 313b 75a4 bf3b
00000020: eb19 163c a072 703b 37f2 163c dd13 a13b
00000030: 78c5 7f3b 4b01 ab3b 9db2 aa3c 8cb7 023d
00000040: 37e4 343c 6094 833c a522 213d 4e02 033d
00000050: beb7 a83b 21d4 a73b 854f 563c 24ae ed3b
00000060: 7986 bd3b 1cb9 813b 0af8 9a3b 4025 bc3b
00000070: bda5 103c 09f8 bc3c 3bbd e93b 8287 173c
00000080: 8af0 363c 552c 323c 6dd3 e13b 407d 793b

kenc0.encoder.0.weight f4 [8, 3, 1]
-0.100227185 0.46444055 -0.19373417 -0.53716195 -0.16142352 -0.3830006 0.088929564 -0.15076296
0.1821409 -0.44082823 0.47827417 -0.41918433 -0.06359353 -0.08755552 0.268082 -0.3112113
-0.36934343 0.46381888 -0.5462875 -0.25393507 -0.14378674 0.4311143 0.18946841 -0.03792185
00000000: e943 cdbd 27cb ed3e 4062 46be 7283 09bf
00000010: 354c 25be a818 c4be b420 b63d 9b61 1abe
00000020: 2583 3a3e 3db4 e1be 5ae0 f43e 549f d6be
00000030: 533d 82bd 4f50 b3bd 0b42 893e 1657 9fbe
00000040: 951a bdbe ab79 ed3e 7fd9 0bbf c703 82be
00000050: d53c 13be 03bb dc3e 0204 423e f153 1bbd

kenc0.encoder.0.bias f4 [8]
0.0972782 0.4861456 -0.24956444 -0.5091031 -0.07806804 -0.5167793 -0.37955835 0.38750824
00000000: cb39 c73d 13e8 f83e d28d 7fbe 9554 02bf
00000010: 23e2 9fbd a64b 04bf 7955 c2be 7b67 c63e

kenc0.encoder.1.weight f4 [8]
0.9663277 1.0016221 0.9897007 1.0519655 0.9535193 1.0263774 0.9901713 1.0433704
00000000: 4161 773f 2735 803f 065d 7d3f cea6 863f
00000010: d719 743f 5660 833f de7b 7d3f 298d 853f

kenc0.encoder.1.bias f4 [8]
0.09426446 -0.020946756 0.10424718 0.07241944 0.005475864 0.015042424 0.05847964 0.041547485
00000000: ba0d c13d 8898 abbc 8c7f d53d a550 943d
00000010: e06e b33b 8074 763c 5988 6f3d b22d 2a3d

kenc0.encoder.1.running_mean f4 [8]
0.09733096 0.48609284 -0.24979122 -0.5090246 -0.07788785 -0.51666766 -0.37952217 0.3877716
00000000: 7455 c73d 29e1 f83e 45c9 7fbe 704f 02bf
00000010: aa83 9fbd 5544 04bf bb50 c2be 008a c63e

kenc0.encoder.1.running_var f4 [8]
0.040353075 0.0704079 0.009618967 0.085531 0.014681649 0.083110996 0.06365974 0.03954438
00000000: 4449 253d 0432 903d df98 1d3c e02a af3d
00000010: 4d8b 703c 1936 aa3d 0a60 823d 4af9 213d

kenc0.encoder.3.weight f4 [16, 8, 1]
0.16561925 0.24242824 -0.11491607 -0.061033204 -0.15158743 -0.21028218 -0.17201044 0.27061844
0.057297055 -0.21668546 -0.0068533514 -0.009177352 -0.34867996 0.20464702 -0.059322674 0.22672585
-0.028843665 -0.25445423 0.13230103 -0.27081925 0.26511654 -0.22963257 0.11344284 -0.02268048
0.30374035 -0.051514346 0.32341823 -0.3485133 -0.17523049 0.1777542 0.037974644 0.015038767
-0.30990535 -0.1792728 0.16495684 -0.18122956 -0.08049061 -0.16275643 0.30335686 0.09807962
0.0345979 -0.034548774 0.09636567 0.110278666 -0.1543123 0.07860296 0.33391345 0.032504022
-0.26311272 -0.06996298 -0.28097022 -0.36294612 0.3031078 -0.11062784 -0.19926713 -0.022012435
0.092624255 0.28811532 -0.012094413 -0.19119436 0.07573877 0.3581314 -0.34293592 -0.17289253
0.17810814 -0.32874927 0.22045758 -0.035320442 -0.22469272 -0.01631695 -0.34764007 -0.35938513
-0.117266566 -0.0065142354 0.09093825 -0.06791455 -0.1313655 0.19431095 -0.1771045 -0.25822052
-0.32007062 -0.14931712 0.053970117 -0.36306807 -0.12937933 -0.29505146 0.18506873 0.22993276
-0.088123076 0.215644 0.13285558 -0.30277303 -0.33026445 -0.31391102 0.16958836 0.20151357
-0.1373276 0.1290024 -0.22036614 -0.097177856 -0.3085779 0.35379615 -0.115452215 0.32628986
-0.09153798 0.14938836 0.1294417 0.22108386 0.08527461 -0.28732935 -0.17251693 -0.22818118
-0.20141011 0.33865616 0.124761075 0.40543893 -0.06759099 0.16153893 -0.13785 0.06753417
-0.17429377 0.16234724 0.1758324 0.05795832 -0.116907164 0.025654566 0.29220235 -0.4655339
00000000: 1898 293e 1c3f 783e 1e59 ebbd f4fd 79bd
00000010: bc39 1bbe 3654 57be 8123 30be 808e 8a3e
00000020: 51b0 6a3d cbe2 5dbe 1492 e0bb 9b5c 16bc
00000030: 2e86 b2be fd8e 513e 55fc 72bd d22a 683e
00000040: 8d49 ecbc d347 82be ec79 073e d2a8 8abe
00000050: 5bbd 873e cd24 6bbe b854 e83d 6acc b9bc
00000060: db83 9b3e b500 53bd 1397 a53e 5670 b2be
00000070: 9f6f 33be 3205 363e 4d8b 1b3d 2965 763c
00000080: eaab 9ebe 4a93 37be 72ea 283e 3e94 39be
00000090: 43d8 a4bd 9fa9 26be 9751 9b3e f8dd c83d
000000a0: 87b6 0d3d 0483 0dbd 5d5b c53d c8d9 e13d
000000b0: 0b04 1ebe 97fa a03d b4f6 aa3e f022 053d
000000c0: b6b6 86be c048 8fbd 54db 8fbe 13d4 b9be
000000d0: f230 9b3e d990 e2bd af0c 4cbe 6c53 b4bc
000000e0: c9b1 bd3d da83 933e a527 46bc 74c8 43be
000000f0: ee1c 9b3d 005d b73e 4c95 afbe bd0a 31be
00000100: fb61 363e d351 a8be a2bf 613e 2bac 10bd
00000110: d915 66be 20ab 85bc e1fd b1be 5401 b8be
00000120: 7429 f0bd 5e75 d5bb d53d ba3d c916 8bbd
00000130: ad84 06be 73f9 463e e25a 35be 7b35 84be
00000140: 4ce0 a3be 96e6 18be c50f 5d3d 0fe4 b9be
00000150: 047c 04be fc10 97be a882 3d3e 7e73 6b3e
00000160: df79 b4bd c8d1 5c3e 4b0b 083e 1105 9bbe
00000170: 6c18 a9be f2b8 a0be 92a8 2d3e 9359 4e3e
00000180: 9b9f 0cbe 3519 043e a9a7 61be 2f05 c7bd
00000190: ecfd 9dbe c524 b53e 3672 ecbd 770f a73e
000001a0: 4478 bbbd 43f9 183e 5d8c 043e cf63 623e
000001b0: 74a4 ae3d d51c 93be 47a8 30be 54a8 69be
000001c0: 743e 4ebe 5764 ad3e bc82 ff3d b195 cf3e
000001d0: 256d 8abd 766a 253e 8d28 0dbe 5b4f 8a3d
000001e0: 117a 32be 5b3e 263e 690d 343e b465 6d3d
000001f0: 066d efbd 8629 d23c 8c9b 953e 765a eebe

kenc0.encoder.3.bias f4 [16]
0.1252814 0.059668355 0.29288787 -0.14320679 -0.24449782 0.09181475 0.2063303 -0.11193196
-0.26066762 -0.16646926 -0.22608344 -0.06562076 0.08939181 0.20279527 0.27314258 -0.17964435
00000000: c449 003e ce66 743d 66f5 953e cda4 12be
00000010: a35d 7abe 5f09 bc3d 4048 533e 953c e5bd
00000020: 3a76 85be eb76 2abe 6b82 67be 2d64 86bd
00000030: 0e13 b73d 90a9 4f3e 58d9 8b3e b0f4 37be

kenc0.encoder.4.weight f4 [16]
1.0403246 1.0090886 1.0204649 1.0492609 1.0027978 0.9793066 1.0270047 1.0175982
1.0614028 0.9664945 0.9801512 1.0121638 0.9834582 1.0113868 0.9405057 0.9407929
00000000: 5b29 853f d129 813f 989e 823f 2e4e 863f
00000010: ae5b 803f d6b3 7a3f e474 833f a840 823f
00000020: 0cdc 873f 2f6c 773f 30eb 7a3f 958e 813f
00000030: ebc3 7b3f 1f75 813f fbc4 703f ced7 703f

kenc0.encoder.4.bias f4 [16]
0.0072495383 -0.006261783 0.059051704 0.046059545 0.06593525 -0.06690898 -0.017219579 0.062440265
-0.010594988 -0.04616559 0.094248876 -0.005895277 0.06639558 0.0125418855 0.020113353 0.043952145
00000000: 898d ed3b a52f cdbb 33e0 713d efa8 3c3d
00000010: 0f09 873d 9307 89bd 1310 8dbc 5dc1 7f3d
00000020: 9a96 2dbc 2118 3dbd 8e05 c13d 2b2d c1bb
00000030: 68fa 873d 7b7c 4d3c c2c4 a43c 2a07 343d

kenc0.encoder.4.running_mean f4 [16]
0.11539747 0.019560158 0.15857044 -0.013714987 -0.38447022 0.31923813 -0.2553918 -0.09559424
-0.6315575 -0.36943373 -0.5576144 -0.19102745 0.06270458 0.11800085 0.5726623 -0.20103078
00000000: 8255 ec3d a03c a03c 4a60 223e d3b4 60bc
00000010: 48d9 c4be 2e73 a33e b7c2 82be eac6 c3bd
00000020: c1ad 21bf 6b26 bdbe d1bf 0ebf b39c 43be
00000030: 426b 803d 6eaa f13d ff99 123f 03db 4dbe

kenc0.encoder.4.running_var f4 [16]
0.17820062 0.06946645 0.108750574 0.06677316 0.101457775 0.04004242 0.14922701 0.06550759
0.1297951 0.05951165 0.18843314 0.121669374 0.054841753 0.04113367 0.06256165 0.2615705
00000000: 397a 363e 6d44 8e3d 9fb8 de3d 5ec0 883d
00000010: 18c9 cf3d 8503 243d f7ce 183e d828 863d
00000020: 02e9 043e 7dc2 733d 9ef4 403e cb2d f93d
00000030: bfa1 603d c77b 283d 5320 803d 92ec 853e

kenc0.encoder.6.weight f4 [32, 16, 1]
0.10467254 -0.12988827 -0.060111694 -0.024038838 0.23486255 -0.14065064 0.25921205 -0.07378529
-0.046683293 0.097175464 -0.025528347 0.049127422 -0.12572627 -0.15913883 -0.260057 -0.06783848
0.030670702 0.2140957 -0.14155081 -0.15319744 0.03952085 0.06770297 0.09725753 0.001441094
0.1581188 0.03806777 0.2615374 -0.079769686 0.1292668 -0.15436713 0.13649033 0.07727447
0.18896188 -0.118881196 -0.10888818 -0.16098599 -0.056942422 -0.19273762 -0.11656025 -0.10312155
-0.09830559 -0.19469814 -0.29145995 -0.1453747 0.10620128 -0.06593708 0.15040296 0.1902938
-0.04084674 -0.12432627 -0.24431913 0.10871053 0.026999447 -0.12207226 -0.056097947 0.14108709
0.28794444 0.08735806 -0.14271541 -0.13690993 0.08318114 0.2926351 0.027531298 -0.123230465
-0.17810704 -0.16101468 -0.038350187 -0.06687702 -0.13164762 -0.17445016 0.31041425 0.18247938
-0.078010246 0.097537585 -0.19466627 0.09189982 0.059333544 0.10712453 0.060584217 0.14801608
0.06467682 0.22540669 -0.23313786 -0.25044298 0.0641213 0.1322302 0.026274206 -0.1934045
0.016290942 -0.008716392 -0.13487162 0.047130387 -0.19368578 -0.22180404 -0.16580532 -0.040437512
-0.26118416 0.05299192 -0.16678761 -0.20818473 -0.21878776 -0.053963322 -0.03242026 -0.10347521
-0.021969618 0.050578382 -0.22081561 0.109314986 0.1554001 -0.18752828 -0.06857139 0.0003001939
-0.2172241 -0.19805959 -0.016309917 0.09510642 0.049446627 -0.0342319 0.111730136 -0.13690856
-0.14438386 -0.30262062 0.17175733 -0.13178587 0.16887026 0.14275226 0.10404993 -0.030303473
0.063045055 0.16009513 -0.08232878 0.27796754 -0.005856292 -0.19385111 0.05542161 -0.09346791
-0.07656537 0.09901733 0.14404106 0.17907852 -0.147059 -0.23853023 -0.30231863 -0.09673786
-0.024818925 -0.2493454 0.0640616 0.13500592 0.035127193 0.109121144 0.15014085 0.2780382
0.054424044 -0.053714994 -0.23040687 0.0023377745 0.18579713 0.09835338 0.085752256 0.090532355
0.26947063 0.100444466 -0.07887185 -0.14741576 -0.16513082 -0.048193555 -0.14102715 -0.022501001
-0.10408851 -0.17306875 0.03400736 0.031033808 -0.07376521 -0.055397622 0.11868725 0.14014366
-0.23333596 -0.22417128 0.21467406 -0.06316413 0.19773644 0.14795981 0.071975 0.22006048
-0.17498824 -0.1792748 0.05584095 0.13255574 0.10716408 -0.13129395 -0.10926307 -0.10339943
0.021340765 0.14528202 -0.081292726 -0.26202554 0.17514123 -0.05377618 0.06901048 -0.13835788
-0.029788192 0.051900648 0.18491682 0.18029873 -0.13180028 0.19783632 0.18718804 0.08997311
0.17886648 0.2230324 -0.08742738 0.042017285 -0.22299756 0.23789966 -0.100901194 0.19013508
-0.0006098452 0.12527369 0.029643724 -0.005922665 0.09294348 -0.07445267 0.07593724 0.04786087
-0.1960541 0.24097832 0.082764104 0.069712885 0.05510927 -0.12572984 0.23513463 0.057504084
0.30684552 -0.03201148 0.22614276 0.21958731 -0.04509909 0.12243729 -0.20560177 0.0041423715
-0.23332801 0.22637685 -0.1885677 0.18229163 0.2303619 -0.22645631 -0.04509307 -0.067675635
0.13946517 -0.0923808 0.09068614 0.054328006 -0.16166542 0.113133214 0.11094631 0.05115742
00000000: 8f5e d63d 6e01 05be ae37 76bd 19ed c4bc
00000010: cf7f 703e b906 10be 71b7 843e be1c 97bd
00000020: fb36 3fbd ee03 c73d d320 d1bc d639 493d
00000030: 63be 00be 4af5 22be 3126 85be e7ee 8abd
00000040: 2041 fb3c e73b 5b3e b2f2 10be cadf 1cbe
00000050: 9de0 213d dba7 8a3d f52e c73d 17e3 bc3a
00000060: e5e9 213e f3ec 1b3d 3be8 853e 4a5e a3bd
00000070: 845e 043e 6b12 1ebe 1fc4 0b3e 1442 9e3d
00000080: 397f 413e fc77 f3bd c400 dfbd 83d9 24be
00000090: 753c 69bd 035d 45be 24b7 eebd 6431 d3bd
000000a0: 7154 c9bd f35e 47be 3d3a 95be 1bdd 14be
000000b0: 0f80 d93d 050a 87bd 3c03 1a3e 61dc 423e
000000c0: e94e 27bd c59e febd cb2e 7abe a0a3 de3d
000000d0: f22d dd3c 0501 fabd f6c6 65bd 2279 103e
000000e0: 746d 933e c8e8 b23d fd23 12be 1e32 0cbe
000000f0: e05a aa3d 45d4 953e 5189 e13c 4160 fcbd
00000100: b161 36be 08e1 24be 1615 1dbd d2f6 88bd
00000110: a2ce 06be 10a3 32be 9eee 9e3e e0db 3a3e
00000120: d6c3 9fbd c9c1 c73d 9856 47be f935 bc3d
00000130: bb07 733d 1b64 db3d 2827 783d 8791 173e
00000140: 4875 843d 03d1 663e b1bb 6ebe 103a 80be
00000150: 0752 833d 5b67 073e 013d d73c d40b 46be
00000160: 9574 853c 33cf 0ebc c91b 0abe cb0b 413d
00000170: 9155 46be 9920 63be dfc8 29be cea1 25bd
00000180: eeb9 85be 0e0e 593d 5fca 2abe 612e 55be
00000190: e609 60be a508 5dbd 1bcb 04bd d0ea d3bd
000001a0: a1f9 b3bc 472b 4f3d 7d1d 62be 89e0 df3d
000001b0: 3421 1f3e 6a07 40be 286f 8cbd 5863 9d39
000001c0: ff6f 5ebe 22d0 4abe 609c 85bc 28c7 c23d
000001d0: 8c88 4a3d c036 0cbd c5d2 e43d c231 0cbe
000001e0: 5dd9 13be 17f1 9abe 27e1 2f3e e0f2 06be
000001f0: 53ec 2c3e a62d 123e 2118 d53d fd3e f8bc
00000200: c41d 813d faef 233e fe9b a8bd c351 8e3e
00000210: 23e6 bfbb e880 46be c501 633d 1b6c bfbd
00000220: 4ece 9cbd 99c9 ca3d 807f 133e 5c60 373e
00000230: a296 16be 4541 74be 82c9 9abe 801e c6bd
00000240: 0f51 cbbc 6754 7fbe ba32 833d fe3e 0a3e
00000250: 88e1 0f3d e87a df3d 86be 193e 065b 8e3e
00000260: bfeb 5e3d 4104 5cbd c7ef 6bbe 5935 193b
00000270: 9a41 3e3e 7f6d c93d e19e af3d 0769 b93d
00000280: 0ef8 893e d4b5 cd3d 9187 a1bd 28f4 16be
00000290: 0e18 29be 9b66 45bd 6c69 10be 0554 b8bc
000002a0: 5b2c d5bd ef38 31be 4d4b 0b3d 9d3a fe3c
000002b0: 3712 97bd 9ee8 62bd 4d12 f33d d281 0f3e
000002c0: 9fef 6ebe 288d 65be 84d3 5b3e 325c 81bd
000002d0: 6c7b 4a3e c782 173e a167 933d 8957 613e
000002e0: 1e30 33be d093 37be 7bb9 643d b1bc 073e
000002f0: d778 db3d ec71 06be 51c5 dfbd 15c3 d3bd
00000300: d4d2 ae3c cfc4 143e cd7c a6bd 3628 86be
00000310: 3958 333e 6944 5cbd 5e55 8d3d b0ad 0dbe
00000320: 5e06 f4bc c695 543d d65a 3d3e 3ba0 383e
00000330: a7f6 06be 9b95 4a3e 39ae 3f3e d243 b83d
00000340: c628 373e 9b62 643e 200d b3bd 511a 2c3d
00000350: 7959 64be f89b 733e 49a5 cebd c5b2 423e
00000360: 05de 1fba bf47 003e 65d7 f23c ea12 c2bb
00000370: 2759 be3d a47a 98bd fc84 9b3d c209 443d
00000380: 68c2 48be 05c3 763e 3a80 a93d a1c5 8e3d
00000390: 42ba 613d 53bf 00be 22c7 703e 6789 6b3d
000003a0: db1a 9d3e 781e 03bd f891 673e 7fdb 603e
000003b0: d3b9 38bd 67c0 fa3d 4589 52be bbbc 873b
000003c0: 8aed 6ebe 55cf 673e e417 41be a8aa 3a3e
000003d0: fde3 6b3e 2ae4 67be 83b3 38bd 8699 8abd
000003e0: f5cf 0e3e 2532 bdbd a8b9 b93d 0b87 5e3d
000003f0: 9f8b 25be 63b2 e73d d237 e33d 718a 513d

kenc0.encoder.6.bias f4 [32]
-0.19408222 0.16035229 0.21806768 -0.01956017 -0.14490542 -0.15417928 -0.122182995 0.1638563
0.15080343 -0.16627349 -0.18200397 0.18928939 -0.17044689 0.007107596 -0.23099633 0.27474213
-0.16211961 0.1902878 -0.20895952 -0.21454518 0.027693074 0.1664896 0.038522843 0.023594718
-0.1740332 -0.04023113 -0.08593397 -0.109136194 -0.239805 -0.014659335 -0.2323544 0.2081134
00000000: 7dbd 46be 6433 243e 224d 5f3e a63c a0bc
00000010: 1662 14be 2ce1 1dbe 143b fabd f2c9 273e
00000020: 376c 1a3e 9943 2abe 405f 3abe 14d5 413e
00000030: a189 2ebe d6e6 e83b 4d8a 6cbe 00ab 8c3e
00000040: af02 26be ceda 423e 7cf9 55be bbb1 5bbe
00000050: 96dc e23c 407c 2a3e 21ca 1d3d b649 c13c
00000060: c235 32be 66c9 24bd 26fe afbd cc82 dfbd
00000070: 718f 75be b52d 70bc 50ee 6dbe ae1b 553e

kenc0.encoder.7.weight f4 [32]
1.0330763 0.9568331 0.991905 0.98264056 0.95985425 0.940281 1.0329317 0.97687703
1.0163304 0.96324646 1.0243624 1.0158488 1.0058886 0.9707881 0.99256474 0.9962004
0.98027337 1.0004364 1.038961 1.0375125 0.9670294 0.9861629 0.96147835 0.95153403
1.036051 1.0289764 1.0715468 1.0207478 1.0754436 0.9875639 1.03123 1.0308322
00000000: d83b 843f 04f3 743f 7ced 7d3f 558e 7b3f
00000010: 02b9 753f 41b6 703f 1b37 843f 9d14 7a3f
00000020: 1d17 823f 5297 763f 4f1e 833f 5507 823f
00000030: f5c0 803f 9285 783f b918 7e3f fd06 7f3f
00000040: 32f3 7a3f 4d0e 803f adfc 843f 36cd 843f
00000050: 3d8f 773f 2c75 7c3f 7223 763f bc97 733f
00000060: 529d 843f 80b5 833f 7228 893f dda7 823f
00000070: 23a8 893f fdd0 7c3f 58ff 833f 4ff2 833f

kenc0.encoder.7.bias f4 [32]
0.10437383 -0.061301176 -0.04830953 0.04111765 0.03729889 -0.027201086 0.09022199 -0.013368529
-0.027862005 0.030740153 0.017423896 0.012750996 0.016280763 0.065554544 -0.06650899 -0.052607268
0.027271662 -0.011418901 0.011772362 0.0635632 0.06741221 0.022806764 -0.06898874 0.0032582667
0.00673753 0.013804096 0.011052925 -0.014975932 0.03831694 -0.019337645 -0.022533966 0.045842342
00000000: f2c1 d53d f116 7bbd 37e0 45bd fb6a 283d
00000010: b9c6 183d d0d4 debc 4fc6 b83d ad07 5bbc
00000020: dc3e e4bc c6d2 fb3c 8fbc 8e3c 8ee9 503c
00000030: 3c5f 853c 7641 863d de35 88bd b87a 57bd
00000040: d268 df3c 5816 3bbc dde0 403c 6c2d 823d
00000050: 6a0f 8a3d 40d5 ba3c f849 8dbd a588 553b
00000060: 80c6 dc3b 932a 623c 5417 353c 9d5d 75bc
00000070: 39f2 1c3d fb69 9ebc 2799 b8bc 2ec5 3b3d

kenc0.encoder.7.running_mean f4 [32]
-0.33442917 0.44313523 -0.20364882 -0.0022651725 -0.15114921 -0.52575946 -0.6230572 0.02725277
0.0720134 0.12888259 -0.31396708 0.18646282 0.058625262 0.29424044 0.20400856 0.36396185
-0.02032799 0.61237097 0.10326303 -0.18824208 -0.43468457 0.12828085 0.024108035 0.08592777
0.126228 0.14212242 -0.17110382 -0.43935522 -0.5379504 -0.119593434 -0.62151736 -0.12966911
00000000: 4d3a abbe 9fe2 e23e 5189 50be 4a73 14bb
00000010: dcc6 1abe 2c98 06bf ad80 1fbf 3341 df3c
00000020: c37b 933d ccf9 033e 4bc0 a0be 1cf0 3e3e
00000030: 0b21 703d afa6 963e 9fe7 503e 3559 ba3e
00000040: e386 a6bc 58c4 1c3f 917b d33d 88c2 40be
00000050: fa8e debe 0e5c 033e 377e c53c e6fa af3d
00000060: ea41 013e 8a88 113e d735 2fbe 2bf3 e0be
00000070: 1eb7 09bf 67ed f4bd c31b 1fbf fbc7 04be

kenc0.encoder.7.running_var f4 [32]
0.16462244 0.092977874 0.18530703 0.11647486 0.11370763 0.15306075 0.09178705 0.063677326
0.34116152 0.18229549 0.16788113 0.15236993 0.15625463 0.12024243 0.244985 0.04565131
0.13709761 0.14139661 0.22721723 0.18340486 0.1279044 0.04836677 0.10986923 0.20773005
0.15777785 0.064610384 0.13334654 0.19446571 0.06211913 0.092875086 0.2083322 0.20309392
00000000: c992 283e 2f6b be3d 20c1 3d3e 5f8a ee3d
00000010: 8cdf e83d f5bb 1c3e d9fa bb3d 4269 823d
00000020: b9ac ae3e abab 3a3e 08e9 2b3e dd06 1c3e
00000030: 3701 203e aa41 f63d 59dd 7a3e defc 3a3d
00000040: 5163 0c3e 46ca 103e a2ab 683e 7cce 3b3e
00000050: 5ff9 023e 3c1c 463d 1e03 e13d 30b7 543e
00000060: 8490 213e 7352 843d ff8b 083e 0522 473e
00000070: a170 7e3d 4b35 be3d 0955 553e daf7 4f3e

kenc0.encoder.9.weight f4 [64, 32, 1]
-0.082685985 -0.06494767 -0.15577582 -0.22237752 -0.05000847 0.12068644 0.045091413 -0.067040525
-0.1920396 -0.1232 0.062344193 -0.02995008 0.18022062 0.13933901 0.08951228 0.07035188
0.14845769 -0.07712371 -0.12366684 -0.1237661 0.12044995 0.14832133 0.0841526 0.04544797
0.017459685 -0.09326405 0.13794932 -0.12667821 -0.11638125 -0.1424444 0.10642128 -0.117052004
0.09795563 0.08972446 -0.051050052 -0.077498145 0.09883429 0.06887257 0.08223573 -0.051251173
-0.027896035 -0.1316243 0.16185234 0.08256871 0.0976311 -0.033240486 0.05873173 -0.12291084
-0.1730772 -0.17079307 -0.15924439 0.011154236 -0.07032524 0.09237963 -0.06923983 0.12791318
0.05561816 0.10504117 0.13275479 0.09633218 0.09982085 -0.13859665 -0.23127638 0.101766124
-0.056253575 0.14807822 -0.021473747 -0.081549965 0.11746931 -0.21539858 -0.090170346 -0.06262653
-0.07722023 0.15455584 0.0013332505 -0.044733778 -0.101545446 -0.05770199 -0.05920165 -0.076254845
0.01565909 0.06507384 0.15988074 -0.0893845 -0.016856026 0.051011205 -0.16451605 -0.19740497
0.056162834 0.03381752 -0.20413123 -0.032126993 -0.14868109 -0.08034243 0.1083992 -0.039672136
-0.1664488 -0.13548866 -0.1453864 0.048839007 -0.17267393 -0.004498873 -0.05971806 -0.19691734
-0.11006346 -0.04033601 0.059870422 -0.13401699 -0.2522681 -0.11052039 0.08695691 0.14690323
-0.1328997 0.16945408 0.10990839 0.01812713 -0.18914679 -0.14333455 0.025003279 0.15847503
0.066177234 0.07053565 -0.07371743 -0.1556368 -0.048918787 0.04611745 -0.006332299 -0.0631554
0.1775338 0.17079034 -0.031543285 0.03220608 0.047971256 -0.108440906 -0.11051205 -0.17695469
0.033774626 -0.17543726 0.13559948 -0.06677574 0.14294478 -0.04601317 0.038537618 -0.12762459
0.16868421 -0.0784522 -0.117658705 -0.07462989 0.0808149 0.028587509 -0.03854612 -0.024932094
0.07884821 -0.040774025 0.02102731 0.043157175 -0.04476092 0.050670903 0.059365094 -0.10033922
-0.23060691 0.054756716 0.07586372 0.2052695 -0.17850578 0.03625888 -0.05660358 -0.09429775
0.04203843 -0.030003048 -0.1568013 -0.1643511 -0.07537111 0.115796946 0.09197813 -0.23536904
0.1305233 -0.08104446 -0.003461817 0.050235618 -0.15034145 0.1659727 -0.0014732882 0.1135919
0.15305845 -0.19407652 0.073067665 0.08940323 0.13686955 -0.11567112 -0.061537985 0.06880402
-0.0010587305 0.084325075 -0.19151023 -0.07402131 -0.028899314 -0.08874617 0.24162234 0.040854752
0.07700324 0.09453623 -0.028351802 0.122521 -0.1073219 0.14543404 -0.17580643 0.08762383
-0.08756748 -0.11830992 -0.03679572 -0.21917602 0.162372 -0.10794719 -0.02517971 0.035674755
-0.18028964 -0.09258401 0.026750382 -0.082605444 -0.11965723 0.025492989 -0.1785312 0.013530703
-0.07261202 0.09784289 0.10338186 0.06254202 -0.1281632 -0.07014542 0.18727931 -0.08020341
0.14432429 -0.09565026 0.15418679 -0.060649905 -0.16689105 0.12995787 -0.1300048 -0.029267436
-0.035449777 -0.11240667 -0.1305752 0.011709371 -0.030039595 -0.036011536 0.037877083 0.09892248
-0.06958145 -0.10251252 0.16576017 0.052690502 0.09101527 0.018043384 -0.15589945 0.020528473
00000000: 4557 a9bd 4903 85bd b283 1fbe efb6 63be
00000010: aed5 4cbd 742a f73d c6b1 383d 8b4c 89bd
00000020: 07a6 44be 4850 fcbd a05c 7f3d df59 f5bc
00000030: c18b 383e e3ae 0e3e 3752 b73d a514 903d
00000040: 4b05 183e 09f3 9dbd 0a45 fdbd 1579 fdbd
00000050: 77ae f63d 8ce1 173e 3358 ac3d a727 3a3d
00000060: 9d07 8f3c 3901 bfbd 9642 0d3e efb7 01be
00000070: 4b59 eebd f2dc 11be 66f3 d93d f6b8 efbd
00000080: f69c c83d 75c1 b73d dc19 51bd 59b7 9ebd
00000090: a269 ca3d 100d 8d3d 356b a83d c0ec 51bd
000000a0: 3a86 e4bc 85c8 06be 9fbc 253e c919 a93d
000000b0: d0f2 c73d 2d27 08bd af90 703d aeb8 fbbd
000000c0: 263b 31be 61e4 2ebe f610 23be 42c0 363c
000000d0: ae06 90bd 8831 bd3d 9dcd 8dbd acfb 023e
000000e0: decf 633d d31f d73d dff0 073e ce49 c53d
000000f0: e06e cc3d 48ec 0dbe b7d3 6cbe c26a d03d
00000100: 266a 66bd d1a1 173e b6e9 afbc ab03 a7bd
00000110: c093 f03d 7291 5cbe 3bab b8bd 5742 80bd
00000120: a425 9ebd e343 1e3e 77c0 ae3a c43a 37bd
00000130: 0ff7 cfbd ec58 6cbd 6e7d 72bd 802b 9cbd
00000140: 7e47 803c 6f45 853d c7b7 233e 390f b7bd
00000150: a615 8abc 20f1 503d e576 28be 8724 4abe
00000160: 000b 663d 3d84 0a3d c707 51be 9897 03bd
00000170: db3f 18be 928a a4bd 6600 de3d 407f 22bd
00000180: 8e71 2abe 8abd 0abe 2ce0 14be 690b 483d
00000190: 6fd1 30be 486b 93bb ed9a 74bd b3a4 49be
000001a0: f468 e1bd 5f37 25bd b03a 753d c03b 09be
000001b0: 4929 81be 8458 e2bd 7716 b23d cd6d 163e
000001c0: dc16 08be 5f85 2d3e a617 e13d 597f 943c
000001d0: b2af 41be 4bc6 12be add3 cc3c 4747 223e
000001e0: ee87 873d ff74 903d 2af9 96bd 415f 1fbe
000001f0: 115f 48bd a7e5 3c3d 2d7f cfbb 9e57 81bd
00000200: 6ccb 353e aae3 2e3e 8833 01bd 86ea 033d
00000210: 827d 443d 4416 debd 2454 e2bd 9c33 35be
00000220: 4357 0a3d d3a5 33be 97da 0a3e b8c1 88bd
00000230: 1e60 123e 4e78 3cbd 9fd9 1d3d 05b0 02be
00000240: 8ebb 2c3e 8cab a0bd 0cf7 f0bd 8ed7 98bd
00000250: 4882 a53d 5a30 ea3c 89e2 1dbd 643e ccbc
00000260: 2c7b a13d aa02 27bd 7741 ac3c 94c5 303d
00000270: 3a57 37bd 4b8c 4f3d d028 733d a67e cdbd
00000280: 3824 6cbe 9448 603d 705e 9b3d 2b32 523e
00000290: 38ca 36be 3184 143d 28d9 67bd 2e1f c1bd
000002a0: 7d30 2c3d f4c8 f5bc 8590 20be a84b 28be
000002b0: 2b5c 9abd f326 ed3d 085f bc3d 9504 71be
000002c0: e6a7 053e a3fa a5bd a7df 62bb ddc3 4d3d
000002d0: 1cf3 19be bff4 293e 591b c1ba dfa2 e83d
000002e0: 5bbb 1c3e ffbb 46be 80a4 953d 0a19 b73d
000002f0: 8827 0c3e fbe4 ecbd 410f 7cbd 1fe9 8c3d
00000300: 1ac5 8aba a0b2 ac3d 421b 44be 7c98 97bd
00000310: 41be ecbc 8dc0 b5bd d96b 773e 5057 273d
00000320: e0b3 9d3d 369c c13d 0a42 e8bc 4aec fa3d
00000330: 96cb dbbd a9ec 143e 9a06 34be 1f74 b33d
00000340: 9456 b3bd 794c f2bd 1cb7 16bd ae6f 60be
00000350: d844 263e 6b13 ddbd ae45 cebc b11f 123d
00000360: d99d 38be af9c bdbd 9e23 db3c 0b2d a9bd
00000370: da0e f5bd acd6 d03c e2d0 36be e2af 5d3c
00000380: 9cb5 94bd da61 c83d deb9 d33d 0816 803d
00000390: 373d 03be 67a8 8fbd 26c6 3f3e af41 a4bd
000003a0: bfc9 133e 49e4 c3bd 24e3 1d3e 096c 78bd
000003b0: 7de5 2abe ad13 053e fa1f 05be 43c2 efbc
000003c0: c933 11bd 7835 e6bd 81b5 05be a9d8 3f3c
000003d0: 9915 f6bc d580 13bd 0025 1b3d df97 ca3d
000003e0: b880 8ebd 16f2 d1bd 09bd 293e ffd1 573d
000003f0: 3766 ba3d b8cf 933c 1ba4 1fbe 542b a83c

kenc0.encoder.9.bias f4 [64]
-0.13748367 0.22090769 0.06363877 -0.07733319 0.037860204 -0.11632706 0.17979509 0.027876265
-0.0050074956 0.03938734 0.11342691 0.11917992 0.0609783 -0.014875285 -0.08558531 0.10088769
0.032269377 0.12219897 -0.07723019 0.13132013 -0.0112659875 -0.11258801 0.23839451 0.07317296
0.023296937 0.020149512 0.0868653 -0.039226063 0.14205697 0.15953924 0.005951321 -0.06770864
0.046113845 -0.055293337 0.23924977 -0.106717765 0.11424755 0.14777508 -0.22912258 0.12401335
0.19061334 -0.096110776 0.07045542 -0.023488833 -0.13024673 -0.03800361 0.07949081 -0.079399586
-0.1949798 -0.11789668 0.057346836 -0.12308551 -0.09748887 0.04976456 0.1382693 -0.12894186
0.1516453 -0.1700021 -0.012561677 -0.0010033353 -0.08848911 -0.018283527 0.14469558 -0.089058094
00000000: 85c8 0cbe a035 623e 0b55 823d dd60 9ebd
00000010: 4d13 1b3d e23c eebd 341c 383e c45c e43c
00000020: eb15 a4bb 9f54 213d 5e4c e83d 9a14 f43d
00000030: 62c4 793d 78b7 73bc 5a47 afbd 359e ce3d
00000040: e52c 043d 7443 fa3d dd2a 9ebd c978 063e
00000050: fa94 38bc 8b94 e6bd b11d 743e b4db 953d
00000060: 38d9 be3c 9710 a53c 6fe6 b13d 82ab 20bd
00000070: 6277 113e 415e 233e 4d03 c33b d4aa 8abd
00000080: dfe1 3c3d 447b 62bd e4fd 743e d88e dabd
00000090: 9ffa e93d 5a52 173e 1c9f 6abe b6fa fd3d
000000a0: 2530 433e bad5 c4bd ee4a 903d a76b c0bc
000000b0: 665f 05be aca9 1bbd 14cc a23d 409c a2bd
000000c0: c9a8 47be d173 f1bd 84e4 6a3d 4214 fcbd
000000d0: 3fa8 c7bd ecd5 4b3d 7896 0d3e 5609 04be
000000e0: e848 1b3e 0815 2ebe 7ecf 4dbc 5982 83ba
000000f0: c739 b5bd 56c7 95bc 142b 143e 1764 b6bd

kenc0.encoder.10.weight f4 [64]
1.0182772 1.0165021 1.0122938 0.9192884 0.983783 0.9285563 0.9710553 0.9783825
0.9314441 0.9893333 0.9745073 0.9199993 0.97400224 1.000815 0.96607524 0.90638584
0.9993276 0.96926993 0.9615404 0.9866913 0.9793155 0.998113 1.0078459 0.9819508
0.9597165 0.94447726 0.93171996 1.0058942 0.98560596 1.0031099 0.98084843 1.0150188
0.9504696 1.0758849 0.98479223 0.929981 0.99010634 0.9542616 0.99516714 0.9841752
0.99620026 0.9265397 0.95518696 0.89992887 0.93435425 0.9292377 0.91916555 0.9957943
0.9892595 0.94041157 0.9440484 0.95667845 1.019114 0.9096486 0.99505216 0.9197591
0.8681744 1.0425793 1.0032426 0.9723959 0.9889277 0.9346776 0.9286904 1.0138197
00000000: e856 823f be1c 823f d892 813f 7c56 6b3f
00000010: 34d9 7b3f deb5 6d3f 1597 783f 4777 7a3f
00000020: 1f73 6e3f f244 7d3f 4f79 793f 1385 6b3f
00000030: 3658 793f b51a 803f b550 773f e708 683f
00000040: efd3 7f3f 1322 783f 8327 763f cd97 7c3f
00000050: 6cb4 7a3f 5584 7f3f 1801 813f 2161 7b3f
00000060: fbaf 753f 43c9 713f 3385 6e3f 24c1 803f
00000070: ac50 7c3f e865 803f e218 7b3f 23ec 813f
00000080: fa51 733f 99b6 893f 581b 7c3f 3c13 6e3f
00000090: 9c77 7d3f 7d4a 743f 46c3 7e3f e8f2 7b3f
000000a0: fb06 7f3f b531 6d3f 2287 743f bd61 663f
000000b0: d731 6f3f 86e2 6d3f 6f4e 6b3f 60ec 7e3f
000000c0: 1c40 7d3f d0be 703f 28ad 713f e1e8 743f
000000d0: 5472 823f bbde 683f bdbb 7e3f 5575 6b3f
000000e0: ad40 5e3f 3d73 853f 416a 803f f0ee 783f
000000f0: 5e2a 7d3f 0847 6f3f a7be 6d3f d8c4 813f

kenc0.encoder.10.bias f4 [64]
0.10506044 0.046653055 0.091037005 -0.18007788 0.057693236 -0.07297938 -0.094109714 -0.07313244
-0.027800705 0.049140006 -0.01912301 -0.017726889 0.09205877 -0.01965934 -0.01577084 0.0011610995
0.036449224 0.16296771 0.06031391 -0.07528951 -0.07661579 -0.01878445 0.028298274 0.05470477
0.011950531 -0.06831351 -0.0662418 0.025937058 -0.019383676 0.11107513 0.086043246 0.069762364
0.024073659 0.08263439 0.04886869 0.024722343 0.042759243 -0.071358636 0.031333365 -0.0065588867
-0.023948265 -0.029299928 0.024647353 -0.08464124 -0.0584373 0.019322887 -0.035905402 0.045339968
-0.010020043 -0.050716788 0.056877587 -0.079778366 0.0037373856 -0.08814237 -0.022933617 -0.064264685
-0.14726421 0.08232503 0.028046539 0.05032532 0.11742497 -0.05491055 0.0054209293 -0.0005299166
00000000: ee29 d73d 4617 3f3d 9c71 ba3d 5666 38be
00000010: be4f 6c3d 3776 95bd 98bc c0bd 76c6 95bd
00000020: 4ebe e3bc 0847 493d dca7 9cbc fb37 91bc
00000030: 4f89 bc3d a00c a1bc d931 81bc 0930 983a
00000040: c84b 153d 02e1 263e b80b 773d 6331 9abd
00000050: bde8 9cbd d9e1 99bc c8d1 e73c 1c12 603d
00000060: 29cc 433c f4e7 8bbd c8a9 87bd f479 d43c
00000070: 84ca 9ebc 5c7b e33d 7137 b03d 92df 8e3d
00000080: 1f36 c53c 383c a93d 892a 483d 8386 ca3c
00000090: 5124 2f3d 7a24 92bd 6a57 003d eeeb d6bb
000000a0: 272f c4bc 6706 f0bc 3fe9 c93c 6358 adbd
000000b0: f35b 6fbd 084b 9e3c 8b11 13bd 67b6 393d
000000c0: 1b2b 24bc 68bc 4fbd 79f8 683d d762 a3bd
000000d0: edee 743b fd83 b4bd 48df bbbc 349d 83bd
000000e0: 6ecc 16be 069a a83d dbc1 e53c ec21 4e3d
000000f0: 817c f03d e3e9 60bd 0da2 b13b 1aea 0aba

kenc0.encoder.10.running_mean f4 [64]
-0.3295256 0.32789534 -0.3352024 -0.63431853 0.010991185 -0.21952605 -0.118768744 0.0017499803
-0.018345071 -0.5042368 0.11522026 -0.14188892 -0.13057138 0.013289051 -0.5583816 0.088263266
0.019000402 -0.0046122717 -0.55811614 0.062096864 0.035161257 -0.23123929 0.33256304 -0.3346127
-0.26437026 0.13620457 0.37521937 -0.1173862 -0.08244967 0.21631454 0.23357819 -0.15562111
0.049103484 -0.3141137 0.17011178 -0.030472433 0.56991136 0.5610526 -0.67928296 -0.20337617
0.08451431 -0.14308111 -0.71423894 -0.36022013 -0.32390657 -0.023318991 -0.16240159 -0.38346624
-0.5850147 0.18183075 -0.13488127 0.24007393 -0.3815556 0.3594982 0.123841025 0.15351361
0.37494668 -0.21742226 -0.05906604 0.5637152 -0.33547986 -0.097583584 -0.10354299 0.038390353
00000000: 94b7 a8be e6e1 a73e a69f abbe b362 22bf
00000010: 5f14 343c 70cb 60be 073d f3bd 985f e53a
00000020: 6748 96bc aa15 01bf 9af8 eb3d 544b 11be
00000030: 81b4 05be 52ba 593c 19f2 0ebf 5fc3 b43d
00000040: bba6 9b3c 8a22 97bb b3e0 0ebf 4859 7e3d
00000050: 4005 103d fec9 6cbe b445 aa3e 5b52 abbe
00000060: 8a5b 87be 3679 0b3e c11c c03e 2d68 f0bd
00000070: 5fdb a8bd 8f81 5d3e 1f2f 6f3e 245b 1fbe
00000080: bc20 493d 83d3 a0be c831 2e3e 53a1 f9bc
00000090: b6e5 113f 25a1 0f3f 7de5 2dbf d841 50be
000000a0: d715 ad3d db83 12be 5dd8 36bf c66e b8be
000000b0: 15d7 a5be 7807 bfbc 9a4c 26be b055 c4be
000000c0: 86c3 15bf d731 3a3e 511e 0abe f1d5 753e
000000d0: 415b c3be 2610 b83e 5da0 fd3d ac32 1d3e
000000e0: 03f9 bf3e f1a3 5ebe 3bef 71bd a44f 103f
000000f0: 04c4 abbe e7d9 c7bd 590e d4bd 343f 1d3d

kenc0.encoder.10.running_var f4 [64]
0.10926831 0.15847695 0.13914025 0.2016124 0.09747127 0.12765387 0.09652864 0.13764858
0.14949827 0.2811275 0.08054725 0.0795718 0.14608754 0.32007188 0.13215648 0.13983357
0.17844322 0.21050885 0.3127876 0.13073458 0.0865813 0.17101225 0.13225666 0.21897765
0.12373512 0.10453599 0.15029365 0.11243123 0.07255795 0.13307783 0.165562 0.14702551
0.13090122 0.19492286 0.16655655 0.125998 0.179372 0.04018549 0.18005669 0.09526814
0.15839487 0.12624267 0.23928192 0.13967043 0.18106973 0.34542853 0.12936214 0.23660673
0.3082947 0.16940582 0.14481336 0.16088536 0.23322818 0.22079521 0.19333482 0.200328
0.21498664 0.12843698 0.1693954 0.13121442 0.23763126 0.19969268 0.17388658 0.25257793
00000000: 10c8 df3d c847 223e c87a 0e3e 7b73 4e3e
00000010: 049f c73d b2b7 023e cfb0 c53d c0f3 0c3e
00000020: 1316 193e f2ef 8f3e f5f5 a43d 8af6 a23d
00000030: f997 153e 76e0 a33e 0754 073e 8830 0f3e
00000040: d2b9 363e a28f 573e b225 a03e 49df 053e
00000050: 8951 b13d d61d 2f3e 4a6e 073e ad3b 603e
00000060: d768 fd3d f716 d63d 94e6 193e 5842 e63d
00000070: 4399 943d 8e45 083e 1689 293e db8d 163e
00000080: f80a 063e dc99 473e cd8d 2a3e 9f05 013e
00000090: 4bad 373e 8a99 243d c860 383e f11b c33d
000000a0: 4432 223e c245 013e 5206 753e c405 0f3e
000000b0: 586a 393e 02dc b03e 8277 043e 0949 723e
000000c0: ced8 9d3e b878 2d3e f449 143e 22bf 243e
000000d0: 5ed3 6e3e 2418 623e 90f9 453e c922 4d3e
000000e0: 7525 5c3e fc84 033e fd75 2d3e 135d 063e
000000f0: 9c55 733e 3d7c 4c3e 530f 323e e551 813e
