hyperglue/weights/cubes_5_0.5(1).pth (torch, 462239 bytes, 160 tensors)

penc0.lin.weight f4 [36, 100]
0.054164983 -0.0046846173 -0.09959694 0.9756711 1.0347534 0.42050803 -0.12090824 -0.09858181
0.06750504 -0.086754955 -0.009864658 -0.0018104634 -0.019871458 -0.43779674 -0.6462395 -0.05813351
-0.020191537 -0.8849559 -1.0731343 -0.12289645 -0.08814449 0.029737767 -0.01977332 -0.23041962
0.032459147 -0.4955791 -0.18837878 -0.71977663 -0.37150306 -0.83064264 0.08570848 0.07092893
0.070858866 1.2082415 1.480819 0.6575686 -0.10027038 0.53850496 0.94723487 0.47430754
0.10180662 0.02450772 -0.065149345 0.15204072 -0.38057834 -0.90043074 0.0050409627 -0.2404025
-0.83950406 -1.0853392 -6.8605773e-06 -0.21111463 0.06741089 -0.32620364 -2.2798872 0.25008053
0.15208562 -0.7200865 -2.3669493 0.1968823 -0.14991288 0.12146186 -0.032635707 -0.6574018
1.2619543 -0.029004343 -0.04781641 -0.9217735 1.0173458 -0.2865785 0.14500411 0.13791741
-0.06745719 0.5810782 0.46143514 -0.6146017 -0.12292381 0.20795274 0.27138433 -0.6546961
0.12425243 -0.06145877 -0.021952664 0.6169864 -0.5576715 0.59545577 -0.10119937 0.28745708
-0.76204735 0.36652255 -0.008995332 -0.013729914 0.06324098 -0.9989497 0.2412169 0.12998895
-0.119145826 -1.1412672 -0.05168661 -0.0011170129 -0.21009761 -0.023213 -0.10727266 -0.27499214
0.49835154 -0.10453072 -0.06274179 0.052733492 0.05762682 0.052102353 -0.11036929 -0.028838845
-0.053232558 0.93072313 0.42811462 0.050197173 -0.20380145 0.95692635 0.25446588 0.1208289
-0.20593348 0.16790289 -0.03933257 -0.08664599 1.1300137 1.1578666 -0.057843942 0.15144148
1.0189042 1.2195581 -0.21006194 0.047003664 -0.10588534 -0.4224083 -0.25984022 -0.34316543
-0.10605228 -0.17784485 -0.3265353 -0.27449885 -0.097843006 0.023399446 -0.058233853 0.40573174
-1.0650872 0.7795642 -0.17853528 0.6012097 -1.2210616 0.7836327 -0.1672645 0.21889663
0.012914859 0.1776629 1.6120404 0.1776815 -0.188646 0.13228284 1.3648727 0.23526733
-0.1660127 0.049993884 -0.1664647 -0.21527782 -0.66895324 -0.9411339 -0.18884541 -0.06352509
-0.7859204 -0.9093608 -0.05384869 -0.0340346 -0.22321871 1.0445626 -0.4169362 -1.6678063
0.050197512 0.81862575 -0.5271636 -1.1796553 -0.11361415 -0.026721386 -0.040474117 -0.642309
-0.5197324 0.63872874 -0.14191012 -0.44648176 -0.6727994 0.718172 -0.20702487 0.059219893
0.0073264525 -0.8133336 -0.11182866 0.1536478 -0.21696727 -0.5485948 -0.10341971 0.26206958
0.058999468 -0.012411765 0.1065446 -0.4973436 1.4921386 1.420987 -0.046088256 -0.014484596
-0.06289035 -0.0039734244 -0.037869852 -0.06453854 -0.05803101 0.3138061 1.0664617 -0.5587816
-0.0013143689 0.63586473 0.30298647 -1.4356692 0.031869996 -0.13084361 -0.011804981 0.672603
-1.339709 0.88616586 0.17550239 0.92628634 -2.1139371 0.076063305 0.023259738 -0.00053712225
0.06190272 0.13947423 0.46217015 -0.23053867 0.042869058 0.3633182 -0.25933918 -1.0875423
0.06873684 0.040571872 0.107953705 -0.69951254 0.18557791 0.5716746 -0.041014105 -0.3545304
-0.52656597 -0.14207768 0.05336947 -0.10472067 0.027631769 0.67071474 -1.816652 -0.3853059
00000000: 1adc 5d3d 6b81 99bb 7bf9 cbbd 95c5 793f
00000010: cd72 843f d44c d73e bd9e f7bd 43e5 c9bd
00000020: 1540 8a3d 95ac b1bd 609f 21bc 124d edba
00000030: 78c9 a2bc e526 e0be f46f 25bf 671d 6ebd
00000040: b968 a5bc 788c 62bf 775c 89bf 22b1 fbbd
00000050: 1985 b4bd 9e9c f33c a8fb a1bc 1ff3 6bbe
00000060: e2f3 043d 8bbc fdbe 5ee6 40be 4843 38bf
00000070: a635 bebe ffa4 54bf ed87 af3d 3043 913d
00000080: 741e 913d a8a7 9a3f 7a8b bd3f 6a56 283f
00000090: 8f5a cdbd 76db 093f fc7d 723f 70d8 f23e
000000a0: fd7f d03d 6ac4 c83c 056d 85bd 90b0 1b3e
000000b0: 2adb c2be a182 66bf a92e a53b 132c 76be
000000c0: bde9 56bf 65ec 8abf e933 e6b6 6f2e 58be
000000d0: b80e 8a3d 2a04 a7be ace9 11c0 8e0a 803e
000000e0: 55bc 1b3e 9757 38bf 197c 17c0 839b 493e
000000f0: c382 19be ffc0 f83d 05ad 05bd 7c4b 28bf
00000100: b887 a13f 849a edbc 24db 43bd 59f9 6bbf
00000110: 6338 823f 6bba 92be f57b 143e 393a 0d3e
00000120: ff26 8abd 8ac1 143f 3a41 ec3e 8956 1dbf
00000130: 7abf fbbd 90f1 543e e3f2 8a3e 2a9a 27bf
00000140: 0f78 fe3d 31bc 7bbd 13d6 b3bc d2f2 1d3f
00000150: 8fc3 0ebf ca6f 183f 9e41 cfbd 932d 933e
00000160: 8915 43bf d8a8 bb3e 2861 13bc 6ff3 60bc
00000170: 7d84 813d 2bbb 7fbf 9001 773e d31b 053e
00000180: ba02 f4bd 0b15 92bf 57b5 53bd bc68 92ba
00000190: d423 57be 3029 bebc c5b1 dbbd c5cb 8cbe
000001a0: ef27 ff3e 3414 d6bd c57e 80bd 13ff 573d
000001b0: 1a0a 6c3d 4769 553d 4b09 e2bd 713f ecbc
000001c0: 620a 5abd df43 6e3f d731 db3e 8d9b 4d3d
000001d0: 54b1 50be 20f9 743f 5a49 823e 2475 f73d
000001e0: 3ae0 52be bcee 2b3e 301b 21bd 7473 b1bd
000001f0: 4aa4 903f f934 943f c5ed 6cbd 7a13 1b3e
00000200: 746b 823f 7b1a 9c3f 7a1a 57be ea86 403d
00000210: 6ada d8bd e745 d8be c709 85be 61b3 afbe
00000220: f031 d9bd f61c 36be a32f a7be 1d8b 8cbe
00000230: ea61 c8bd 32b0 bf3c 9f86 6ebd 12bc cf3e
00000240: c754 88bf 8591 473f f4d1 36be e1e8 193f
00000250: bf4b 9cbf 279c 483f 6347 2bbe 7026 603e
00000260: d898 533c 43ed 353e 5757 ce3f 24f2 353e
00000270: 6b2c 41be 2775 073e 26b4 ae3f ebe9 703e
00000280: 3cff 29be 63c6 4c3d b975 2abe ca71 5cbe
00000290: 8540 2bbf 27ee 70bf b160 41be 7119 82bd
000002a0: 1432 49bf dfcb 68bf 7290 5cbd dd67 0bbd
000002b0: 7293 64be 3ab4 853f a978 d5be ad7a d5bf
000002c0: e89b 4d3d 7591 513f 32f4 06bf f2fe 96bf
000002d0: 89ae e8bd cfe6 dabc 30c8 25bd 5d6e 24bf
000002e0: 2f0d 05bf ba83 233f e350 11be 4299 e4be
000002f0: 953c 2cbf 1fda 373f 54fe 53be 8f90 723d
00000300: bd12 f03b a136 50bf 6d06 e5bd d955 1d3e
00000310: ab2c 5ebe b570 0cbf b7cd d3bd fc2d 863e
00000320: 6da9 713d b75a 4bbc 0e34 da3d d2a3 febe
00000330: 66fe be3f e7e2 b53f 0ac7 3cbd cd50 6dbc
00000340: a8cc 80bd 8033 82bb 6b1d 1bbd c82c 84bd
00000350: edb1 6dbd 31ab a03e d181 883f 500c 0fbf
00000360: e746 acba 08c8 223f 0b21 9b3e 02c4 b7bf
00000370: 1d8a 023d defb 05be ae69 41bc b62f 2c3f
00000380: 967b abbf c4db 623f e6b6 333e 1a21 6d3f
00000390: bf4a 07c0 14c7 9b3d 358b be3c aacd 0cba
000003a0: b58d 7d3d 55d2 0e3e 91a1 ec3e 5412 6cbe
000003b0: 7797 2f3d d804 ba3e 1bc8 84be 9634 8bbf
000003c0: e6c5 8c3d b12e 263d d516 dd3d 4113 33bf
000003d0: 2308 3e3e 4459 123f 68fe 27bd 0285 b5be
000003e0: 07cd 06bf d07c 11be f299 5a3d ca77 d6bd
000003f0: 055c e23c f6b3 2b3f 0e88 e8bf d146 c5be

penc0.bn.weight f4 [36]
1.1743919 1.5184319 1.5780653 1.2176657 1.5293295 1.4371277 1.8255965 1.4507444
1.3257885 1.5613008 1.7558239 1.626648 1.96398 1.5091163 1.6618824 0.8244709
1.3254621 2.0343015 1.3727009 1.2957594 1.6344224 1.4611892 1.3008074 1.5105957
1.46029 1.5245624 1.0876886 1.8411473 1.5733562 1.5299993 1.4962654 1.7205484
1.60516 1.7155286 1.3630192 1.8309307
00000000: 7952 963f fa5b c23f 0bfe c93f 78dc 9b3f
00000010: 12c1 c33f cdf3 b73f 25ad e93f feb1 b93f
00000020: 70b3 a93f b4d8 c73f d6be e03f 0036 d03f
00000030: b263 fb3f b92a c13f 90b8 d43f 8610 533f
00000040: bea8 a93f ff31 0240 aab4 af3f 72db a53f
00000050: c134 d13f 3f08 bb3f db80 a63f 335b c13f
00000060: c8ea ba3f dc24 c33f 6139 8b3f b7aa eb3f
00000070: bc63 c93f 04d7 c33f a085 bf3f ee3a dc3f
00000080: e275 cd3f 7196 db3f 6a77 ae3f f05b ea3f

penc0.bn.bias f4 [36]
-0.2543071 0.36459893 0.15131983 0.17110707 0.21111369 0.0434212 -0.14867039 0.044844784
-0.017981373 0.34847856 -0.2908058 -0.0030426895 0.05159924 -0.10075096 0.03942783 0.4440919
0.001647386 -0.352442 -0.10092178 -0.02628097 0.054818016 0.3354773 0.21966533 0.11052991
0.2558707 -0.08003661 0.08280248 0.3413055 -0.05480919 -0.06684932 0.30345607 0.0056837867
-0.19782805 0.13287564 0.12017211 0.2074491
00000000: 8a34 82be b6ac ba3e 96f3 1a3e b136 2f3e
00000010: 302e 583e 6eda 313d 0d3d 18be 2aaf 373d
00000020: ac4d 93bc c86b b23e 7fe4 94be dc67 47bb
00000030: ba59 533d 8556 cebd 147f 213d 0360 e33e
00000040: 1aed d73a 4773 b4be 14b0 cebd 304b d7bc
00000050: db88 603d aec3 ab3e f3ef 603e 815d e23d
00000060: 7c01 833e 3cea a3bd 5994 a93d 98bf ae3e
00000070: 9a7f 60bd 4ce8 88bd 985e 9b3e 0f3f ba3b
00000080: 7093 4abe 8d10 083e cc1c f63d 896d 543e

penc0.bn.running_mean f4 [36]
-0.45101777 -0.7804646 0.13070436 0.7618698 0.046079557 -0.4923967 -0.54453796 0.33151668
-0.6284253 0.20025349 -0.20138709 -0.20229428 -0.19872884 0.7593192 0.13524343 0.3061216
0.41584995 -0.120237924 0.22000828 -0.12450788 -0.6389355 0.685656 0.16069286 -0.011064811
-0.39662576 0.61506665 0.55574393 -0.5349046 -0.5209738 -0.5840305 0.37012446 -0.75027966
-0.38444307 -0.13942085 0.5814234 -0.47375485
00000000: cdeb e6be 87cc 47bf 5dd7 053e e609 433f
00000010: ebbd 3c3d 6c1b fcbe d766 0bbf 8ebc a93e
00000020: 7be0 20bf 400f 4d3e 6b38 4ebe 3b26 4fbe
00000030: 937f 4bbe be62 423f 417d 0a3e f8bb 9c3e
00000040: 49ea d43e 4d3f f6bd da49 613e fdfd febd
00000050: 4791 23bf 2787 2f3f ab8c 243e 2e49 35bc
00000060: 8812 cbbe 0275 1d3f 3c45 0e3f 82ef 08bf
00000070: 8a5e 05bf 0683 15bf f480 bd3e 5412 40bf
00000080: b9d5 c4be 57c4 0ebe 2ad8 143f ff8f f2be

penc0.bn.running_var f4 [36]
0.12663822 0.6847037 0.17783122 0.5092059 0.14676517 1.239758 0.12262402 0.3793949
0.12846178 0.09599169 0.25021258 0.19800872 0.13260591 0.22554125 0.12999104 0.14172788
0.18645127 0.20982811 0.27906078 0.13162781 0.2534533 0.230839 0.16375029 0.47195593
0.40496367 0.26373157 0.21719949 0.19451009 0.15813863 0.16792901 0.13094465 0.21761641
0.20260578 0.13279134 0.26032168 0.2585384
00000000: 73ad 013e be48 2f3f 6319 363e 515b 023f
00000010: 9c49 163e 64b0 9e3f 4d22 fb3d 0c40 c23e
00000020: 7c8b 033e 4b97 c43d dd1b 803e ccc2 4a3e
00000030: d8c9 073e 49f4 663e 5f1c 053e 1d21 113e
00000040: 15ed 3e3e 2edd 563e 0ee1 8e3e 71c9 063e
00000050: a2c4 813e 0f61 6c3e 28ae 273e 35a4 f13e
00000060: 6657 cf3e d307 873e 8b69 5e3e a72d 473e
00000070: 18ef 213e 95f5 2b3e 5b16 063e d6d6 5e3e
00000080: e477 4f3e 74fa 073e e248 853e 255f 843e

penc1.lin.weight f4 [36, 100]
-0.08181137 0.10532098 0.03526763 -0.55181557 0.93383145 -1.1912067 0.018774638 0.07949988
-0.032385148 0.077753484 -0.04178475 0.015335958 0.12856966 -0.0929131 -0.36450148 1.5064625
-0.063727476 0.18394361 -1.0257772 2.0918534 -0.05121834 -0.10073784 -0.13882178 0.71369493
0.038465578 -0.83737665 0.24121001 0.83553606 -0.45821863 -0.043110695 0.0473579 0.09183184
-0.093791656 0.5889059 0.22856079 0.65973914 -0.15739626 0.9044966 -0.34778935 1.1566421
0.06473106 -0.028171802 -0.10908187 0.56279653 0.052232057 0.21739717 0.07063963 0.5944831
-0.5301224 0.71549964 -0.051199418 -0.03790208 -0.0015796163 -0.31507042 -0.2911531 0.93982106
-0.05451052 -0.022006622 -0.70327735 1.4232684 0.09503001 0.016174365 -0.11471136 1.7319088
-0.11050416 -1.880564 0.027852647 1.6138407 -0.51202196 -1.3217522 0.05370626 0.03940676
-0.08608446 0.057824817 1.2722098 0.57335246 -0.1854107 0.29443488 0.9128416 0.9315836
-0.08057265 -0.10609823 -0.054487184 -2.3860986 -1.7267001 0.4923336 -0.044537134 -2.0700903
-1.8526505 0.8631347 0.03280874 -0.028661242 -0.12166218 -0.31443277 0.9352403 -0.6895642
0.0607883 -0.14975064 0.5055992 -0.3540606 0.18958028 -0.18095836 -0.027371664 0.52582693
-1.0421534 -0.017689561 0.024490982 -0.0966733 0.050366797 0.07066929 0.16438422 -0.17503577
0.05716735 0.3786081 -0.9784497 1.2325375 -0.062055305 -0.100479856 -0.4679793 1.3130964
0.329382 -0.20349042 -0.07168799 1.2313552 0.09915943 0.2702235 0.12185738 0.7951366
0.6155989 0.16396107 0.31318486 -0.1424305 0.093453124 1.3117397 -1.5251268 -0.41349608
0.007925706 0.9086775 -0.814293 -0.42463917 0.16829906 -0.15247583 0.009224508 -0.5439946
1.3934166 -0.55156624 -0.06642926 -0.69273674 1.7885152 -0.5263335 0.21778667 -0.14104319
0.1443107 -0.6854284 0.389821 1.3598964 -0.010453861 -0.9066292 0.68779707 1.1891402
0.18011403 -0.11261972 0.023122277 -0.10839028 0.5992244 -0.65046316 -0.13099915 -0.4047544
0.93971765 -0.59676296 0.16798818 -0.16375013 0.05397021 0.038113896 0.13776766 -0.7239174
-0.09239601 -0.017508266 0.5972324 -0.673551 0.23088358 -0.09667801 -0.08807659 -0.57083935
-0.17851603 -0.03193109 -0.020871185 -0.6799538 0.2944604 -0.059718248 0.24126226 -0.1997547
0.08382244 -0.7413599 0.07185636 -0.19467182 -0.07054989 -0.8255068 0.3566829 -0.19303104
-0.10776367 -0.11343877 -0.10604192 -0.09064053 0.32597852 -0.112885185 -0.026771434 0.077282704
-0.053148832 0.04985844 -0.10907656 -0.04238424 0.07149961 -0.536102 -0.00015603131 0.31164914
0.080339074 -0.5088576 -0.17124885 0.48015785 0.11183881 -0.121661596 -0.03403738 1.4454021
-0.79296815 -2.196726 -0.029094923 1.4974211 -0.8388257 -2.2971253 -0.08462571 -0.09938609
0.06517539 0.072776124 -0.7646836 0.22228403 -0.11635344 0.056404993 -0.81347704 0.34969008
0.11204708 -0.029911593 -0.1254291 1.8121841 -0.7925554 -0.4129864 0.14976867 1.8352289
-0.8002871 -0.4153897 -0.2412634 -0.015898678 0.19584854 -1.5054941 -0.059646957 1.804963
00000000: b88c a7bd 87b2 d73d ca74 103d c943 0dbf
00000010: 940f 6f3f 7679 98bf 45cd 993c d5d0 a23d
00000020: 4aa6 04bd 383d 9f3d 7c26 2bbd ac43 7b3c
00000030: c4a7 033e 3949 bebd f09f babe c3d3 c03f
00000040: 8d83 82bd b75b 3c3e ab4c 83bf ede0 0540
00000050: 52ca 51bd a44f cebd 4c27 0ebe b6b4 363f
00000060: 158e 1d3d 515e 56bf c2ff 763e b1e5 553f
00000070: a29b eabe d794 30bd 5bfa 413d 5512 bc3d
00000080: d715 c0bd 89c2 163f d70b 6a3e aae4 283f
00000090: 7c2c 21be 178d 673f 7211 b2be d90c 943f
000000a0: b891 843d 8dc8 e6bc 5166 dfbd 6f13 103f
000000b0: 48f1 553d 5d9d 5e3e 83ab 903d 0b30 183f
000000c0: 1ab6 07bf fc2a 373f 7bb6 51bd 363f 1bbd
000000d0: 210b cfba e950 a1be 0512 95be 1d98 703f
000000e0: 6c46 5fbd 3b47 b4bc fc09 34bf a92d b63f
000000f0: 189f c23d 1a80 843c caed eabd 30af dd3f
00000100: 0150 e2bd 52b6 f0bf 3c2b e43c 5592 ce3f
00000110: df13 03bf 2d2f a9bf 18fb 5b3d fc68 213d
00000120: 0d4d b0bd b7d9 6c3d c5d7 a23f 3ac7 123f
00000130: 4ddc 3dbe 2bc0 963e fdaf 693f 437c 6e3f
00000140: 4603 a5bd 074a d9bd f42d 5fbd d7b5 18c0
00000150: 8204 ddbf 2613 fc3e 926c 36bd 5c7c 04c0
00000160: a723 edbf 65f6 5c3f 7562 063d fbca eabc
00000170: 052a f9bd 55fd a0be e96b 6f3f 4887 30bf
00000180: 27fd 783d 3b58 19be f36e 013f 6e47 b5be
00000190: 5521 423e 264d 39be 8a3a e0bc 989c 063f
000001a0: 4865 85bf b3e9 90bc 50a1 c83c a7fc c5bd
000001b0: 6a4d 4e3d 10bb 903d 5654 283e 943c 33be
000001c0: 5028 6a3d ecd8 c13e ae7b 7abf cac3 9d3f
000001d0: b42d 7ebd 62c8 cdbd fc9a efbe 8b13 a83f
000001e0: c2a4 a83e cb5f 50be 27d1 92bd 0c9d 9d3f
000001f0: 1914 cb3d bc5a 8a3e 5d90 f93d 128e 4b3f
00000200: e497 1d3f 69e5 273e c459 a03e 4dd9 11be
00000210: 5a64 bf3d 16e7 a73f 5b37 c3bf c2b5 d3be
00000220: d2da 013c 179f 683f 8275 50bf 4e6a d9be
00000230: 9756 2c3e a022 1cbe 6422 173c 3b43 0bbf
00000240: 7a5b b23f 7233 0dbf 100c 88bd 3257 31bf
00000250: 11ee e43f cbbd 06bf 7803 5f3e a06d 10be
00000260: 2fc6 133e 3c78 2fbf 9e96 c73e 1611 ae3f
00000270: ac46 2bbc da18 68bf 7813 303f bf35 983f
00000280: d06f 383e 2ba5 e6bd ee6a bd3c b9fb ddbd
00000290: c566 193f c184 26bf a424 06be f83b cfbe
000002a0: 5691 703f 75c5 18bf 1805 2c3e 1dae 27be
000002b0: de0f 5d3d 511d 1c3d f712 0d3e a752 39bf
000002c0: 1f3a bdbd 7f6d 8fbc 39e4 183f d76d 2cbf
000002d0: bf6c 6c3e 1fff c5bd 8061 b4bd 8722 12bf
000002e0: e8cc 36be 2dca 02bd 0cfa aabc 7411 2ebf
000002f0: 83c3 963e 1f9b 74bd 740d 773e 7f8c 4cbe
00000300: 19ab ab3d c3c9 3dbf 6d29 933d 0d58 47be
00000310: 767c 90bd 6a54 53bf 249f b63e eea9 45be
00000320: 33b3 dcbd 9652 e8bd 822c d9bd bea1 b9bd
00000330: a8e6 a63e 5930 e7bd c44f dbbc 6546 9e3d
00000340: 97b2 59bd 5d38 4c3d 8863 dfbd 199b 2dbd
00000350: 636e 923d fb3d 09bf 569c 23b9 7a90 9f3e
00000360: d088 a43d 7e44 02bf dc5b 2fbe 40d7 f53e
00000370: bf0b e53d b729 f9bd c86a 0bbd f002 b93f
00000380: f6ff 4abf 2997 0cc0 7a58 eebc 7fab bf3f
00000390: 48bd 56bf 1a04 13c0 3f50 adbd ef8a cbbd
000003a0: ad7a 853d a60b 953d 4ec2 43bf 6d9e 633e
000003b0: b64a eebd ec08 673d 0840 50bf 940a b33e
000003c0: f178 e53d 2809 f5bc 7c70 00be a6f5 e73f
000003d0: e9e4 4abf f472 d3be f55c 193e c8e8 ea3f
000003e0: 9edf 4cbf f5ad d4be c10d 77be f23d 82bc
000003f0: 858c 483e 08b4 c0bf 5e50 74bd 0709 e73f

penc1.bn.weight f4 [36]
1.7916751 1.1722983 1.3554794 1.7577022 1.457119 1.4666275 1.0769284 1.4382614
1.8046769 1.7442329 1.1514466 1.4911737 1.7966675 1.5176531 1.3783157 1.687323
1.4795358 1.461792 1.5893861 1.6348215 1.4209267 1.3550459 1.4215714 1.659261
1.6528418 1.3289589 1.45996 1.5891316 1.6537247 1.5528488 1.7007304 1.4952253
1.7159063 1.2565104 1.7104886 1.7511834
00000000: 9c55 e53f df0d 963f 5980 ad3f 63fc e03f
00000010: e082 ba3f 73ba bb3f cad8 893f f318 b83f
00000020: a7ff e63f 0643 df3f 9a62 933f c8de be3f
00000030: 33f9 e53f 7542 c23f a66c b03f 33fa d73f
00000040: 6e61 bd3f 001c bb3f 0171 cb3f d541 d13f
00000050: ede0 b53f 2572 ad3f 0df6 b53f aa62 d43f
00000060: 5290 d33f 531b aa3f f8df ba3f aa68 cb3f
00000070: 40ad d33f c0c3 c63f 89b1 d93f 8b63 bf3f
00000080: d1a2 db3f 55d5 a03f 4af1 da3f c726 e03f

penc1.bn.bias f4 [36]
0.09046598 -0.04211408 0.1430565 -0.29173017 -0.4318645 0.1815832 -0.2518642 0.07022442
0.062978625 0.041485336 -0.24261065 0.19723926 0.06410116 -0.13518018 0.22484733 0.14114253
-0.045897774 0.23810221 0.057745032 -0.0007826569 0.058934495 -0.2572242 0.28248864 0.2037283
-0.18063626 0.23156482 -0.104037896 -0.20387878 0.17997386 -0.102485694 0.19757865 -0.07010318
-0.04992453 -0.22333261 0.08775894 0.17594194
00000000: 3a46 b93d d07f 2cbd 677d 123e a85d 95be
00000010: 581d ddbe f2f0 393e 58f4 80be d2d1 8f3d
00000020: f0fa 803d 87ec 293d ed6e 78be 17f9 493e
00000030: 7847 833d ac6c 0abe 613e 663e ab87 103e
00000040: 4eff 3bbd 11d1 733e 0e86 6c3d 372b 4dba
00000050: 4c65 713d e4b2 83be 5aa2 903e 279e 503e
00000060: b6f8 38be 541f 6d3e d211 d5bd 99c5 50be
00000070: 114b 383e 05e4 d1bd 0f52 4a3e 4292 8fbd
00000080: aa7d 4cbd 4eb1 64be f6ba b33d 202a 343e

penc1.bn.running_mean f4 [36]
-0.108076505 -0.34399846 -0.19734722 -0.2462388 -0.5313804 0.07597201 -0.37743676 0.11533511
0.16928157 -0.22341305 0.05786146 -0.1871704 -0.031978983 -0.22685829 -0.40226644 -0.40737748
-0.43701735 -0.51145846 0.47989687 0.018703178 -0.4811135 0.19989999 0.27800152 0.2389325
-0.9559152 0.33934024 -0.086815014 -0.9717418 0.010691277 0.29858983 -0.3436322 1.3388854
-0.33171955 -0.62703454 0.352004 -1.6717322
00000000: 3757 ddbd 9120 b0be 6415 4abe 0626 7cbe
00000010: 8c08 08bf 3797 9b3d 643f c1be d034 ec3d
00000020: 2658 2d3e 64c6 64be 2300 6d3d 99a9 3fbe
00000030: 65fc 02bd 8a4d 68be def5 cdbe c893 d0be
00000040: bdc0 dfbe f1ee 02bf 0bb5 f53e 6837 993c
00000050: 8254 f6be 95b2 4c3e 3756 8e3e b9aa 743e
00000060: dcb6 74bf 01be ad3e 12cc b1bd 12c4 78bf
00000070: 772a 2f3c c4e0 983e 8ff0 afbe 9960 ab3f
00000080: 25d7 a9be 5685 20bf de39 b43e 52fb d5bf

penc1.bn.running_var f4 [36]
0.1512486 2.0065463 0.1596085 0.17556126 0.21042816 0.09857068 0.45841828 0.24794213
0.13858758 0.108392395 0.45179453 0.23639661 0.13814792 0.28278822 0.9639461 0.09768995
0.3773627 0.251176 0.2483947 0.14794147 0.26441607 0.6035585 0.5429832 0.12245725
0.9741502 0.20571785 0.27738145 0.46384263 0.12031737 0.2727348 0.40768358 0.48234633
0.25643674 0.45792785 0.19140576 0.6571819
00000000: eae0 1a3e 416b 0040 6970 233e 55c6 333e
00000010: 7b7a 573e 6ddf c93d cdb5 ea3e 8be4 7d3e
00000020: e7e9 0d3e d5fc dd3d 9d51 e73e f411 723e
00000030: a676 0d3e 9ec9 903e 2cc5 763f ab11 c83d
00000040: af35 c13e 249a 803e 2e5b 7e3e f87d 173e
00000050: 8b61 873e cf82 1a3f f200 0b3f deca fa3d
00000060: e861 793f b3a7 523e f104 8e3e c87c ed3e
00000070: f468 f63d e5a3 8b3e e7bb d03e 19f6 f63e
00000080: ad4b 833e 8575 ea3e dfff 433e 133d 283f

kenc0.encoder.0.weight f4 [8, 3, 1]
0.2764541 -0.6026778 0.07294312 -0.23651616 -0.101849414 0.4685375 0.35186103 0.5118333
-0.4452811 -0.36621553 0.051089603 -0.4840378 0.34403223 -0.14406839 0.2932284 0.43830413
-0.19485772 0.5799915 0.35453606 -0.12972692 0.45808327 0.56451535 0.040759914 0.56127596
00000000: 648b 8d3e 1849 1abf 3463 953d 4b31 72be
00000010: 6d96 d0bd 26e4 ef3e 2127 b43e 8207 033f
00000020: e2fb e3be 9a80 bbbe 5543 513d cdd3 f7be
00000030: fe24 b03e aa86 13be 0822 963e 6669 e03e
00000040: c888 47be 537a 143f c085 b53e 22d7 04be
00000050: e489 ea3e 1484 103f def3 263d c8af 0f3f

kenc0.encoder.0.bias f4 [8]
0.37804997 -0.37113672 -0.5871677 -0.54551923 0.06622283 -0.6955198 -0.2773531 0.006853901
00000000: c48f c13e a205 bebe 9f50 16bf 26a7 0bbf
00000010: d69f 873d 960d 32bf 3a01 8ebe b096 e03b

kenc0.encoder.1.weight f4 [8]
0.9717232 0.86824465 1.081504 0.81614596 1.081565 1.2578963 1.3951217 1.1950415
00000000: dac2 783f 4845 5e3f b96e 8a3f f1ee 503f
00000010: b970 8a3f bf02 a13f 5993 b23f 1ff7 983f

kenc0.encoder.1.bias f4 [8]
-0.18699734 -0.061270777 -0.4038213 0.2730164 -0.22855072 -0.68809295 -0.6810752 -0.43775034
00000000: 3b7c 3fbe 11f7 7abd aac1 cebe cec8 8b3e
00000010: 3309 6abe dc26 30bf f25a 2ebf d020 e0be

kenc0.encoder.1.running_mean f4 [8]
0.37540007 -0.36766884 -0.5896188 -0.5457467 0.06481729 -0.6844265 -0.2761273 0.0058593
00000000: 7034 c03e 173f bcbe 42f1 16bf 0eb6 0bbf
00000010: edbe 843d 9336 2fbf 8f60 8dbe 5fff bf3b

kenc0.encoder.1.running_var f4 [8]
0.091251925 0.04172131 0.08966847 0.039833616 0.031256616 0.06902831 0.041761596 0.06673976
00000000: 4ae2 ba3d f7e3 2a3d 1aa4 b73d 9328 233d
00000010: f006 003d b75e 8d3d 350e 2b3d dbae 883d

kenc0.encoder.4.weight f4 [16, 8, 1]
-0.3362876 0.053987373 0.5046101 -0.04065825 0.029622957 -0.115800016 0.11313511 0.50803536
0.22633551 0.06848238 -0.11042581 -0.3647396 0.015556176 0.07452145 0.3747363 0.39587036
-0.20199585 0.024532676 0.35683116 -0.4828017 -0.11675153 0.23742273 -0.14799136 0.2569522
-0.29860678 -0.052179687 -0.013560507 0.13226077 -0.521245 -0.008681531 0.03306793 -0.16701165
-0.24337828 0.027417937 0.16039336 0.10022744 -0.35197 -0.2630406 -0.5245503 -0.020331636
0.09334651 0.24367571 -0.2760914 -0.13491003 0.20488213 0.16700253 0.09702953 0.36060786
0.29998568 -0.19434673 -0.020118698 0.5922138 0.06002551 -0.16182448 -0.1460026 -0.28718758
0.10340088 -0.5779996 0.38789806 -0.024274757 -0.25531232 -0.08342241 -0.18179546 0.1913319
-0.35686535 0.059288092 0.051690917 0.06599547 -0.2809392 -0.39422965 -0.19576173 -0.07231147
0.18657403 -0.36246657 0.5844734 -0.12004813 -0.15922567 -0.27911615 -0.0014300823 0.08373368
0.07711685 -0.14911689 -0.054652937 -0.0897387 -0.11420639 -0.4087197 -0.41028973 -0.48827425
0.038057987 -0.053393062 0.006950417 -0.55757296 0.15245453 0.54504144 0.29833296 0.12195969
-0.15005304 -0.21464573 -0.13890558 0.31064972 -0.13296303 -0.51880085 -0.3958417 -0.32163417
-0.37719244 0.13517909 0.33406317 0.033158854 0.098788165 -0.67012346 -0.38275683 -0.27551794
0.07034579 0.15319541 0.27822578 0.12675627 0.3587853 0.3484648 0.39256045 0.062447313
0.124065645 0.10164995 0.29044038 0.18497562 -0.026137808 -0.11479539 -0.25842625 -0.30637482
00000000: e32d acbe dd21 5d3d 212e 013f 4489 26bd
00000010: d8ab f23c 8f28 edbd 61b3 e73d 9b0e 023f
00000020: 7fc4 673e 7d40 8c3d ed26 e2bd 26bf babe
00000030: 55df 7e3c b49e 983d 70dd bf3e 85af ca3e
00000040: 00d8 4ebe c0f8 c83c 93b2 b63e c931 f7be
00000050: 6d1b efbd f21e 733e 0c8b 17be 3d8f 833e
00000060: fde2 98be 5eba 55bd e42c 5ebc 5e6f 073e
00000070: 5070 05bf fb3c 0ebc 3d72 073d 1a05 2bbe
00000080: 2838 79be 959b e03c 283e 243e 0b44 cd3d
00000090: 6935 b4be 42ad 86be ee48 06bf 888e a6bc
000000a0: 742c bf3d 2086 793e da5b 8dbe db25 0abe
000000b0: 9fcc 513e b602 2b3e 6bb7 c63d 98a1 b83e
000000c0: b997 993e d402 47be f8cf a4bc 539b 173f
000000d0: 4fdd 753d 51b5 25be b581 15be 400a 93be
000000e0: d7c3 d33d c8f7 13bf 939a c63e dbdb c6bc
000000f0: 4cb8 82be 5ed9 aabd 9728 3abe 82ec 433e
00000100: 0eb7 b6be 12d8 723d dbb9 533d a228 873d
00000110: 43d7 8fbe 78d8 c9be c375 48be 0918 94bd
00000120: 430d 3f3e 3895 b9be 0ca0 153f cbdb f5bd
00000130: 0e0c 23be 50e8 8ebe 9971 bbba 907c ab3d
00000140: 70ef 9d3d 19b2 18be c2db 5fbd ecc8 b7bd
00000150: 0ae5 e9bd b543 d1be 7f11 d2be 15ff f9be
00000160: b1e2 1b3d afb2 5abd 53c0 e33b 1abd 0ebf
00000170: 0a1d 1c3e d687 0b3f 19bf 983e 00c6 f93d
00000180: 81a7 19be 17cc 5bbe 443d 0ebe 7b0d 9f3e
00000190: 7627 08be 22d0 04bf c3ab cabe 3cad a4be
000001a0: 5e1f c1be 636c 0a3e 540a ab3e 94d1 073d
000001b0: 7351 ca3d 368d 2bbf b4f8 c3be b010 8dbe
000001c0: 7411 903d 42df 1c3e 9c73 8e3e 65cc 013e
000001d0: b5b2 b73e fa69 b23e affd c83e c1c8 7f3d
000001e0: 2116 fe3d d92d d03d 9ab4 943e 406a 3d3e
000001f0: f51e d6bc d819 ebbd 7250 84be 29dd 9cbe

kenc0.encoder.4.bias f4 [16]
-0.18058947 0.21963881 -0.2802912 -0.29069045 0.1251705 -0.09936161 -0.28333557 0.16336218
-0.4875833 -0.029075278 0.19520184 -0.14084153 0.22979942 0.051434435 -0.20741048 -0.55247355
00000000: 72ec 38be ffe8 603e 5482 8fbe 61d5 94be
00000010: b22c 003e 1a7e cbbd 5c11 91be 6a48 273e
00000020: 85a4 f9be 472f eebc fee2 473e c338 10be
00000030: 8a50 6b3e eaac 523d 6a63 54be e86e 0dbf

kenc0.encoder.5.weight f4 [16]
1.024672 1.3751912 0.9812617 1.3813021 1.2310972 1.1207147 0.9957185 1.1435437
1.3150842 0.90334046 1.040444 1.5365934 0.9498139 1.050568 1.122796 1.1397634
00000000: 7428 833f 4406 b03f f733 7b3f 82ce b03f
00000010: 9894 9d3f 9473 8f3f 68e7 7e3f a45f 923f
00000020: ae54 a83f 5241 673f 452d 853f 18af c43f
00000030: 0127 733f 0379 863f c8b7 8f3f c4e3 913f

kenc0.encoder.5.bias f4 [16]
-0.36554325 -0.35773087 -0.28967947 -0.001427811 0.06650416 -0.3197309 -0.35846302 -0.290726
0.03531365 -0.19771685 0.014479708 -0.45548394 0.20185472 0.15022577 -0.44493526 -0.071494766
00000000: 7c28 bbbe 8028 b7be de50 94be 6325 bbba
00000010: 5533 883d c5b3 a3be 7788 b7be 0ada 94be
00000020: 0ca5 103d 4976 4abe 4c3c 6d3c 3135 e9be
00000030: 01b3 4e3e c9d4 193e 8ece e3be d96b 92bd

kenc0.encoder.5.running_mean f4 [16]
-0.28064302 0.009603969 -0.52935225 -0.25071263 0.27727908 -0.17703958 -0.00525845 0.10181453
-0.35428444 -0.09884667 0.35472912 -0.5077084 0.5325109 0.2626466 -0.31288674 -0.41787776
00000000: 71b0 8fbe f759 1d3c a183 07bf 685d 80be
00000010: 86f7 8d3e dd49 35be 134f acbb 2384 d03d
00000020: c564 b5be 1f70 cabd 0e9f b53e 2df9 01bf
00000030: a252 083f 9d79 863e b132 a0be 13f4 d5be

kenc0.encoder.5.running_var f4 [16]
0.3910536 1.1248038 0.29611924 0.5939017 1.3426253 0.80157983 0.6194349 0.55910736
0.9650869 0.48208746 1.0711926 1.5496205 1.8102511 1.5630083 0.74089134 0.44628865
00000000: 2d38 c83e 92f9 8f3f f19c 973e f109 183f
00000010: 25db ab3f 5634 4d3f 4993 1e3f a921 0f3f
00000020: ef0f 773f 2bd4 f63e d71c 893f f759 c63f
00000030: 4fb6 e73f a810 c83f 0eab 3d3f f27f e43e

kenc0.encoder.8.weight f4 [32, 16, 1]
0.06403802 -0.25614536 0.09395531 -0.07933968 -0.08940366 -0.2972508 -0.105960764 -0.034380753
-0.025967017 -0.035266444 0.098183736 -0.470059 -0.006374788 0.12073276 -0.35531014 -0.18759596
-0.013091362 0.3912003 0.08111885 0.0991738 0.100822635 0.27517655 0.13835725 0.19199511
-0.22832468 0.0014304814 -0.31120488 0.44491705 -0.18713064 0.14482027 0.19289525 -0.03783769
0.2711235 0.097673506 0.1644979 -0.06631647 -0.05121454 0.14244765 -0.319948 0.1943042
-0.010424666 0.03378541 -0.041205123 -0.18825226 -0.14894389 -0.12048133 -0.15984587 -0.31182662
0.15169598 0.12224427 0.27672783 -0.23599607 -0.26814285 0.2769268 -0.11165802 -0.04214455
-0.22379492 -0.14882474 -0.19357297 0.17002131 -0.11204133 -0.22824302 0.16170911 -0.1505748
0.35779545 -0.089469895 0.1526395 0.11089692 -0.21441624 0.03227204 -0.35478115 0.19623606
-0.044568762 -0.016241683 -0.08837467 -0.10662355 -0.247354 -0.19637635 -0.23056887 0.007842172
0.09431969 -0.21143182 -0.01824382 0.17246208 -0.036315314 -0.07150876 -0.29586142 0.14640161
0.10227134 0.1018875 0.031026479 -0.11422435 -0.049413286 0.27980256 0.060798585 0.38006058
0.55402714 -0.07792263 0.24131352 0.14428742 0.14318985 -0.060364347 0.025777847 0.19074239
0.0021142794 0.42567396 0.006070797 0.1242824 -0.040946558 0.1408473 0.004094994 0.15390342
-0.220404 -0.017129926 0.08767939 0.0012163064 -0.1673638 0.14753059 -0.06877923 -0.554158
-0.10219636 -0.28601035 -0.07393046 0.10424816 -0.015743554 -0.104467034 -0.17642331 -0.06664135
0.13505287 -0.34210962 0.2021995 0.08472845 0.235896 -0.24416181 -0.36184752 0.019478638
0.20635399 0.0052933404 -0.026095062 -0.103646286 -0.1005383 0.2237402 -0.110089965 0.11674055
-0.18897164 -0.22968088 -0.028561909 -0.14147294 0.149424 -0.027231986 0.3083493 0.1795555
0.005259989 0.07433594 0.17493518 -0.26988572 0.10081967 -0.02668795 -0.06588543 0.21148734
-0.16607094 -0.28274435 -0.10013045 0.1075389 0.07198779 -0.02413545 -0.036358204 -0.1600053
0.11964176 -0.16009167 0.005877967 -0.3054809 0.119531654 -0.07945885 -0.31622165 0.13199289
0.10050517 -0.14162698 0.17895347 -0.11673959 0.077570826 -0.32967913 0.058203597 0.34700713
-0.19943605 0.38271073 -0.071760505 -0.111865945 0.11507459 0.10711985 0.014936984 -0.15919875
-0.074998766 -0.24450916 0.053093374 -0.3052731 -0.31872702 -0.17513944 -0.104139335 0.067003384
-0.3614771 0.0057713185 -0.27439314 -0.018523755 -0.20294382 -0.16118966 -0.01288763 -0.19209762
0.1004503 -0.041733395 0.14376865 -0.37044626 -0.34263727 -0.2538548 -0.111000486 0.27893105
-0.24287564 0.0013768126 -0.13581976 -0.12063521 -0.14511645 -0.009524056 -0.1567588 -0.057341576
-0.30703253 -0.01304761 0.06959797 -0.08704813 -0.2314846 0.1273203 -0.013717429 -0.14560327
0.06588168 -0.5547515 0.18162584 -0.12731807 0.18078992 0.14981474 0.04481683 -0.13506864
0.18712793 0.009650357 -0.023094919 -0.15316074 -0.14451212 -0.083949305 -0.24538785 -0.1251401
-0.19676621 0.013990033 -0.25814947 -0.0075913407 -0.12086433 -0.29279914 0.1274764 0.069598556
00000000: 5e26 833d 7c25 83be a46b c03d d87c a2bd
00000010: 4419 b7bd 4231 98be f501 d9bd d5d2 0cbd
00000020: c8b8 d4bc 8c73 10bd 8e14 c93d 93ab f0be
00000030: 99e3 d0bb bd42 f73d 36eb b5be 2819 40be
00000040: 277d 56bc 684b c83e a421 a63d a21b cb3d
00000050: 197c ce3d f1e3 8c3e 86ad 0d3e 5e9a 443e
00000060: f2cd 69be fe7e bb3a 3f56 9fbe 2bcc e33e
00000070: 2d9f 3fbe c44b 143e 5586 453e b2fb 1abd
00000080: b3d0 8a3e 0c09 c83d 2372 283e eed0 87bd
00000090: 56c6 51bd ccdd 113e 39d0 a3be aef7 463e
000000a0: 38cc 2abc 9262 0a3d b4c6 28bd 33c5 40be
000000b0: bf84 18be eabe f6bd a3ae 23be bda7 9fbe
000000c0: 3156 1b3e 345b fa3d 45af 8d3e f4a8 71be
000000d0: 054a 89be 59c9 8d3e f6ac e4bd c39f 2cbd
000000e0: 7f2a 65be 8365 18be fe37 46be 111a 2e3e
000000f0: ed75 e5bd 8ab8 69be 1397 253e 4830 1abe
00000100: f730 b73e fe3b b7bd 874d 1c3e ed1d e33d
00000110: ee8f 5bbe b02f 043d e0a5 b5be 1bf2 483e
00000120: bc8d 36bd 470d 85bc c7fd b4bd 735d dabd
00000130: 5e4a 7dbe e216 49be 3f1a 6cbe 747c 003c
00000140: ae2a c13d 9581 58be 1074 95bc e699 303e
00000150: 5ebf 14bd 2f73 92bd 267b 97be 4eea 153e
00000160: a373 d13d 65aa d03d 3e2b fe3c 75ee e9bd
00000170: 9665 4abd 4842 8f3e f007 793d 4d97 c23e
00000180: b9d4 0d3f e695 9fbd e41a 773e 15c0 133e
00000190: 5ca0 123e 9b40 77bd 102c d33c f951 433e
000001a0: b98f 0a3b f0f1 d93e 89ed c63b c587 fe3d
000001b0: 94b7 27bd 463a 103e 4d2f 863b dc98 1d3e
000001c0: 96b1 61be 0f54 8cbc 4191 b33d 786c 9f3a
000001d0: 6a61 2bbe 4212 173e 20dc 8cbd 4cdd 0dbf
000001e0: 534c d1bd f36f 92be da68 97bd 0f80 d53d
000001f0: a0f8 80bc d0f2 d5bd 50a8 34be 437b 88bd
00000200: 4d4b 0a3e fe28 afbe 630d 4f3e 1c86 ad3d
00000210: b98e 713e 8e05 7abe 1444 b9be aa91 9f3c
00000220: 764e 533e c273 ad3b 50c5 d5bc 8144 d4bd
00000230: 06e7 cdbd 271c 653e d976 e1bd ab15 ef3d
00000240: c881 41be 7731 6bbe aafa e9bc 48de 10be
00000250: 9b02 193e 9d15 dfbc f6df 9d3e 66dd 373e
00000260: fc5b ac3b 713d 983d 3522 333e 762e 8abe
00000270: 8b7a ce3d b0a0 dabc f1ee 86bd 2390 583e
00000280: 800e 2abe dec3 90be 3211 cdbd 5b3d dc3d
00000290: 566e 933d b5b7 c5bc 57ec 14bd 6ed8 23be
000002a0: bd06 f53d 12ef 23be f69b c03b fe67 9cbe
000002b0: 03cd f43d 52bb a2bd cee7 a1be 2529 073e
000002c0: a8d5 cd3d aa06 11be 943f 373e 2b15 efbd
000002d0: 74dd 9e3d b4cb a8be e566 6e3d ebaa b13e
000002e0: f738 4cbe a9f2 c33e 2cf7 92bd f919 e5bd
000002f0: 3aac eb3d a761 db3d 40ba 743c ff04 23be
00000300: f498 99bd 9c60 7abe 7078 593d c14c 9cbe
00000310: 3030 a3be c157 33be 0147 d5bd 1239 893d
00000320: 8713 b9be 541d bd3b 427d 8cbe 21bf 97bc
00000330: 81d0 4fbe e70e 25be a326 53bc 3db5 44be
00000340: e3b8 cd3d a3f0 2abd 1738 133e 22ab bdbe
00000350: 276e afbe 42f9 81be 3954 e3bd 0dd0 8e3e
00000360: 64b4 78be 2a76 b43a 5614 0bbe 980f f7bd
00000370: 6899 14be c90a 1cbc 6185 20be 00df 6abd
00000380: 5e33 9dbe a5c5 55bc 6189 8e3d 4a46 b2bd
00000390: 4d0a 6dbe 4160 023e 11bf 60bc 0619 15be
000003a0: f9ec 863d 3204 0ebf 20fc 393e ab5f 02be
000003b0: fe20 393e 0969 193e da91 373d 6f4f 0abe
000003c0: 779e 3f3e 881c 1e3c 8e31 bdbc 2bd6 1cbe
000003d0: fcfa 13be 9ded abbd f446 7bbe ba24 00be
000003e0: 157d 49be 7436 653c 2b2c 84be c8c0 f8bb
000003f0: b887 f7bd c5e9 95be 2c89 023e b089 8e3d

kenc0.encoder.8.bias f4 [32]
0.26897794 -0.3573014 0.008654477 0.27280506 -0.5522854 -0.15830989 -0.20698486 0.04965971
-0.32318026 0.024918983 -0.23154685 0.03817617 -0.41147602 -0.13255352 0.31327292 0.2784926
0.08891785 -0.18875548 -0.10617531 -0.2363657 -0.15312313 -0.071124576 -0.5311177 -0.060964197
-0.26845258 -0.32496667 0.03478884 0.26105118 0.38664195 0.41866368 0.116498165 0.48969623
00000000: 7ab7 893e 36f0 b6be 82cb 0d3c 1bad 8b3e
00000010: 9362 0dbf fd1b 22be d7f3 53be fb67 4b3d
00000020: e277 a5be e522 cc3c 9e1a 6dbe 9e5e 1c3d
00000030: fcac d2be 1cbc 07be 4f65 a03e 9596 8e3e
00000040: 901a b63d 1e49 41be 7172 d9bd da09 72be
00000050: 4fcc 1cbe c3a9 91bd 54f7 07bf 98b5 79bd
00000060: 9e72 89be 0862 a6be be7e 0e3d 80a8 853e
00000070: eff5 c53e 165b d63e 9796 ee3d 77b9 fa3e

kenc0.encoder.9.weight f4 [32]
1.131221 1.3179973 1.0063453 1.4388493 1.0058622 1.1149381 1.0872488 0.97147554
1.0344621 1.1191164 0.8158651 1.097441 1.3518689 1.0659931 0.8361067 1.2763258
1.1088054 1.3050429 1.1196619 0.7935358 0.8075501 1.0334325 1.4914247 1.0482403
1.3563415 1.2667137 1.0613132 1.3626659 1.020187 1.1680148 1.2061979 1.1868528
00000000: dacb 903f 23b4 a83f eccf 803f 372c b83f
00000010: 18c0 803f 4bb6 8e3f f82a 8b3f 9fb2 783f
00000020: 4169 843f 353f 8f3f 89dc 503f f278 8c3f
00000030: 0a0a ad3f 7672 883f 170b 563f a55e a33f
00000040: 56ed 8d3f a50b a73f 1551 8f3f 2a25 4b3f
00000050: 9abb 4e3f 8447 843f 01e7 be3f bd2c 863f
00000060: 999c ad3f ad23 a23f 1cd9 873f d66b ae3f
00000070: 7d95 823f 8281 953f b164 9a3f cbea 973f

kenc0.encoder.9.bias f4 [32]
0.04166997 -0.01857096 -0.26719746 -0.1577164 -0.23475714 -0.14861338 -0.33553162 0.06308326
0.021076925 0.0758217 -0.0693264 -0.14886577 -0.3713648 -0.12933289 -0.20876814 -0.35223624
-0.28087887 -0.14302848 -0.11551059 -0.11356723 -0.11328735 0.027095374 -0.22211725 -0.23168011
-0.19998638 0.13427886 -0.4575423 -0.23953038 0.06492418 -0.17088418 -0.35704675 0.0014168554
00000000: 21ae 2a3d 2022 98bc 1bce 88be 6880 21be
00000010: 2d64 70be 1b2e 18be cdca abbe cc31 813d
00000020: 84a9 ac3c 6848 9b3d 00fb 8dbd 4570 18be
00000030: 8723 bebe d76f 04be 51c7 55be 4f58 b4be
00000040: 5bcf 8fbe 0f76 12be d190 ecbd f095 e8bd
00000050: 3303 e8bd 1ef7 dd3c b472 63be 8d3d 6dbe
00000060: 3bc9 4cbe 6680 093e fc42 eabe 7447 75be
00000070: f8f6 843d 43fc 2ebe d5ce b6be c7b5 b93a

kenc0.encoder.9.running_mean f4 [32]
0.2928245 -0.50370014 -0.16828063 -0.17313582 -0.74192417 0.059691172 -0.14065617 -0.048191845
-0.08791672 0.1314699 -0.035640866 -0.02152884 -0.89169747 -0.48231673 0.3898788 -0.05698076
0.1578137 -0.14394195 -0.5963247 0.021605643 -0.14839308 0.32360822 -0.9454281 0.14909698
-0.3424764 -0.3772519 -0.044709206 -0.21486172 0.74110025 0.06813789 -0.195989 0.8463821
00000000: 18ed 953e 7ef2 00bf c251 2cbe 844a 31be
00000010: beee 3dbf bb7e 743d 2c08 10be d064 45bd
00000020: ae0d b4bd 0ca0 063e 28fc 11bd 405d b0bc
00000030: 4946 64bf 38f2 f6be 329e c73e a864 69bd
00000040: ea99 213e 8565 13be bca8 18bf 51fe b03c
00000050: 5bf4 17be faaf a53e 9307 72bf e1ac 183e
00000060: 1159 afbe 2927 c1be 0021 37bd b604 5cbe
00000070: bfb8 3d3f e18b 8b3d 57b1 48be 7fac 583f

kenc0.encoder.9.running_var f4 [32]
1.3660543 2.2363458 0.64841175 3.8457875 0.44059682 0.9325574 1.1224041 1.1196308
1.2967005 1.5666089 1.6776823 0.7792586 1.2089835 0.6510045 0.4880221 1.1259248
0.78791493 2.08427 2.9617116 0.9520979 0.7907089 2.4244854 4.2666526 0.6030296
1.6080296 2.4478176 0.5147108 2.5399938 0.8637389 1.017229 2.3724952 1.7104919
00000000: deda ae3f 4a20 0f40 50fe 253f 6221 7640
00000010: e895 e13e 15bc 6e3f f0aa 8f3f 1050 8f3f
00000020: 48fa a53f a486 c83f 4bbe d63f 7e7d 473f
00000030: f9bf 9a3f 3ba8 263f 08de f93e 4e1e 903f
00000040: cbb4 493f ae64 0540 af8c 3d40 b0bc 733f
00000050: e66b 4a3f c52a 1b40 6b88 8840 2660 1a3f
00000060: ead3 cd3f 0ba9 1c40 16c4 033f 428f 2240
00000070: fe1d 5d3f 8f34 823f f6d6 1740 66f1 da3f

kenc0.encoder.12.weight f4 [64, 32, 1]
-0.30338767 -0.15605472 -0.04409073 -0.1251925 -0.02299787 -0.31003112 -0.29454768 0.07012389
-0.26363438 -0.09918427 -0.19774507 0.0780945 0.40648347 0.26727077 -0.113052756 -0.05550193
-0.3070553 -0.10144225 -0.084707685 -0.2692908 -0.10783274 -0.13609852 -0.12986478 -0.11638696
-0.07381966 0.0022710422 0.214141 -0.19618905 -0.11585605 0.026074976 -0.1820786 -0.4663317
0.24577013 0.09112658 0.019706268 0.009398943 -0.047755342 -0.16825376 0.035025515 -0.17321523
0.17922993 -0.21876799 0.044933002 0.15255427 -0.1582882 0.040566333 -0.13287619 -0.16714269
0.28823882 -0.40242115 -0.38348 0.31610996 0.053292345 -0.0055300584 -0.021408018 -0.23933533
-0.20679326 0.14460042 -0.024739638 0.008972789 -0.15527403 0.13453849 -0.19883646 -0.15701924
0.15045813 -0.096226834 0.2284666 0.058976553 0.28605455 -0.08695699 0.14984381 0.051191997
-0.046039924 -0.33569962 -0.08109342 -0.017615462 0.09593821 0.20972925 -0.12818548 -0.0010063687
0.17779551 -0.1375821 -0.10621606 0.31764883 -0.045275282 0.060759712 -0.056471646 -0.18403666
0.07967945 0.0069545545 -0.26180708 0.04612546 0.14017062 0.16934448 -0.23284207 0.30077228
-0.16016363 0.013972528 -0.01902455 -0.06797438 -0.06483451 -0.15041448 -0.13287051 0.30132672
-0.26093522 -0.3111877 -0.033866417 -0.41166902 0.097776204 -0.18917845 0.08201649 0.16394316
-0.06747105 -0.022550644 0.050985176 0.079010084 -0.065280035 -0.0036572348 -0.019007934 -0.1131898
0.019087309 -0.4925813 -0.24584618 0.19131656 0.03516227 0.08244528 0.23676413 0.057890393
-0.10311198 0.06355054 -0.1506808 0.022971114 0.10794117 -0.13586722 -0.15772617 -0.13473639
-0.108220674 -0.17406178 -0.2974758 0.18762214 0.3299142 0.18997107 -0.18863888 0.09769032
0.044814713 -0.15179224 0.006987091 -0.05562118 -0.087354235 -0.22295266 -0.11362626 0.06435726
-0.18358481 0.101879515 -0.032153897 -0.11291532 -0.32956642 0.18259548 -0.15339887 -0.32182145
0.22590719 -0.2767189 -0.19681174 -0.2832805 -0.13452451 0.027010078 -0.32291546 0.09649257
0.03516598 0.08649512 0.10069277 -0.06369292 -0.14960603 -0.08023854 -0.025838293 -0.29563162
-0.034465075 -0.07138031 -0.100738235 0.19071834 -0.11268841 0.045410052 -0.19600067 0.050487053
0.0007409779 0.18290618 -0.023751773 -0.2633206 0.097542025 -0.06176771 -0.081708826 0.27298066
-0.10431228 0.07725784 -0.07958653 0.04496856 -0.073972836 -0.36526155 -0.24567157 0.07195732
-0.10838203 0.106763065 -0.11464988 0.04323473 0.1911545 0.009371742 -0.063399926 0.16729309
-0.32954505 0.006193257 0.35876194 -0.1424209 0.025680963 -0.15201445 -0.006563209 -0.25971118
-0.1117113 -0.06509847 -0.16238078 0.02246404 -0.17356755 -0.00047806202 0.12602817 -0.3086452
0.12899038 -0.26319313 -0.16223447 -0.11900578 -0.06998875 -0.053152397 -0.12249564 -0.05249093
-0.16029544 0.053939443 -0.019197678 0.20001379 0.08732707 0.15291454 0.029540807 -0.13665253
0.060153227 -0.2992593 -0.066503845 -0.04642885 0.078665614 -0.12766686 -0.2089605 -0.044960782
-0.38722366 0.15302329 0.07095999 -0.22600107 -0.16955528 0.023396991 -0.21927631 0.028479358
00000000: a155 9bbe cfcc 1fbe 7b98 34bd 7632 00be
00000010: 0766 bcbc 66bc 9ebe f4ce 96be 1d9d 8f3d
00000020: 16fb 86be 1f21 cbbd af7d 4abe 02f0 9f3d
00000030: 9a1e d03e b7d7 883e 3488 e7bd fe55 63bd
00000040: 5a36 9dbe f4c0 cfbd 397b adbd 7ce0 89be
00000050: 69d7 dcbd 695d 0bbe 46fb 04be 495c eebd
00000060: c32e 97bd c4d5 143b c747 5b3e c8e5 48be
00000070: f045 edbd 309b d53c d072 3abe 07c3 eebe
00000080: 2aab 7b3e 93a0 ba3d 0a6f a13c 06fe 193c
00000090: 1b9b 43bd b74a 2cbe ea76 0f3d 555f 31be
000000a0: 0d88 373e b704 60be ab0b 383d 3037 1c3e
000000b0: 4d16 22be e228 263d b210 08be 7427 2bbe
000000c0: 0a94 933e 250a cebe 7e57 c4be 2ad9 a13e
000000d0: 1349 5a3d 7e35 b5bb de5f afbc 5214 75be
000000e0: 9dc1 53be 2212 143e c8aa cabc 9b02 133c
000000f0: 2800 1fbe 75c4 093e c99b 4bbe a7c9 20be
00000100: b211 1a3e 9312 c5bd 26f3 693e 6691 713d
00000110: be75 923e 8216 b2bd a870 193e b3ae 513d
00000120: 5c94 3cbd d2e0 abbe 4f14 a6bd 4d4e 90bc
00000130: 417b c43d 44c3 563e 0e43 03be 21e8 83ba
00000140: 0710 363e 52e2 0cbe ce87 d9bd dea2 a23e
00000150: 9372 39bd 2ddf 783d d04e 67bd 1b74 3cbe
00000160: fb2e a33d 08e3 e33b 940b 86be 0dee 3c3d
00000170: e388 0f3e a468 2d3e 276e 6ebe d3fe 993e
00000180: ef01 24be 08ed 643c 60d9 9bbc 2736 8bbd
00000190: f5c7 84bd 4106 1abe 350f 08be 7f47 9a3e
000001a0: 4d99 85be ff53 9fbe 83b7 0abd 48c6 d2be
000001b0: e43e c83d ffb7 41be 43f8 a73d b7e0 273e
000001c0: 432e 8abd 21bc b8bc d5d5 503d 0ad0 a13d
000001d0: 8ab1 85bd 38ae 6fbb 87b6 9bbc 0ed0 e7bd
000001e0: fd5c 9c3c 9e33 fcbe 1abf 7bbe 7de8 433e
000001f0: 5006 103d 12d9 a83d 4c72 723e 7a1e 6d3d
00000200: 602c d3bd c926 823d 114c 1abe eb2d bc3c
00000210: 4310 dd3d c720 0bbe f882 21be 56f8 09be
00000220: cda2 ddbd 403d 32be c04e 98be 0520 403e
00000230: 84ea a83e c787 423e 8d2a 41be dd11 c83d
00000240: a28f 373d 6d6f 1bbe f8f3 e43b 09d3 63bd
00000250: c7e6 b2bd b44d 64be e2b4 e8bd bdcd 833d
00000260: a8fd 3bbe 35a6 d03d ceb3 03bd 2640 e7bd
00000270: eebc a8be 4ffa 3a3e 9814 1dbe c8c5 a4be
00000280: 3754 673e 1aae 8dbe 0489 49be 240a 91be
00000290: cbc0 09be 3d44 dd3c 2d55 a5be e69d c53d
000002a0: 340a 103d 5a24 b13d 0338 ce3d 6f71 82bd
000002b0: 5332 19be 1b54 a4bd d4aa d3bc 075d 97be
000002c0: 402b 0dbd d72f 92bd d94f cebd ab4b 433e
000002d0: 2ec9 e6bd e4ff 393d 66b4 48be 83cb 4e3d
000002e0: 2f3e 423a c24b 3b3e 1493 c2bc f5d1 86be
000002f0: 1dc4 c73d 2300 7dbd f556 a7bd 1fc4 8b3e
00000300: ada1 d5bd 5c39 9e3d 43fe a2bd f430 383d
00000310: 127f 97bd 9003 bbbe 5491 7bbe 5c5e 933d
00000320: 66f7 ddbd 98a6 da3d 8ecd eabd e616 313d
00000330: 01be 433e ef8b 193c d2d7 81bd e14e 2b3e
00000340: 21ba a8be cef0 ca3b a5af b73e c9d6 11be
00000350: e260 d23c ada9 1bbe 3010 d7bb ddf8 84be
00000360: e5c8 e4bd 5952 85bd 2647 26be 8206 b83c
00000370: b1bb 31be 66a4 fab9 870d 013e be06 9ebe
00000380: 0e16 043e 40c1 86be cb20 26be 4db9 f3bd
00000390: 4356 8fbd 54b6 59bd fede fabd bb00 57bd
000003a0: 7d24 24be 9bef 5c3d 7344 9dbc 6ad0 4c3e
000003b0: 89d8 b23d a195 1c3e 90ff f13c a4ee 0bbe
000003c0: 3b63 763d 8438 99be 2b33 88bd 2e2c 3ebd
000003d0: 701b a13d 1abb 02be bef9 55be cc28 38bd
000003e0: 2e42 c6be 23b2 1c3e 7953 913d d36c 67be
000003f0: e69f 2dbe 0cab bf3c f889 60be 8b4d e93c

kenc0.encoder.12.bias f4 [64]
-0.23538855 0.07276861 0.18049778 -0.12848485 -0.19674927 -0.08283079 -0.2072977 0.06428713
-0.13760467 0.027817538 -0.0242584 -0.10701841 -0.012665674 0.0644563 0.100980416 -0.10862826
-0.19327746 0.2110219 0.12504351 0.082290545 -0.09671805 0.246186 -0.07110495 -0.101127915
0.23194566 0.39900553 0.09506033 0.2134117 -0.166388 -0.2067046 0.22315298 0.19450274
-0.14912856 -0.37467587 -0.22344843 0.23750797 -0.009110594 -0.104860984 -0.05080331 -0.18390816
0.04004142 0.11814046 0.17614803 0.28302026 -0.20359781 0.11951935 0.316814 -0.10775177
0.03633185 -0.41458955 -0.20185722 -0.12545754 0.31106788 -0.021945577 0.030878179 -0.06317125
-0.12979671 0.012409403 -0.009967542 0.14968258 -0.08347198 0.38424376 -0.029148899 0.15111996
00000000: b209 71be b607 953d 69d4 383e 8891 03be
00000010: a478 49be 30a3 a9bd d945 54be f9a8 833d
00000020: 3de8 0cbe 9be1 e33c 8db9 c6bc 782c dbbd
00000030: b083 4fbc aa01 843d d2ce ce3d 7e78 debd
00000040: 87ea 45be 2016 583e 680b 003e f287 a83d
00000050: 1d14 c6bd 2f18 7c3e 799f 91bd 271c cfbd
00000060: 2a83 6d3e 744a cc3e feae c23d 9988 5a3e
00000070: 9e61 2abe 5faa 53be 3782 643e ba2b 473e
00000080: 28b5 18be 84d5 bfbe aacf 64be 4a35 733e
00000090: 9a44 15bc 5bc1 d6bd 2217 50bd 6c52 3cbe
000000a0: 7902 243d a0f3 f13d 2660 343e 08e8 903e
000000b0: f27b 50be 90c6 f43d 7235 a23e f6ac dcbd
000000c0: b5d0 143d 1545 d4be a9b3 4ebe f177 00be
000000d0: 4a44 9f3e 36c7 b3bc 3cf4 fc3c ee5f 81bd
000000e0: 6ee9 04be cf50 4b3c e74e 23bc 6446 193e
000000f0: 5cf3 aabd 99bb c43e acc9 eebc 31bf 1a3e

kenc0.encoder.13.weight f4 [64]
0.052385148 0.06845287 -0.024669414 0.07225679 0.052659392 0.021371974 0.045619857 0.0432645
0.04163846 0.116300166 0.117881976 0.031797316 0.03142599 0.035703205 0.033228874 0.036410894
0.011366848 0.06530209 0.011053733 -0.014890918 0.038282096 0.022819052 0.0025919375 -0.010492778
0.021091674 0.016016388 0.06576275 -0.020872056 0.06099728 0.015826376 0.010657254 0.054189254
0.08838886 0.047394317 0.0245854 0.07359474 0.010311047 0.06215432 0.053473886 0.011142598
0.027725203 -0.0006792476 -0.010646304 0.07558271 0.03885695 0.041397795 0.022365803 -0.0012387757
0.029472787 0.045961145 -0.018095326 0.029948039 0.026100473 -0.0071375566 0.031146038 0.07025539
0.027799081 0.0941415 0.062063303 0.06443645 0.0036353401 0.024658704 0.08818527 0.023341209
00000000: cf91 563d 0531 8c3d 8317 cabc 5efb 933d
00000010: 60b1 573d 4714 af3c e3db 3a3d 1e36 313d
00000020: 178d 2a3d c82e ee3d 1b6c f13d e73d 023d
00000030: 8ab8 003d 863d 123d 001b 083d 9723 153d
00000040: 043c 3a3c 1abd 853d b71a 353c 09f9 73bc
00000050: b0cd 1c3d 05ef ba3c 7fdd 293b e7e9 2bbc
00000060: 72c8 ac3c cd34 833c 9fae 863d e0fb aabc
00000070: 49d8 793d 51a6 813c c39b 2e3c 8df5 5d3d
00000080: 3805 b53d 8b20 423d 5267 c93c d7b8 963d
00000090: aaef 283c 8795 7e3d 6f07 5b3d 728f 363c
000000a0: f71f e33c 890f 32ba d66d 2ebc 1ccb 9a3d
000000b0: 7728 1f3d bc90 293d 7d38 b73c 6a5e a2ba
000000c0: ea70 f13c c141 3c3d a63c 94bc 9755 f53c
000000d0: a9d0 d53c 2ae2 e9bb fa25 ff3c 0fe2 8f3d
000000e0: e6ba e33c 42cd c03d 1736 7e3d 42f7 833d
000000f0: e33e 6e3b 0d01 ca3c 7b9a b43d 1036 bf3c

kenc0.encoder.13.bias f4 [64]
-0.055303942 -0.055788957 -0.07779868 -0.0067080897 -0.097303286 -0.059800755 0.012569192 0.073778465
-0.06598351 0.0075208982 -0.026439527 0.12423932 -0.06130256 0.021054609 -0.047381185 -0.04550686
-0.090549015 -0.074987285 -0.08700223 -0.13011454 -0.0126211345 -0.037475463 -0.09824724 -0.07139581
0.0929417 -0.040263783 0.098813735 -0.12221718 0.036894906 -0.08185823 -0.084439576 -0.0005588287
-0.03981585 -0.12590742 -0.1266661 -0.05827135 -0.13245183 -0.114344746 -0.0842796 -0.045698997
-0.102300115 0.027447777 -0.03634644 -0.041350793 -0.01154734 0.0021727504 -0.018818025 0.010890986
-0.018933406 0.0855038 0.09353768 -0.03754702 -0.047606863 -0.046494693 -0.039322153 -0.10895088
-0.024476495 0.040332403 0.028122779 -0.05830474 -0.048931513 -0.08773644 0.016535183 0.045500163
00000000: 6386 62bd f682 64bd ea54 9fbd 89cf dbbb
00000010: f246 c7bd a3f1 74bd 03ef 4d3c 2a19 973d
00000020: 5d22 87bd de71 f63b b597 d8bc 2f71 fe3d
00000030: 6518 7bbd b77a ac3c c612 42bd 6765 3abd
00000040: c371 b9bd ef92 99bd 3a2e b2bd bf3c 05be
00000050: e0c8 4ebc df7f 19bd d935 c9bd f737 92bd
00000060: 3858 be3d a3eb 24bd db5e ca3d 004d fabd
00000070: 1d1f 173d 4aa5 a7bd a8ee acbd 5c7e 12ba
00000080: f215 23bd e0ed 00be c2b4 01be f0ad 6ebd
00000090: 74a1 07be 942d eabd c89a acbd df2e 3bbd
000000a0: b982 d1bd 29da e03c 01e0 14bd 735f 29bd
000000b0: 0e31 3dbc b464 0e3b 4228 9abc 1b70 323c
000000c0: 3b1a 9bbc 9e1c af3d af90 bf3d e7ca 19bd
000000d0: 6aff 42bd 3871 3ebd 4410 21bd a421 dfbd
000000e0: ee82 c8bc 9733 253d be61 e63c f3d0 6ebd
000000f0: 696c 48bd 2aaf b3bd cb74 873c 615e 3a3d

kenc0.encoder.13.running_mean f4 [64]
-0.64902276 0.023736103 0.27618206 -0.40619987 -0.46024364 0.06115459 -0.31228516 -0.059168156
-0.3822466 -0.13147524 -0.34402522 -0.4952368 -0.244004 -0.06305987 0.03315566 -0.15596741
-0.36907867 0.074592 -0.093573995 -0.0076457164 -0.01792551 0.02627144 -0.23536 -0.069231585
-0.0046260217 0.54114425 -0.10356759 0.20428479 -0.48473272 -0.22216953 0.24213055 -0.038933173
-0.39909577 -0.5969843 -0.16969177 0.02445862 -0.018688042 0.09420434 -0.0501794 -0.40635392
-0.0749429 0.0773266 0.066279024 0.17809024 -0.3597933 0.36472133 0.0074997377 -0.3098665
-0.07430287 -0.6092779 -0.30880132 -0.43786037 0.124874115 -0.3712308 0.06352537 0.06205261
-0.23105924 -0.11149574 -0.25071684 -0.022622913 -0.20020488 0.33363685 -0.26784253 0.16900814
00000000: 5b26 26bf 3772 c23c bc67 8d3e 6ef9 cfbe
00000010: 0ea5 ebbe 3c7d 7a3d d7e3 9fbe 4f5a 72bd
00000020: d4b5 c3be 72a1 06be 1324 b0be ae8f fdbe
00000030: 2fdc 79be 8825 81bd 3bce 073d ecb5 1fbe
00000040: e1f7 bcbe b1c3 983d b9a3 bfbd eb88 fabb
00000050: 85d8 92bc 3437 d73c 3602 71be 4ac9 8dbd
00000060: e295 97bb 6e88 0a3f 3f1b d4bd 0830 513e
00000070: e32e f8be 6980 63be 12f1 773e 6478 1fbd
00000080: 4856 ccbe f7d3 18bf aec3 2dbe 725d c83c
00000090: aa17 99bc 34ee c03d ea88 4dbd 9f0d d0be
000000a0: aa7b 99bd 695d 9e3d 4cbd 873d 4a5d 363e
000000b0: d436 b8be c1bc ba3e 5cc0 f53b d2a6 9ebe
000000c0: 1a2c 98bd a3f9 1bbf 351b 9ebe 3c2f e0be
000000d0: 00be ff3d f711 bebe 9719 823d e12a 7e3d
000000e0: cb9a 6cbe e157 e4bd f55d 80be b053 b9bc
000000f0: 8202 4dbe 73d2 aa3e a822 89be 7810 2d3e

kenc0.encoder.13.running_var f4 [64]
2.2231762 2.6994693 0.8167387 4.530748 1.5125971 7.156954 4.507727 4.430669
1.1441141 5.5883913 3.6185203 1.4335856 0.9600297 2.0766125 8.888044 2.2665384
2.2415807 6.552823 2.1025584 1.206877 1.9811401 3.3868656 1.0548172 1.48823
4.3257856 1.58961 4.8985534 0.8856814 5.661721 0.71971637 0.950435 3.3493068
3.0426035 3.939483 1.5139774 2.821207 2.372547 3.0424907 3.31771 2.385656
1.850821 1.2152777 1.4565171 2.5985856 3.7895043 1.2430573 2.2135918 0.8811123
1.2802418 3.3444293 2.8725762 1.3968722 4.3424478 2.5294795 2.536731 3.194483
4.8758764 5.4928746 3.7732334 5.1094193 1.7962973 4.3781886 6.600616 5.865585
00000000: 8548 0e40 1bc4 2c40 ca15 513f e3fb 9040
00000010: c89c c13f c405 e540 4d3f 9040 0ac8 8d40
00000020: 5572 923f 1ad4 b240 d695 6740 bc7f b73f
00000030: 82c4 753f 38e7 0440 6e35 0e41 f70e 1140
00000040: 0f76 0f40 bab0 d140 5190 0640 f27a 9a3f
00000050: 0096 fd3f 68c2 5840 4004 873f 527e be3f
00000060: d66c 8a40 5778 cb3f f3c0 9c40 04bc 623f
00000070: d22c b540 553f 383f b54f 733f 0b5b 5640
00000080: 04ba 4240 7d20 7c40 03ca c13f a88e 3440
00000090: cfd7 1740 2bb8 4240 5c55 5440 97ae 1840
000000a0: b4e7 ec3f 388e 9b3f 276f ba3f 3a4f 2640
000000b0: 3d87 7240 801c 9f3f 7dab 0d40 9390 613f
000000c0: f7de a33f 210b 5640 4ad8 3740 b5cc b23f
000000d0: 55f5 8a40 fee2 2140 cd59 2240 6972 4c40
000000e0: 2e07 9c40 a1c5 af40 a87c 7140 5d80 a340
000000f0: 12ed e53f 1f1a 8c40 3f38 d340 dfb2 bb40
