hyperglue/weights/LW677.pth (torch, 581339 bytes, 192 tensors)

penc0.lin.weight f4 [36, 100]
0	0xbdee7cff	-0.11644935
1	0x3d807c80	0.062737465
2	0x3c813716	0.015773337
3	0xbeffe6e3	-0.4998084
4	0xbe625ef9	-0.22106542
5	0x3e43e53c	0.19130415
6	0x3d3936b4	0.045218185
7	0x3d0d8287	0.03454831
8	0xbd56ee13	-0.05247314
9	0xbdbf8e03	-0.093532585
10	0x3d0133de	0.031543605
11	0xbcb2a2db	-0.021806171
12	0x3d852b01	0.06502343
13	0x3f1b1354	0.6057637
14	0xbecea9f7	-0.40364048
15	0x3ebf2bdc	0.3733815
16	0x3d9e25b3	0.07722034
17	0x3f6b48a9	0.91907746
18	0xbe98367a	-0.29729062
19	0x3e2ae833	0.1669014
20	0x3d4534ba	0.048145987
21	0x3d5cd012	0.05390937
22	0x3d6da42d	0.0580179
23	0x3cefc6a6	0.029269528
24	0xbe90b554	-0.28263342
25	0x3e2f631b	0.1712765
26	0xbcef347f	-0.029199837
27	0x3e33354a	0.17500797
28	0xbdf6a56a	-0.12043269
29	0x3c7692d8	0.015049659
30	0x3cd03b0c	0.02541878
31	0x3df29c7c	0.11846253
32	0x3dd2a21b	0.102848254
33	0x3f475954	0.7787068
34	0x3f28a254	0.65872693
35	0x3e1cfb0e	0.15330145
36	0x3e393b9d	0.18089147
37	0x3f7b5749	0.9818006
38	0x3f55cf13	0.83519095
39	0x3d2838f1	0.04106993
40	0xbdff44a9	-0.12464268
41	0x3d6ea4f2	0.058262773
42	0x3dc38c53	0.09548249
43	0xbf10d85c	-0.5658014
44	0xbd0ddb15	-0.03463276
45	0x3f28b794	0.6590512
46	0x3d8e0d0f	0.069360845
47	0xbec28f6d	-0.3800005
48	0x3e2df4bd	0.16987891
49	0x3f0dc129	0.55372864
50	0xbd566cf3	-0.052349996
51	0x3cb1d7e9	0.0217094
52	0x3dbd8c53	0.0925528
53	0x3e19166f	0.14949964
54	0x3c4a9228	0.012363948
55	0xbe7beb68	-0.24601519
56	0xbe13d21a	-0.14435616
57	0x3e90474a	0.2817939
58	0x3e02b7e8	0.12765467
59	0xbebc0437	-0.36721966
60	0x3ca41bc7	0.020032777
61	0x3cbb86c1	0.022891404
62	0x3d4750c1	0.048660997
63	0xbd00c1df	-0.03143489
64	0xbf984b0b	-1.1897901
65	0x3effcf0f	0.4996266
66	0xbd500593	-0.050786566
67	0x3e6df69b	0.23238604
68	0xbf8a1077	-1.0786275
69	0x3e6d15f0	0.231529
70	0xbbba8bc6	-0.005692932
71	0x3e18192c	0.14853352
72	0x3cbbc216	0.022919696
73	0x3ebc03a9	0.36721542
74	0x3f0e17ec	0.5550525
75	0x3f11864e	0.5684556
76	0x3e52b06a	0.20575109
77	0x3f07a8cd	0.52991945
78	0x3f1b00d5	0.60548145
79	0x3eeca16f	0.46216914
80	0xbd491638	-0.049093455
81	0x3dfcebe2	0.123496786
82	0xbd6aaec9	-0.057295594
83	0xbd9f7bf2	-0.077873126
84	0x3f21a371	0.63140017
85	0xbf981bf3	-1.188353
86	0xbe146f29	-0.14495529
87	0xbc143c9b	-0.009047653
88	0x3f17aaf1	0.5924521
89	0xbf9d974b	-1.2311796
90	0xbe14a01d	-0.14514203
91	0xbd289c47	-0.041164663
92	0xbd906d41	-0.070520885
93	0xbf060beb	-0.52361935
94	0x3cfb5a17	0.030682607
95	0xbedefcae	-0.43552154
96	0xbdbeaa70	-0.09309852
97	0xbeb4c6aa	-0.3530782
98	0x3e25e21a	0.16199532
99	0xbecc124a	-0.39857703
100	0xbd914b9e	-0.07094501
101	0xbdda735d	-0.10666535
102	0xbdb01808	-0.085983336
103	0xbc8d8a44	-0.017277844
104	0xbe5a0392	-0.21290424
105	0xbf3f0a0f	-0.74624723
106	0x3da2f0e6	0.07956104
107	0x3dbcbac3	0.092153095
108	0x3d992e7d	0.0747957
109	0x3d9925ed	0.07477937
110	0xbdd572be	-0.10422276
111	0xbbc13884	-0.0058966298
112	0xbcbeaefe	-0.023276802
113	0xbdb3043b	-0.08741041
114	0x3f9310b8	1.1489477
115	0x3ef5b878	0.479923
116	0x3d0ed891	0.034874503
117	0x3b69b927	0.0035663338
118	0x3fb487da	1.4103959
119	0x3f602aba	0.87565196
120	0xbd9f07f3	-0.07765188
121	0xbde41911	-0.111375935
122	0xbdec7559	-0.1154582
123	0x3ebc6782	0.3679772
124	0xbe301a9e	-0.17197654
125	0xbf43afb3	-0.7643997
126	0x3dc830ba	0.09774919
127	0x3ef15a62	0.4713927
128	0xbe624f41	-0.22100545
129	0xbeea2fc6	-0.45739573
130	0xbc7d2c94	-0.015452523
131	0x3cfc82a4	0.030824013
132	0xbd0fbf4f	-0.035094555
133	0xbf939bc0	-1.1531906
134	0x3ef45ec0	0.4772854
135	0x3e420145	0.18945797
136	0xbe0643b9	-0.13111772
137	0xbf7119d4	-0.94180036
138	0x3ee309a4	0.44343293
139	0x3f2b9e5a	0.670385
140	0xbcf076f8	-0.029353604
141	0xbe244828	-0.1604315
142	0xbcc3d51f	-0.023905335
143	0xbdd76e49	-0.10519082
144	0xbcf0f0db	-0.029411724
145	0x3e1f7c02	0.15574649
146	0x3e2a818f	0.16650985
147	0xbe61ca20	-0.22049761
148	0xbc63e7c7	-0.0139102405
149	0x3f085faf	0.53271
150	0x3ca20ba4	0.019780941
151	0xbe25f625	-0.16207178
152	0x3d38fb90	0.045161784
153	0xbc8b9dfe	-0.01704311
154	0xbf10585a	-0.56384814
155	0x3e855baf	0.26046512
156	0x3da41c88	0.080132544
157	0xbb56d619	-0.003278142
158	0xbea31a69	-0.31856087
159	0x3f2e232a	0.68022406
160	0x3c9dfdec	0.019286118
161	0xbe427b03	-0.18992238
162	0x3c957339	0.018243419
163	0xbe78988f	-0.24276946
164	0xbf2069c7	-0.62661403
165	0x3f7549b7	0.95815605
166	0x3ec57c6d	0.38571492
167	0xbe6d955f	-0.23201512
168	0xbee9dfdf	-0.45678613
169	0x3f849161	1.0356866
170	0x3d66e808	0.056373626
171	0xbd0671c4	-0.03282334
172	0xbda4f8e6	-0.08055286
173	0x3e2540f5	0.1613806
174	0x3f2f4c10	0.6847544
175	0x3e330659	0.1748289
176	0x3c6de3e2	0.0145196635
177	0x3e56cbc0	0.20976162
178	0x3f2c2371	0.6724158
179	0x3ecd6853	0.40118656
180	0x3d15eae9	0.03660098
181	0x3a82bad6	0.0009973894
182	0xbdf49faa	-0.11944516
183	0x3eaf332e	0.34218735
184	0xbe8409a3	-0.25788602
185	0xbe6857d7	-0.22689758
186	0xbe5099fa	-0.20371237
187	0x3ea87289	0.32899883
188	0xbd95d84c	-0.07316646
189	0x3e134bb4	0.14384347
190	0xbd10c22a	-0.03534142
191	0xbe28f59d	-0.16499944
192	0xbd99fcbe	-0.0751891
193	0x3eb45152	0.35218292
194	0xbe70fa6e	-0.23533031
195	0xbee50589	-0.44730785
196	0x3ed55074	0.41662943
197	0x3eb4bfc3	0.35302553
198	0xbe641b3f	-0.22276019
199	0xbe836125	-0.25660053
200	0x3c9a7705	0.018855581
201	0x3b8a0c56	0.0042128963
202	0x3da4ebd1	0.08052791
203	0x3e8c13ff	0.27359006
204	0x3e895582	0.2682305
205	0xbec21f9f	-0.3791475
206	0xbdeab2d4	-0.1145989
207	0x3da937ef	0.082626216
208	0xbd379147	-0.04481628
209	0xbdbdab97	-0.09261244
210	0xbe01a81e	-0.12661788
211	0xbd2a6148	-0.04159668
212	0x3d6604c7	0.0561569
213	0x3f3905cf	0.7227449
214	0x3f3f4569	0.74715286
215	0x3e8399f5	0.25703397
216	0x3dcf6018	0.1012575
217	0x3f02ab5f	0.5104274
218	0x3f0faf0a	0.56126463
219	0x3edae497	0.42752525
220	0xbde6844b	-0.11255702
221	0xbcc1be2d	-0.023650253
222	0x3d9a013a	0.07519765
223	0x3e85d1ab	0.26136526
224	0xbece8162	-0.40333086
225	0xbd2f2890	-0.042763293
226	0xbe19d57c	-0.15022844
227	0x3ce8bf02	0.028411392
228	0xbf070244	-0.5273783
229	0x3e096912	0.13418987
230	0xbbb8d2c0	-0.0056403577
231	0xbd874943	-0.066057704
232	0xbc343f1e	-0.011001376
233	0xbe66a9e0	-0.2252574
234	0x3f115ded	0.56783944
235	0xbed2a846	-0.41144007
236	0x3d32d141	0.04365659
237	0xbf04b0ba	-0.51832163
238	0x3e940ed5	0.28917566
239	0xbe188548	-0.14894593
240	0xbe22663b	-0.1585931
241	0xbd0efcde	-0.03490912
242	0x3d8749c5	0.06605867
243	0xbfa6cf5a	-1.3032029
244	0xbe97a29c	-0.2961625
245	0xbe1223d5	-0.14271481
246	0x3ed9c13c	0.4253024
247	0xbfa5779a	-1.2927125
248	0xbe9a83ac	-0.30178583
249	0x3c8d7571	0.017267914
250	0xbd6ee673	-0.058325242
251	0xbd3d6614	-0.046239927
252	0x3dff7813	0.12474074
253	0x3eb55a61	0.35420516
254	0xbf3b39e7	-0.73135227
255	0x3eeb5fa2	0.459714

penc0.bn.weight f4 [36]
0	0x3f8d9eac	1.1064048
1	0x3f6e27b6	0.93029344
2	0x3f86a88b	1.0520185
3	0x3f9d3d3c	1.2284312
4	0x3fab9d37	1.3407353
5	0x3fa5d56a	1.2955754
6	0x3fa9addc	1.3256183
7	0x3f83f308	1.0308542
8	0x3fb9ec7e	1.4525297
9	0x3fb20027	1.3906296
10	0x3f9f9455	1.2467142
11	0x3f9b0cbb	1.211326
12	0x3f7bbe8b	0.9833762
13	0x3fa73de0	1.3065758
14	0x3f841bd4	1.0320992
15	0x3fc3f8bf	1.5310286
16	0x3f83c624	1.0294843
17	0x3fa442e8	1.2832918
18	0x3f93371b	1.1501192
19	0x3f8092df	1.0044822
20	0x3f99154f	1.1959628
21	0x3f95ec97	1.1712826
22	0x3f8b95de	1.0905111
23	0x3f82e950	1.0227451
24	0x3f754304	0.9580538
25	0x3fa60bc4	1.297234
26	0x3fc8e7f0	1.5695782
27	0x3f745d8b	0.95455235
28	0x3f9e2534	1.2355103
29	0x3f7471c3	0.95486087
30	0x3fa05983	1.2527317
31	0x3fa5945e	1.2935903
32	0x3fa3781a	1.2771027
33	0x3fabbe62	1.3417475
34	0x3f9cf44d	1.2262055
35	0x3f992037	1.1962956

penc0.bn.bias f4 [36]
0	0x3df58940	0.11989069
1	0x3e17d667	0.14827882
2	0x3de38afd	0.11110494
3	0x3e624744	0.22097498
4	0xbdbccb29	-0.09218437
5	0xbe095ab3	-0.13413505
6	0xbd8183bf	-0.06323957
7	0xbdc97536	-0.09836809
8	0x3e2c3c69	0.1681992
9	0x3d2e10f0	0.04249662
10	0xbd9e1fc8	-0.077209055
11	0x3e3b5a67	0.18296205
12	0x3e2ad600	0.16683197
13	0x3d27dbe4	0.04098119
14	0xbd625d49	-0.055264745
15	0x3e06f422	0.13179067
16	0x3e0713b5	0.13191111
17	0xbd7780e0	-0.06042564
18	0xbd7b6a87	-0.06138089
19	0xbc56b9cc	-0.013105821
20	0x3de1bc3a	0.110222295
21	0xbca7d51f	-0.020487366
22	0xbd838ecc	-0.06423721
23	0x3d533650	0.05156547
24	0xbdc8db0a	-0.098074034
25	0x3e22e5c8	0.15907967
26	0x3e238773	0.15969639
27	0x3c550e6c	0.013003927
28	0x3c265ce9	0.010153987
29	0x3db45302	0.08804895
30	0x3ddf293c	0.10896537
31	0xbbbdc796	-0.0057916148
32	0x3d922ba4	0.0713723
33	0xbe4cf2d6	-0.2001451
34	0xbd3c12d8	-0.04591641
35	0xbd549962	-0.05190409

penc0.bn.running_mean f4 [36]
0	0x3dbdd8e0	0.09269881
1	0x3f230839	0.6368442
2	0x3ee66476	0.4499852
3	0xbf5b0e79	-0.8556896
4	0xbecd722a	-0.40126163
5	0xbeb1295e	-0.34601873
6	0xbefaf58a	-0.49015456
7	0xbe0e63d2	-0.13905266
8	0xbeabd1b3	-0.33558425
9	0xbef84155	-0.48487344
10	0xbb970d33	-0.0046097278
11	0xbe090de2	-0.13384202
12	0x3f14344e	0.5789231
13	0xbcd68871	-0.026188107
14	0x3e034027	0.12817441
15	0xbeb984ee	-0.3623423
16	0x3f3e3efe	0.7431487
17	0xbd9a97e4	-0.07548502
18	0xbf3b97f4	-0.7327874
19	0xbd426bf2	-0.047466226
20	0x3e6d1096	0.23150858
21	0x3ce16a79	0.02751659
22	0xbda9699d	-0.08272097
23	0x3e4575d0	0.19283223
24	0xbe8d6efe	-0.27623743
25	0x3d4f2e2d	0.050581146
26	0xbf0875f4	-0.5330498
27	0x3e38bef7	0.18041597
28	0xbec96d7c	-0.39341342
29	0x3ed86a34	0.42268527
30	0xbe599881	-0.21249582
31	0xbe799e57	-0.24376808
32	0xbf094f10	-0.53636265
33	0xbed6cb12	-0.41951805
34	0xbe88af86	-0.26696414
35	0xbd704714	-0.058661535

penc0.bn.running_var f4 [36]
0	0x3e0c3f71	0.13696076
1	0x3e95172f	0.2911925
2	0x3e7458f0	0.23862052
3	0x3e24c4a6	0.1609064
4	0x3e52e15b	0.20593779
5	0x3e25c1ae	0.16187164
6	0x3e0d97ea	0.13827482
7	0x3e24e82e	0.16104195
8	0x3da6e55d	0.08149216
9	0x3e3c5b79	0.18394269
10	0x3da21115	0.079134144
11	0x3e2b81cd	0.16748734
12	0x3e587eda	0.2114214
13	0x3de4f1ec	0.111789554
14	0x3de4da2b	0.11174425
15	0x3dcc088a	0.09962566
16	0x3e631503	0.22175984
17	0x3e226c99	0.15861739
18	0x3e7675d8	0.24068391
19	0x3e97cba6	0.2964756
20	0x3e1f32e6	0.1554676
21	0x3dc39bc2	0.09551193
22	0x3e86f913	0.26361904
23	0x3da5d47b	0.08097168
24	0x3e5eb720	0.21749544
25	0x3dfb2e85	0.12264732
26	0x3e5899df	0.21152447
27	0x3e155eed	0.14586993
28	0x3e92e158	0.2868755
29	0x3e0b1c0a	0.13584915
30	0x3df17551	0.117899545
31	0x3e906c8c	0.28207815
32	0x3e527b51	0.20554854
33	0x3e1d5b85	0.15366943
34	0x3e203efe	0.1564903
35	0x3e0a5d6c	0.135122

penc1.lin.weight f4 [36, 100]
0	0xbc2b5abc	-0.0104586445
1	0x3d1d39f1	0.038385335
2	0xb844b84a	-4.6901674e-05
3	0xbe99379e	-0.29925245
4	0xbd6de350	-0.05807811
5	0x3f1d7ac4	0.6151545
6	0x3e30aedb	0.17254202
7	0x3d084dea	0.03327743
8	0xbd391a4a	-0.045191087
9	0x3d381f17	0.044951525
10	0xbdc7b74b	-0.09751757
11	0xbd68a14f	-0.05679446
12	0x3d8ff219	0.07028598
13	0x3f31084f	0.691533
14	0xbdbbbecc	-0.09167251
15	0x3f01bea3	0.50681514
16	0xbd218502	-0.039433487
17	0x3f6489bc	0.89272666
18	0xbe536e13	-0.20647459
19	0x3e1f3aac	0.15549725
20	0xbd08756d	-0.03331511
21	0x3aaf8444	0.0013390859
22	0xbd2097ce	-0.039207272
23	0xbe8bd839	-0.27313402
24	0x3e6959e9	0.22788204
25	0xbf5162d1	-0.81791407
26	0xbc5e098a	-0.013552079
27	0xbe299eec	-0.1656453
28	0x3e25d886	0.16195878
29	0xbf9aea84	-1.2102818
30	0xbd6305c4	-0.05542542
31	0xbd0e8392	-0.034793444
32	0xbb965a9c	-0.004588438
33	0xbe8eeef0	-0.2791667
34	0xbf10b3ee	-0.5652455
35	0x3f256e11	0.64621073
36	0x3ebbec10	0.3670354
37	0xbe68975e	-0.22713992
38	0xbee4457d	-0.44584265
39	0x3edce893	0.4314619
40	0x3d8ecbd3	0.0697247
41	0xbccf1570	-0.025278777
42	0xbdc31d7f	-0.0952711
43	0x3f45b8f5	0.7723535
44	0xbef936a9	-0.48674515
45	0x3f048518	0.51765585
46	0xbd54a369	-0.051913653
47	0x3f6debb2	0.9293777
48	0xbea74b75	-0.32674757
49	0x3d340e51	0.043958966
50	0x3dc7b3ef	0.097511165
51	0xbc21efe9	-0.009883859
52	0xbd60db28	-0.054896504
53	0x3f4c5951	0.79823786
54	0xbec758b7	-0.38934872
55	0x3e9982ee	0.29982704
56	0x3d900185	0.0703154
57	0x3f61517f	0.8801498
58	0xbec656a6	-0.38737983
59	0xbdd9385c	-0.10606453
60	0xbdef67a8	-0.11689693
61	0x3d00867e	0.03137826
62	0xbe20eef4	-0.15716153
63	0xbaa88343	-0.0012856502
64	0x3edaa766	0.4270584
65	0xbf305b52	-0.68889344
66	0xbbb46b80	-0.005505979
67	0x3e0d8219	0.1381916
68	0x3eedaff8	0.46423316
69	0xbf5941f2	-0.8486625
70	0xbe280d62	-0.16411355
71	0xbdd1fae9	-0.102529354
72	0x3b5b2026	0.003343591
73	0xbf7ec9c9	-0.9952665
74	0xbe2f49c7	-0.17117988
75	0xbe8d3d71	-0.2758594
76	0xbcd27392	-0.025689874
77	0xbf31935a	-0.69365466
78	0xbe5efcc8	-0.21776116
79	0xbf1dc6c7	-0.61631435
80	0xbdbaf637	-0.09128993
81	0xbd5449d1	-0.05182821
82	0x3bf66105	0.00751889
83	0x3edac6db	0.4272984
84	0x3eaa55c5	0.33268562
85	0x3f5a4689	0.8526388
86	0x3c93ae13	0.018027341
87	0x3ee5fec5	0.44920936
88	0x3e756611	0.23964716
89	0x3f070e0f	0.52755827
90	0xbc40e558	-0.01177343
91	0xbb89f3da	-0.0042099776
92	0xbe2c5027	-0.1682745
93	0xbf1fdbc6	-0.6244472
94	0x3f06b572	0.52620614
95	0xbf802c78	-1.0013571
96	0x3e7e2dd7	0.24822174
97	0xbef3d028	-0.47619748
98	0x3ef99396	0.48745412
99	0xbf8847d7	-1.0646924
100	0x3d91566d	0.070965625
101	0x3c907355	0.01763312
102	0xbe031ebc	-0.12804693
103	0x3e409244	0.18805796
104	0x3f7459b8	0.954494
105	0xbf523d17	-0.82124466
106	0x3dd64961	0.10463215
107	0x3d49035a	0.049075462
108	0xbd2051f3	-0.039140653
109	0xbd91000d	-0.07080088
110	0x3b95a533	0.0045668124
111	0x3dd897c1	0.1057582
112	0x3cab9955	0.020947138
113	0xbd83ad62	-0.064295545
114	0xbeae9ed1	-0.34105542
115	0xbf872f63	-1.0561336
116	0xbdbf4a18	-0.09340304
117	0xbddeae55	-0.10873095
118	0xbf48e013	-0.7846691
119	0xbf1fc398	-0.6240783
120	0xbdd19ae3	-0.102346204
121	0x3d1457b6	0.03621646
122	0xbd1f05b5	-0.038823802
123	0xbedf7464	-0.43643486
124	0xbe944029	-0.289552
125	0x3e979df8	0.29612708
126	0x3d92754f	0.07151281
127	0xbf079467	-0.5296082
128	0xbf6845de	-0.9073161
129	0x3f25b1fe	0.6472472
130	0xbdc9d5b8	-0.09855217
131	0x3d84a198	0.06476134
132	0x3cba437a	0.022737253
133	0xbf07323a	-0.52811015
134	0x3ed7ad7f	0.42124555
135	0x3f8ca082	1.0986483
136	0x3e68b4d8	0.22725236
137	0xbed8f521	-0.4237452
138	0xbdf4a32c	-0.11945185
139	0x3fa6463a	1.2990181
140	0x3ddb6a47	0.1071363
141	0x3d89ddd0	0.067317605
142	0xbd3e1f8d	-0.046416808
143	0x3e99af3e	0.30016512
144	0xbe9f361a	-0.31095964
145	0xbc9fcb50	-0.019506127
146	0xbe0f3383	-0.13984494
147	0x3e67937f	0.22614859
148	0xbf3f0ee4	-0.74632096
149	0x3ecfd38f	0.40591094
150	0x3cb76b13	0.022389924
151	0xbd4e88c9	-0.050423417
152	0x3d7367c0	0.059425116
153	0x3d0ed782	0.034873493
154	0xbf95bcba	-1.169822
155	0x3f2849d5	0.6573766
156	0xbe92d79e	-0.28680128
157	0xbdcb1c26	-0.09917478
158	0xbfa3de65	-1.2802244
159	0x3f45b065	0.7722228
160	0xbd751d99	-0.05984268
161	0x3e0c9f70	0.13732696
162	0xbd3e544a	-0.046467103
163	0x3e6e4372	0.23267916
164	0x3f3377d2	0.70104706
165	0xbe91c89b	-0.28473362
166	0x3e600080	0.2187519
167	0x3d50cc52	0.050976105
168	0x3e67ae68	0.22625124
169	0xbdb6fb74	-0.089346796
170	0x3dcd434f	0.10022604
171	0xbcebcac9	-0.028783219
172	0xbbf920d7	-0.007602792
173	0x3e7ac7f2	0.24490336
174	0xbe2b3470	-0.16719222
175	0xbe7b968e	-0.24569151
176	0x3d9ae419	0.075630374
177	0x3e98031a	0.29689866
178	0xbeb9de3e	-0.3630237
179	0x3ba3d15f	0.004999324
180	0x3bb69b3e	0.0055727055
181	0x3d21e00f	0.03952032
182	0xbd4cd7dd	-0.05001055
183	0x3eb13ded	0.34617558
184	0x3ed390d1	0.41321424
185	0x3f3b1d40	0.73091507
186	0xbdc16bd2	-0.09444393
187	0x3e9648c2	0.29352385
188	0x3d57c981	0.052682403
189	0x3f542023	0.82861537
190	0xbcd7ae72	-0.0263283
191	0x3cc9515b	0.024574926
192	0xbde21154	-0.11038461
193	0xbf07ce91	-0.5304957
194	0x3e2ca067	0.16858064
195	0xbeb563f0	-0.3542781
196	0x3e5bccac	0.21464795
197	0xbed298d9	-0.41132239
198	0xbe301008	-0.17193615
199	0xbd6d922d	-0.058000732
200	0x3dad6a96	0.08467595
201	0xbd958139	-0.07300038
202	0xbdf74c0e	-0.12075053
203	0xbf0b8a60	-0.5450802
204	0x3d2a7390	0.041614115
205	0x3d85809f	0.06518673
206	0x3db2e7bf	0.08735608
207	0x3db91ce8	0.090387166
208	0xbd90c7ca	-0.07069357
209	0xbcb5255a	-0.022112537
210	0xbd0d4a87	-0.034494903
211	0x3d7e9001	0.06214905
212	0xbe332f67	-0.17498551
213	0xbf174f6f	-0.5910558
214	0x3e55b929	0.20871414
215	0xbf3b3918	-0.73133993
216	0xbc5b2ae7	-0.013376928
217	0xbe8ba030	-0.2727065
218	0x3e149f95	0.14514
219	0xbf5042a8	-0.8135171
220	0x3ddec28f	0.10876953
221	0x3e06901f	0.13140915
222	0xbde80b2d	-0.113302566
223	0xbdfc20af	-0.123109214
224	0x3f944732	1.1584227
225	0x3eacee6d	0.33775654
226	0xbcbdf5dc	-0.023188524
227	0x3e031c40	0.12803745
228	0x3f8769e7	1.0579194
229	0x3ece4db6	0.40293664
230	0xbc302a75	-0.01075231
231	0xbddcfcfe	-0.10790442
232	0xbe088414	-0.13331634
233	0xbfa08bb1	-1.254263
234	0xbedf8373	-0.43654975
235	0xbe815030	-0.2525649
236	0xbe7aa6af	-0.24477647
237	0xbf4aab12	-0.7916728
238	0xbef7941e	-0.48355192
239	0xbe92bf81	-0.2866173
240	0x3dca5963	0.098803304
241	0x3d34a08a	0.044098414
242	0x3d144000	0.036193848
243	0x3f2ca7ae	0.6744336
244	0x3ed02184	0.4065057
245	0x3e822481	0.25418475
246	0xbe6d355e	-0.23164889
247	0x3f668ec1	0.90061575
248	0x3ecf696b	0.40510115
249	0x3e0398ea	0.12851301
250	0x3ce84a7c	0.02835583
251	0xbdbc244c	-0.091866106
252	0x3cc5df38	0.02415429
253	0x3efa3a73	0.48872718
254	0xbe9e5fdb	-0.30932507
255	0x3f131052	0.5744678

penc1.bn.weight f4 [36]
0	0x3f6fbba8	0.93645716
1	0x3f98cc26	1.1937301
2	0x3fa9dcab	1.3270468
3	0x3fa355a9	1.2760516
4	0x3fb3db94	1.4051385
5	0x3f8daa3d	1.1067578
6	0x3fdd7e73	1.7304214
7	0x3fbefa1d	1.4920079
8	0x3fb6262a	1.4230397
9	0x3f9232f9	1.1421806
10	0x3f8c6155	1.0967203
11	0x3f6beec5	0.9216121
12	0x3f85f310	1.0464802
13	0x3f9b0b9e	1.211292
14	0x3fb352b4	1.4009614
15	0x3faca3ae	1.3487451
16	0x3f907d6e	1.1288278
17	0x3fb046be	1.3771589
18	0x3f91e875	1.1399065
19	0x3f83842c	1.0274711
20	0x3f9347c3	1.1506275
21	0x3f6d92e6	0.92802274
22	0x3fa1d8fb	1.2644342
23	0x3fa08d38	1.2543097
24	0x3fb3784e	1.4021089
25	0x3fa1386a	1.2595341
26	0x3fb575cc	1.4176574
27	0x3fad3fb0	1.3535061
28	0x3f84957f	1.0358123
29	0x3f88823d	1.0664746
30	0x3fb0583a	1.3776925
31	0x3f8859f1	1.0652448
32	0x3f8a3696	1.0797908
33	0x3f7ba483	0.982979
34	0x3f894f5b	1.0727342
35	0x3fa3fd9c	1.281177

penc1.bn.bias f4 [36]
0	0x3d9b0cd9	0.0757081
1	0x3e8c8649	0.274462
2	0x3d8cc9e8	0.06874448
3	0x3e070bb6	0.13188061
4	0x3e87f7ba	0.26556188
5	0x3e37c7dd	0.17947336
6	0xbde3ee36	-0.111294195
7	0x38189de3	3.6386667e-05
8	0x3bd039b9	0.0063545373
9	0x3d2b7cd5	0.041867096
10	0xbcc037a9	-0.02346404
11	0x3c04667b	0.008081074
12	0x3d32c9c3	0.043649446
13	0xbe03b528	-0.12862074
14	0x3d8cf19b	0.0688202
15	0xbd3c4f04	-0.045973793
16	0x3d907fd7	0.070556335
17	0x3e00c8a7	0.12576543
18	0x3e2f237c	0.1710338
19	0xbc217b50	-0.00985606
20	0xbd954312	-0.07288183
21	0x3d863f5c	0.065550536
22	0x3dba1723	0.09086444
23	0x3d36f4c5	0.044667024
24	0x3e008394	0.12550193
25	0x3aa40799	0.0012514471
26	0xbc19a99f	-0.00937882
27	0x3ddbcaa0	0.10732007
28	0xbc18f35a	-0.009335363
29	0x3e03989f	0.12851189
30	0x3dd71e5e	0.10503839
31	0x3e1718a1	0.14755489
32	0xbc71f1ed	-0.014767152
33	0x3e4ba33e	0.1988649
34	0xbd893014	-0.06698623
35	0x3bc60e89	0.006044213

penc1.bn.running_mean f4 [36]
0	0x3f005de9	0.50143296
1	0x3e5acb1e	0.21366546
2	0xbe17eb4c	-0.14835852
3	0xbee69e27	-0.45042536
4	0xbf336d6f	-0.7008886
5	0x3d8ddb1e	0.06926559
6	0xbefd4d94	-0.4947325
7	0xbeb7ebd1	-0.359221
8	0xbed65e3f	-0.4186878
9	0x3d895b5c	0.067068785
10	0x3e7350c7	0.23761283
11	0x3e0c2eab	0.13689677
12	0x3f39c84d	0.7257126
13	0xbe42e4c1	-0.19032575
14	0xbe4e721d	-0.20160718
15	0xbf0c7571	-0.548667
16	0xbe0d64e9	-0.13808025
17	0x3dd27b44	0.10277417
18	0x3db95d2e	0.09050976
19	0x3cbe9edf	0.023269115
20	0xbe14a3cd	-0.1451561
21	0x3ee1575f	0.4401197
22	0x3b6448f5	0.0034833525
23	0x3f619424	0.8811667
24	0xbee70518	-0.45121074
25	0xbdbe81eb	-0.09302124
26	0xbeeff5c3	-0.4686719
27	0x3de2f272	0.11081399
28	0x3cc2f7bd	0.023799771
29	0x3dbf7525	0.093485154
30	0xbe59089d	-0.21194692
31	0x3e60968c	0.21932429
32	0x3ecde0a3	0.40210447
33	0x3e902dd1	0.28159955
34	0xbdd7ae52	-0.10531296
35	0xbda01f01	-0.078184135

penc1.bn.running_var f4 [36]
0	0x3e22a06e	0.15881512
1	0x3da484b5	0.08033124
2	0x3e63f54d	0.22261544
3	0x3f001753	0.5003559
4	0x3e61d258	0.22052896
5	0x3e6216a5	0.2207895
6	0x3dfa5cb1	0.12224711
7	0x3de21454	0.110390335
8	0x3dadaf42	0.084806934
9	0x3e05c2e6	0.13062629
10	0x3e10ec09	0.1415254
11	0x3e016cbd	0.12639137
12	0x3e68cec9	0.22735132
13	0x3dc1a09b	0.09454461
14	0x3da1c15f	0.07898211
15	0x3e47b3d1	0.19502188
16	0x3e3d251d	0.18471189
17	0x3dde458c	0.10853109
18	0x3e7c3c3f	0.24632357
19	0x3e59a7a8	0.21255362
20	0x3e75966e	0.23983166
21	0x3e7a7c28	0.24461424
22	0x3e4a17bd	0.19735618
23	0x3e3ee1d0	0.18640828
24	0x3e15284a	0.1456615
25	0x3deb90e5	0.11502246
26	0x3ea918a5	0.33026615
27	0x3dc08fde	0.094024405
28	0x3e0ef25f	0.13959645
29	0x3e272a76	0.16324791
30	0x3ddb4332	0.10706176
31	0x3e1b7f72	0.15185335
32	0x3e194139	0.14966287
33	0x3e7684de	0.24074122
34	0x3e3c2964	0.18375164
35	0x3e2e7f50	0.17040753

kenc0.encoder.0.weight f4 [8, 4, 1]
0	0xbcb4e09a	-0.022079755
1	0xbeeddac3	-0.46455964
2	0xbed156aa	-0.40886432
3	0x3e909534	0.28238833
4	0x3cb6998a	0.02229001
5	0xbe209b01	-0.1568413
6	0x3e04dd4c	0.12975043
7	0x3f41615a	0.7553917
8	0xbec4bee4	-0.38426888
9	0xbeb1c86e	-0.34723228
10	0x3ecb62e1	0.39723876
11	0xbeae0165	-0.3398544
12	0xbee1ac25	-0.44076648
13	0xbc92026a	-0.017823417
14	0xbe85a150	-0.26099634
15	0x3e6dbf59	0.23217525
16	0x3dc79fae	0.09747253
17	0x3d18efa2	0.037337907
18	0x3ce643d1	0.02810851
19	0xbf4d1a6b	-0.80118436
20	0x3eeb3c61	0.45944503
21	0xbe511f19	-0.20422019
22	0xbec1d8ac	-0.3786062
23	0xbe98240a	-0.29714996
24	0xbeae2598	-0.34013057
25	0xbecedde0	-0.40403652
26	0xbe7acf3f	-0.2449312
27	0x3ecc236e	0.3987078
28	0x3eaa95d0	0.33317423
29	0x3e27c64a	0.16384235
30	0xbf138744	-0.57628274
31	0xbe32f0b2	-0.1747463

kenc0.encoder.0.bias f4 [8]
0	0xbea6e740	-0.32598305
1	0xbe95a063	-0.29223928
2	0x3e018dc4	0.12651736
3	0xbf068973	-0.5255348
4	0x3ea1b09a	0.3158005
5	0x3dd6555b	0.10465499
6	0x3ea387da	0.31939584
7	0x3e272ba8	0.16325247

kenc0.encoder.1.weight f4 [8]
0	0x3f56f02f	0.8396024
1	0x3f82d940	1.022255
2	0x3f7e633c	0.9937017
3	0x3f5d5c90	0.86469364
4	0x3f8c78bb	1.0974344
5	0x3f8b48b6	1.0881565
6	0x3f48f991	0.7850581
7	0x3f7d82a1	0.9902745

kenc0.encoder.1.bias f4 [8]
0	0x3e38e173	0.18054752
1	0x3f32b4f5	0.6980737
2	0x3e855307	0.26039907
3	0x3e40f2cd	0.18842621
4	0x3d7f23b0	0.062289894
5	0x3e186b34	0.14884645
6	0x3e1e061c	0.15432018
7	0x3e3a9562	0.18221048

kenc0.encoder.1.running_mean f4 [8]
0	0xbe8aa6e1	-0.27080444
1	0xbdf7008f	-0.120606534
2	0x3d46c38e	0.04852634
3	0xbef0fec9	-0.47069386
4	0x3e070974	0.131872
5	0x3cdef6d6	0.02721731
6	0x3ecf519d	0.40491953
7	0x3df057a4	0.11735466

kenc0.encoder.1.running_var f4 [8]
0	0x3da41b79	0.080130525
1	0x3e156c14	0.1459201
2	0x3dd8d3c4	0.10587266
3	0x3d5d2887	0.053993728
4	0x3e15ceef	0.1462972
5	0x3dbd1a31	0.09233511
6	0x3dad2c9f	0.084557764
7	0x3dbc1b39	0.0918488

kenc0.encoder.3.weight f4 [16, 8, 1]
0	0xbe3eb648	-0.18624222
1	0xbe48fa09	-0.19626631
2	0x3e6fab51	0.23405196
3	0x3e486e81	0.19573404
4	0xbe741803	-0.23837285
5	0x3dc170e3	0.094453596
6	0xbee37f73	-0.44433174
7	0x3ed6e921	0.41974738
8	0x3e075ad3	0.1321824
9	0xbedd1ef4	-0.43187678
10	0x3ea06113	0.31324062
11	0x3e91daae	0.28487152
12	0xbe7cf41c	-0.24702495
13	0x3d1024b5	0.035191257
14	0x3e91d437	0.2848222
15	0xbeec355f	-0.4613447
16	0xbcc5a59e	-0.024126824
17	0x3e406a9b	0.18790667
18	0x3efcda9f	0.49385545
19	0xbdb88137	-0.09009021
20	0xbeeb3b22	-0.45943552
21	0x3d166940	0.036721468
22	0x3de538d9	0.111924835
23	0x3d240a83	0.040049087
24	0x3ec24916	0.37946385
25	0xbc8f91c2	-0.017525557
26	0xbef40f3b	-0.4766787
27	0x3e707e04	0.23485571
28	0xbe9ea159	-0.30982473
29	0xbe913872	-0.28363377
30	0xbe85e13c	-0.26148403
31	0x3e984d04	0.29746258
32	0x3e90e92f	0.28302905
33	0xbf00a59b	-0.50252694
34	0xbe3f14c6	-0.18660268
35	0x3edbc735	0.4292542
36	0x3c67b341	0.014141859
37	0x3e235a96	0.15952525
38	0xbc8b6c2f	-0.01701936
39	0x3eb86677	0.36015674
40	0xbe2ed834	-0.17074662
41	0xbeb06c64	-0.34457695
42	0xbda16cf6	-0.07882111
43	0x3e4cad8a	0.19988075
44	0x3b78ff1e	0.0037993859
45	0xbebcbb12	-0.36861473
46	0xbe233ac9	-0.15940394
47	0xbde86929	-0.11348183
48	0xbb8055f6	-0.0039164973
49	0x3eb32e36	0.34996194
50	0xbe8703b3	-0.2637001
51	0x3ca75ad4	0.020429052
52	0xbf125000	-0.5715332
53	0xbb8b54db	-0.004252059
54	0x3dc2c888	0.095109046
55	0xbe84e727	-0.25957605
56	0xbe39da44	-0.18149668
57	0xbd94ea3e	-0.07271241
58	0x3ea7773a	0.3270815
59	0xbe0d65e7	-0.13808404
60	0xbea8e210	-0.32984972
61	0x3e3e2154	0.18567401
62	0xbebc4eb0	-0.36778784
63	0xbef4fd56	-0.4784953
64	0xbd8eb8d8	-0.0696885
65	0x3e8acd5e	0.27109808
66	0xbdb66cf2	-0.089074984
67	0x3e005ee4	0.12536198
68	0x3e1046dd	0.14089532
69	0x3ebbd7ea	0.36688167
70	0x3e69c9cb	0.22830884
71	0xbdb1c30b	-0.086797796
72	0x3d1dd775	0.038535554
73	0xbd73f33c	-0.05955814
74	0x3e6231bd	0.22089286
75	0x3e6e09dd	0.2324595
76	0x3f14a8eb	0.5807025
77	0xbe2adad2	-0.16685036
78	0xbd705e17	-0.05868348
79	0x3e882d09	0.2659686
80	0x3ea194ee	0.31558937
81	0x3e1a2e1e	0.15056655
82	0xbd46a2e8	-0.048495203
83	0xbe7097d6	-0.23495421
84	0xbe5f5c82	-0.21812633
85	0x3e83bebc	0.25731456
86	0xbdb4629d	-0.088078715
87	0xbec2dbe7	-0.38058397
88	0x3e43217e	0.19055745
89	0x3cffd509	0.031229513
90	0xbf118f3d	-0.5685919
91	0xbebdaff3	-0.370483
92	0xbd82cb79	-0.063864656
93	0x3e8a9bab	0.2707189
94	0xbe88485b	-0.26617703
95	0x3ebe4cbe	0.37167925
96	0x3ed59eb1	0.41722634
97	0xbe2e8291	-0.17041995
98	0x3ebc0d6a	0.36728984
99	0x3e64a588	0.2232877
100	0xbe203b75	-0.15647681
101	0x3c268a86	0.0101648625
102	0x3de268d1	0.110551484
103	0x3e39a82f	0.18130563
104	0x3dd0c4ef	0.10193812
105	0x3f116aac	0.56803393
106	0x3e20352e	0.15645286
107	0xbc24e230	-0.010063693
108	0xbe37cb93	-0.17948751
109	0xbeaf859a	-0.34281617
110	0xbd269467	-0.04066887
111	0x3ea8391e	0.32856077
112	0xbec540a5	-0.38525882
113	0x3e9638bc	0.2934016
114	0xbeccd963	-0.40009603
115	0xbdc240cb	-0.094850145
116	0x3e17fd54	0.14842731
117	0x3eb00e9d	0.3438615
118	0x3e30d5a8	0.17269003
119	0x3da490ce	0.08035432
120	0x3dcb759e	0.09934543
121	0xbf1cf375	-0.61308986
122	0xbddbd7b2	-0.107345
123	0xbe98c44f	-0.29837272
124	0x3e6e3270	0.23261428
125	0x3cfbfec0	0.030761123
126	0xbdeb80a3	-0.11499145
127	0xbe25df88	-0.16198552

kenc0.encoder.3.bias f4 [16]
0	0x3e1e661c	0.15468639
1	0xbde4f3a0	-0.1117928
2	0x3e2aa550	0.16664624
3	0xbf11f66d	-0.5701664
4	0xbd315e5b	-0.043302875
5	0x3e721d1e	0.2364392
6	0x3be53d6d	0.006995848
7	0x3e1b42bc	0.15162176
8	0xbe04d8ee	-0.12973377
9	0xbecd6582	-0.40116507
10	0x3e41db6f	0.18931364
11	0xbe96f0b0	-0.29480505
12	0xbde241e7	-0.11047726
13	0x3e9549ca	0.2915786
14	0xbe4b1037	-0.19830404
15	0xbed7e2ee	-0.4216532

kenc0.encoder.4.weight f4 [16]
0	0x3f7e12e4	0.99247575
1	0x3f5c1fdb	0.8598611
2	0x3f68119f	0.9065189
3	0x3f8e8963	1.1135677
4	0x3f6e10e2	0.9299451
5	0x3f77ac19	0.96746975
6	0x3f94aa69	1.1614505
7	0x3f7eb263	0.99490947
8	0x3f5b6dd6	0.8571447
9	0x3f8b4e59	1.0883285
10	0x3f6736ca	0.90317976
11	0x3f82c482	1.021622
12	0x3f4cf8f4	0.8006737
13	0x3f6d7ed4	0.9277165
14	0x3f5fa869	0.8736635
15	0x3f8ae594	1.0851312

kenc0.encoder.4.bias f4 [16]
0	0x3dac8a4e	0.08424817
1	0xbc8e79f8	-0.017392144
2	0xbe094db9	-0.13408555
3	0x3c72d850	0.014822081
4	0x3dda345d	0.10654519
5	0x3dd5e697	0.10444372
6	0x3f4f99c2	0.8109399
7	0x3e2cde12	0.16881588
8	0xbcbd199a	-0.023083497
9	0x3cb12a78	0.021626696
10	0xbd232184	-0.039826885
11	0x3db7759a	0.089579776
12	0x3d71e8b9	0.059059832
13	0x3ec4df4b	0.3845161
14	0x3d7cca95	0.061716635
15	0x3e872e31	0.2640243

kenc0.encoder.4.running_mean f4 [16]
0	0x3dba0c5c	0.090843886
1	0xbeaf16a7	-0.3419697
2	0x3ed83680	0.4222908
3	0xbf4dde3b	-0.8041722
4	0xbc38a0ce	-0.011268808
5	0xbec96b14	-0.39339507
6	0xbe232e91	-0.15935732
7	0xbe9c90d6	-0.3057925
8	0x3ec15a24	0.37764084
9	0x3d68bc64	0.05682029
10	0x3e121b88	0.14268315
11	0xbeed0732	-0.46294552
12	0x3e91d3ae	0.2848181
13	0x3f4d5c94	0.8021939
14	0xbc8b4b4e	-0.017003682
15	0xbf8e4b50	-1.1116734

kenc0.encoder.4.running_var f4 [16]
0	0x3e25ab7e	0.161787
1	0x3e948565	0.29008022
2	0x3e1ef44a	0.15522876
3	0x3ebb8fee	0.36633247
4	0x3ecd38ab	0.40082297
5	0x3e19ff36	0.15038761
6	0x3f25ac57	0.64716095
7	0x3e5fd705	0.21859367
8	0x3d9fc536	0.07801287
9	0x3ea71e3a	0.3264025
10	0x3e06ff16	0.13183245
11	0x3f0d1b3f	0.551197
12	0x3e301682	0.17196086
13	0x3e809202	0.25111395
14	0x3e2e80bc	0.17041296
15	0x3ea2fb63	0.31832418

kenc0.encoder.6.weight f4 [32, 16, 1]
0	0x3eb400be	0.35156816
1	0x3c2e3dd7	0.010634861
2	0xbd32876a	-0.043586172
3	0xbe53864e	-0.20656702
4	0xbd647ee7	-0.055785086
5	0xbeebaa9c	-0.46028602
6	0xbe074490	-0.13209748
7	0x3e824169	0.2544053
8	0xbdf0d522	-0.11759402
9	0x3d23b816	0.03997048
10	0x3e8e0b68	0.27743077
11	0xbea00bd0	-0.31259012
12	0xbe6934aa	-0.22773996
13	0x3e1fe00c	0.15612811
14	0x3e824985	0.25446716
15	0x3e1e17c5	0.15438755
16	0xbde2d3de	-0.11075567
17	0xbe732e48	-0.23748124
18	0x3dbf52cb	0.093419634
19	0xbdff863b	-0.12476774
20	0xbe0f0062	-0.1396499
21	0xbeb2c718	-0.3491752
22	0xbc8bf999	-0.01708679
23	0xbc59bd19	-0.013289713
24	0x3e7c0c3a	0.24614039
25	0xbe5abd7b	-0.21361344
26	0x3daff736	0.085920736
27	0x3d641c20	0.055690885
28	0x3e6b149e	0.22957084
29	0x3e844c6a	0.2583955
30	0x3eb1a129	0.34693268
31	0x3ec01f2b	0.3752378
32	0x3ce51f5e	0.027969059
33	0xbcae1756	-0.021251362
34	0xb93efa6c	-0.00018213101
35	0x3e09f5a2	0.13472608
36	0xbdfcd424	-0.1234515
37	0xbe8576af	-0.2606711
38	0x3f0abf06	0.5419773
39	0x3e255cdc	0.16148704
40	0x3e2e4c5c	0.17021316
41	0xbddb1d29	-0.10698921
42	0xbe9ad7dd	-0.30242816
43	0x3d8c630e	0.06854831
44	0xbdfa6a1f	-0.12227272
45	0x3eeae7c9	0.45879963
46	0xbcfb97b3	-0.030711984
47	0x3ccafe82	0.024779562
48	0x3e05a021	0.13049366
49	0xbdf4ff9c	-0.11962816
50	0xbe997e3c	-0.29979122
51	0xbe82a8d5	-0.25519434
52	0xbe0d4084	-0.13794142
53	0x3e6b9bc6	0.23008642
54	0xbd24f88b	-0.04027609
55	0xbe9be659	-0.3044918
56	0xbdda2d46	-0.106531665
57	0xbefdce03	-0.49571237
58	0xbe18b8db	-0.14914267
59	0x3e4bb077	0.19891535
60	0xbeafc4e1	-0.34329894
61	0xbdbb8dd5	-0.09157912
62	0xbab41846	-0.0013740144
63	0xbcd6fd81	-0.026243927
64	0xbe8d67aa	-0.27618152
65	0x3eacdb48	0.33761048
66	0x3d5da504	0.05411245
67	0xbe2f349f	-0.17109917
68	0xbd33f720	-0.04393685
69	0xbd5f6ecd	-0.054549027
70	0xbf4eb3f2	-0.80743325
71	0x3d72b382	0.059253223
72	0xba928df8	-0.0011181226
73	0x3d55c422	0.052189
74	0xbd47fdbc	-0.048825964
75	0x3d367a83	0.04455043
76	0xbdb0e1f3	-0.086368464
77	0xbe86c616	-0.26323003
78	0x3e060fe7	0.13092004
79	0x3e321e89	0.1739446
80	0xbda3f977	-0.08006566
81	0xbe9b0eaf	-0.3028464
82	0x3d5ddf83	0.054168236
83	0x3eafdf8c	0.3435024
84	0x3e17e432	0.14833143
85	0xbdaf09df	-0.08546805
86	0xbec5ee62	-0.38658434
87	0xbdc716ff	-0.09721183
88	0xbe043346	-0.12910184
89	0xbe00d361	-0.12580635
90	0xbd973a5c	-0.07384178
91	0xbe231866	-0.15927276
92	0xbeac5b4b	-0.336634
93	0xbe339fff	-0.17541502
94	0xbda658fe	-0.08122443
95	0xbed6751d	-0.41886225
96	0x3de92aa4	0.11385086
97	0xbefc2f4f	-0.49254844
98	0xbc376340	-0.011193097
99	0xbda62721	-0.08112932
100	0x3e7c93c1	0.24665739
101	0xbe8bda2f	-0.27314898
102	0xbedf61d3	-0.4362932
103	0x3ddd8875	0.10817043
104	0xbe02d433	-0.1277626
105	0x3b1c6dab	0.0023869078
106	0xbe4b8d4a	-0.19878116
107	0x3e43c609	0.19118513
108	0xbe328394	-0.17433006
109	0xbe39ced4	-0.18145305
110	0xbd299049	-0.041397367
111	0xbe0fae16	-0.14031252
112	0x3d1a7f97	0.037719335
113	0xbe937def	-0.28807017
114	0xbece6b16	-0.40316075
115	0xbdf1320e	-0.11777125
116	0xbe678436	-0.22609028
117	0xbe8d6330	-0.27614737
118	0xbe6e3a41	-0.2326441
119	0x3e1888af	0.1489589
120	0x3bc300da	0.0059510292
121	0xbe8895e9	-0.26676872
122	0x3dab3b48	0.083609164
123	0xbe7a543e	-0.24446198
124	0xbe3f5c6d	-0.18687601
125	0xbe32d905	-0.17465599
126	0xbe7a7433	-0.24458389
127	0xbe16c6bd	-0.1472425
128	0xbe9fb17b	-0.31190094
129	0xbe938427	-0.28811762
130	0x3d83a3a3	0.064276956
131	0xbe95f280	-0.29286575
132	0x3e052515	0.13002427
133	0x3afb1393	0.0019155614
134	0x3e8418a7	0.25800058
135	0x3de827cb	0.11335715
136	0xbe042b9d	-0.12907262
137	0xbd9ebe95	-0.077511944
138	0x3e56c511	0.20973612
139	0x3ec5c55d	0.3862714
140	0xbde9f034	-0.11422768
141	0xbde9e741	-0.11421061
142	0x3e8df8f4	0.27729
143	0x3e9b772a	0.30364352
144	0x3cc25a9e	0.02372485
145	0xbb857ec7	-0.004073951
146	0x3d2cb597	0.042165365
147	0xbe2645a2	-0.162375
148	0xbe0c62c3	-0.1370955
149	0xbede3590	-0.4340024
150	0xbeb9b3a7	-0.36269876
151	0xbe3a263a	-0.18178645
152	0x3c65ac37	0.01401811
153	0xbee37436	-0.444246
154	0xbda19c07	-0.07891088
155	0x3eb9f8a9	0.36322525
156	0xbe81445d	-0.2524747
157	0x3de2e5e5	0.11079005
158	0xbe1e4e49	-0.15459551
159	0xbe66cfcb	-0.22540204
160	0xbe11f99d	-0.14255376
161	0x3e94f8f4	0.29096186
162	0xbe5d896e	-0.21634457
163	0x3ed51b38	0.4162233
164	0x3e108c34	0.14115983
165	0xbd9c45be	-0.0763049
166	0x3e3c1e67	0.18370973
167	0x3e1f947f	0.1558399
168	0xbecf582b	-0.40496954
169	0xbca9a084	-0.020706423
170	0xbeb79b4f	-0.3586068
171	0xbe05fcbb	-0.1308469
172	0x3e8f293a	0.2796114
173	0x3df81e47	0.1211515
174	0x3e8b1581	0.27164844
175	0xbe8fc59d	-0.28080454
176	0xbc0ef20a	-0.008724699
177	0x3e947149	0.2899268
178	0xbee9d933	-0.45673522
179	0xbe827a43	-0.25483903
180	0xbe2215b3	-0.1582859
181	0x3e04dfae	0.12975952
182	0x3ea7b5c1	0.32755855
183	0xbebbaf6f	-0.36657283
184	0xbdc089f5	-0.09401313
185	0x3d34977a	0.04408977
186	0x3e0e5f38	0.1390351
187	0xbe65002c	-0.22363347
188	0x3ce0d769	0.027446466
189	0xbe42dcd9	-0.19029559
190	0xbe44baea	-0.19211927
191	0xbd21deb4	-0.039519027
192	0x3ea67c19	0.32516554
193	0x3e3e0de0	0.1855998
194	0x3c385682	0.011251094
195	0x3de34a16	0.11098115
196	0x3e160a3b	0.1465234
197	0x3dcfdc9c	0.101495
198	0x3ed2bdc8	0.41160417
199	0xbe2418a2	-0.16025022
200	0x3c9bcf9e	0.019019898
201	0xbe575c90	-0.21031404
202	0x3e61cc31	0.22050549
203	0xbdc23fe0	-0.094848394
204	0xbe0d1db1	-0.13780858
205	0x3e800350	0.25002527
206	0x3e87888e	0.2647137
207	0xbe1f8cc6	-0.15581045
208	0xbeac2e24	-0.33628953
209	0xbeaad1c1	-0.33363155
210	0x3e16cd81	0.14726831
211	0x3d4e2fbc	0.05033849
212	0x3ddd9758	0.10819882
213	0xbeb927ad	-0.36163083
214	0xbde08e00	-0.10964584
215	0xbe7faa89	-0.24967398
216	0xbe5db52a	-0.2165114
217	0xbf0760ef	-0.52882284
218	0x3d1cfa1b	0.038324457
219	0xbe0e287c	-0.13882631
220	0x3d7123dd	0.058872093
221	0xbdc21f1a	-0.094785884
222	0xbe3432a2	-0.1759744
223	0x3eab20ae	0.3342337
224	0xbe292363	-0.16517405
225	0x3c12f88e	0.008970393
226	0x3e92cb6e	0.2867083
227	0x3e7be310	0.24598336
228	0x3d5f57ad	0.054526974
229	0xbeb95304	-0.36196148
230	0xbeb3baf8	-0.35103583
231	0x3dfdde96	0.123959705
232	0x3e109997	0.1412109
233	0xbe195747	-0.149747
234	0xbe04a3e0	-0.12953138
235	0x3e98e0c5	0.29858986
236	0x3e247e2a	0.16063753
237	0xbddff028	-0.10934478
238	0x3ddb319e	0.10702823
239	0xbe915ea4	-0.28392518
240	0x3e9a088d	0.3008465
241	0x3d891b40	0.06694651
242	0x3e834270	0.25636625
243	0x3e4ba6d1	0.19887854
244	0x3e553bc9	0.20823587
245	0xbe589ca4	-0.21153504
246	0x3d82286c	0.06355366
247	0xbe89f2d4	-0.26943076
248	0xbe324fba	-0.17413226
249	0x3d10e174	0.03537126
250	0xbe5fe1f9	-0.21863545
251	0x3ec46cf9	0.3836439
252	0x3e184458	0.14869821
253	0x3e7e1732	0.24813536
254	0x3e3c5e15	0.18395264
255	0x3cb30ef5	0.021857718

kenc0.encoder.6.bias f4 [32]
0	0xbd77c665	-0.06049194
1	0x3d1fa683	0.038977157
2	0x3eb92180	0.3615837
3	0x3e3e67af	0.1859424
4	0x3e02be67	0.12767945
5	0xbd046c10	-0.03232962
6	0xbe4afbcb	-0.19822614
7	0xbe529b76	-0.20567116
8	0xbd8258fb	-0.06364628
9	0x3e3fa31f	0.1871457
10	0x3e838ee6	0.2569496
11	0xbe377f7a	-0.17919722
12	0xbd1a1093	-0.037613463
13	0x3e1128da	0.1417574
14	0xbbbfe3e7	-0.0058560255
15	0xbd47aad8	-0.048746914
16	0xbd3b6482	-0.04575015
17	0x3d3a47ad	0.04547851
18	0xbdbeff52	-0.09326042
19	0x3e423c22	0.18968251
20	0x3e111cf2	0.14171198
21	0xbcf80cc6	-0.030279528
22	0xbe3cc173	-0.1843317
23	0xbdc0233e	-0.09381722
24	0xbe46b05c	-0.19403213
25	0xbdeb3a5e	-0.11485742
26	0xbe96b6e6	-0.29436415
27	0x3e1a29c9	0.15055002
28	0xbdb6ea43	-0.089314006
29	0x3e0b3d26	0.13597545
30	0x3e5d59c0	0.21616268
31	0x3dd7a0f0	0.10528743

kenc0.encoder.7.weight f4 [32]
0	0x3f58da9b	0.84708565
1	0x3f677d40	0.9042549
2	0x3f928c94	1.1449151
3	0x3f9c74b5	1.2223116
4	0x3f8f9053	1.1215919
5	0x3f81bcbc	1.0135722
6	0x3f8bcd99	1.0922118
7	0x3f8690e2	1.0512965
8	0x3f6a4d3c	0.915241
9	0x3f89d22b	1.0767263
10	0x3f624a5d	0.8839472
11	0x3f65954a	0.8968092
12	0x3f7f10c4	0.9963496
13	0x3f7cdafd	0.9877165
14	0x3f66d2b3	0.9016525
15	0x3f65e790	0.8980646
16	0x3f8140be	1.0097883
17	0x3f77d92a	0.9681574
18	0x3f838f92	1.0278189
19	0x3f856f3f	1.0424575
20	0x3fa4c67b	1.2873071
21	0x3f9477f5	1.1599108
22	0x3f766b13	0.9625713
23	0x3f62c6e1	0.88584715
24	0x3f56e4de	0.83942974
25	0x3f7241e2	0.9463178
26	0x3f855d98	1.0419188
27	0x3fa485bd	1.2853314
28	0x3f675ede	0.9037913
29	0x3f69e131	0.9135924
30	0x3f6351ec	0.8879688
31	0x3f5277af	0.8221387

kenc0.encoder.7.bias f4 [32]
0	0x3d92eb7b	0.071738206
1	0xbe5534c4	-0.2082091
2	0xbd380044	-0.04492213
3	0x3e738967	0.23782884
4	0xbd778ca0	-0.060436845
5	0xbe19a403	-0.15003972
6	0xbbfd9bf3	-0.007739538
7	0x3dc1aa16	0.094562694
8	0xbe01f026	-0.12689266
9	0x3e286a38	0.16446769
10	0xbdf7cabd	-0.12099216
11	0x3d9a23ed	0.075263835
12	0xbd4b7627	-0.049673226
13	0x3d303c07	0.043025997
14	0x3daf76a6	0.08567552
15	0xbe16a40c	-0.14711016
16	0x3db30e33	0.08742943
17	0x3d57c38e	0.05267673
18	0x3d548325	0.05188288
19	0x3db7c8ce	0.08973847
20	0x3ea5ddf1	0.3239589
21	0xbc3086ab	-0.010774295
22	0xbe21e297	-0.15809093
23	0x3cb9e28f	0.02269104
24	0x3d7feeb1	0.062483493
25	0x3d9c380e	0.07627879
26	0xbe7285fb	-0.23683922
27	0x3dc614b3	0.09671917
28	0xbe03f9f2	-0.12888315
29	0xbe6721b3	-0.22571449
30	0x3cb6c850	0.022312313
31	0x3b13ae48	0.00225343

kenc0.encoder.7.running_mean f4 [32]
0	0xbdf74b6f	-0.12074935
1	0x3e912c76	0.28354234
2	0x3f8953c5	1.072869
3	0xbf020c2b	-0.50799817
4	0xbf4ae41e	-0.7925433
5	0xbf8ec6b4	-1.1154389
6	0xbf86e8f6	-1.0539844
7	0xbfadac3a	-1.3568184
8	0x3ea3ef2b	0.32018408
9	0xbf5047f5	-0.813598
10	0x3efaf85a	0.49017602
11	0xbedf7393	-0.43642864
12	0x3f3994e0	0.7249279
13	0xbf22dc78	-0.6361766
14	0xbec3e97e	-0.38264078
15	0x3f0384a8	0.5137429
16	0xbf0b5ae7	-0.5443558
17	0x3e3d7d19	0.18504752
18	0xbef9fb89	-0.4882472
19	0xbf0a5571	-0.54036623
20	0xbf12747e	-0.57209
21	0xbf0ebe75	-0.55759364
22	0xbe41aa80	-0.18912697
23	0xbf6504bb	-0.89460343
24	0xbe0fa181	-0.14026453
25	0xbf3089ee	-0.68960464
26	0xbf16547d	-0.5872267
27	0xbf716949	-0.9430128
28	0xbf1a2b2e	-0.60222137
29	0xbf697f46	-0.9120983
30	0xbdd04d0e	-0.10170947
31	0x3f5fe1a9	0.87453705

kenc0.encoder.7.running_var f4 [32]
0	0x3e40433f	0.18775652
1	0x3e90f438	0.28311324
2	0x3f0f6d40	0.5602608
3	0x3ec01c9f	0.37521836
4	0x3f2e9150	0.6819048
5	0x3e1f29b4	0.15543252
6	0x3ee067b0	0.43829107
7	0x3e677433	0.2260292
8	0x3e7352a6	0.23761997
9	0x3e926c26	0.28598136
10	0x3e94ad4d	0.29038468
11	0x3e3f9d01	0.18712236
12	0x3ecc7a39	0.39936998
13	0x3e682011	0.22668482
14	0x3e4a3c1a	0.1974949
15	0x3eda0a0f	0.425858
16	0x3e963e6d	0.29344502
17	0x3e88d4cd	0.26724854
18	0x3ef452aa	0.47719318
19	0x3f129f19	0.57274014
20	0x3f0526f0	0.5201254
21	0x3f0ae04b	0.54248494
22	0x3e9ff7ae	0.31243652
23	0x3e0a48a6	0.13504276
24	0x3e973a2e	0.29536575
25	0x3ed63c99	0.41843107
26	0x3ef33279	0.47499445
27	0x3e52169e	0.2051644
28	0x3ea9986a	0.33124095
29	0x3e799bb6	0.24375805
30	0x3dfd93d1	0.12381709
31	0x3db42cd8	0.08797616

kenc0.encoder.9.weight f4 [64, 32, 1]
0	0xbe1b80c0	-0.15185833
1	0xbdd8e15b	-0.10589858
2	0xbe595d7f	-0.21227072
3	0x3e566a34	0.20938951
4	0xbe173737	-0.14767157
5	0xbee37ed6	-0.44432706
6	0xbda2c4a0	-0.079476595
7	0x3d94e191	0.07269586
8	0xbd50f052	-0.051010437
9	0x3d2a792f	0.041619476
10	0x3e8f5847	0.27997038
11	0x3e08b9f1	0.13352181
12	0xbdc457aa	-0.09587033
13	0xbeb74cac	-0.35800683
14	0xbe92fe3c	-0.2870959
15	0xbd8cfd8a	-0.06884296
16	0xbe23fa14	-0.16013366
17	0x3e7fb710	0.24972177
18	0xbe8e4bb1	-0.27792123
19	0x3e107f20	0.14110994
20	0xbdc966f8	-0.09834093
21	0xbb93b72e	-0.0045079207
22	0xbe8a03db	-0.26956066
23	0x3e2091f5	0.15680678
24	0x3d2fea39	0.04294798
25	0xbeaa1e20	-0.3322611
26	0xbdb11583	-0.08646681
27	0xbe0a83ff	-0.13526915
28	0xbe069ee1	-0.13146545
29	0xbe762849	-0.24038805
30	0xbe1142d5	-0.1418565
31	0xbd87f9e6	-0.06639461
32	0xbe2d48ca	-0.16922298
33	0x3dff8091	0.12475694
34	0xbe32ced3	-0.1746171
35	0x3d8fb376	0.07016651
36	0xbe5ee343	-0.21766381
37	0xbedfcad8	-0.43709445
38	0x3e6cca0c	0.2312395
39	0xbe43a24e	-0.19104883
40	0x3e6348db	0.22195761
41	0x3e54ae7b	0.20769684
42	0xbe704acc	-0.23466033
43	0x3cb0b577	0.021570904
44	0x3e1819cc	0.1485359
45	0xbf08017a	-0.53127253
46	0x3c1adf27	0.009452618
47	0x3b54f387	0.0032493786
48	0xbeb8cdc1	-0.36094478
49	0x3e91dc7b	0.28488526
50	0x3d9ad43d	0.075600125
51	0x3e0471ad	0.12933989
52	0x3cf2f419	0.02965741
53	0x3e342590	0.17592454
54	0x3d790c83	0.060802948
55	0x3dd3ae95	0.10336033
56	0x3e6a4710	0.2287867
57	0xbe89c699	-0.2690933
58	0x3cec17a3	0.028819865
59	0x3e51c7b0	0.20486331
60	0xbe3003ec	-0.17188996
61	0xbe858292	-0.2607618
62	0x3d73f99b	0.059564214
63	0xbe847c18	-0.25875926
64	0xbe087d02	-0.13328937
65	0x3cf87e39	0.030333625
66	0x3e16bfb8	0.14721572
67	0xbd59de2f	-0.053190406
68	0xbed20db8	-0.41026092
69	0xbe3dc132	-0.1853073
70	0xbd75e9bd	-0.060037363
71	0x3e5cd9eb	0.21567504
72	0xbe09ce75	-0.13457663
73	0xbb2416ff	-0.002503812
74	0xbe2264fe	-0.15858838
75	0xbe2fbf4b	-0.17162816
76	0xbe608b75	-0.21928199
77	0x3e0143d7	0.12623535
78	0x3cb5a280	0.022172213
79	0xbe36474f	-0.1780064
80	0xbe3c5c0e	-0.18394491
81	0xbdd0ac06	-0.10189061
82	0x3e14b0d5	0.14520581
83	0xbd2c53e0	-0.042072177
84	0xbe169e3f	-0.14708804
85	0xbe365e90	-0.1780951
86	0x3e2932bd	0.16523261
87	0x3dc1c38a	0.09461124
88	0xbee191f3	-0.44056663
89	0xbd06ac1e	-0.032878987
90	0xbe692b22	-0.2277036
91	0x3e833693	0.25627574
92	0xbe64225a	-0.22278729
93	0x3d13949e	0.036030404
94	0x3df7903e	0.12088059
95	0xbeaa7642	-0.3329335
96	0xbda80e00	-0.08205795
97	0xbe325db4	-0.17418557
98	0xbd746499	-0.05966625
99	0xbea1ba3e	-0.31587404
100	0x3d090aad	0.033457447
101	0x3e2996bc	0.16561407
102	0xbde7a52c	-0.11310801
103	0xbda55ffa	-0.08074947
104	0xbd36a76b	-0.044593256
105	0x3e8c9de8	0.27464223
106	0xbe721c78	-0.23643672
107	0xbd85988a	-0.06523235
108	0x3e892210	0.267838
109	0x3c1cb77c	0.00956523
110	0x3d7f1cbe	0.06228327
111	0xbe21ab59	-0.1578802
112	0x3e6f0e3b	0.23345272
113	0x3ced0a29	0.028935509
114	0xbe5976ed	-0.21236773
115	0xbe04eac4	-0.12980181
116	0x3e3cbfbf	0.1843252
117	0x3e9b5456	0.3033778
118	0x3e6037bf	0.21896265
119	0xbe975b1a	-0.29561692
120	0xbec70fe1	-0.38879302
121	0x3e80b876	0.25140733
122	0x3d5a9032	0.05336017
123	0xbdee53e0	-0.11637092
124	0xbe89063b	-0.26762566
125	0x3dab2f5b	0.08358642
126	0xbe0f325c	-0.13984054
127	0xbe996319	-0.29958418
128	0xbea1cdde	-0.31602377
129	0xbe0a23ae	-0.13490173
130	0xbe0e65f9	-0.13906087
131	0x3e43b443	0.19111733
132	0x3e871815	0.2638556
133	0xbe1890cd	-0.14898987
134	0xbe6c323b	-0.23066036
135	0xbea5b0e3	-0.32361516
136	0x3d5646d9	0.05231366
137	0xbe1466c6	-0.1449233
138	0x3e0a0527	0.13478528
139	0x3ca2a931	0.019856067
140	0x3e6a4073	0.22876148
141	0x3da20461	0.079109915
142	0x3e40be03	0.18822484
143	0x3b49c8b7	0.0030789801
144	0xbeb3bf0e	-0.351067
145	0xbed7955d	-0.42106143
146	0xbe5dc62f	-0.21657632
147	0x3d005833	0.031334113
148	0xbedc1339	-0.42983416
149	0x3ed51239	0.41615465
150	0x3e264e30	0.16240764
151	0xbe38732e	-0.18012688
152	0x3cdfd340	0.027322412
153	0xbd3420c5	-0.043976564
154	0xbd895147	-0.067049555
155	0x3cb75b77	0.022382481
156	0x3e1821b6	0.1485661
157	0x3d4803df	0.048831817
158	0xbe0003e7	-0.12501489
159	0xbe699c70	-0.22813582
160	0x3d636060	0.055511832
161	0x3df99442	0.12186481
162	0xbebeea5b	-0.37288174
163	0x3e4014ef	0.18757986
164	0xbd95054e	-0.072764024
165	0x3ea6232c	0.3244871
166	0x3d25dace	0.04049187
167	0xbd15b735	-0.036551673
168	0x3ca1bd1c	0.019743495
169	0xbe1b2a4c	-0.15152854
170	0x3dfa34c3	0.12217095
171	0xbe2edc6e	-0.17076275
172	0xbe6c6fdd	-0.23089547
173	0x3e921a23	0.28535566
174	0xbd0d75a6	-0.034536026
175	0x3ab6335b	0.0013900803
176	0x3e307c23	0.17234854
177	0x3ca99b87	0.020704044
178	0xbe537753	-0.20650987
179	0xbe9bf9e7	-0.30464098
180	0x3d244e8c	0.04011397
181	0xbef38fb7	-0.47570583
182	0xbedba7bc	-0.4290141
183	0xbe5f0fc9	-0.21783365
184	0xbee82198	-0.4533813
185	0x3d648b18	0.055796713
186	0xbc2c8092	-0.0105287
187	0x3c0d47b1	0.00862305
188	0xbe8054cb	-0.25064692
189	0xbea77d15	-0.32712618
190	0xbd8c38e2	-0.06846787
191	0xbdc8b82a	-0.098007515
192	0xbd51d451	-0.05122787
193	0x3e07db86	0.13267335
194	0x3e71bf49	0.23608126
195	0xbe1d9973	-0.15390567
196	0x3eb9b2a1	0.36269096
197	0x3dbc7726	0.09202413
198	0xbd880761	-0.066420324
199	0xbda52468	-0.080635846
200	0x3e03596e	0.12827083
201	0xbd624504	-0.0552416
202	0xbdf080ae	-0.11743294
203	0x3e4d1020	0.20025682
204	0x3e86dc0b	0.26339754
205	0xbc3f90f1	-0.011692272
206	0xbe00f76a	-0.12594381
207	0x3e7a0126	0.244145
208	0x3d88490c	0.066545576
209	0x3e3e0e97	0.18560253
210	0x3d277cad	0.040890384
211	0x3e82c263	0.2553893
212	0xbd35f8fd	-0.044426907
213	0x3e4bb3fe	0.1989288
214	0x3b81cac1	0.0039609377
215	0xbd8151d5	-0.06314436
216	0xbd54889f	-0.051888105
217	0x3d314f3d	0.04328846
218	0x3dfa7186	0.12228684
219	0xbe98219d	-0.29713145
220	0xbead6df8	-0.33872962
221	0x3e7ad036	0.24493489
222	0xbe82d5b1	-0.2555366
223	0x3e884eb2	0.2662254
224	0x3dd706a4	0.104993135
225	0xbe1d11ca	-0.15338817
226	0xbe58f358	-0.21186578
227	0xbde0057e	-0.109385476
228	0xbc08ac62	-0.0083418805
229	0xbe66f8ef	-0.22555898
230	0x3e26b70e	0.16280767
231	0xbd9abdaa	-0.07555707
232	0xbf26e0af	-0.6518659
233	0xbed9c8e0	-0.42536068
234	0xbc3e84f8	-0.011628382
235	0x3e06a0ab	0.13147227
236	0x3db7d221	0.08975626
237	0xbe524a57	-0.20536171
238	0xbe59693c	-0.2123155
239	0xbdfe5ac1	-0.12419654
240	0x3e4abf24	0.19799477
241	0x3db3d14d	0.08780155
242	0xbd91f405	-0.07126621
243	0x3bb49cfd	0.0055118785
244	0x3dcfd66c	0.101483196
245	0x3e05a0d7	0.13049637
246	0xbd9f3249	-0.07773263
247	0xbd5a7fd9	-0.05334458
248	0xbe3ffb90	-0.18748307
249	0xbd955dcb	-0.0729328
250	0x3ea5f1b6	0.32410973
251	0xbe2aae8e	-0.1666815
252	0x3e1f5b36	0.15562138
253	0xbe73c95c	-0.23807281
254	0x3e911009	0.28332546
255	0xbdcfb5d7	-0.10142105

kenc0.encoder.9.bias f4 [64]
0	0xbd085122	-0.0332805
1	0xbe1239ff	-0.14279936
2	0x3de08b57	0.10964077
3	0xbdb64768	-0.089003384
4	0xbd0cb514	-0.034352377
5	0xbdc16a7a	-0.09444137
6	0x3e35f2b8	0.17768371
7	0x3d1b0028	0.037841946
8	0x3dc1f023	0.094696306
9	0xbe112fef	-0.14178441
10	0x3df45df2	0.11931981
11	0x3c79a309	0.0152366245
12	0xbdd237bf	-0.10264539
13	0xbd4b8aed	-0.049693037
14	0x3dffa6e2	0.12483002
15	0xbdd51d20	-0.10405946
16	0xbe6c28c5	-0.23062427
17	0xbcd3110e	-0.025764968
18	0x3dc7bd3e	0.09752892
19	0xbcd1b664	-0.025599666
20	0xbd86d4df	-0.06583571
21	0x368c0134	4.172465e-06
22	0x3ba18a78	0.004929837
23	0xbdc89292	-0.09793581
24	0x3d94655e	0.07245897
25	0x3e30edc7	0.17278205
26	0x3e080b5b	0.13285582
27	0xbb872cbe	-0.0041252067
28	0x3e439f03	0.19103627
29	0x3d80a167	0.06280785
30	0x3dd797eb	0.10527023
31	0x3d64a1fc	0.055818543
32	0x3cb8d9ea	0.022564847
33	0xbd35674d	-0.04428797
34	0x3d852ffd	0.06503294
35	0x3da97bd4	0.082755715
36	0xbe16131c	-0.14655727
37	0x3d54de43	0.051969778
38	0xbcc5bed9	-0.024138855
39	0xb8c324df	-9.305192e-05
40	0x3e646acd	0.22306366
41	0x3e028ab8	0.1274823
42	0xbd843edd	-0.06457303
43	0xbdc51dd6	-0.096248314
44	0x3dd413c3	0.10355332
45	0x3d4a1951	0.04934055
46	0xbdc21ec4	-0.09478524
47	0xbe2d63f6	-0.16932663
48	0xbc164018	-0.009170555
49	0xbc3a631f	-0.011376171
50	0x3d48f68d	0.049063254
51	0x3d5c9f8e	0.0538631
52	0xbd8fc6c8	-0.070203364
53	0xbe303e5d	-0.1721129
54	0x3df7f15a	0.12106581
55	0x3e322000	0.1739502
56	0x3d3f78b1	0.04674596
57	0x3e346a99	0.17618789
58	0xbdb587fe	-0.08863829
59	0xbdf8893e	-0.12135552
60	0xbe242345	-0.1602908
61	0xbd4a1832	-0.04933948
62	0x3e8489f7	0.2588651
63	0x3da59f01	0.08086968

kenc0.encoder.10.weight f4 [64]
0	0x3eaeedfd	0.34165946
1	0x3eb64e97	0.35606834
2	0x3f2046d2	0.62608063
3	0x3f125ca7	0.57172626
4	0x3f266d69	0.65010697
5	0x3f313d47	0.69234127
6	0x3f4d4216	0.80178964
7	0x3f18fb49	0.5975843
8	0x3f090019	0.53515774
9	0x3f1eaea8	0.61985254
10	0x3f05b59b	0.5223023
11	0x3f4ab4fd	0.79182416
12	0x3f164521	0.5869923
13	0x3f039d08	0.51411486
14	0x3f5bd051	0.8586474
15	0x3f0f8c2e	0.5607327
16	0x3f2bc4a8	0.6709695
17	0x3efa62b6	0.48903435
18	0x3f3190b4	0.69361424
19	0x3f304186	0.6884998
20	0x3f330802	0.69934094
21	0x3f395347	0.72392696
22	0x3f560c58	0.83612585
23	0x3f2bb6dc	0.67075896
24	0x3f365564	0.71224046
25	0x3f2f7cdd	0.685499
26	0x3f2b9e79	0.67038685
27	0x3ef0be41	0.47020152
28	0x3ef59ffc	0.4797362
29	0x3f2ba426	0.67047346
30	0x3eeeef0c	0.46666753
31	0x3f38ea3f	0.7223243
32	0x3f47b66d	0.78012735
33	0x3eed7be4	0.46383584
34	0x3f1aa217	0.6040358
35	0x3f37bfbb	0.7177693
36	0x3f0ff80a	0.5623785
37	0x3f23d156	0.63991296
38	0x3f108f5f	0.56468767
39	0x3f2734c1	0.6531487
40	0x3f1727fc	0.59045386
41	0x3f279418	0.6546035
42	0x3f1cdf4e	0.61278236
43	0x3f0fb419	0.5613418
44	0x3f299bb2	0.662532
45	0x3f4645c6	0.77450216
46	0x3f1c366f	0.6102056
47	0x3f110df2	0.56661904
48	0x3ee3dc0f	0.4450383
49	0x3f4066d6	0.75156915
50	0x3f50a368	0.8149934
51	0x3f0d67e4	0.5523665
52	0x3f184f56	0.5949606
53	0x3f65ab6e	0.89714706
54	0x3f1242ad	0.5713299
55	0x3f476ef7	0.77903694
56	0x3f4a3769	0.789908
57	0x3f1c98dc	0.61170745
58	0x3f166370	0.5874548
59	0x3ef71574	0.48258555
60	0x3f243e19	0.64157254
61	0x3f3ebb58	0.74504614
62	0x3f232549	0.6372877
63	0x3f307ce2	0.68940556

kenc0.encoder.10.bias f4 [64]
0	0x3c7c513c	0.015400227
1	0x3d978c49	0.07399804
2	0xbd83a94a	-0.06428774
3	0xbe412944	-0.18863398
4	0xbe8176b0	-0.25285864
5	0x3d26a8fe	0.040688507
6	0xbe563c0e	-0.20921347
7	0xbdd61f91	-0.104552396
8	0xbd5f565a	-0.05452571
9	0xbd63881a	-0.05554972
10	0xbd9c6878	-0.07637113
11	0xbdfe93a0	-0.12430501
12	0xbe9054d0	-0.28189707
13	0x3c81936c	0.015817367
14	0xbe5fbdbe	-0.21849725
15	0xbe0085b5	-0.12551005
16	0x3da3010b	0.07959183
17	0xbe7a5edf	-0.24450253
18	0xbdb4e279	-0.08832259
19	0xbd84ec19	-0.064903446
20	0xbe6d1287	-0.23151599
21	0xbe8bbcf0	-0.27292585
22	0xbebb1329	-0.36538056
23	0xbe60529f	-0.21906517
24	0xbe7fc172	-0.24976137
25	0x3d4e202d	0.050323654
26	0xbe6f3c0e	-0.23362753
27	0xbd0090c1	-0.031388048
28	0xbe6deecd	-0.23235627
29	0xbe2439f7	-0.16037737
30	0xbd56d92a	-0.052453198
31	0xbe0af151	-0.13568617
32	0x3c8d3fbe	0.017242309
33	0xbd1cab02	-0.038249023
34	0xbe578e2a	-0.21050325
35	0xbdb1826c	-0.08667454
36	0xbe8346f0	-0.2564006
37	0xbe7273cc	-0.23676986
38	0xbea5ae4d	-0.32359543
39	0xbe0ad499	-0.13557662
40	0xbd866d1f	-0.06563782
41	0xbd9db337	-0.07700198
42	0xbe1cde3a	-0.15319148
43	0xbe309924	-0.17245919
44	0xbe4d08bd	-0.20022865
45	0xbeac8e4f	-0.33702323
46	0xbd487eeb	-0.048949163
47	0x3de00e06	0.10940175
48	0xbcd80022	-0.02636725
49	0xbd30ab5c	-0.04313217
50	0x3d91dd70	0.07122314
51	0xbdc0ea4d	-0.09419689
52	0x3daa1f04	0.08306697
53	0xbd893e56	-0.06701343
54	0xbe0814f2	-0.1328924
55	0x3c962b42	0.018331174
56	0xbe1103cc	-0.14161605
57	0xbc45bdfc	-0.012069222
58	0xbe3814a7	-0.17976628
59	0xbe4c078f	-0.19924758
60	0xbbe3f03f	-0.00695613
61	0xbe9fb485	-0.31192413
62	0xbe00a349	-0.12562288
63	0xbdccc927	-0.09999304
