hyperglue/weights/model_weights.pth (torch, 462431 bytes, 160 tensors)

penc0.lin.weight f4 [36, 100]
000000 03 2e 0d 3e de ce 68 bd 52 7e cb 3c d2 ac 26 3e
       0.13787083 -0.05683791 0.024840508 0.16276863
000010 f0 5d 07 be e1 25 a7 3d 3f f9 f5 3c 91 61 b5 3d
       -0.13219428 0.08161522 0.030026076 0.088565
000020 4a 39 53 3d 88 e4 80 bd 24 4d 66 3d 14 64 c7 bd
       0.051568307 -0.06293589 0.05622591 -0.09735885
000030 af 8b a2 3c 26 3a 11 3e 3a fc 46 be d0 11 72 3d
       0.019841997 0.14182338 -0.19432154 0.05909902
000040 31 ac e0 3d 75 2f db 3d de 4c 10 be 58 f6 c2 bd
       0.10970343 0.10702411 -0.14091823 -0.095196426
000050 a8 11 9f 3d 29 e2 af bd 2a ce 79 3c fd 55 74 bd
       0.077670395 -0.085880585 0.015246907 -0.059652317
000060 e6 6b f2 bc 26 7c c2 bd 9e 05 21 3e 38 8d cf bd
       -0.029592466 -0.09496336 0.15724799 -0.10134357
000070 c8 34 0d bd c1 ea 4a be e8 25 f5 3d 73 8b b2 bd
       -0.034474164 -0.19816114 0.11970121 -0.08718004
000080 80 64 ab bd 0f 50 f4 3b 0c e0 19 3e 34 25 86 bd
       -0.08368778 0.007455833 0.15026873 -0.06550065
000090 ee 5b 5e 3d 5c a2 52 bd f6 8b 5f 3e 26 8a a4 bd
       0.05428689 -0.05142437 0.21830735 -0.08034162
0000a0 cb 11 0d 3d f7 ea cb bd d7 81 d8 bd 26 79 fa 3c
       0.034440797 -0.09956925 -0.1057164 0.030575346
0000b0 35 89 f7 bd d7 75 15 3e 20 ed 0e 3e 2d 65 b0 bc
       -0.12086717 0.14595734 0.13957644 -0.02153262
0000c0 e7 4b 21 be 44 e0 a3 bb f0 1a 08 3d 8f 15 c3 bd
       -0.1575161 -0.0050011 0.033228815 -0.09525596
0000d0 c2 42 c1 bc d8 fe b7 bd e5 ff 86 3d 33 01 ab bd
       -0.023591403 -0.089841545 0.06591777 -0.08349838
0000e0 00 81 05 3c 9d 79 af bd f1 76 fc 3d 14 66 03 bd
       0.008148432 -0.08568118 0.12327374 -0.03207977
0000f0 98 1e 81 3d 65 fe 10 bd 1f 2a 90 bc de a5 a1 3c
       0.063046634 -0.03539886 -0.01759821 0.019732412
000100 19 33 19 bd f0 d6 5b 3d 9d 42 42 3e 9c 8f d2 bc
       -0.037402246 0.053671777 0.18970723 -0.025703244
000110 22 84 b0 3d b3 4e 7e bd 92 9f 02 3e 1c 86 81 bc
       0.08618952 -0.062086772 0.12756184 -0.015811019
000120 f4 ea 37 3c 0d cb ac bc 28 4a 20 be ca 73 eb 3d
       0.011225451 -0.021092916 -0.15653288 0.114966944
000130 29 9c d0 3d b8 ff c9 3d c4 03 a3 bd 34 7b b4 3d
       0.10186035 0.098632276 -0.079597026 0.08812562
000140 5a 00 08 3e 7d 80 80 3c c0 07 96 bd 73 3d 67 be
       0.13281384 0.015686268 -0.07325697 -0.22582035
000150 79 f5 1e 3e 8f 57 2f bd bc ed c5 3d 7b a3 77 be
       0.15523328 -0.04280811 0.09664485 -0.24183457
000160 40 bc 3a 3e 52 af 24 3a 41 85 b9 3d 2f 8a 01 3d
       0.18235874 0.0006282228 0.09058619 0.031625923
000170 a2 13 b9 bd af ae 57 be ac d6 17 3e 2b d8 18 3c
       -0.09036948 -0.2106273 0.14827985 0.009328882
000180 b9 24 e1 3d c8 10 3f be eb b3 29 3e a2 df 8e bd
       0.109933324 -0.18658745 0.1657254 -0.06976248
000190 09 93 46 bd 69 b2 e4 bd 27 9a 05 bd 70 9c 9a bd
       -0.048480067 -0.111668415 -0.032617714 -0.07549369
0001a0 ab 18 e6 bd 26 a6 ad 3d 2a cb 30 be 90 6b 2c bd
       -0.11235174 0.08478956 -0.17265001 -0.042094767
0001b0 90 ac 7e bc 8a f2 65 3d 72 cb fd 3c 35 a1 92 ba
       -0.015544072 0.056139506 0.0309808 -0.001118696
0001c0 3d 9c ad 3d 80 69 aa bc 3a d8 7f 3c c2 50 5b 3d
       0.08477066 -0.02080226 0.015615517 0.053543814
0001d0 7e 98 0d bd 17 42 e1 bd 7c 4d 50 bc 2a b0 d0 bd
       -0.034569256 -0.10998934 -0.012713786 -0.10189851
0001e0 2a 0e fe bd 84 7a 6d 3d ac 92 d6 3d b6 fa cb 3d
       -0.12405045 0.057978168 0.10477194 0.09959929
0001f0 ef 4b 2f bc e7 bb 4b be ef 91 32 be bd 59 7d bc
       -0.010699256 -0.19895898 -0.17438482 -0.01546329
000200 b8 f6 f3 bc d8 86 a7 bd c7 e3 11 be 43 d8 28 bd
       -0.02978073 -0.08180016 -0.14247046 -0.04122187
000210 2a 3c 58 bc 6a 44 9d bc d3 be 0d bd 29 4e 1e 3e
       -0.013197938 -0.019197661 -0.034605812 0.15459503
000220 2e 3c 39 be f6 ea 9e bc d3 e1 4d bd 40 b4 df 3d
       -0.18089363 -0.019399147 -0.05026419 0.10923052
000230 08 c9 0e be c3 86 31 bc f5 84 0a 3c 14 8d 28 be
       -0.13943875 -0.010835352 0.008454551 -0.16460067
000240 32 d2 bf 3d 8a 68 4f bc 01 9a 15 3c 8a fe c4 bd
       0.093662634 -0.012659201 0.009130956 -0.09618862
000250 5d 13 e2 3d 0c db 38 3c ab e1 1f bd a8 e9 f4 bd
       0.110388495 0.011282694 -0.039033573 -0.11958629
000260 b4 3d 9e 3c 55 32 dd bd 0e 8b 97 bd 49 52 63 3d
       0.019316532 -0.10800616 -0.073995695 0.055498395
000270 95 c6 69 bd a0 c9 97 bb 96 f1 13 be 8e 58 97 3d
       -0.05707415 -0.00463219 -0.14447626 0.07389937
000280 98 e8 f6 3c fd 6c a5 3d 4d 7e 5d bc f5 ae bc 3d
       0.030140206 0.080774285 -0.013518882 0.09213058
000290 35 32 9d 3d dd 44 d5 bc b6 a5 3d be a1 88 36 3e
       0.07675592 -0.026033813 -0.18520245 0.17825557
0002a0 37 31 81 3d ab a1 88 3d a8 9f c4 bd 8d 8c 8c 3d
       0.06308215 0.06671461 -0.096007645 0.068627454
0002b0 de e9 cf 3d c8 07 e4 bd f1 0e 44 3e a2 f6 2b be
       0.101520285 -0.11134297 0.19146325 -0.16793302
0002c0 cf 8f c7 bb dd 7e 67 bd 99 d0 4d 3e 7f 08 7d bd
       -0.0060901414 -0.05651747 0.20099105 -0.06177568
0002d0 8e da 90 bd cd 6f b9 3c 36 ee 82 3d c7 b0 ab 3c
       -0.07072936 0.022636319 0.063930914 0.020958317
0002e0 8d 91 cc 3d 78 d8 19 3d 02 66 32 be 3c d7 5d 3d
       0.09988699 0.037559956 -0.17421725 0.05416034
0002f0 d5 33 e6 3d ef 43 76 bb cc b5 16 bd aa 43 a6 3d
       0.11240355 -0.0037577113 -0.03679447 0.08118375
000300 87 9a 02 ba cd a8 26 bd f5 26 5f bd ed 66 25 be
       -0.0004982133 -0.040688325 -0.05448051 -0.16152544
000310 ff ae bb bd 3b 97 0d be 3e a0 02 3d af 0f 8b bd
       -0.09164237 -0.13827221 0.0318911 -0.06790101
000320 64 71 a3 bd 07 33 a2 bc b4 f6 bf 3d 9d 71 61 3d
       -0.07980612 -0.019799722 0.09373227 0.05503999
000330 f7 7b 1b be de 41 7e 3d ab 53 2d bd 35 2b 9b 3d
       -0.15184008 0.062074535 -0.04231612 0.075766005
000340 23 87 64 bd 18 16 3e 3c 7e fd 10 be d8 f3 3f ba
       -0.05579294 0.011601947 -0.141592 -0.00073224073
000350 6e 17 a1 3c bb f2 fb bd cb 07 47 bc dd 67 9a bd
       0.019664492 -0.123021565 -0.012147854 -0.075393416
000360 92 93 c1 bb 2f 55 ce bc d8 81 d4 3d 3b fc 1f 3d
       -0.0059074843 -0.025187103 0.10376328 0.039058905
000370 fa 97 23 be 6a 2f f4 bc a0 20 e2 3d ac 8e ae 3d
       -0.15975943 -0.029807765 0.11041379 0.08523306
000380 e5 f8 20 be db 28 27 3d 6f da 90 bd 76 30 bd 3d
       -0.15719946 0.040810447 -0.07072913 0.09237759
000390 fb 3c 30 bb 5f ac 0b bd 57 10 b2 bd db cd a0 3a
       -0.0026891816 -0.034099933 -0.08694523 0.0012268381
0003a0 4e 71 9a 3d 6d e9 53 3d 79 80 d2 bd 08 c8 0c 3e
       0.075411424 0.051736284 -0.102784105 0.13748181
0003b0 57 47 10 bc 2c 30 54 bd 43 d5 ba bd 48 5d e2 3b
       -0.008806071 -0.051803753 -0.09122708 0.0069080926
0003c0 89 27 09 be 4d ac 35 3d 7e 74 30 bd 4c 40 ea 3d
       -0.13393988 0.044353772 -0.043079846 0.11438045
0003d0 8f ef e0 3d ca 54 a5 bd 00 33 58 3d 57 f4 09 3e
       0.10983192 -0.08072813 0.052783012 0.13472115
0003e0 d1 e4 97 3d bb 35 89 bd f1 6f ca 3c a8 61 a2 3d
       0.0741669 -0.066997014 0.024711581 0.07928783
0003f0 f7 0e ae bc 64 1a 94 3d 2d 21 ad bc 82 2f 0a be
       -0.02124737 0.07231596 -0.021133984 -0.13494685

penc0.bn.weight f4 [36]
000000 db b6 8e 3f 79 83 8e 3f 04 f8 86 3f 81 ee 69 3f
       1.1149553 1.1133872 1.0544438 0.91379553
000010 e0 ba 81 3f c9 ee 81 3f 0d 02 75 3f c9 c5 64 3f
       1.0135155 1.0150996 0.95706254 0.89364296
000020 2e 2e 91 3f 20 c5 6f 3f 93 f6 6c 3f ad 4e 63 3f
       1.1342218 0.93660164 0.9256374 0.88791925
000030 de 39 81 3f f4 6b 7f 3f 0b 34 84 3f 41 7a 85 3f
       1.0095785 0.997741 1.0328382 1.0427934
000040 03 30 7f 3f b2 a1 97 3f 1f 1c 68 3f 3e ea 74 3f
       0.99682635 1.184622 0.9066791 0.95669925
000050 49 d0 86 3f 8a d2 83 3f 97 31 60 3f dd 95 84 3f
       1.0532314 1.0298626 0.8757567 1.0358235
000060 2f c0 65 3f d8 02 8a 3f 79 91 82 3f b4 be 81 3f
       0.89746374 1.0782118 1.0200645 1.0136323
000070 80 9d 83 3f 03 33 80 3f a9 32 69 3f e3 84 84 3f
       1.028244 1.0015568 0.91092926 1.0353054
000080 0c 04 83 3f f8 65 7d 3f 8c ae 80 3f 6a 1e 86 3f
       1.023561 0.98983717 1.0053267 1.0478032

penc0.bn.bias f4 [36]
000000 ae 00 c4 3d ea 5a 35 3e de 27 c5 bc cf dc 71 bd
       0.09570442 0.17710462 -0.024066862 -0.05904847
000010 e9 dc c2 bc f9 0c 2c bd 3a 7c 0f bd c4 a9 13 bc
       -0.023786979 -0.04200456 -0.03503058 -0.009012643
000020 c3 dc 9a 3d f0 5a 85 bd 1d e9 2e ba 30 b1 c8 bd
       0.07561638 -0.065114856 -0.000667231 -0.09799421
000030 76 97 2a bd b9 6b 27 be ac 0e b8 3c 04 ed 28 3d
       -0.04164835 -0.16349687 0.022467934 0.04124166
000040 b5 58 c1 bd 0f bb d3 3d 9a 73 eb bd d2 19 4a 3d
       -0.09440748 0.10338413 -0.114966586 0.04934103
000050 e7 ba 26 3e e2 5d 5c 3d 35 e6 72 bd 57 98 ce bd
       0.16282235 0.05380047 -0.059301574 -0.1008765
000060 2d e5 b3 bd a9 bb 98 3d 5b 7c 60 3d f7 bc 58 3d
       -0.08783946 0.07457668 0.054806095 0.052914586
000070 ea 51 0f bd 68 da a0 bd 4f 60 86 3c f6 be d7 3d
       -0.03499023 -0.07854158 0.016403345 0.1053447
000080 b8 bc a7 3d 78 82 9a 3d be 16 9d 3d a1 c3 c0 3d
       0.08190292 0.07544416 0.07670353 0.09412313

penc0.bn.running_mean f4 [36]
000000 66 a5 0c 3f 2b 32 38 bf 2c 85 d4 3b 1b 76 9c be
       0.5493988 -0.7195155 0.006485602 -0.30558857
000010 64 b7 be be 8e 98 50 3f 3f ab 5e bf b7 a5 c8 be
       -0.3724929 0.8148278 -0.8698005 -0.3918893
000020 f7 3b 1d 3e 3f 80 5e bf 61 f8 5a 3e 3d 52 16 bf
       0.15354906 -0.8691444 0.21383812 -0.58719236
000030 96 bf 74 3e 33 ad eb 3d 6c 90 0f 3f b6 d8 06 3f
       0.23901209 0.115076445 0.56079745 0.52674425
000040 83 47 04 3e 06 12 0b 3f bc 16 56 3b f9 75 d0 be
       0.12917905 0.54324377 0.003266736 -0.40715006
000050 cf 23 e7 be e5 ef 04 bf 8b 3c 3e bf b6 8c 38 3e
       -0.45144507 -0.5192855 -0.7431113 0.18022427
000060 3d 9a 49 bf 91 e6 31 3f 5c e6 ee be 8d 28 6e bf
       -0.78750974 0.6949244 -0.46660125 -0.93030626
000070 36 a4 e3 3d 4b 79 15 bf 40 ac f4 be c2 2a 8b 3e
       0.11115305 -0.58388203 -0.47787666 0.2718106
000080 2e ff 5c bf 37 a0 53 be 85 50 0b bf f7 63 4d 3f
       -0.86326873 -0.20666586 -0.5441974 0.8023066

penc0.bn.running_var f4 [36]
000000 9d 10 84 3e b4 2b 08 3e 77 52 50 3e 7e 65 36 3e
       0.25793925 0.13297921 0.20343958 0.17812154
000010 5d 53 cb 3e 55 ff 8a 3e 86 c9 12 3e 34 3e 45 3e
       0.3971204 0.27147928 0.14334688 0.1926201
000020 d8 c2 7b 3e e1 f6 4a 3e b2 7a 68 3e 9e d0 8d 3e
       0.24586046 0.1982074 0.22703055 0.27698225
000030 60 da c1 3e 29 2a c2 3e e5 0c 38 3e 64 cf 84 3e
       0.3786192 0.3792279 0.17973669 0.25939476
000040 4a 0c a7 3e 96 f6 71 3e 49 0f 05 3e cc 1b 42 3e
       0.32626563 0.23629221 0.12994112 0.18955916
000050 19 a4 5e 3e b2 ee 7e 3e 0e 2f c1 3e e2 eb 87 3e
       0.21742286 0.24895743 0.37731212 0.26547152
000060 98 01 25 3e 4a 0b 6e 3e 9e 74 ba 3e f4 cc 93 3e
       0.16113889 0.23246494 0.36417097 0.28867304
000070 aa ed 5b 3e ad 49 6b 3e 4a 1f 92 3e be 48 94 3e
       0.2147738 0.22977324 0.28539497 0.28961748
000080 cd 39 70 3e 8f 83 83 3e 98 40 7d 3e db 43 8b 3e
       0.23459549 0.2568631 0.24731672 0.27200207

penc1.lin.weight f4 [36, 100]
000000 c0 85 eb bd a5 47 48 bd a6 f6 45 be a4 07 21 bc
       -0.1150012 -0.04889645 -0.1933237 -0.009828482
000010 13 e8 bf 3d 06 2c f4 3d 0e 5d 20 bd 77 45 2f bd
       0.093704365 0.11922459 -0.039151244 -0.042790856
000020 b8 6f db bc 98 eb 9b bc c3 b7 d2 3b bf 87 5a bd
       -0.02678667 -0.019033238 0.0064305975 -0.053352114
000030 c4 37 0e be 92 60 cf 3d 6a b2 84 bd c6 8c 82 bd
       -0.1388846 0.10125841 -0.06479342 -0.06374507
000040 a1 00 84 bd 5e cd 87 bb d0 82 a8 3c 2b f4 a8 bc
       -0.064454325 -0.0041443547 0.020570189 -0.02062424
000050 de da df bd e2 a4 d0 bd e9 2c 38 be 33 c2 03 3e
       -0.109304175 -0.10187699 -0.17985882 0.1286705
000060 e7 de a2 bd 09 39 97 3d d7 d7 5e bd bd ec a7 3c
       -0.079526715 0.073839255 -0.05440506 0.020498628
000070 f2 2c 9b bd 4a 51 eb bc 63 1d 8a bd 77 08 9e 3c
       -0.07576932 -0.028725285 -0.06743886 0.019291146
000080 1c 57 3b be 02 c2 fd 3c a0 5c b7 bd 17 ea a7 3c
       -0.18294948 0.0309763 -0.08953214 0.020497365
000090 ec e1 b4 bc e0 25 8a bd f6 e9 c5 3d b5 b8 01 bc
       -0.022080384 -0.06745505 0.09663765 -0.007917573
0000a0 45 ee f0 bd b5 fe f4 bc 82 2f 8d bd 73 be 1a be
       -0.11764196 -0.02990661 -0.06893827 -0.15111713
0000b0 12 92 82 3d f1 06 c1 bd ff f6 64 bd 3a 7d 8e bc
       0.06375517 -0.09425152 -0.055899616 -0.017393697
0000c0 ff 09 46 3e 0e 74 92 ba 8f 2a 92 bc df 42 c1 bd
       0.1933975 -0.0011173503 -0.01784256 -0.09436583
0000d0 6c 99 33 be 37 73 a7 3c 33 b6 d9 bc 80 65 2a 3e
       -0.17538995 0.02044068 -0.026576137 0.16640282
0000e0 50 f7 e6 3d 69 03 cd 3d 33 4f 4d bd d9 be 3e 3d
       0.1127764 0.10010416 -0.05012436 0.046568725
0000f0 e1 40 54 3d 11 f4 99 3c ef b1 20 be 8f 84 df 3c
       0.051819686 0.018793138 -0.15692876 0.027284889
000100 c3 8d b4 3d ef b5 16 be dc 96 56 3d 4c d4 62 bb
       0.088161014 -0.1471784 0.052389964 -0.0034611402
000110 e2 cc 38 3e 88 6f 5f be 5b 75 5b bd 4f 94 a4 bc
       0.18046907 -0.2181989 -0.053578716 -0.02009025
000120 3f 24 94 bd 5f 3f f4 bd 22 e6 2f 3d 37 19 a1 3d
       -0.07233476 -0.119261496 0.04294408 0.078661375
000130 46 42 04 3d e8 f4 7f bc 44 43 f9 3c 77 73 ae 3d
       0.032289766 -0.015622355 0.030427583 0.08518117
000140 d5 b4 59 3d 6f 93 17 bd 49 3d 4d be 98 01 9a bd
       0.05315097 -0.037005838 -0.2004291 -0.07519835
000150 c2 ee 9a bd 8e f8 b2 3d f9 1a 4d 3d 07 e5 99 3d
       -0.07565071 0.08738814 0.05007455 0.075143866
000160 1f a6 88 3d c7 9f 33 bd 1e 69 c0 bc 50 fa 6e bd
       0.0667231 -0.043853547 -0.023487624 -0.058344185
000170 1a d3 4c be 0d 42 cd bc ed f4 23 3c f7 08 40 bc
       -0.20002404 -0.02505591 0.010007125 -0.011720887
000180 5f bc 86 bd 57 bc 00 be 87 aa b7 bd fe 63 c1 bb
       -0.06578898 -0.12571846 -0.089680724 -0.0059018126
000190 cc a7 0a be 08 a3 52 bd 1f 3a e1 bc e8 7d 46 bd
       -0.13540572 -0.05142501 -0.027493535 -0.048459917
0001a0 a1 1d 82 3d fe ca d5 bd 7b 33 65 bd b2 e2 26 3d
       0.063533075 -0.10439108 -0.0559573 0.040743537
0001b0 ea 60 54 3d 49 64 ae 3d f7 07 37 3d 1f 7c 35 be
       0.051850237 0.085152216 0.04468533 -0.1772313
0001c0 b3 5b 8c 3c 3c 50 ba 3c af b1 44 3d 5a 76 82 3d
       0.01713357 0.022743337 0.048021015 0.0637023
0001d0 69 ff d2 bd c2 64 65 bd b5 70 b0 bd 05 c4 3a 3d
       -0.10302622 -0.056004293 -0.08615247 0.045597095
0001e0 38 43 1d bd 90 67 17 bd 8b 98 9d bd 66 b6 34 3e
       -0.038394183 -0.036964 -0.07695111 0.17647704
0001f0 a1 c9 8d bc 8f 60 05 be 49 23 3f be de 4f a6 bc
       -0.017308058 -0.13025115 -0.18665804 -0.020301756
000200 a9 f9 56 bd 2f 5c 12 bd 17 1f 96 bd 8c 51 c6 bd
       -0.05248419 -0.035732444 -0.07330149 -0.096835226
000210 12 ef 6b bd 7c 0b ba bc 14 0b ce 3d 6a c4 38 bd
       -0.057601042 -0.022710554 0.10060707 -0.04510919
000220 6e 7c bd bd f4 b4 d1 3d d6 65 93 3d 79 47 e6 3d
       -0.09252249 0.10239592 0.07197158 0.11244101
000230 ce 7f 3a bd fa 4f 39 be 60 07 a0 bc 07 4e 9d bd
       -0.04553204 -0.18096915 -0.019534767 -0.07680898
000240 f3 96 6c be 47 17 2d 3d fd 43 1b be d0 db b8 3c
       -0.23104458 0.042258527 -0.15162654 0.022565752
000250 fb b3 8d be 59 89 b8 3d 58 fa 8d bd 3b c4 12 b7
       -0.27676377 0.09010572 -0.06932515 -8.747967e-06
000260 f9 17 d7 3c f7 b4 c7 bd f8 b0 75 3c 55 26 1e 3e
       0.026256548 -0.09751313 0.014995806 0.1544431
000270 12 b1 79 bd 0b f2 41 bd 81 a9 42 bd e3 b1 4e 3e
       -0.060959883 -0.04734997 -0.047524933 0.20185046
000280 b6 c5 02 be 4a e3 af 3b c9 6c 1d bb 49 f7 9b 3d
       -0.12770733 0.005367671 -0.002402114 0.07615525
000290 82 98 dc bc de 3c 95 bd be 41 34 be 04 82 4c bd
       -0.02692819 -0.07287 -0.17603204 -0.04992868
0002a0 57 0b be 3d de ea c1 3b a3 cb 67 3c 69 72 93 b9
       0.09279507 0.005917891 0.014147672 -0.00028123267
0002b0 1a d8 16 bd 50 51 95 bd cf 5c 7c bd 61 9a 5d 3d
       -0.036827184 -0.072909 -0.061611947 0.054102305
0002c0 aa 39 a8 bd 3f 71 5b bd 13 95 00 be c7 f3 64 bd
       -0.082141235 -0.053574797 -0.12556867 -0.055896547
0002d0 c0 3c 5f bd 89 59 28 3c 6d b3 0f 3c 6d 61 1f 3b
       -0.054501295 0.010275253 0.008770806 0.0024319545
0002e0 cd 04 8e bd f2 6d 45 3e 5d fd dd bd f3 cc 2e 3c
       -0.069345094 0.19280222 -0.10839341 0.010668981
0002f0 08 68 55 3d 49 5d 05 3e fe 07 16 be 86 f5 fe bd
       0.052101165 0.13023867 -0.14651486 -0.12449174
000300 5c 76 b1 bc e7 8c 2c be e6 b7 11 3e f9 48 a9 bd
       -0.021662883 -0.16850625 0.14230308 -0.082658716
000310 0a fc 60 bd c2 cb 14 be b5 81 fd b8 97 cc 31 3d
       -0.054927863 -0.14530852 -0.0001208814 0.043408003
000320 c5 5d 0e 3d 15 e2 00 be 58 f4 fb bd 65 b4 34 bd
       0.034757394 -0.12586243 -0.12302464 -0.04411735
000330 37 6f 2b be dd a1 ba bc 64 ff b2 bc f3 cd 1e bd
       -0.16741644 -0.02278226 -0.021850295 -0.038770627
000340 20 c2 e0 bc 3d 89 ba 3d bd d3 d8 3c ce 3d a3 bd
       -0.027436316 0.091082074 0.026468152 -0.07970773
000350 7d 85 61 bd e0 76 d6 bd 24 6f 84 3b 12 d5 32 bd
       -0.055058945 -0.10471892 0.0040415693 -0.04366023
000360 e7 53 11 3e 75 28 3c 3c d9 45 bd 3d 06 6f 7d bd
       0.14192162 0.011484255 0.09241838 -0.06187346
000370 47 48 9a bd 36 0f d5 bd fb b7 14 be 07 dd e2 bd
       -0.07533317 -0.10403292 -0.14523308 -0.11077314
000380 50 6e 93 bd 9d 0a 38 bd f1 49 ef ba c1 11 e8 3c
       -0.07198775 -0.044931997 -0.0018256289 0.028328778
000390 93 1b 27 bc 81 2e 6e 3d e6 45 48 3b 0e e6 ba bd
       -0.010199445 0.05814982 0.003055924 -0.09125911
0003a0 2c 8f 07 be 22 a7 99 3d dd 6b 14 be 89 a3 b9 bd
       -0.1323821 0.07502581 -0.14494272 -0.09064395
0003b0 d0 c4 12 3c d4 24 1a 3d be 76 3d 3c b5 f0 68 bd
       0.008958057 0.03763278 0.011563955 -0.05687018
0003c0 d0 29 2d bd fa c5 9d bd 39 c8 b5 3c e3 6d e5 3d
       -0.042276204 -0.07703777 0.0221902 0.112026
0003d0 fd 90 49 3e 68 5b 4c bd 66 db eb 3b 63 82 b0 bb
       0.19684215 -0.04989186 0.007197785 -0.005386637
0003e0 7f 2a 5e 3e c4 c8 63 3c ed 66 92 3d 3f c0 27 bd
       0.21695898 0.013902847 0.07148538 -0.040954825
0003f0 bb 30 3b 3c 71 ee e7 bc 2f 08 c1 3c 86 e3 d0 bc
       0.0114251925 -0.02831194 0.023563473 -0.025499117

penc1.bn.weight f4 [36]
000000 be fb 72 3f cc 70 92 3f a6 0a 78 3f ed ac 64 3f
       0.9491538 1.1440673 0.9689125 0.89326364
000010 24 22 82 3f cd 80 56 3f 82 25 88 3f 72 f1 7f 3f
       1.0166669 0.83790284 1.0636446 0.9997779
000020 5b b5 76 3f cd e7 57 3f 1a 4a 7b 3f 07 46 58 3f
       0.96370476 0.84338075 0.98159945 0.84481853
000030 4e a5 5a 3f b8 0b 8d 3f 45 b3 95 3f 6e ff 78 3f
       0.85408485 1.1019201 1.1695334 0.97264755
000040 ca 40 6a 3f 12 e5 9b 3f e0 5d 86 3f a8 11 92 3f
       0.9150511 1.2179282 1.0497398 1.1411638
000050 b1 d9 72 3f 6a 63 72 3f 13 50 87 3f 93 13 95 3f
       0.9486342 0.94682944 1.0571312 1.1646599
000060 84 ee 83 3f dd d4 69 3f a1 e8 88 3f 7a e3 60 3f
       1.0307164 0.9134043 1.0695993 0.878471
000070 f3 95 68 3f 8e 5c 62 3f 77 8c 80 3f 7b a7 91 3f
       0.90853804 0.8842248 1.0042866 1.1379236
000080 c6 15 7f 3f 3c 80 88 3f 14 84 73 3f fd b0 86 3f
       0.996426 1.0664134 0.9512341 1.0522763

penc1.bn.bias f4 [36]
000000 23 7e ae bd c3 d2 34 3e 85 53 85 3c 17 c3 2f be
       -0.085201524 0.17658524 0.016275177 -0.17164265
000010 5d 4b ec 3c 08 78 96 bd 2a 44 80 3d 78 73 67 3d
       0.02884453 -0.07347113 0.06263001 0.056506604
000020 ab b5 43 ba f3 0c c3 bd 36 2b 94 bc 9c e8 78 be
       -0.00074657303 -0.09523954 -0.01808701 -0.24307483
000030 e6 9e 2b bd 53 50 87 3d 7d 5e 2c 3d 06 07 d1 bb
       -0.041899584 0.066071175 0.0420823 -0.006379011
000040 5e 05 f9 3c ac bb 1d 3d 52 62 2b 3d c2 1f 16 3e
       0.030398067 0.038509056 0.041841812 0.14660552
000050 b8 13 1b 3d 87 45 a5 3c 33 01 09 3e 0b 4b 35 3e
       0.037860602 0.020174755 0.13379364 0.17704408
000060 6b 57 8e 3c 4d 2c 77 bd 4f 1d a9 bc da 2e 45 bc
       0.017375669 -0.060344983 -0.020643858 -0.012035096
000070 c0 9b 44 bd be b4 29 be c8 cb 2f 3d b3 31 04 3e
       -0.048000097 -0.16572854 0.04291895 0.12909584
000080 b5 3e 4d bd bd e1 1f 3d 34 d7 13 be 45 d2 ea 3d
       -0.05010863 0.03903364 -0.14437562 0.11465887

penc1.bn.running_mean f4 [36]
000000 ef 59 bb bd 78 bf 4c bf 9d 35 56 3e ac f8 1a bf
       -0.09148013 -0.7997966 0.2091889 -0.60535693
000010 c7 72 21 3f a4 d6 62 3e ec 8a 3e bf a7 01 0d bf
       0.6306576 0.22152191 -0.7443073 -0.55080646
000020 26 0f 3c 3e e7 18 14 bd da 47 1c bf cd ee 07 3d
       0.18365154 -0.03615656 -0.61047137 0.033186723
000030 ea 5f 02 3e 9f 57 f6 be 88 7d 07 3f 35 43 ce 3e
       0.12731901 -0.48113725 0.5292592 0.4028565
000040 e1 0f fb be 7d 48 a4 3e e8 9d bc bb 0a 1f 16 3f
       -0.49035552 0.32086554 -0.0057561286 0.5864111
000050 64 35 e4 be c2 43 76 3e aa 17 de be 35 ff d3 3e
       -0.44571984 0.24049285 -0.4337743 0.41405645
000060 36 16 31 3f 21 ee f4 3d 8d f9 80 3e 62 b1 6e 3e
       0.69174516 0.11959482 0.25190392 0.23309854
000070 cb d3 84 bf 3e 11 7d 3e 6a 53 4d be bc a7 08 3f
       -1.0377134 0.24713609 -0.20051351 0.5338094
000080 13 df a7 be 36 f1 0c 3f c3 6e f5 3d 88 f5 71 be
       -0.3278738 0.5505556 0.11984017 -0.23628819

penc1.bn.running_var f4 [36]
000000 4b b9 d1 3e 84 a1 6f 3e 60 a7 37 3e a8 83 a9 3e
       0.4096168 0.23401457 0.17934942 0.33108258
000010 9c cd 8d 3e 0b 1b 85 3e ac 22 60 3e dc 90 41 3e
       0.2769593 0.25997195 0.21888226 0.18902916
000020 c3 a5 84 3e 5c fb f5 3e 0b c3 a3 3e 28 dd e3 3e
       0.25907716 0.48043334 0.31984743 0.44504666
000030 b2 42 b2 3e d5 2c 82 3e ad 48 ca 3e b7 41 ad 3e
       0.3481651 0.2542483 0.39508572 0.338392
000040 b8 e2 3d 3e a0 dc 88 3e 50 96 29 3f b0 bd 54 3e
       0.18543518 0.26730824 0.66244984 0.20775485
000050 59 56 86 3e d9 b8 98 3e 64 dc 4a 3e 3f 57 8b 3e
       0.26237753 0.29828528 0.19810635 0.27215
000060 36 dd 77 3e 65 85 1c 3e 98 13 ef 3d 0f bf a9 3e
       0.24205479 0.15285261 0.11673659 0.3315358
000070 16 4b a1 3e e1 1f a1 3e fe ba 88 3e 32 34 cc 3e
       0.315026 0.31469634 0.26705164 0.39883572
000080 58 3e dd 3e ca 73 73 3e 9f 4d 18 3e f9 8e 85 3e
       0.43211627 0.23774639 0.1487336 0.26085642

kenc0.encoder.0.weight f4 [8, 3, 1]
000000 67 4e 4c 3e 97 a2 56 be b2 99 12 3d 3d 46 52 be
       0.19951783 -0.2096046 0.035791107 -0.20534606
000010 b4 c0 f0 3e 83 49 51 3e 6e 50 19 3e 8a c9 f3 3e
       0.4702202 0.20438199 0.14972088 0.476147
000020 e3 3f 12 be b9 f8 89 bb 1b 90 7e 3e 1f 59 37 3e
       -0.14282183 -0.0042105583 0.2485966 0.17905091
000030 b4 a8 f4 3d e9 91 a4 bd a3 6b 95 be 13 d3 30 3f
       0.1194624 -0.08035643 -0.29183683 0.69072074
000040 0d 71 f6 bc d3 89 bb bb 5e d6 93 bc 46 18 01 bf
       -0.030083204 -0.005723217 -0.018046554 -0.50427663
000050 f0 34 e6 be 39 3e 8e 3d 86 61 b9 3e 40 bc 8c 3e
       -0.44962263 0.06945462 0.36207217 0.27487373

kenc0.encoder.0.bias f4 [8]
000000 24 f5 bf be 15 f9 06 3f ba 79 59 3e d9 7e 16 3e
       -0.37491715 0.5272382 0.21237841 0.14696826
000010 75 92 a1 bd f4 ba e8 3e 76 56 a9 3e 12 3b c0 3d
       -0.078892626 0.45455134 0.33073777 0.09386267

kenc0.encoder.1.weight f4 [8]
000000 c2 78 8a 3f 9f 9c 80 3f a7 82 80 3f 63 fd 71 3f
       1.0818102 1.0047797 1.0039872 0.9452726
000010 54 ab 85 3f 6e 53 83 3f 2c 42 87 3f 2c a4 78 3f
       1.044291 1.0259836 1.0567069 0.97125506

kenc0.encoder.1.bias f4 [8]
000000 3a 07 00 3e 5e fd 88 bd c5 fb 13 3b ad 5f 2c bd
       0.12502757 -0.06688951 0.0022580486 -0.04208343
000010 61 5d 90 3c 15 f2 fb bc e3 97 14 bd 7c 65 b2 bd
       0.017622652 -0.030755082 -0.036277663 -0.08710763

kenc0.encoder.1.running_mean f4 [8]
000000 5a 11 d0 be ee da 0b 3f de 40 70 3e ff a2 d7 3d
       -0.40638238 0.54630935 0.23462245 0.10529136
000010 8b 8c b1 bd 02 d7 cb 3e f4 77 ba 3e bb 00 63 3d
       -0.086693846 0.39812475 0.36419642 0.05542062

kenc0.encoder.1.running_var f4 [8]
000000 7c 38 85 3c ee 9a 67 3d b0 db 35 3d 50 c9 69 3c
       0.016262285 0.056544237 0.044398963 0.014269188
000010 0d 6b 78 3c 5c e3 a9 3d a5 78 96 3d 3b 6c 00 3d
       0.015162242 0.082953185 0.0734723 0.031353217

kenc0.encoder.4.weight f4 [16, 8, 1]
000000 ff 61 5d be 1e 25 8e 3e 85 05 87 be 30 a2 c9 3d
       -0.21619414 0.27762693 -0.263714 0.09845388
000010 3a 04 93 be 9f 27 23 3d 08 24 c0 be a4 4c c0 be
       -0.28714162 0.039832707 -0.3752749 -0.37558472
000020 10 68 ae bc ea 5e 06 3d 55 fc db 3d 3e 52 49 be
       -0.021289855 0.03280536 0.10741488 -0.19660279
000030 b0 52 0a bd 8c cc 2e be ce f7 b3 3e be 24 39 be
       -0.033770263 -0.17070216 0.35149997 -0.18080422
000040 6c 6b db bd bf 50 73 3e 36 46 a6 bd 42 87 9d bc
       -0.107138485 0.23761271 -0.081188604 -0.019229535
000050 21 b7 cd 3e bf 31 6c be f4 60 46 be 3b 60 1b 3e
       0.4017878 -0.23065852 -0.19372922 0.15173428
000060 2f 79 c1 be 34 17 d5 bd dd ca 27 3e bb 22 b3 3e
       -0.37787768 -0.10404816 0.1638598 0.34987435
000070 4c 49 88 3e 06 fb 13 bd ff d7 f8 3d c8 1d a0 3c
       0.2661842 -0.036128066 0.12150573 0.01954545
000080 ef e0 c9 be e7 52 86 be 42 2f 1d be 9c 96 62 3e
       -0.39429423 -0.26235124 -0.15350059 0.22127765
000090 a4 bd 1e be 9c 73 41 be b9 af ce 3e 8d 6c 9d be
       -0.1550203 -0.18891758 0.4036844 -0.3074688
0000a0 ec 9b 8f be 32 0d 83 3e 17 13 31 3e f3 ad bb 3e
       -0.28048646 0.25596005 0.17292438 0.3665615
0000b0 6f 5e 96 be 0f fa 05 3e af e8 eb bd cd 00 48 3e
       -0.29368922 0.13083671 -0.1151899 0.19531555
0000c0 d0 e9 45 be c8 26 02 be 42 0a 01 bd e6 fe f1 be
       -0.19327474 -0.12710106 -0.031503923 -0.47264785
0000d0 e7 d3 94 be ff 80 b6 be 10 bd 01 be a4 c4 b4 3d
       -0.2906792 -0.3564529 -0.12669778 0.08826569
0000e0 8c 51 a3 be 2c 68 28 3e 50 41 41 3e bf ab 63 be
       -0.31898153 0.16445988 0.18872571 -0.22233485
0000f0 44 0b ff bd 1e b8 e4 bd 19 12 cd be 07 88 a7 be
       -0.124533206 -0.1116793 -0.4005287 -0.32720968
000100 35 bc 5a 3e b4 f2 92 be 29 e4 c3 be c5 3d 12 bd
       0.21360858 -0.28700793 -0.3826001 -0.03570344
000110 3b 70 9e be 17 1a 0e 3e b7 d0 84 3e 00 6b 1f be
       -0.30945 0.1387714 0.25940487 -0.15568161
000120 6c fd ed be 85 d3 cf bd 77 16 a3 3e 9a de ad 3c
       -0.46482408 -0.10147766 0.31853077 0.021224309
000130 d8 87 85 be e6 9e 8f be 4a 03 08 3d 3d d4 ce 3e
       -0.26080203 -0.28050917 0.03320626 0.403963
000140 68 55 9d be 7c 4d 52 3e 81 56 44 be cc f3 1b 3e
       -0.30729222 0.2053737 -0.19173624 0.1522972
000150 72 f1 7a 3e 98 25 aa be 18 9d ac be 6b fa b0 bd
       0.24506167 -0.33231807 -0.33713603 -0.086415134
000160 ed 19 84 be 2c cc c5 be 68 ca ad ba 13 d4 69 bd
       -0.2580103 -0.38632333 -0.0013259174 -0.057087015
000170 0b 0f 48 be 1f a2 98 be 08 26 b3 bc d7 e0 56 3d
       -0.19536988 -0.2981119 -0.02186872 0.052460518
000180 de 55 9b 3e a7 93 89 be 0e ae 45 3e b9 dd fa bd
       0.3033895 -0.26870462 0.19304678 -0.122493215
000190 14 7d 31 be 21 50 88 3d 7b a3 75 3e 2d 1d 92 3e
       -0.1733287 0.066559084 0.23988144 0.28537884
0001a0 1a 81 58 3e 3e c8 26 3e 2d 0c b8 be 80 1a 32 3e
       0.21142998 0.16287324 -0.3594679 0.17392921
0001b0 a6 52 bd 3e 98 6e 11 be 98 76 c6 be b1 7f 0e 3e
       0.36977118 -0.14202344 -0.38762355 0.13915898
0001c0 f8 b5 a7 be 0e dd 90 bd df 47 ac 3b 9a e3 8f be
       -0.3275602 -0.07073413 0.005257591 -0.28103334
0001d0 0a fe 8a bc 93 95 31 3e ad d4 c1 3e d5 32 8e 3e
       -0.016966838 0.17342214 0.3785757 0.27773157
0001e0 4f f0 88 3e 68 bc 8a be 56 10 5a 3e 69 bf 67 be
       0.2674584 -0.27096868 0.21295294 -0.22631611
0001f0 55 63 3c bd dc 9b 8b 3c 67 a6 85 3e ab 56 2f be
       -0.045993168 0.017042093 0.26103517 -0.17122905

kenc0.encoder.4.bias f4 [16]
000000 8a cb 4a be 6a 3b b5 be f5 7e 99 3a 81 53 05 be
       -0.19804206 -0.35396892 0.001171081 -0.13020135
000010 b6 85 5c 3e 9d f9 a5 be e4 7d 17 3e c9 f2 16 3e
       0.21535382 -0.32417002 0.14794117 0.14741053
000020 73 0a aa 3e 9c 0c 6d be d3 71 b5 3e fd c1 a0 3e
       0.33211097 -0.23149341 0.35438403 0.31398
000030 80 eb f3 3c 76 32 b6 3c 47 d2 22 be 65 a1 9c bd
       0.029775381 0.022240859 -0.15900527 -0.07647971

kenc0.encoder.5.weight f4 [16]
000000 13 a6 85 3f fd de 83 3f 71 68 90 3f dc ca 68 3f
       1.0441307 1.0302426 1.1281873 0.9093454
000010 ff 0f 67 3f c3 ee 84 3f f6 de 7d 3f fd 18 81 3f
       0.90258783 1.0385364 0.99168336 1.0085751
000020 10 ac 6d 3f ee 5d 6d 3f ab 02 70 3f 09 17 77 3f
       0.9284067 0.9272145 0.9375407 0.96519524
000030 59 23 83 3f b4 7e 89 3f ec a4 83 3f 0c a8 87 3f
       1.0245162 1.0741792 1.0284705 1.0598159

kenc0.encoder.5.bias f4 [16]
000000 4d 0e 16 3e 1f 6a 83 3c 29 b5 10 3e 98 48 6f bd
       0.14653893 0.016041813 0.14131607 -0.05841884
000010 8e 57 0d be 28 ed c0 ba 49 e2 68 bd bf 12 bf 3d
       -0.1380293 -0.0014719116 -0.056856427 0.093297474
000020 c7 c7 90 bd fa 3f c1 bd c9 68 ff bc 0a 0f 2f 3d
       -0.070693545 -0.09436031 -0.031177895 0.04273895
000030 8a ab 15 bd f9 2c a7 bc 53 21 cc bd 63 96 18 3d
       -0.036540546 -0.020407187 -0.099672936 0.037252795

kenc0.encoder.5.running_mean f4 [16]
000000 dc ba 2b bf 3a 61 c6 be 1b 6f 87 3c 8b 0c 4b bb
       -0.67082 -0.38746053 0.016532471 -0.0030982818
000010 dc 5b 30 be 69 fb 64 be 6f 14 f6 be d0 a4 8a be
       -0.17222542 -0.2236153 -0.48062465 -0.27078867
000020 d5 07 ed 3d e2 be bc be 55 6f 13 3d dc a5 38 be
       0.115737595 -0.36864382 0.035994846 -0.1803202
000030 e7 ff 88 3e 77 76 5e 3d e2 25 46 be 53 a5 53 bd
       0.26757738 0.054312196 -0.19350389 -0.051671337

kenc0.encoder.5.running_var f4 [16]
000000 b1 72 91 3e e9 4e ec 3d 40 32 b9 3d f2 06 0b 3e
       0.28407815 0.115384884 0.090427876 0.13576868
000010 b0 a3 68 3e ba 4a 11 3f fb e5 7f 3e b6 35 90 3e
       0.22718692 0.5675465 0.24990074 0.28165978
000020 85 02 c3 3e df 42 e6 3e ec 54 8e 3e aa 5f 22 3e
       0.3808786 0.44972894 0.27799165 0.15856805
000030 ac 1f 24 3e e7 4e ff 3d 78 1a c6 3d 8c d1 a1 3e
       0.16027707 0.12466221 0.09673017 0.31605184

kenc0.encoder.8.weight f4 [32, 16, 1]
000000 e6 48 82 3e 49 bc da be 09 db 9f be 5f 98 97 be
       0.25446242 -0.42721775 -0.31221798 -0.29608437
000010 42 6f 47 ba 7d 7b 85 3c ef 84 78 be 11 9e da bd
       -0.0007607826 0.016294235 -0.2426946 -0.1067468
000020 ad 8b 42 3d 52 0b f2 3c ae ce b7 bd 4d 73 4d 3e
       0.047496486 0.029546414 -0.08974968 0.20063515
000030 74 58 8b 3d 70 84 bf bc 84 2d da 3d ea 0d 15 bd
       0.068039805 -0.02337858 0.10653213 -0.036390223
000040 db de 8d bd 6f ec 37 3e 85 5d 80 3e 9c fa 1e 3e
       -0.06927272 0.17961286 0.2507135 0.15525287
000050 3f e1 91 be 8a a5 ba bd 49 01 99 3c dc fa 72 3e
       -0.28492162 -0.09113605 0.01867737 0.23728508
000060 e7 11 4f be f1 58 17 3e 3e e4 56 3d 97 a4 eb 3d
       -0.20221673 0.14780022 0.052463762 0.115060024
000070 b7 45 9e be a6 b2 3b 3e 4f 13 c3 bd 1d d6 56 3e
       -0.30912563 0.18329868 -0.09525167 0.20980115
000080 d4 c2 8c be 3e 2d 8a be ac e3 30 3b 9b b6 c4 3d
       -0.27492392 -0.26987642 0.0026991172 0.09605142
000090 42 5f 21 be 01 6b b2 be 29 b3 61 3e 2a 1a f9 bd
       -0.15758994 -0.34847263 0.22041 -0.121631935
0000a0 9e 12 79 be da 25 91 be 01 dd 59 be 60 62 50 be
       -0.24323508 -0.2834919 -0.21275713 -0.20350027
0000b0 07 27 02 be 40 20 08 3e 0b 1f 37 bc dc 2e 6d bd
       -0.127102 0.13293552 -0.011176835 -0.057906017
0000c0 62 e7 f5 3c b2 74 93 bd 5e 44 5f 3e f6 80 10 3e
       0.030017558 -0.07199992 0.21803424 0.14111695
0000d0 27 57 c9 3d 99 25 26 3e 1e b9 a1 bd dc 88 e1 3d
       0.09831076 0.1622528 -0.078966364 0.11012432
0000e0 a2 d1 2d be c4 7d 98 3d ae e4 12 3e 11 db 81 bd
       -0.169745 0.07445863 0.14345047 -0.06340612
0000f0 24 7b 29 be 8d 0a 94 3e 57 e3 70 3e ae 58 ce bd
       -0.1655088 0.289143 0.23524223 -0.10075508
000100 04 c8 d8 3e 68 ba a7 bc f5 23 2a bc 3f e9 ae be
       0.423401 -0.020474628 -0.010384549 -0.34162328
000110 65 64 2f be 8b 79 43 3d 37 55 01 3d 0f b7 43 3d
       -0.17128141 0.047723334 0.031575408 0.047782
000120 89 bb c7 3d e9 26 18 3d ff c4 64 be 09 f9 7c 3c
       0.09752566 0.037146483 -0.22340773 0.015440234
000130 44 b6 92 3e 25 99 da bc b5 a5 2e be 2c 69 31 3c
       0.28654683 -0.026684353 -0.170554 0.010828298
000140 76 47 85 3d 53 3c ad 3d 48 30 4a be ed b4 1f be
       0.06507771 0.084587716 -0.1974498 -0.15596361
000150 ac 61 40 3d 2b bb cc 3d 15 52 6b 3e 3b da 47 be
       0.046968147 0.09996637 0.2298053 -0.19516842
000160 e6 22 8c 3e b3 de 6e 3d 17 3e 4b bd fb 56 41 bd
       0.27370375 0.05831785 -0.04961976 -0.04720209
000170 6c ac 69 be 42 31 d8 bc 78 c2 b5 3d dc 1e 4f 3e
       -0.2281968 -0.026390675 0.088749826 0.20226616
000180 d0 93 46 3e dc c4 03 be 1f 79 c4 be d2 0a 25 be
       0.19392323 -0.12868065 -0.38373658 -0.16117409
000190 58 cf 3d 3e 7b 70 d7 be 04 f1 b8 bc c9 49 ba bc
       0.18536127 -0.42078003 -0.022575863 -0.022740262
0001a0 36 ef 89 bd 97 43 1a 3e 0f cf 41 be b8 ea 52 3d
       -0.06735079 0.15064846 -0.18926643 0.051493376
0001b0 ce 14 31 3d 4a 89 8e 3d 75 62 89 be 72 d9 12 be
       0.04323273 0.069597796 -0.2683293 -0.14340761
0001c0 72 74 98 be e8 55 0a 3d 8e c2 71 bd 1f a4 d6 bc
       -0.2977634 0.033773333 -0.059023432 -0.026201306
0001d0 6e bb 8c 3c 98 80 56 bd eb 01 99 be 5a e1 e5 be
       0.017179217 -0.05236873 -0.29884276 -0.44898492
0001e0 bc 87 51 bd a7 1d c0 3d d6 8c 29 3e ef b5 24 3b
       -0.051154837 0.09380656 0.16557631 0.0025132855
0001f0 d5 78 54 be 39 92 16 be ee a9 1c 3e b2 ca 8a be
       -0.20749219 -0.14704217 0.15299198 -0.2710777
000200 43 5e 35 be e4 33 a1 be 0c 9b 27 3e 94 61 d9 3d
       -0.17711739 -0.31484902 0.1636774 0.10614315
000210 63 3b db bd a1 ef ab bd 23 f8 2b 3e 20 97 af 3e
       -0.107046865 -0.08395315 0.16793875 0.34294987
000220 db f7 14 bc cc 62 b2 bc 11 f0 86 3e 11 5b 2a be
       -0.0090922965 -0.021775626 0.2635503 -0.16636302
000230 2a db 79 be d5 e4 0c be 32 58 23 3a c6 88 8b be
       -0.2440001 -0.13759167 0.00062310987 -0.27252787
000240 c0 7e 9f 3e 76 7b 8a bd c0 ec 6d 3a 3d e4 8d bd
       0.3115139 -0.067618296 0.0009076111 -0.069282986
000250 26 f6 47 be 87 4f 86 bd df 3f 5b 3e 4b d2 d5 bd
       -0.19527492 -0.065581374 0.21411084 -0.10440501
000260 21 67 41 3e 2e f2 b0 be 33 00 a8 bc fe e9 ef bd
       0.18886997 -0.34559768 -0.020507907 -0.11714552
000270 96 35 65 3e a5 b6 66 be ee ae 01 3e 18 37 41 3d
       0.22383723 -0.22530611 0.12664387 0.047171682
000280 fc b9 95 bc 42 26 b9 be c9 d5 60 3d a6 85 5b 3e
       -0.01827716 -0.36162 0.05489138 0.21437702
000290 f1 c9 93 be 79 ed 94 3e 17 e3 ce bc 42 34 f6 bd
       -0.28865007 0.29087427 -0.02525477 -0.12021686
0002a0 e8 b7 98 3d f2 00 3c be 04 bd bc 3d c8 d4 f8 bd
       0.07456952 -0.18359736 0.09215739 -0.1214996
0002b0 1e 1a a4 be 21 7e a1 3d cb 48 07 3d 85 1c 2f 3e
       -0.32051176 0.07885385 0.033028405 0.17100723
0002c0 e6 3d 9f bd ef ee ad 3d b4 66 ea bd 1c 1e 62 3c
       -0.07775478 0.084928386 -0.1144537 0.013801124
0002d0 71 af 1c be e8 b3 bc bd df b7 b5 3c 56 92 45 be
       -0.153013 -0.09214002 0.022182403 -0.19294104
0002e0 b2 02 c0 3d 6e 57 8f bd 50 83 25 3d 6a b6 10 3e
       0.09375514 -0.06999098 0.040408432 0.14132085
0002f0 4e c8 af 3c 4c 42 9d be b9 af 87 3e d7 e1 c9 3e
       0.021457817 -0.30714643 0.26501253 0.39430115
000300 b7 20 6f be 7d 1c 5f 3e f5 8a 42 be 45 67 eb bd
       -0.23352323 0.21788211 -0.1899832 -0.114943065
000310 1a c4 af 3e 2e f8 4f be 8c 98 5b be 5c 71 0d 3e
       0.343293 -0.20309517 -0.21444911 0.13812774
000320 96 5a a5 bc 54 84 69 be 0e 44 ac bd 36 64 c6 be
       -0.020184796 -0.22804385 -0.08411418 -0.3874833
000330 f3 70 66 be 11 c2 4b bc 79 f6 32 bd 89 37 6c 3d
       -0.22504024 -0.012436406 -0.043692086 0.05767015
000340 4d af b1 be d8 36 17 3e 53 4d 3a be da 34 0c bd
       -0.34704056 0.14767015 -0.1819356 -0.03423009
000350 e9 b4 0b be 32 9c f4 3d 9b f8 66 3a 21 38 9c bd
       -0.1364323 0.119438544 0.0008810849 -0.07627893
000360 77 a9 6f be 9d a9 10 be 33 d9 08 bd 05 ce 74 be
       -0.2340449 -0.14127202 -0.033410262 -0.23906715
000370 b8 c7 b9 be 02 f8 a5 3e 50 38 55 3e b7 b0 b8 3d
       -0.36285186 0.32415777 0.20822263 0.09018081
000380 47 a7 fe bb 1f 98 2d 3e bd 9d 74 be 7e 17 99 bd
       -0.007771406 0.16952561 -0.23888297 -0.07475184
000390 48 b9 5b bc 70 f2 4e 3c b5 f0 0d 3e 0d c7 6a 3e
       -0.013410874 0.012631044 0.13861354 0.22927494
0003a0 de cf 3c 3c 66 50 85 bd d0 6b 3b 3d b5 3c bc bc
       0.011524169 -0.065094754 0.045757115 -0.022978166
0003b0 85 21 7c 3d 72 74 8b be d8 b2 77 be 70 7b 86 be
       0.061555404 -0.27237278 -0.24189317 -0.2626605
0003c0 28 41 7e bc 4a 64 5a be 0c 3d 10 bd 58 5c 5c bd
       -0.015518464 -0.2132732 -0.03521447 -0.053799003
0003d0 7f 7f 9f 3c 73 5f 9e bc 8a 4d 70 3d 0b 7b 73 3b
       0.019469975 -0.019332623 0.058667697 0.0037152197
0003e0 5a 5a 47 be 45 4a 99 be f8 25 1b be b7 c2 14 3e
       -0.1946806 -0.29939476 -0.15151203 0.14527403
0003f0 d9 01 85 be e7 14 37 be eb 1c 6b 3e b1 fd d0 bc
       -0.25977972 -0.17879067 0.2296025 -0.025511594

kenc0.encoder.8.bias f4 [32]
000000 3a 2d ae bd 83 dc b2 bd ce a4 14 3e 30 eb 5b be
       -0.0850472 -0.087334655 0.14515993 -0.21476436
000010 00 b6 55 be fe 6d 19 3e 44 d3 18 3d 79 08 37 bb
       -0.20870209 0.14983365 0.037310854 -0.0027928634
000020 fb 64 2e 3e 04 cb e5 bc f8 ef ac bd a9 90 65 bd
       0.17030708 -0.028050907 -0.08444208 -0.05604616
000030 84 63 22 be c6 af 8e 3e 14 52 1f bd 59 03 c5 bd
       -0.15858275 0.2786848 -0.038896635 -0.09619779
000040 68 8f e8 bd 74 ea a7 3d 92 99 0e be 1d 51 83 3e
       -0.113554776 0.08199015 -0.1392577 0.25647822
000050 f1 4f 3b be cc 45 57 be fa b3 a6 bd 0e 31 12 be
       -0.18292214 -0.21022719 -0.081397966 -0.14276525
000060 37 a0 6b be f9 0c 1b 3e 5f 7b 5b bd 1e a3 bb bd
       -0.23010336 0.15141667 -0.053584453 -0.091619715
000070 b9 f2 ce 3c a6 ec ee 3d 94 ae 79 bd 1f 47 66 be
       0.025262224 0.11666231 -0.060957506 -0.22488068

kenc0.encoder.9.weight f4 [32]
000000 af f0 79 3f f3 6b 6e 3f 52 8b 85 3f 28 26 81 3f
       0.9763288 0.9313347 1.0433142 1.0089769
000010 5f ac 76 3f ad 1e 6f 3f 15 7e 70 3f 59 d6 70 3f
       0.9635677 0.9340618 0.93942386 0.9407707
000020 9a 88 6e 3f 7e 66 71 3f 60 0f 60 3f b0 f6 7f 3f
       0.9317719 0.94297016 0.8752346 0.9998579
000030 15 08 79 3f 1c 6e 6f 3f 5d b2 7e 3f 63 f6 80 3f
       0.9727796 0.9352739 0.9949091 1.0075191
000040 94 8b 89 3f 73 ed 6f 3f 8b 5a 65 3f 48 5c 8b 3f
       1.0745721 0.93721694 0.8959128 1.0887537
000050 03 6a 7c 3f 5d e9 73 3f 57 e7 9f 3f 6a 0c 65 3f
       0.9859926 0.9527796 1.2492474 0.8947207
000060 98 fa 8e 3f 84 1e 61 3f 7c 98 7d 3f bf a8 87 3f
       1.1170225 0.8793719 0.990608 1.0598372
000070 81 dc 8b 3f 6d 7e 7a 3f 55 3b 99 3f 87 44 91 3f
       1.0926667 0.9784916 1.1971232 1.1349038

kenc0.encoder.9.bias f4 [32]
000000 a3 41 21 3d dd 87 ef 3b a6 2d 85 3c f6 25 bc 3c
       0.039369237 0.0073098973 0.016257118 0.02296732
000010 76 ff 19 3b 24 e7 89 3c fe e6 b1 bc a0 61 d6 3c
       0.0023498214 0.01683385 -0.021716591 0.026169598
000020 f4 31 07 bd 70 55 e5 bd 64 b7 7e 3c f3 bc 04 3b
       -0.033006623 -0.111979365 0.015546653 0.0020254224
000030 38 65 72 bd 8e 70 c0 3d 51 2f 20 3c b1 6a ed ba
       -0.05917856 0.09396468 0.009776906 -0.0018113462
000040 88 8a f2 3d 92 59 68 3b 57 fc 2f be d1 1c 41 3e
       0.11842829 0.0035453779 -0.17186104 0.18858649
000050 fe 8f 1f bc ec 0c 55 bd 92 3f 35 3e 1a 0a 13 be
       -0.00973892 -0.052014276 0.17700031 -0.14359322
000060 e2 d2 c7 3d 70 cf 1d be 61 77 cf 3b f3 28 aa 3d
       0.097570196 -0.15411162 0.0063313697 0.08308592
000070 a8 61 f0 3d 08 e6 9b bd 18 11 99 3d 43 03 4f 3d
       0.117373765 -0.07612234 0.074739635 0.05054022

kenc0.encoder.9.running_mean f4 [32]
000000 78 6e ca be bf 8a 6a 3e c2 45 06 bf f5 f8 12 3e
       -0.39537406 0.2290449 -0.5245019 0.14352782
000010 31 c3 cb bd dd d3 82 3e 0d 9b cb be 48 aa 09 bf
       -0.09949339 0.25552264 -0.39766732 -0.53775454
000020 61 f4 31 3d 82 67 f0 bc b4 db 81 be 55 d5 e8 bc
       0.04344595 -0.029346231 -0.25362933 -0.028422037
000030 42 f2 29 bf fe 33 e2 3b ff 39 85 be e3 e8 d0 be
       -0.6638528 0.0069031706 -0.2602081 -0.40802678
000040 9f 96 75 3e a1 a8 26 3e aa 63 18 bf c6 bf 16 3f
       0.23983239 0.16275264 -0.59527075 0.58886373
000050 2d 38 f4 be 57 70 3b bf cf e2 61 3d 81 51 25 be
       -0.4769911 -0.7321829 0.055147942 -0.16144373
000060 8e 15 b1 bc 18 27 d0 3e cf a7 0a bf 61 8f 4e 3e
       -0.021616723 0.40654826 -0.54162306 0.20171882
000070 fe 05 ad 3e b2 9e c1 3e 9e 09 ab be d0 1e 88 be
       0.33793634 0.37816387 -0.33405775 -0.26586008

kenc0.encoder.9.running_var f4 [32]
000000 fe fd 5b 3e 6f be 63 3e b2 62 53 3e a6 47 94 3e
       0.21483609 0.22240613 0.20643118 0.28960913
000010 a1 d9 49 3e 1d 8a 10 3e f7 b0 a3 3e ae 50 37 3e
       0.19711925 0.14115186 0.3197095 0.1790187
000020 0b bb e1 3e e4 ee 4d 3e f0 2e 82 3e aa 22 c8 3e
       0.44088015 0.20110661 0.25426435 0.39088947
000030 f4 ac a2 3e 18 ce 3b 3e fa 83 4d 3e 4f 15 44 3e
       0.31772578 0.18340337 0.20069876 0.19148754
000040 51 6b 32 3e 95 05 30 3e b6 af e1 3d 58 39 cf 3e
       0.1742375 0.1718963 0.11019842 0.40473437
000050 fa 4f c6 3e d9 6d 56 3e da 7c ab 3e 8f 0b 8d 3e
       0.38732892 0.20940341 0.33493692 0.2754788
000060 f0 c9 51 3e d9 a2 7f 3e bb 6e e3 3d 3a aa 57 3e
       0.2048719 0.24964465 0.111051045 0.2106103
000070 51 9f 85 3e 65 85 80 3e 94 0e 4d 3e e3 5f 9e 3e
       0.2609811 0.25101772 0.20025092 0.3093253

kenc0.encoder.12.weight f4 [64, 32, 1]
000000 4d ca fd 3b 60 12 04 bc 1e a6 0e be 3a 32 4a 3e
       0.0077450634 -0.008061022 -0.13930556 0.19745722
000010 ee 82 41 3c c8 f6 19 3e 93 4a 62 3e 3c f9 17 be
       0.011811001 0.15035546 0.2209876 -0.14841169
000020 cb 6f fa bc 9a 38 1a 3d 2f f2 33 3e 19 17 dd 3d
       -0.030570885 0.037651636 0.17572854 0.10795421
000030 10 83 71 bb f0 3c 17 be 36 5a f7 3c 5a b1 ef 3d
       -0.00368518 -0.1476934 0.030194383 0.11703749
000040 69 31 14 be a5 e1 41 3d e1 a6 de 3d 18 c6 95 3e
       -0.14471973 0.047334332 0.108716734 0.29252696
000050 e8 bc 75 3d 32 c4 e0 3d 7f 80 8a 3e e3 cf e8 bd
       0.05999461 0.10974921 0.2705116 -0.11367776
000060 52 37 3d 3d 91 45 79 3d 63 8a 35 be f1 38 1d be
       0.046195336 0.06085736 -0.17728572 -0.15353753
000070 b2 17 ed bd 98 0c 12 bd fb 0a 8b 3d 20 b6 cf bc
       -0.11576785 -0.03565654 0.06789204 -0.025355399
000080 55 d4 8d be 4a 25 1f bd a9 f8 a5 3d af 8e 18 bd
       -0.2770106 -0.03885392 0.08104069 -0.03724545
000090 6e 42 25 be 4e d7 f5 bc 55 c3 6e be 18 d0 c4 3d
       -0.16138622 -0.030009892 -0.23316701 0.09610003
0000a0 a2 11 1e 3e e6 ef 5f 3d 81 e7 eb 3c 9d de 42 3e
       0.15436414 0.054672144 0.028796913 0.19030233
0000b0 9b e0 54 3c 2a 72 32 be 27 88 21 be 0d 53 04 be
       0.012993003 -0.17426363 -0.15774594 -0.12922306
0000c0 d2 2b 84 3e 02 79 bc 3d 2c 83 45 be 7a 59 8c be
       0.25814682 0.09202768 -0.1928832 -0.27412015
0000d0 bd 9a eb 3c 7e bd 98 3d b2 a7 0a 3e 99 ca 9b bd
       0.028760308 0.07458018 0.13540533 -0.07607002
0000e0 78 e7 71 3e 30 fd ef 3b a8 10 2a 3d 2d 90 c3 bd
       0.23623455 0.0073238835 0.04151979 -0.09548984
0000f0 c9 55 66 3e 03 b9 51 3e a7 15 5d 3d 1f 5e 08 3e
       0.22493662 0.20480733 0.053975727 0.13317154
000100 62 ee df bd f7 d3 29 3e 3e 82 30 be ff a5 b0 3d
       -0.1093414 0.16584764 -0.17237183 0.08625411
000110 af 5c 62 3d 33 98 2a 3c 99 a3 53 bc 96 95 df 3d
       0.05526417 0.010412264 -0.012917423 0.10917203
000120 af 7a a9 3d 5a 8b 9b bd 85 d0 ec 3d 1c d9 f7 3d
       0.08275353 -0.075949386 0.115632094 0.12101957
000130 4d 7d 65 3d 4d 3f 72 3d 72 0f 30 bc 7e 9c 3e bd
       0.0560277 0.0591424 -0.01074587 -0.04653596
000140 8c 06 7a bc 3c 68 74 bd c3 3b 87 3e eb c1 d9 3d
       -0.01526035 -0.05966972 0.26412782 0.1063269
000150 5c 23 f7 3c 6a aa 05 3d 40 79 80 3e a4 1c 50 3e
       0.030168228 0.032633223 0.25092506 0.20323426
000160 9d 7c 92 3e f5 cb 71 bd 38 0d 44 3e 06 bd 81 3d
       0.28610697 -0.0590324 0.19145668 0.063348815
000170 56 53 ad 3d ac d4 f9 3d 59 d8 a1 3e 8f ce dc bc
       0.08463161 0.12198767 0.31610373 -0.026953964
000180 7f cb 41 be 1a fc fe 3d be 9e 9c 3e df d5 1c 3e
       -0.18925284 0.12450428 0.3058986 0.1531596
000190 aa 83 28 be db a9 ee 3d d6 05 02 be 16 3b d5 bd
       -0.16456476 0.11653491 -0.12697539 -0.104116604
0001a0 aa ca 99 3e f0 e1 c3 3d 4f e7 13 3e 96 d2 f7 bd
       0.30037433 0.095645785 0.14443706 -0.12100713
0001b0 e4 89 26 be 03 6e 20 be 7c 59 7a 3d 02 1b b8 3c
       -0.16263539 -0.15666966 0.061120495 0.022473816
0001c0 7e 3d f7 3d 0a 08 c7 3d b1 29 40 bd 91 40 41 3d
       0.120722756 0.0971833 -0.04691476 0.047180716
0001d0 84 4f 44 be 52 41 68 3d 57 99 66 bd a7 53 3a be
       -0.19170958 0.05670292 -0.05629858 -0.18195973
0001e0 21 57 05 3d a6 6d 6c 3d e0 76 39 3d 1d 2e 55 be
       0.032553796 0.057721756 0.045279384 -0.20818372
0001f0 a1 cc 14 be 96 9f 38 3e 38 af c4 bd 8a 3c 85 3e
       -0.14531185 0.18029627 -0.09603733 0.2602275
000200 09 4a 39 3e a3 0a 3f be 3b 4b 92 be f1 cb 96 3c
       0.18094648 -0.18656401 -0.2857302 0.018407794
000210 9c f8 9e bd e2 18 3a 3e 01 0e a1 3e 89 f4 2f bd
       -0.07762262 0.18173555 0.31455997 -0.042957816
000220 4b cf de 3d f4 6e f1 3d b3 5e cb bd e3 a1 13 3e
       0.10879382 0.11788741 -0.09930172 0.14417224
000230 81 fd f2 3c e0 02 69 be c2 b9 ef bd 4a ac 71 3d
       0.029661896 -0.22755003 -0.11705352 0.0590022
000240 7b 24 ad bd 34 b3 84 be 35 52 98 bc 83 cf 27 3e
       -0.08454224 -0.2591797 -0.018593887 0.16387753
000250 a5 ff 23 be d9 0c a7 3d 2e dc 99 3d c3 ef 2c 39
       -0.1601549 0.08156747 0.07512699 0.00016492516
000260 8b 1b 40 3d 7a c7 9b 3d 39 1d d6 3d e3 c3 55 be
       0.046901267 0.076064065 0.104547925 -0.20875506
000270 7b 42 15 be 93 f0 78 bd 5f c6 87 be 34 c3 11 be
       -0.14576142 -0.060776304 -0.26518533 -0.1423462
000280 d3 6f 95 3c c9 25 6d be 57 8a c8 3d cf 5d 5a bc
       0.018241799 -0.23158945 0.09792011 -0.01332803
000290 ca 21 ef bd df f9 0d be 89 f8 0a 3d ca f1 0d 3d
       -0.116763666 -0.1386485 0.033928428 0.034654416
0002a0 8b 7c d0 3c b4 80 3d be 21 19 4e be b5 ff 28 3e
       0.025450012 -0.18506128 -0.20126773 0.16503794
0002b0 1f 6f 03 be 14 b5 99 bb da ee 72 bd 41 06 1c 3b
       -0.12835358 -0.0046907756 -0.059309818 0.0023807439
0002c0 12 62 3b bd f1 b7 ce bd 03 63 a0 3d 04 75 ee 3d
       -0.045747824 -0.10093678 0.07831385 0.11643413
0002d0 e3 05 2c be 28 f8 3c 3e a6 12 39 be ab e2 8f be
       -0.1679912 0.18454039 -0.1807352 -0.2810262
0002e0 ad ea 95 3d 4c 31 40 be 59 b7 9b 3e 7b 57 5c be
       0.073201515 -0.18768805 0.3041332 -0.21517746
0002f0 d1 76 85 be d4 00 a5 3d 64 ee 26 3d 6b 7f ea 3c
       -0.26067212 0.080567986 0.04075469 0.02862521
000300 52 7a 8b 3c 9b 4a 07 3e 15 42 79 3d 4f 6f 8e be
       0.0170261 0.13212053 0.060854036 -0.27819297
000310 02 00 d0 bd 3e 78 98 3c 11 9d 02 3d f1 25 07 bc
       -0.101562515 0.018612023 0.03188807 -0.008248792
000320 0b 06 f0 3d 87 c1 c0 37 0a 2d 7f be 23 d3 92 bd
       0.117199026 2.2978302e-05 -0.24919525 -0.071691774
000330 d9 9e e4 3d 14 4d 23 3d b9 eb 6b 3e b4 8b ca 3b
       0.1116311 0.03986843 0.2303914 0.0061812047
000340 b4 22 90 bd c2 e8 ef 3d ea 4e 0e bc 0b b6 c5 bd
       -0.07037869 0.11714317 -0.008685807 -0.096538626
000350 82 ed 03 3d 69 be aa bd 2e f0 e5 3c ec c4 53 be
       0.032208927 -0.08337099 0.028068628 -0.20680588
000360 ee 93 5c be b0 de 70 be d1 6b 93 3d 97 c6 b5 bd
       -0.21540806 -0.23522449 0.07198299 -0.08875769
000370 3a 6d 6f be cf 84 43 3d 30 3e ac 3d 6c ec 12 be
       -0.2338151 0.047734078 0.08410299 -0.14348
000380 44 d3 a7 bc 75 fe d0 bd 42 1b fd 3c 85 11 eb bd
       -0.020486481 -0.10204784 0.030896787 -0.11477951
000390 cc bb 48 3d c8 e4 1a 3e 5a 03 78 bd 6e 83 60 bd
       0.049007222 0.15126336 -0.06055007 -0.05481284
0003a0 6f c1 05 be 13 af 00 3e a4 06 13 be 39 e6 58 3d
       -0.1306207 0.12566786 -0.14358002 0.052953932
0003b0 5b ec 5e be 00 d9 6d bd 9f 3b 18 3e 9d 6a 28 3e
       -0.2176985 -0.058068275 0.14866494 0.1644692
0003c0 f8 53 b5 3d 3e ca f1 bd 7e 5a 54 bd a0 a8 b3 3d
       0.088539064 -0.11806153 -0.051844113 0.08772397
0003d0 17 72 b2 3d 73 42 45 be 31 ca c3 be 74 64 d6 3d
       0.08713167 -0.1926363 -0.38240197 0.10468379
0003e0 e2 df 3c 3d 16 2f 61 3c 5a 7f 80 3d 2c 34 83 3d
       0.04611195 0.013744136 0.062742904 0.06406435
0003f0 87 6a 42 be 29 e5 02 bb ce 95 f9 bd 2c 7c 5e be
       -0.1898595 -0.0019973016 -0.12186776 -0.21727055

kenc0.encoder.12.bias f4 [64]
000000 8e 15 cb bd 2c c4 e2 3d 5d eb 1d 3e 9b b0 a3 bd
       -0.099162206 0.11072573 0.15421815 -0.07992669
000010 f4 5a bd bd 08 da 8c bd 85 6d 94 3d a0 f1 41 3e
       -0.092458636 -0.06877524 0.07247452 0.18939829
000020 71 5a 12 3e 2b 22 1d 3d f4 45 e1 bd 56 76 08 3d
       0.14292313 0.038362663 -0.109996706 0.03331598
000030 b8 1a 9a bd ce 31 23 be f3 38 13 3e 87 32 88 bd
       -0.075246274 -0.15936968 0.14377193 -0.06650262
000040 52 08 35 3e 5d 22 b8 3d 58 21 a2 3d 3d 3e 1d 3d
       0.17678955 0.08990929 0.07916516 0.038389433
000050 ec c1 fb bd 7e 53 0a be cf c1 27 bd ee d2 0e be
       -0.12292847 -0.13508412 -0.040956315 -0.13947651
000060 b3 6a 25 be 00 61 ac 3d 55 b7 b2 bd 31 6e 29 3e
       -0.16153984 0.08416939 -0.08726374 0.16545941
000070 82 03 f6 bd b2 0c 08 3d 2b 49 81 bc cb 9a 76 3d
       -0.12012388 0.033215232 -0.01578196 0.060206216
000080 72 19 1b 3e e6 38 16 be 17 d1 ba bd db ba 26 be
       0.15146425 -0.14670143 -0.09121912 -0.16282217
000090 48 62 9b 3d b3 fc 5d bd d2 92 73 bd 73 63 0d be
       0.07587105 -0.05419607 -0.05946619 -0.13807468
0000a0 75 01 d0 bb 40 ca 9a bd 54 82 13 be ad 49 2d 3d
       -0.00634783 -0.075581074 -0.14405185 0.04230659
0000b0 7e d1 27 be 2e e2 07 3e 3b 1b 10 3e 94 32 d6 3d
       -0.16388509 0.13269874 0.14072888 0.10458866
0000c0 15 f1 16 3d 5f df 18 be 9a c8 e1 bd 55 25 46 bd
       0.036851007 -0.1492896 -0.1102459 -0.048375446
0000d0 d6 d8 c2 bd 67 e5 12 3e 68 92 33 3e 0a f9 2e bd
       -0.095140144 0.14345323 0.17536318 -0.04271797
0000e0 c5 4c 30 be 1e 5d 1b 3e 6b 55 18 be 72 df e1 3d
       -0.17216785 0.1517224 -0.14876334 0.11028947
0000f0 36 97 8a bd 28 ca d2 3d 49 03 18 be d3 3e 21 bd
       -0.067671224 0.102924645 -0.14845003 -0.039366554
