hyperglue/weights/SP706.pth (torch, 461855 bytes, 160 tensors)

penc0.lin.weight f4 [36, 100]
0	0x3d858574	0.06519595
1	0x3da6321e	0.08115028
2	0xbcc36eb5	-0.0238565
3	0x3e552343	0.20814233
4	0xbe27ac27	-0.16374265
5	0xbe4fd874	-0.20297414
6	0xbdc62d34	-0.096765906
7	0x3d169d6d	0.036771227
8	0x3b7bc467	0.0038416625
9	0x3d56d5d3	0.052450012
10	0xbdbec357	-0.09314602
11	0x3c134ea3	0.008990916
12	0xbd6002ba	-0.0546901
13	0xbd20fe9f	-0.039305326
14	0xbd2f1fe6	-0.04275503
15	0x3d94d5bc	0.07267329
16	0x3d882ccd	0.0664917
17	0xbe49b8d5	-0.19699414
18	0x3deae044	0.114685565
19	0x3e5648e1	0.20926239
20	0xbd940b9d	-0.072287776
21	0xbd12964a	-0.035787858
22	0x3d544c31	0.051830474
23	0xbe1784e6	-0.1479679
24	0xbd9ae7fb	-0.07563778
25	0x3d53d331	0.05171508
26	0xbd2bb1f3	-0.041917752
27	0xbe7f52de	-0.24933955
28	0x3da5b436	0.08091013
29	0x3dc95b94	0.0983192
30	0x3bf5a3ac	0.007496318
31	0xbd546e9c	-0.051863298
32	0x3cdfda0a	0.027325649
33	0x3de576c6	0.11204295
34	0xbdee5e3e	-0.11639069
35	0xbe670674	-0.22561055
36	0x3c23c1ff	0.009994983
37	0x3ce4dfc1	0.027938725
38	0x3c382d20	0.011241227
39	0xbdfa8c7c	-0.122338265
40	0xbd927664	-0.071514875
41	0xbc8d6ae5	-0.017262885
42	0x3d87ec5e	0.0663688
43	0x3c7662f7	0.0150382435
44	0xbdbdd6f9	-0.092695184
45	0x3df6c525	0.12049321
46	0xbd9cafb6	-0.07650702
47	0x3d9aecd0	0.075647
48	0x3d7bf6a1	0.0615145
49	0x3dc5e82b	0.09663423
50	0xbd1bcbe5	-0.038036246
51	0xbaa736f6	-0.0012757469
52	0xbdd0b771	-0.10191239
53	0xbdfcd46d	-0.123452045
54	0x3e01b914	0.12668258
55	0xbd91dda1	-0.071223505
56	0xbcfe80c2	-0.031067256
57	0x3c022ace	0.007944776
58	0x3e28642f	0.16444467
59	0xbd4a05b0	-0.04932183
60	0x3d865ead	0.06561027
61	0xbc9ac69f	-0.018893538
62	0x3dcbd6f2	0.09953107
63	0xbed358a3	-0.41278562
64	0x3e0ba9a9	0.13638939
65	0x3e417dea	0.18895689
66	0x3c3c0b3b	0.011477287
67	0xbec535d3	-0.38517627
68	0x3e1eb2df	0.15497921
69	0x3e97f371	0.2967792
70	0x3dc5c757	0.09657162
71	0x3d8c8b59	0.06862516
72	0x3cf9164b	0.030406138
73	0xbd534df5	-0.051588017
74	0xbe03edbc	-0.12883657
75	0xbe272510	-0.16322732
76	0x3d820236	0.06348078
77	0xbda1cd02	-0.0790043
78	0xbdc425d9	-0.09577531
79	0xbe0e802a	-0.13916078
80	0xbd54ef37	-0.051985946
81	0xbcd8dde2	-0.02647299
82	0xbd891c42	-0.06694843
83	0x3dbc10e5	0.0918291
84	0xbd84ebd2	-0.06490292
85	0x3e4aa9de	0.19791362
86	0xbd6717b3	-0.056419086
87	0x3e06e69d	0.1317391
88	0xbd95d8dd	-0.07316754
89	0x3e6b203c	0.22961515
90	0x3be749d5	0.007058362
91	0x3d125f1d	0.03573524
92	0x3d04c504	0.03241445
93	0x3e064a5b	0.13114302
94	0xbd89bb96	-0.06725232
95	0x3d4aa091	0.049469534
96	0x3d17f434	0.037098125
97	0x3e33e4ff	0.17567824
98	0xbd2eccfd	-0.04267596
99	0x3d87fbba	0.0663981
100	0xbdc4df3c	-0.09612891
101	0x3b9e1c2f	0.004825137
102	0x3b772cc3	0.003771589
103	0xbcf6019b	-0.030030062
104	0xbdf4ec10	-0.11959088
105	0xbcecab03	-0.028890138
106	0xbc236f03	-0.009975198
107	0xbc8029d3	-0.015644943
108	0x3d934752	0.07191338
109	0x3dc8ffe2	0.09814431
110	0xbdb4b904	-0.088243514
111	0xbdb91e1e	-0.090389475
112	0x3dab4ed4	0.08364645
113	0x3e6230cf	0.22088932
114	0x3d9bd2ed	0.0760859
115	0x3db025e0	0.08600974
116	0x3d98e9a6	0.0746644
117	0x3e52b9e3	0.20578723
118	0x3e60f57a	0.21968642
119	0x3da5f58e	0.081034765
120	0x3dd5733d	0.104223706
121	0x3dae36a8	0.085065186
122	0x3ccfa971	0.02534935
123	0x3dfe5704	0.12418941
124	0x3e561443	0.20906167
125	0xbe22eb48	-0.15910065
126	0x3db6255a	0.08893843
127	0x3e6eebcd	0.23332138
128	0x3e543627	0.20723782
129	0xbe9ac9ca	-0.30232078
130	0x3c2f38b1	0.010694669
131	0x3c3a9ab4	0.011389423
132	0x3d5ab277	0.053392854
133	0xbe953f3c	-0.29149806
134	0xbc68b381	-0.014202953
135	0x3e8cf5ec	0.27531374
136	0xbb23522a	-0.00249208
137	0xbe82fbfc	-0.25582874
138	0x3de8d2f8	0.11368364
139	0x3e3a524b	0.18195455
140	0xbd27d9aa	-0.040979065
141	0x3c81305f	0.015770135
142	0x3c465c9a	0.012107039
143	0xbdf63381	-0.12021542
144	0x3c14022b	0.00903372
145	0x3dbd34ae	0.092385635
146	0x3db61bb4	0.08892003
147	0xbdcd5929	-0.100267716
148	0x3da28517	0.07935541
149	0xbdca4595	-0.09876553
150	0x3d7a331c	0.061083898
151	0xbccb7dce	-0.024840262
152	0xbdd7155f	-0.10502123
153	0x3cab0b01	0.02087927
154	0xbccc5d65	-0.024946878
155	0xbe0572cf	-0.13032077
156	0xbde98fd3	-0.114043854
157	0xbd72c1b0	-0.059266746
158	0x3e22fbc0	0.15916348
159	0xbdc21b1d	-0.09477828
160	0xba7072da	-0.00091723877
161	0x3d89d9a2	0.06730963
162	0xbd3de763	-0.046363246
163	0x3e0896f1	0.1333883
164	0x3bbefb08	0.005828265
165	0xbcde262f	-0.027117817
166	0x3d829c20	0.06377435
167	0x3da15ccd	0.078790285
168	0xbc1dc2e1	-0.009628982
169	0xbcafb0f4	-0.021446683
170	0xbd8a95a7	-0.06766825
171	0x3d8e93c6	0.06961779
172	0xbc588861	-0.013216109
173	0xbde64d2a	-0.112451866
174	0xbcc7586e	-0.024334159
175	0x3c7d001b	0.01544192
176	0xbbac274b	-0.0052537075
177	0xbe3057bc	-0.17220968
178	0x3c08008a	0.00830091
179	0x3d53d3de	0.051715724
180	0x3cd0b93c	0.025478952
181	0x3d0d3203	0.034471523
182	0xbd4301da	-0.047609188
183	0xbe018bad	-0.12650938
184	0xbd9ef830	-0.07762182
185	0x3e589a0c	0.21152514
186	0xba7f152e	-0.0009730634
187	0xbd152a99	-0.036417577
188	0xbd406179	-0.046967957
189	0x3dfe045e	0.12403177
190	0x3db52d47	0.088465266
191	0xbd88719a	-0.06662293
192	0xbce4bd22	-0.027922217
193	0x3e258faa	0.16168085
194	0x3db35742	0.087568775
195	0xbd90dd30	-0.07073438
196	0xbbd6a23c	-0.0065501016
197	0x3e3b73c1	0.18305875
198	0x3d61ef8f	0.0551601
199	0x3c44712c	0.011989873
200	0xbd7970d8	-0.06089863
201	0xbd08729f	-0.033312436
202	0x3df253e6	0.118324086
203	0x3e3cddfe	0.18444058
204	0x3cddd20f	0.027077703
205	0xbd49e60b	-0.04929165
206	0x3dc6b012	0.097015515
207	0xbc185a33	-0.009298849
208	0xbb564900	-0.003269732
209	0x3cdbaffa	0.02681731
210	0xbb20acb3	-0.0024517
211	0xbdbf43d2	-0.093391076
212	0x3db824c4	0.089913875
213	0x3d35cfad	0.04438751
214	0xbd9a4bc5	-0.07533983
215	0x3cab2110	0.020889789
216	0xbd41e18c	-0.04733424
217	0xbe0cf76d	-0.1376626
218	0xbe62488a	-0.22097984
219	0x3e14c212	0.14527157
220	0x3dcd1df8	0.10015482
221	0x3d9ccd95	0.07656399
222	0xbdc4550a	-0.095865324
223	0xbd83ff57	-0.064451866
224	0x3dccb248	0.09994942
225	0xbe6d7b8d	-0.23191662
226	0x3c5379c1	0.012907446
227	0x3ca51bcc	0.020154856
228	0xbdd750fa	-0.10513492
229	0xbe686f14	-0.22698623
230	0xbd9148f1	-0.070939906
231	0xbc784764	-0.01515374
232	0xbd5ce186	-0.053926013
233	0xbdf6a9f0	-0.12044132
234	0x3e92c2ac	0.28664148
235	0x3de6bbb8	0.11266273
236	0x3c775359	0.015095555
237	0xbe52e557	-0.20595299
238	0x3da7a864	0.08186415
239	0x3ceb3bf8	0.028715119
240	0x3dc1b161	0.094576605
241	0x3cbe63e5	0.023240993
242	0xbd08d5b2	-0.03340692
243	0x3e02297c	0.12711138
244	0x3d34e988	0.044168025
245	0xbd88d600	-0.06681442
246	0xbda18ea5	-0.078885354
247	0xbc413e3e	-0.011794625
248	0x3dc09332	0.09403075
249	0xbd0488a6	-0.03235688
250	0x3c7f2f9c	0.015575316
251	0x3ce67de7	0.028136207
252	0xbd973b70	-0.07384384
253	0x3dbe848f	0.09302627
254	0x3e0d85a9	0.13820519
255	0xbe09130d	-0.13386174

penc0.bn.weight f4 [36]
0	0x3f93c773	1.1545242
1	0x3f84b3da	1.0367386
2	0x3f8ff45e	1.124645
3	0x3f976c67	1.1829957
4	0x3f6863fe	0.90777576
5	0x3f7b6e40	0.98215103
6	0x3f60f783	0.8787767
7	0x3f79ebdc	0.9762552
8	0x3f828f11	1.019991
9	0x3f8a4a02	1.0803835
10	0x3f67847b	0.90436524
11	0x3f85925a	1.0435288
12	0x3f7510ac	0.95728564
13	0x3f76899d	0.9630373
14	0x3f82f384	1.0230565
15	0x3f84d51d	1.0377537
16	0x3f75f369	0.9607454
17	0x3f6dc1ed	0.9287403
18	0x3f8ae2a8	1.085042
19	0x3f788b62	0.9708768
20	0x3f8ae53e	1.0851209
21	0x3f83ff5d	1.0312306
22	0x3f8ec5be	1.1154096
23	0x3f78b1d0	0.9714632
24	0x3f8ce65a	1.1007798
25	0x3f80ed5d	1.0072438
26	0x3f6eb7b8	0.9324908
27	0x3f835089	1.0258952
28	0x3f6d9528	0.9280572
29	0x3f7b4e77	0.981666
30	0x3f7420d0	0.9536257
31	0x3f88393c	1.0642467
32	0x3f961497	1.1725034
33	0x3f7d86e5	0.9903396
34	0x3f85b67a	1.0446312
35	0x3f7952f4	0.973922

penc0.bn.bias f4 [36]
0	0x3da91cee	0.08257471
1	0x3d67f206	0.056627296
2	0x3cbd69ba	0.023121703
3	0x3cdd0eca	0.026984591
4	0x3e17583a	0.1477975
5	0x3d6568d2	0.056008168
6	0xbe3e50be	-0.18585488
7	0x3cf16683	0.029467827
8	0x3e2b10a1	0.16705562
9	0xbc8ae649	-0.016955512
10	0x3c549ce3	0.012976858
11	0x3d263747	0.04058006
12	0x3ce803f4	0.028322197
13	0x3e476a4a	0.1947414
14	0x3dc526c3	0.09626534
15	0xbd4a8401	-0.049442295
16	0x3b0b537f	0.0021259484
17	0x3ddddffd	0.10833738
18	0x3d4b6cdb	0.04966436
19	0x3da2e278	0.07953352
20	0xbdac747c	-0.08420655
21	0x3d920798	0.07130355
22	0x3e0f536b	0.13996665
23	0x3da90f8a	0.08254917
24	0x3ddcd6a2	0.107831255
25	0x3d3a99e3	0.045556914
26	0x3c14abda	0.009074176
27	0xbcaeb7da	-0.021327902
28	0x3d825b09	0.0636502
29	0x3e0b9d2e	0.13634178
30	0xbdcc838f	-0.0998603
31	0xbd9116af	-0.07084405
32	0x3dc1ae27	0.09457045
33	0x3de555fc	0.11198041
34	0x3e04a6ab	0.12954204
35	0xbdba6456	-0.09101169

penc0.bn.running_mean f4 [36]
0	0xbd9b175f	-0.07572817
1	0x3df3b930	0.11900556
2	0xbc8bffed	-0.017089808
3	0xbd879e65	-0.06622008
4	0x3d169c1e	0.03676998
5	0x3d3b4a68	0.045725256
6	0x3cb4c71a	0.022067595
7	0xbdc87fd7	-0.097900085
8	0x3de96c7f	0.11397647
9	0x3e02e4a2	0.12782529
10	0xbdae59a1	-0.08513189
11	0xbd9c425d	-0.07629845
12	0xbd799866	-0.060936354
13	0x3d7e7511	0.062123362
14	0x3dca56c9	0.09879834
15	0xbd6d81a2	-0.057984956
16	0xbe1909b7	-0.14945112
17	0x3df7bc64	0.120964795
18	0xbc82ecaf	-0.015982
19	0xbde55738	-0.11198276
20	0xbccfedab	-0.025381884
21	0x3e21ecc8	0.15812981
22	0x3c55e2ec	0.013054591
23	0x3c8bbea2	0.017058674
24	0xbde3a190	-0.111148
25	0x3de89f66	0.11358528
26	0xb909757b	-0.00013109103
27	0xbd174282	-0.03692866
28	0x3dfaadc4	0.122401744
29	0xba68b413	-0.0008876931
30	0xbdc02f11	-0.09383977
31	0xbdbb93d6	-0.09159057
32	0xbdca9a15	-0.0989267
33	0xbdd2985e	-0.10282968
34	0xbda5a03b	-0.08087202
35	0xbcb83843	-0.022487765

penc0.bn.running_var f4 [36]
0	0x3ba69f5a	0.005084914
1	0x3bdb6e8f	0.006696529
2	0x3baf1934	0.0053435806
3	0x3b8678ea	0.0041037695
4	0x3bdef5a8	0.006804187
5	0x3bee635c	0.007275028
6	0x3cd02c1e	0.025411662
7	0x3bc51fb4	0.006015742
8	0x3c47218d	0.012153995
9	0x3bb633b0	0.005560361
10	0x3c30012a	0.010742465
11	0x3c565152	0.013080912
12	0x3bed1675	0.007235343
13	0x3b69e07f	0.0035686789
14	0x3c158c16	0.009127637
15	0x3bc04d86	0.0058686165
16	0x3c41f6df	0.011838644
17	0x3b9a627f	0.0047114487
18	0x3b965302	0.004587532
19	0x3c0885b0	0.008332655
20	0x3be8a054	0.0070991907
21	0x3c7235ce	0.014783336
22	0x3b833e71	0.0040052463
23	0x3bbb9b86	0.005725327
24	0x3b8ba4cf	0.00426159
25	0x3bec4599	0.007210445
26	0x3c82c4be	0.015962955
27	0x3b9b3dac	0.0047375765
28	0x3bd8cfb6	0.006616558
29	0x3b785999	0.0037895201
30	0x3bde3143	0.006780775
31	0x3be8e512	0.0071073854
32	0x3bd6222d	0.006534836
33	0x3c977c8f	0.018492011
34	0x3b18218d	0.0023213357
35	0x3b9e9eaf	0.004840694

penc1.lin.weight f4 [36, 100]
0	0x3b11a5a5	0.0022223976
1	0x3cf235e3	0.02956671
2	0xbdae3e21	-0.08507944
3	0x3e8a7d4f	0.27048728
4	0xbdc9ff26	-0.09863119
5	0xbce85036	-0.02835856
6	0x3d0f3254	0.034960106
7	0xbd1302b7	-0.03589126
8	0x3bb0669a	0.005383325
9	0xbd8e27f3	-0.069412135
10	0xbba42e75	-0.005010421
11	0xbdb9e8c8	-0.090776026
12	0x3de77da3	0.1130326
13	0xbd990b13	-0.07472815
14	0xbd9c6946	-0.07637267
15	0x3ebbe0dc	0.36694992
16	0xbd57003f	-0.05249047
17	0xbdfc0aa2	-0.123067155
18	0xbc7b2ae8	-0.015330054
19	0x3ed683c9	0.4189742
20	0x3d27f41d	0.04100429
21	0x3d1df44c	0.038563058
22	0xbbaf4f2e	-0.005350015
23	0xbdaa38bc	-0.083116025
24	0xbdf51cc9	-0.11968381
25	0xbd914601	-0.0709343
26	0xbcf449c2	-0.029820327
27	0xbe3b2d60	-0.18279028
28	0xbd5ab6f0	-0.05339712
29	0x3dc0db5a	0.09416838
30	0xbd5d81f2	-0.054079004
31	0x3d4b4e0e	0.049634986
32	0xbd5f028d	-0.054445792
33	0x3deb6eb5	0.11495725
34	0x3e687f22	0.22704747
35	0xbdb474ef	-0.08811366
36	0x3db6ff3c	0.08935401
37	0xbda2d985	-0.07951645
38	0x3e1e9e8b	0.15490167
39	0xbdb2e50f	-0.08735096
40	0x3c3d55e6	0.011556124
41	0x3d1f5881	0.038902763
42	0xbdb464ec	-0.08808312
43	0xbcf1b29c	-0.029504113
44	0xbdaa62e3	-0.083196424
45	0xbe0f3a8e	-0.1398718
46	0xbcb461cc	-0.02201929
47	0xbe870f8f	-0.26379058
48	0xbdf115c7	-0.11771732
49	0xbcf991ca	-0.030465025
50	0xbd45dd41	-0.048306707
51	0xbd9b8cf8	-0.07595247
52	0x3daf3046	0.08554129
53	0x3e1e5557	0.15462242
54	0xbd0b4c51	-0.034008328
55	0xbd2f2172	-0.042756505
56	0xbd83d51c	-0.06437132
57	0x3d60587c	0.054771885
58	0xbdf36cb4	-0.11885968
59	0xbd26e0ad	-0.04074161
60	0x3d0e7888	0.034782916
61	0xbc123938	-0.008924775
62	0xbc9ada14	-0.018902816
63	0x3bbc6269	0.005749036
64	0xbd6b40b7	-0.057434764
65	0x3dd0bbe0	0.10192084
66	0x3beb5d18	0.0071827285
67	0xbe2114e8	-0.15730631
68	0xbdcc59c6	-0.099780604
69	0x3d7bf7cc	0.061515614
70	0xbbe82568	-0.0070845373
71	0x3d918707	0.071058325
72	0xbd66f45a	-0.056385376
73	0xbc12c4b6	-0.008958032
74	0xbd119830	-0.035545528
75	0x3e05e75d	0.1307654
76	0x3dd425ed	0.10358796
77	0xbd8b1f0c	-0.06793031
78	0x3e05614c	0.13025397
79	0x3db5471c	0.08851454
80	0x3dbf2128	0.09332496
81	0xbb515693	-0.0031942471
82	0xbd0e6ea7	-0.034773495
83	0x3e41a4eb	0.18910567
84	0x3de18844	0.11012319
85	0x3c67eb3f	0.014155208
86	0xbde1a6b9	-0.11018128
87	0xbd5fa089	-0.054596458
88	0x3dacc221	0.08435465
89	0x3dbb5698	0.09147376
90	0xbda83e73	-0.08215036
91	0x3d8b9e89	0.068173476
92	0xbdc0cf6d	-0.09414563
93	0xbcda7ead	-0.026671732
94	0x3ce93d91	0.02847174
95	0xbd3e1674	-0.04640813
96	0x3c683df4	0.014174927
97	0xbdd746c0	-0.10511541
98	0x3e25ae91	0.16179873
99	0x3cb76419	0.022386597
100	0x3a918f70	0.001110537
101	0xbcb5c134	-0.022186853
102	0xbdd910a3	-0.10598876
103	0x3de2e6cf	0.110791795
104	0x3e5c0cf9	0.21489324
105	0xbc6a82d8	-0.014313422
106	0x3c4fabfc	0.012675282
107	0x3bf6a967	0.0075275186
108	0x3d830ee0	0.063993216
109	0x3ca84c20	0.020544112
110	0xbdaacbee	-0.08339678
111	0x3dd87f79	0.105711885
112	0x3ce91b97	0.028455539
113	0xbd216012	-0.03939826
114	0x3e8f5f78	0.28002524
115	0xbcb7d2e2	-0.022439424
116	0xbd0db560	-0.0345968
117	0xbe4c7fe1	-0.19970657
118	0x3e8a5c4b	0.2702354
119	0xbb3b8559	-0.0028613417
120	0x3d2443a6	0.040103577
121	0xbdbc48fa	-0.09193607
122	0xbd933d5c	-0.07189438
123	0x3e00aee8	0.12566721
124	0xbe4c94da	-0.19978657
125	0xbd1dda22	-0.038538106
126	0xbcc79a8a	-0.024365682
127	0x3da264a2	0.079293504
128	0xbe3b2ecd	-0.18279572
129	0xbb47dd5e	-0.0030496935
130	0x3d005995	0.031335432
131	0x3da2e3c2	0.079535976
132	0xbdb69269	-0.08914644
133	0x3dc250a6	0.09488039
134	0x3e83ad25	0.25718036
135	0xbd188f29	-0.037245903
136	0x3cc0a7e3	0.023517555
137	0xbe0e58b2	-0.13901022
138	0x3e3b29ba	0.18277636
139	0x3e136ae7	0.14396249
140	0x3cbf70dc	0.023369245
141	0xbd66f7d9	-0.05638871
142	0x3d2a08f7	0.041512456
143	0xbe051b8a	-0.12998787
144	0x3d1f3d06	0.038876556
145	0x3dcc5da9	0.09978802
146	0x3d159473	0.036518525
147	0xbd8abba4	-0.06774071
148	0xbe12fca3	-0.14354186
149	0x3e0b71c5	0.13617618
150	0xbcc19065	-0.023628423
151	0xbd30d82d	-0.04317491
152	0x3d6ac91e	0.057320707
153	0x3d15074e	0.03638392
154	0x3daa8049	0.0832525
155	0x3e42b75f	0.19015263
156	0x3d7f7fdc	0.062377796
157	0xbce3e42d	-0.027818764
158	0xbd03df8c	-0.032195613
159	0x3d9dd4cf	0.07706606
160	0x3d55fc74	0.05224271
161	0x3d8463c9	0.06464345
162	0x3d24bf49	0.040221486
163	0xbd4233de	-0.047412746
164	0xbd426561	-0.047459964
165	0x3d627080	0.05528307
166	0x3cdc8d52	0.026922856
167	0xbd0cf781	-0.034415726
168	0xbdd09a35	-0.10185663
169	0x3d8518ff	0.06498908
170	0x3dba7cc2	0.09105827
171	0xbd7fea3c	-0.062479243
172	0x3d8ffb46	0.070303485
173	0x3e2bc653	0.16774873
174	0xbe99a633	-0.30009612
175	0x3d9535fb	0.072856866
176	0xbdafd243	-0.08585026
177	0x3e0bdc70	0.13658309
178	0xbebf3ce4	-0.37351143
179	0x3e085ebd	0.1331739
180	0x3b854b01	0.004067779
181	0x3cd4e806	0.025989544
182	0x3d9b2e32	0.075771704
183	0x3d998ab0	0.07497156
184	0x3cb0f82d	0.021602714
185	0xbc6d1d82	-0.014472367
186	0xbc0dbd97	-0.008651159
187	0xbd2c77ef	-0.042106565
188	0xbd00cf6d	-0.031447817
189	0xbd9efbef	-0.07762896
190	0xbd11d689	-0.035604987
191	0x3d8eb149	0.06967408
192	0xbdcf0c3a	-0.10109754
193	0xbdfbdcda	-0.122979835
194	0x3d55322b	0.052049797
195	0xbdb6432e	-0.08899532
196	0xbd99402e	-0.074829444
197	0xbd65579e	-0.05599176
198	0xbccb37d0	-0.024806887
199	0xbe3b51bd	-0.182929
200	0x3d47d7c0	0.04878974
201	0xbddcabae	-0.10774933
202	0x3d7f91c8	0.062394887
203	0x3e59b5ab	0.21260707
204	0xbe20c8d6	-0.15701613
205	0x3dba69bf	0.09102201
206	0xbdc9c46f	-0.0985192
207	0x3db6e67f	0.089306824
208	0x3d89d990	0.0673095
209	0xbc56af8d	-0.013103378
210	0x3ddccf2d	0.10781703
211	0x3cb58dae	0.022162285
212	0x3d9ec2f2	0.077520266
213	0x3e3c68c1	0.18399335
214	0xbc530f2e	-0.012882037
215	0x3e4c2bda	0.19938603
216	0xbde25d64	-0.11052969
217	0x3e2eebe9	0.1708218
218	0xbd5d32be	-0.05400347
219	0x3df6db2c	0.120535225
220	0xbd8c78ca	-0.06858976
221	0x3db27337	0.08713382
222	0x3be01579	0.0068384972
223	0xbd6c86ee	-0.057745866
224	0x3e9e2c48	0.3089316
225	0x3cbea541	0.023272159
226	0xbcf8612e	-0.030319776
227	0x3be048ed	0.006844631
228	0x3eb16175	0.34644666
229	0xbd8ddaa8	-0.06926471
230	0xbbc52155	-0.0060159364
231	0x3d07a3d5	0.033115227
232	0x3d49d0e8	0.049271494
233	0xbe0f3768	-0.1398598
234	0xbd507dbe	-0.050901167
235	0xbe2b89c0	-0.16751766
236	0x3d7eb11e	0.06218063
237	0xbe3223d6	-0.17396483
238	0x3c012002	0.007881166
239	0xbec6eb7a	-0.3885153
240	0x3d4e72f4	0.050402597
241	0x3db430b2	0.087983504
242	0xbdb38113	-0.08764853
243	0xbe13c118	-0.14429128
244	0x3c0a8d14	0.008456487
245	0x3d88eb08	0.06685454
246	0xbd0f1393	-0.034930777
247	0xbdbb0139	-0.091310926
248	0x3df912e6	0.12161808
249	0xbdcda0ab	-0.100404106
250	0xbd41a3db	-0.047275405
251	0x3d826dbe	0.06368588
252	0x3ce381d6	0.027771872
253	0x3df30f74	0.11868182
254	0xbe4450f3	-0.19171505
255	0x3e2cdf93	0.16882162

penc1.bn.weight f4 [36]
0	0x3f87bccf	1.0604495
1	0x3f872921	1.0559427
2	0x3f7d9cb6	0.99067247
3	0x3f74e0cb	0.95655507
4	0x3f94b9b7	1.1619176
5	0x3f814be5	1.0101286
6	0x3f9c0f1f	1.2192115
7	0x3f82fa50	1.0232639
8	0x3f6cedbc	0.92550254
9	0x3f91109b	1.1333193
10	0x3f6d7281	0.92752844
11	0x3f899130	1.0747433
12	0x3f8e5044	1.1118245
13	0x3f7bddf5	0.98385555
14	0x3f71a602	0.9439393
15	0x3f626032	0.8842803
16	0x3f829e35	1.0204531
17	0x3f74ecf4	0.9567406
18	0x3f841719	1.0319549
19	0x3f874925	1.0569197
20	0x3f89268c	1.0714889
21	0x3f798a62	0.9747678
22	0x3f84e7c9	1.0383235
23	0x3f72e866	0.9488586
24	0x3f7e30ec	0.992934
25	0x3f84e190	1.0381336
26	0x3f8c9709	1.0983592
27	0x3f7ec3ff	0.99517816
28	0x3f838914	1.0276208
29	0x3f77612c	0.9663265
30	0x3f88a224	1.0674481
31	0x3f9176f9	1.1364433
32	0x3f5b212c	0.8559749
33	0x3f71d287	0.94461864
34	0x3f815980	1.0105438
35	0x3f893745	1.0719992

penc1.bn.bias f4 [36]
0	0xbce9dcca	-0.028547663
1	0x3c0b4680	0.008500695
2	0xbd9bfc45	-0.07616476
3	0x3bfe7810	0.0077657774
4	0x3deed457	0.11661594
5	0x3dcc9155	0.099886574
6	0x3e5540b4	0.20825464
7	0x3cd251d5	0.025673786
8	0x3c942e89	0.018088596
9	0x3d738a5e	0.05945813
10	0x3c1bcd91	0.00950946
11	0x3c9dc3e6	0.01925845
12	0x3d8a6489	0.06757457
13	0x3e205f56	0.15661368
14	0xbbd430e4	-0.006475555
15	0x3ce1cdb2	0.027563903
16	0x3dab760d	0.08372126
17	0xbc906791	-0.01762751
18	0x3b201417	0.0024426037
19	0xbd2a3766	-0.04155674
20	0x3d8447ee	0.06459032
21	0x3b2a9c8d	0.0026033253
22	0x3c48a722	0.012246879
23	0xbd19bb7e	-0.037532322
24	0xbcaab69f	-0.020839034
25	0x3cbe2c30	0.02321443
26	0x3de4de77	0.11175244
27	0x3e04007d	0.12890811
28	0x3cda6c7e	0.026663061
29	0xbcfb15f7	-0.030650122
30	0xbca1f35a	-0.01976936
31	0x3db97d56	0.09057109
32	0x3cdeb229	0.027184563
33	0xbd20186e	-0.039085798
34	0xbb925eb2	-0.004466855
35	0x3c9bb634	0.01900778

penc1.bn.running_mean f4 [36]
0	0xbca17a87	-0.019711746
1	0xbd3dda53	-0.04635079
2	0xbe25bc80	-0.16185188
3	0x3d905787	0.070479445
4	0xbd4d0e43	-0.05006243
5	0x3d3f8f9b	0.046767812
6	0xbd604de0	-0.054761767
7	0x3cf4cfcf	0.029884247
8	0x3d5632f3	0.052294683
9	0xbd8329c6	-0.06404452
10	0x3ceec1b6	0.029145103
11	0xbda6e926	-0.08149938
12	0xbd683af7	-0.05669686
13	0xbcea9403	-0.02863503
14	0xbd296fa9	-0.041366253
15	0xbcd7f291	-0.026360782
16	0xbdb4dea8	-0.08831531
17	0x3e30d08c	0.17267054
18	0xbe8910dc	-0.26770675
19	0xbe782521	-0.24232914
20	0xbde53ae5	-0.11192874
21	0xbacc3456	-0.0015579562
22	0xbda192b2	-0.07889308
23	0x3cbfc2b3	0.02340827
24	0xbd41904e	-0.04725676
25	0x3c61a0e6	0.013771271
26	0x3df17539	0.117899366
27	0x3d9a8072	0.0754403
28	0xbcd131a0	-0.025536358
29	0xbe3c5460	-0.18391562
30	0xbdbc4e0d	-0.091945745
31	0xbe086ebd	-0.13323493
32	0x3e01dc1c	0.12681621
33	0x3d5be873	0.053688478
34	0x3cd479c6	0.025936972
35	0x3cfe207a	0.031021345

penc1.bn.running_var f4 [36]
0	0x3c2b2342	0.010445418
1	0x3bd49c4f	0.00648836
2	0x3cbe55ea	0.023234326
3	0x3bb32bee	0.0054678833
4	0x3b474fa7	0.0030412467
5	0x3c4b8f57	0.012424312
6	0x3b2c1685	0.002625854
7	0x3bc11613	0.005892524
8	0x3c1d6211	0.0096059
9	0x3b6b0e25	0.0035866585
10	0x3c1c8033	0.009552049
11	0x3ba51c5d	0.0050387816
12	0x3b82f220	0.0039961487
13	0x3ba883c4	0.005142661
14	0x3cadaa78	0.02119945
15	0x3d02f160	0.031968474
16	0x3c390ef8	0.011295073
17	0x3c818bd7	0.015813751
18	0x3d24ac2b	0.040203255
19	0x3d0454ff	0.03230762
20	0x3bb5e879	0.0055513945
21	0x3bade81f	0.005307212
22	0x3c58c40d	0.013230336
23	0x3bf3c67b	0.007439432
24	0x3bbf3a84	0.005835833
25	0x3b8841aa	0.0041582184
26	0x3b9d8143	0.004806669
27	0x3bbe96e6	0.0058163283
28	0x3c1d19bd	0.009588656
29	0x3cbf1b7d	0.023328537
30	0x3be88392	0.0070957625
31	0x3c1b3f33	0.009475517
32	0x3c3e3598	0.011609457
33	0x3c3878c8	0.011259265
34	0x3bdddf73	0.006771022
35	0x3b82a35c	0.003986759

kenc0.encoder.0.weight f4 [8, 3, 1]
0	0xbdce83cc	-0.10083732
1	0x3eedd964	0.46454918
2	0xbe460515	-0.19337876
3	0xbf09ae39	-0.5378147
4	0xbe2649fd	-0.16239162
5	0xbec389fb	-0.38191208
6	0x3db7f1eb	0.08981689
7	0xbe198e4c	-0.14995688
8	0x3e3ae3db	0.18250982
9	0xbee1b6a7	-0.44084665
10	0x3ef446ae	0.47710174
11	0xbed75383	-0.42055902
12	0xbd81e3da	-0.06342287
13	0xbdb57bd9	-0.08861513
14	0x3e88d125	0.26722065
15	0xbe9f3c35	-0.31100622
16	0xbebd4985	-0.36970153
17	0x3eed616e	0.46363395
18	0xbf0c398f	-0.5477533
19	0xbe814490	-0.25247622
20	0xbe131b95	-0.1436599
21	0x3edd2da9	0.43198898
22	0x3e411e9c	0.18859333
23	0xbd1c2d0e	-0.038128905

kenc0.encoder.0.bias f4 [8]
0	0x3dc4b956	0.096056625
1	0x3ef8f507	0.4862444
2	0xbe7f55af	-0.2493503
3	0xbf02bd5b	-0.51070184
4	0xbda12cc6	-0.07869868
5	0xbf04aa37	-0.5182223
6	0xbec28711	-0.37993672
7	0x3ec4eb63	0.38460836

kenc0.encoder.1.weight f4 [8]
0	0x3f77c132	0.9677917
1	0x3f803c6f	1.0018443
2	0x3f7d32e1	0.9890576
3	0x3f867ca9	1.0506793
4	0x3f74217c	0.95363593
5	0x3f839006	1.0278327
6	0x3f7d5c7a	0.98969233
7	0x3f856cae	1.0423791

kenc0.encoder.1.bias f4 [8]
0	0x3dc2b559	0.095072456
1	0xbcaa8b0c	-0.020818256
2	0x3dd56d28	0.104212105
3	0x3d951ca4	0.072808534
4	0x3b9d743d	0.0048051164
5	0x3c819816	0.01581959
6	0x3d6fa4b7	0.058506694
7	0x3d285eaf	0.041105922

kenc0.encoder.1.running_mean f4 [8]
0	0x3dc46949	0.09590394
1	0x3ef8f549	0.48624638
2	0xbe7f73af	-0.24946474
3	0xbf02bf90	-0.5107355
4	0xbda110cf	-0.07864534
5	0xbf04a3a7	-0.51812214
6	0xbec28c66	-0.3799774
7	0x3ec4e624	0.38456833

kenc0.encoder.1.running_var f4 [8]
0	0x3d2884cd	0.041142274
1	0x3d8fc3ed	0.07019792
2	0x3c157c6b	0.009123902
3	0x3dab7e42	0.08373691
4	0x3c5d0ff9	0.013492578
5	0x3da55645	0.08073095
6	0x3d86f763	0.06590154
7	0x3d2771b8	0.040879935

kenc0.encoder.3.weight f4 [16, 8, 1]
0	0x3e289920	0.16464663
1	0x3e78c4ec	0.2429387
2	0xbdef08b3	-0.11671581
3	0xbd7b50bc	-0.06135629
4	0xbe1c9835	-0.15292437
5	0xbe595f8e	-0.21227857
6	0xbe2fa01e	-0.17150924
7	0x3e89c8af	0.26910922
8	0x3d7402ca	0.059572972
9	0xbe5cbd4d	-0.21556588
10	0xbc01e49e	-0.007928042
11	0xbbe80b1c	-0.0070814025
12	0xbeb2f5d8	-0.3495319
13	0x3e511852	0.20419434
14	0xbd73e51e	-0.059544675
15	0x3e675418	0.22590673
16	0xbcea4135	-0.028595546
17	0xbe82a536	-0.2551667
18	0x3e06fc41	0.13182165
19	0xbe8ae9d8	-0.27131534
20	0x3e874d2f	0.26426074
21	0xbe6c2a4d	-0.23063011
22	0x3de683f3	0.11255636
23	0xbcb13ed6	-0.021636408
24	0x3e9bfe88	0.3046763
25	0xbd537f34	-0.051634982
26	0x3ea4e297	0.32204124
27	0xbeb27a55	-0.34858957
28	0xbe33f365	-0.17573316
29	0x3e356b8d	0.17716809
30	0x3d1bc60c	0.03803067
31	0x3c801948	0.015637055
32	0xbe9e930d	-0.30971566
33	0xbe383c14	-0.17991668
34	0x3e2912c6	0.16511068
35	0xbe394d5d	-0.18095918
36	0xbda58cd8	-0.080835044
37	0xbe2754a3	-0.1634088
38	0x3e9ae63d	0.30253783
39	0x3dc9e0af	0.09857308
40	0x3d0fca09	0.035104785
41	0xbd0c4bf7	-0.034252133
42	0x3dc3426a	0.09534152
43	0x3de3057b	0.1108503
44	0xbe1ea604	-0.15493017
45	0x3d9f8096	0.07788198
46	0x3eaae38a	0.33376724
47	0x3d028ed3	0.03187449
48	0xbe866c3f	-0.2625446
49	0xbd8dae41	-0.06918002
50	0xbe8fc6c4	-0.28081334
51	0xbeb9cb1b	-0.3628777
52	0x3e9b7d7e	0.3036918
53	0xbde23ba5	-0.110465325
54	0xbe4c1015	-0.1992801
55	0xbcb819b3	-0.022473192
56	0x3dbf09c2	0.09328033
57	0x3e93724d	0.28798142
58	0xbc4244c4	-0.011857215
59	0xbe430f3b	-0.19048779
60	0x3d9c19ea	0.0762213
61	0x3eb738e4	0.35785592
62	0xbeafc071	-0.3432651
63	0xbe30c282	-0.17261699
64	0x3e3769c5	0.17911442
65	0xbea840f6	-0.3286206
66	0x3e6134b5	0.21992762
67	0xbd0edf7b	-0.034881096
68	0xbe667b12	-0.22507885
69	0xbc8969e6	-0.01677413
70	0xbeb27a89	-0.34859112
71	0xbeb79636	-0.3585679
72	0xbded0a84	-0.11574271
73	0xbbeb9570	-0.007189445
74	0x3dbdbe99	0.09264869
75	0xbd873c7b	-0.066033326
76	0xbe055e64	-0.13024288
77	0x3e472047	0.19445907
78	0xbe365c0a	-0.17808548
79	0xbe83e78e	-0.257626
80	0xbea3b9e0	-0.3197775
81	0xbe19e0ac	-0.15027112
82	0x3d636d69	0.055524264
83	0xbeb9622c	-0.36207712
84	0xbe03df0e	-0.12878057
85	0xbe971e7a	-0.2951544
86	0x3e3c358a	0.18379799
87	0x3e6c83a7	0.23097096
88	0xbdb50cce	-0.08840333
89	0x3e5be898	0.21475446
90	0x3e08a716	0.13344988
91	0xbe9b7676	-0.30363816
92	0xbea90d0e	-0.33017772
93	0xbea0f2c9	-0.3143523
94	0x3e2ce069	0.1688248
95	0x3e4e4d98	0.20146787
96	0xbe0d0e20	-0.1377492
97	0x3e038d78	0.12846935
98	0xbe61b8c8	-0.22043145
99	0xbdc7c945	-0.09755186
100	0xbe9d7086	-0.3074991
101	0x3eb58f70	0.35460997
102	0xbdecfed3	-0.11572041
103	0x3ea6e835	0.32599035
104	0xbdbfdec8	-0.09368664
105	0x3e189725	0.14901407
106	0x3e0443ff	0.12916563
107	0x3e605b9f	0.2190995
108	0x3dabfa8e	0.08397399
109	0xbe93b4f4	-0.28848994
110	0xbe311443	-0.17292885
111	0xbe6aa6b5	-0.22915156
112	0xbe4e83ca	-0.20167461
113	0x3eae3207	0.34022543
114	0x3dfdfab8	0.124013364
115	0x3ecf3f55	0.40478006
116	0xbd8c7590	-0.06858361
117	0x3e25bc49	0.16185106
118	0xbe0bf450	-0.13667417
119	0x3d893a8a	0.067006186
120	0xbe32d632	-0.17464522
121	0x3e2526f4	0.1612814
122	0x3e34e4af	0.17665361
123	0x3d6d325e	0.057909362
124	0xbdec4391	-0.11536325
125	0x3cdd7801	0.027034761
126	0x3e955640	0.29167366
127	0xbeeec5c1	-0.4663525

kenc0.encoder.3.bias f4 [16]
0	0x3dfede94	0.12444797
1	0x3d6eb225	0.05827536
2	0x3e9649ed	0.29353276
3	0xbe12eee3	-0.1434894
4	0xbe781f35	-0.24230655
5	0x3dbd470b	0.09242066
6	0x3e50aa1d	0.20377393
7	0xbde9c5ea	-0.11414702
8	0xbe85dd55	-0.26145425
9	0xbe2c02e2	-0.16797975
10	0xbe66259f	-0.22475289
11	0xbd859d48	-0.0652414
12	0x3db247c6	0.08705096
13	0x3e4cb805	0.19992073
14	0x3e8b07cd	0.2715439
15	0xbe366264	-0.1781097

kenc0.encoder.4.weight f4 [16]
0	0x3f84fff0	1.0390606
1	0x3f814a3d	1.0100781
2	0x3f829f66	1.0204895
3	0x3f861905	1.0476385
4	0x3f8059f5	1.0027453
5	0x3f7aba53	0.9794056
6	0x3f835314	1.0259728
7	0x3f825131	1.0181028
8	0x3f87b041	1.0600663
9	0x3f7788cc	0.9669311
10	0x3f7b4aee	0.9816121
11	0x3f81a942	1.0129778
12	0x3f7bf401	0.98419195
13	0x3f816487	1.0108804
14	0x3f710d80	0.94161224
15	0x3f70d5b1	0.9407607

kenc0.encoder.4.bias f4 [16]
0	0x3bfa76a5	0.007643538
1	0xbb97e12f	-0.0046349983
2	0x3d76a72d	0.060218025
3	0x3d39e626	0.045385502
4	0x3d8654b1	0.06559122
5	0xbd88629f	-0.066594355
6	0xbc937578	-0.01800035
7	0x3d80a71e	0.06281875
8	0xbc40322b	-0.011730711
9	0xbd3f7455	-0.046741802
10	0x3dbf41e2	0.09338738
11	0xbbc85fa2	-0.006114916
12	0x3d89263c	0.06696746
13	0x3c4ca600	0.012490749
14	0x3cac8ec4	0.02106417
15	0x3d3698cf	0.044579323

kenc0.encoder.4.running_mean f4 [16]
0	0x3de4cfed	0.11172471
1	0x3c9c178a	0.019054193
2	0x3e21f736	0.1581696
3	0xbc58a3ec	-0.013222676
4	0xbec3cec1	-0.38243678
5	0x3ea31bf2	0.31857258
6	0xbe834a57	-0.25642654
7	0xbdc6ea48	-0.09712654
8	0xbf2212cc	-0.6330993
9	0xbebd651e	-0.3699121
10	0xbf0de9ca	-0.5543486
11	0xbe43115d	-0.19049592
12	0x3d785ed2	0.060637303
13	0x3de34c96	0.11098592
14	0x3f121043	0.57056063
15	0xbe4b5912	-0.19858196

kenc0.encoder.4.running_var f4 [16]
0	0x3e353bb9	0.17698564
1	0x3d916373	0.070990466
2	0x3ddc113c	0.10745475
3	0x3d8795e9	0.0662039
4	0x3dceee78	0.10104078
5	0x3d218f0b	0.039443057
6	0x3e167aa0	0.14695215
7	0x3d8606c9	0.06544263
8	0x3e059ef1	0.13048913
9	0x3d6fe0b0	0.058563888
10	0x3e429e63	0.19005732
11	0x3dfa7f63	0.12231328
12	0x3d630be8	0.055431277
13	0x3d290645	0.041265745
14	0x3d81c31c	0.06336042
15	0x3e879925	0.26484028

kenc0.encoder.6.weight f4 [32, 16, 1]
0	0x3dd62554	0.104563385
1	0xbe056911	-0.13028361
2	0xbd713561	-0.058888797
3	0xbcbf4e21	-0.023352684
4	0x3e6f818d	0.23389263
5	0xbe119f36	-0.1422089
6	0x3e849bcf	0.25900123
7	0xbd94a5f9	-0.07258219
8	0xbd339f59	-0.043853138
9	0x3dc94163	0.09826925
10	0xbcd907d2	-0.026492987
11	0x3d452fba	0.04814122
12	0xbe0151b2	-0.1262882
13	0xbe215296	-0.1575416
14	0xbe861f01	-0.2619553
15	0xbd8d2706	-0.06892209
16	0x3cfb628e	0.030686643
17	0x3e5b320c	0.2140581
18	0xbe10ed72	-0.14153078
19	0xbe1c1529	-0.15242447
20	0x3d22f194	0.039781168
21	0x3d8cc299	0.06873054
22	0x3dc5ab5b	0.09651824
23	0x3b87dc0c	0.0041461047
24	0x3e20003f	0.15625094
25	0x3d1ef9a2	0.038812287
26	0x3e857459	0.2606533
27	0xbda4d7b0	-0.080489516
28	0x3e04dc28	0.12974608
29	0xbe1e9f08	-0.15490353
30	0x3e0ca293	0.13733892
31	0x3da07238	0.078342855
32	0x3e412121	0.18860294
33	0xbdf464a9	-0.11933262
34	0xbde15da9	-0.110041924
35	0xbe256aee	-0.16154072
36	0xbd6a86b4	-0.05725737
37	0xbe45fba5	-0.19334276
38	0xbdebfc94	-0.11522785
39	0xbdd3ad3b	-0.103357755
40	0xbdc92d61	-0.098231085
41	0xbe464e68	-0.19365847
42	0xbe95422f	-0.29152057
43	0xbe156129	-0.14587845
44	0x3dd87917	0.10569971
45	0xbd87ecef	-0.06636988
46	0x3e196cb1	0.14982869
47	0x3e426f54	0.18987781
48	0xbd2e5782	-0.042563923
49	0xbe003781	-0.12521173
50	0xbe7ab0ef	-0.24481557
51	0x3dddbba6	0.10826807
52	0x3cd6eac8	0.026235
53	0xbdfba204	-0.122867614
54	0xbd636e09	-0.05552486
55	0x3e10b0b9	0.14129914
56	0x3e93660e	0.287888
57	0x3db2c283	0.087285064
58	0xbe12d090	-0.14337373
59	0xbe0bebd0	-0.13664174
60	0x3da8f5ad	0.08249984
61	0x3e9571bf	0.29188344
62	0x3cd7aaa6	0.026326489
63	0xbdfc3909	-0.12315566
64	0xbe35f8d0	-0.17770696
65	0xbe24b4e9	-0.16084637
66	0xbd205c54	-0.03915055
67	0xbd89aeb0	-0.06722772
68	0xbe0735f0	-0.1320417
69	0xbe31e173	-0.17371158
70	0x3e9e9f77	0.30981037
71	0x3e3b2a25	0.18277796
72	0xbda33b55	-0.07970301
73	0x3dc6aa84	0.09700492
74	0xbe479d21	-0.19493534
75	0x3dbcba04	0.09215167
76	0x3d79af96	0.060958467
77	0x3dd99f23	0.10626056
78	0x3d7b2563	0.06131495
79	0x3e1846ae	0.14870712
80	0x3d84a2b3	0.06476345
81	0x3e668886	0.22513017
82	0xbe6eed82	-0.2333279
83	0xbe803b10	-0.2504506
84	0x3d81a5c6	0.06330447
85	0x3e078fb0	0.13238406
86	0x3cd2f557	0.025751753
87	0xbe46cc44	-0.19413859
88	0x3c8ac88b	0.01694133
89	0xbc0c33cd	-0.008557272
90	0xbe0aabb6	-0.13542065
91	0x3d3e4426	0.04645171
92	0xbe47138f	-0.19441055
93	0xbe6212a2	-0.2207742
94	0xbe29ab64	-0.16569287
95	0xbd25dfb1	-0.040496532
96	0xbe8595cd	-0.2609085
97	0x3d5a8da7	0.053357746
98	0xbe2b8737	-0.16750799
99	0xbe550886	-0.20804033
100	0xbe5f8742	-0.2182894
101	0xbd57feb2	-0.05273313
102	0xbd080545	-0.03320815
103	0xbdd3669a	-0.10322304
104	0xbcbffb66	-0.023435306
105	0x3d4b67fd	0.049659718
106	0xbe620ad4	-0.22074443
107	0x3de13b96	0.10997693
108	0x3e1f64ec	0.15565842
109	0xbe40e9d0	-0.18839192
110	0xbd8a5873	-0.067551516
111	0x3aa86a69	0.0012849096
112	0xbe5e9a9b	-0.21738665
113	0xbe4ac2ee	-0.19800922
114	0xbc8a448d	-0.01687839
115	0x3dc1a482	0.094552055
116	0x3d4c82ca	0.049929418
117	0xbd0bddd0	-0.034147084
118	0x3de4dacb	0.11174544
119	0xbe0da3ca	-0.13832012
120	0xbe125c2d	-0.14292975
121	0xbe9ae66e	-0.3025393
122	0x3e3000b9	0.17187776
123	0xbe0619c0	-0.1309576
124	0x3e2d03eb	0.16896026
125	0x3e13439b	0.14381258
126	0x3dd3f73e	0.10349892
127	0xbcf78847	-0.03021635
128	0x3d7fff1b	0.062499147
129	0x3e2363b0	0.15955997
130	0xbda87849	-0.082260676
131	0x3e8dd638	0.27702498
132	0xbbce79d8	-0.006301146
133	0xbe47aae5	-0.19498785
134	0x3d6a15f5	0.057149846
135	0xbdbf498d	-0.093402006
136	0xbd9a3ffc	-0.07531735
137	0x3dcc2202	0.09967424
138	0x3e1315f5	0.14363845
139	0x3e3692b2	0.17829397
140	0xbe1774a4	-0.14790589
141	0xbe74bbc8	-0.23899758
142	0xbe9b9460	-0.3038664
143	0xbdc6ab69	-0.09700663
144	0xbcc68a42	-0.024235848
145	0xbe7eaff0	-0.24871802
146	0x3d811539	0.06302876
147	0x3e0958dd	0.13412805
148	0x3d0e6510	0.03476435
149	0x3de0ddb2	0.10979785
150	0x3e1a52be	0.15070626
151	0x3e8e2fe7	0.27770922
152	0x3d6466e2	0.05576218
153	0xbd5cbd97	-0.053891744
154	0xbe6baf49	-0.23016085
155	0x3b09ff93	0.0021056875
156	0x3e3f015a	0.1865286
157	0x3dca3cbd	0.09874866
158	0x3db0774d	0.08616505
159	0x3db8d1ac	0.09024367
160	0x3e89d966	0.26923674
161	0x3dcd900b	0.1003724
162	0xbda2e0a1	-0.07953001
163	0xbe17560a	-0.14778915
164	0xbe28e93a	-0.16495219
165	0xbd469b5d	-0.04848801
166	0xbe0f2b4a	-0.13981357
167	0xbcb35775	-0.021892289
168	0xbdd66724	-0.10468891
169	0xbe3216ca	-0.17391506
170	0x3d0d8333	0.03454895
171	0x3d006e85	0.0313554
172	0xbd963f0b	-0.07336243
173	0xbd655bf1	-0.055995885
174	0x3df230ec	0.11825737
175	0x3e0fb3cf	0.14033435
176	0xbe6e1ed4	-0.23253947
177	0xbe652b1c	-0.22379726
178	0x3e5bd2bb	0.21467106
179	0xbd80c76a	-0.06288035
180	0x3e4a90b9	0.1978177
181	0x3e16b76f	0.14718412
182	0x3d93df29	0.07220299
183	0x3e6170f8	0.2201575
184	0xbe3361ff	-0.17517851
185	0xbe379961	-0.17929603
186	0x3d667401	0.056262974
187	0x3e080f48	0.1328708
188	0x3ddcb7e4	0.10777262
189	0xbe070e33	-0.1318901
190	0xbde0e976	-0.10982029
191	0xbdd558a9	-0.10417301
192	0x3cade5c4	0.021227725
193	0x3e159e35	0.14611132
194	0xbda48a40	-0.080341816
195	0xbe858cfe	-0.2608413
196	0x3e34982b	0.17636172
197	0xbd5c3c30	-0.053768337
198	0x3d8e0400	0.06934357
199	0xbe0d33d8	-0.13789308
200	0xbce95083	-0.028480774
201	0x3d539d01	0.051663402
202	0x3e3e463c	0.1858148
203	0x3e39ebfd	0.18156429
204	0xbe06988e	-0.13144132
205	0x3e4989c5	0.19681461
206	0x3e3f84a6	0.18702945
207	0x3db7b61e	0.08970283
208	0x3e36f391	0.1786635
209	0x3e642df8	0.2228316
210	0xbdb32323	-0.08746936
211	0x3d2ef43d	0.042713393
212	0xbe632deb	-0.22185485
213	0x3e741240	0.23835087
214	0xbdce6663	-0.100781225
215	0x3e42259e	0.18959662
216	0xba7f8a16	-0.00097480544
217	0x3e00ab0b	0.12565248
218	0x3cfb4556	0.03067271
219	0xbbbbaecd	-0.005727625
220	0x3dc002b1	0.09375513
221	0xbd991209	-0.07474143
222	0x3d9c07fc	0.076187104
223	0x3d45dd98	0.04830703
224	0xbe47fe97	-0.19530712
225	0x3e7779a0	0.2416749
226	0x3da82e41	0.08211947
227	0x3d8f03d2	0.069831505
228	0x3d624976	0.05524584
229	0xbe00a3cb	-0.12562482
230	0x3e6fa455	0.23402531
231	0x3d6a23d0	0.05716306
232	0x3e9d716b	0.30750594
233	0xbd037f3e	-0.03210377
234	0x3e679e08	0.22618878
235	0x3e610aff	0.21976851
236	0xbd364354	-0.044497803
237	0x3dfceb1b	0.1234953
238	0xbe51cd1a	-0.20488396
239	0x3b738146	0.003715591
240	0xbe6d7846	-0.23190412
241	0x3e6909f4	0.22757703
242	0xbe421948	-0.18954957
243	0x3e3a43e7	0.18189965
244	0x3e6c469c	0.2307381
245	0xbe69438e	-0.22779676
246	0xbd3a7036	-0.04551717
247	0xbd8ca96c	-0.06868252
248	0x3e0d2d64	0.13786846
249	0xbdbf0a47	-0.09328132
250	0x3dbbcdc2	0.091701046
251	0x3d631aa5	0.055445332
252	0xbe2414f8	-0.16023624
253	0x3de5add4	0.11214796
254	0x3de10533	0.1098732
255	0x3d503585	0.05083229

kenc0.encoder.6.bias f4 [32]
0	0xbe45cc53	-0.19316225
1	0x3e24890f	0.16067909
2	0x3e61cb25	0.2205015
3	0xbc994458	-0.018709347
4	0xbe132780	-0.14370537
5	0xbe1e1937	-0.15439306
6	0xbdf991c4	-0.12186006
7	0x3e26ad77	0.16277109
8	0x3e1a423c	0.15064329
9	0xbe27c065	-0.16381986
10	0xbe3cdb91	-0.18443133
11	0x3e3fed0e	0.18742773
12	0xbe2c2f74	-0.16814977
13	0x3c0477f0	0.008085236
14	0xbe7012df	-0.23444699
15	0x3e8bfc1d	0.27340785
16	0xbe245729	-0.16048874
17	0x3e44403c	0.19165128
18	0xbe55c6e6	-0.20876655
19	0xbe5cf52b	-0.21577899
20	0x3d035810	0.032066405
21	0x3e29bc95	0.16575845
22	0x3d1de4bc	0.038548216
23	0x3cc08652	0.023501549
24	0xbe32f20d	-0.17475148
25	0xbd2b963a	-0.041891314
26	0xbdaeaad7	-0.08528679
27	0xbdddd71b	-0.10832044
28	0xbe786a92	-0.24259403
29	0xbc80cc97	-0.015722556
30	0xbe6b7d97	-0.22997127
31	0x3e5619a4	0.20908219

kenc0.encoder.7.weight f4 [32]
0	0x3f842b6e	1.0325754
1	0x3f750e71	0.9572516
2	0x3f7df583	0.99202746
3	0x3f7b7d09	0.98237664
4	0x3f75d0be	0.9602164
5	0x3f70ba42	0.94034207
6	0x3f842998	1.0325193
7	0x3f7a4b7b	0.97771424
8	0x3f8200a0	1.0156441
9	0x3f76d604	0.9642031
10	0x3f831d05	1.0243231
11	0x3f8208ff	1.0158995
12	0x3f80c4f9	1.0060111
13	0x3f788397	0.9707579
14	0x3f7dee26	0.9919151
15	0x3f7ee9be	0.9957541
16	0x3f7aba10	0.9794016
17	0x3f7fc6b0	0.9991255
18	0x3f8501f7	1.0391225
19	0x3f84d985	1.0378882
20	0x3f779e45	0.96725875
21	0x3f7c573d	0.98570615
22	0x3f7637ee	0.9617909
23	0x3f7397fa	0.9515377
24	0x3f84a270	1.0362072
25	0x3f83c98a	1.029588
26	0x3f8947b3	1.0725006
27	0x3f829262	1.0200922
28	0x3f898d60	1.0746269
29	0x3f7d208e	0.988778
30	0x3f83f2f8	1.0308523
31	0x3f842bc6	1.0325859

kenc0.encoder.7.bias f4 [32]
0	0x3dd8205e	0.105530486
1	0xbd78e959	-0.060769413
2	0xbd415901	-0.04720402
3	0x3d298ff9	0.04139707
4	0x3d18d784	0.037314907
5	0xbcdaf0ed	-0.02672621
6	0x3db9ec34	0.09078255
7	0xbc596521	-0.01326874
8	0xbce3f166	-0.027825069
9	0x3d00e09b	0.0314642
10	0x3c9a14f9	0.018808829
11	0x3c4c80b9	0.012481862
12	0x3c8b824d	0.017029906
13	0x3d863191	0.06552423
14	0xbd8a3f93	-0.06750407
15	0xbd571770	-0.052512586
16	0x3ce18ec7	0.027533902
17	0xbc3bd52d	-0.011464399
18	0x3c42b8a0	0.011884838
19	0x3d8190a2	0.06326415
20	0x3d8934d6	0.06699531
21	0x3cbac082	0.022796873
22	0xbd8c7065	-0.06857375
23	0x3b8609cf	0.0040905247
24	0x3bea5e44	0.0071523506
25	0x3c69add1	0.0142626325
26	0x3c276afa	0.010218376
27	0xbc6f5f2f	-0.014610096
28	0x3d1b33b9	0.037891123
29	0xbca7835e	-0.020448383
30	0xbcc33cfe	-0.023832794
31	0x3d4390a6	0.04774537

kenc0.encoder.7.running_mean f4 [32]
0	0xbeac2318	-0.33620524
1	0x3ee49f4e	0.4465279
2	0xbe4f7364	-0.20258862
3	0xbb999d9f	-0.0046879794
4	0xbe19a858	-0.15005624
5	0xbf06fb5a	-0.5272728
6	0xbf1f1499	-0.62140805
7	0x3cd57d5b	0.02606075
8	0x3d88624f	0.06659376
9	0x3e07242d	0.13197394
10	0xbea1a612	-0.31572014
11	0x3e3c26c9	0.1837417
12	0x3d8486b6	0.064710066
13	0x3e98ba6b	0.29829726
14	0x3e4e10c5	0.20123585
15	0x3eb93962	0.36176592
16	0xbca22596	-0.019793313
17	0x3f1d448c	0.6143272
18	0x3dd43907	0.103624396
19	0xbe41c044	-0.18921
20	0xbedba609	-0.42900112
21	0x3e022720	0.12710238
22	0x3cac5aeb	0.021039447
23	0x3dace2ed	0.0844172
24	0x3e0188d1	0.12649848
25	0x3e1175d6	0.14205107
26	0xbe2d360c	-0.16915148
27	0xbee00f9a	-0.43761903
28	0xbf0a9fd0	-0.54150105
29	0xbdfdb28c	-0.12387571
30	0xbf1e2d3c	-0.6178777
31	0xbe05902c	-0.13043278

kenc0.encoder.7.running_var f4 [32]
0	0x3e2b8fdd	0.16754098
1	0x3db7eb6b	0.08980449
2	0x3e3b8316	0.18311724
3	0x3deb9fa1	0.11505056
4	0x3ded0af6	0.11574356
5	0x3e1b99c7	0.1519538
6	0x3dbe1ab7	0.09282439
7	0x3d8309b6	0.063983366
8	0x3eb0c97e	0.34528726
9	0x3e3a7d08	0.18211758
10	0x3e28e274	0.16492635
11	0x3e1c3ef9	0.15258397
12	0x3e18d0c9	0.14923395
13	0x3dfa0d8b	0.12209614
14	0x3e7cd834	0.2469185
15	0x3d46ca0e	0.048532538
16	0x3e0d840c	0.13819903
17	0x3e100d3c	0.14067549
18	0x3e68e26e	0.22742626
19	0x3e39c1d4	0.18140346
20	0x3dfe642b	0.12421449
21	0x3d4b2782	0.049598224
22	0x3dde09d3	0.108417176
23	0x3e56958a	0.20955482
24	0x3e1f2818	0.15542638
25	0x3d8921f2	0.06695928
26	0x3e0b7269	0.13617863
27	0x3e496692	0.19668034
28	0x3d7ff9d6	0.06249412
29	0x3dbd0e4e	0.09231244
30	0x3e552e33	0.20818405
31	0x3e494785	0.19656189

kenc0.encoder.9.weight f4 [64, 32, 1]
0	0xbda9c7d5	-0.08290068
1	0xbd84993e	-0.06474541
2	0xbe1fe1a7	-0.15613423
3	0xbe642d36	-0.22282872
4	0xbd4dadfd	-0.050214756
5	0x3df64257	0.12024372
6	0x3d372388	0.04471162
7	0xbd8b9f7a	-0.06817527
8	0xbe42deb0	-0.19030261
9	0xbdf9ffe1	-0.12207008
10	0x3d802e70	0.06258857
11	0xbcec3ace	-0.028836634
12	0x3e383448	0.17988694
13	0x3e0ff2c0	0.14057446
14	0x3db9929c	0.09061167
15	0x3d9401f8	0.07226938
16	0x3e17ff40	0.14843464
17	0xbd9a3232	-0.07529105
18	0xbdfb4f5a	-0.122709945
19	0xbdfd1403	-0.123573326
20	0x3df789b0	0.12086809
21	0x3e171e40	0.14757633
22	0x3dae1931	0.08500899
23	0x3d3a5fac	0.045501396
24	0x3c9a0655	0.018801847
25	0xbdbc48a5	-0.09193543
26	0x3e0d5dfa	0.1380538
27	0xbe021e37	-0.12706839
28	0xbdefa79e	-0.11701892
29	0xbe12a9b4	-0.14322549
30	0x3dd8e30c	0.10590181
31	0xbdf214c5	-0.11820368
32	0x3dc7d9b9	0.09758324
33	0x3db737b9	0.08946175
34	0xbd4e95ae	-0.050435714
35	0xbda1e851	-0.07905639
36	0x3dc9501f	0.09829735
37	0x3d8d48f3	0.068986796
38	0x3da99c7d	0.08281801
39	0xbd48f24a	-0.04905919
40	0xbce5863d	-0.028018111
41	0xbe06b3df	-0.13154553
42	0x3e259b44	0.1617251
43	0x3dab0e8f	0.08352386
44	0x3dcbaf74	0.099455744
45	0xbd0bf6fd	-0.034171093
46	0x3d729522	0.059224255
47	0xbdf98360	-0.12183261
48	0xbe325a94	-0.17417365
49	0xbe2ee6e4	-0.17080265
50	0xbe23b3ca	-0.15986553
51	0x3c25a0f3	0.010109174
52	0xbd8bd0be	-0.06826924
53	0x3dbc3f85	0.09191803
54	0xbd8ebadf	-0.069692366
55	0x3e02ad0a	0.12761322
56	0x3d61ef16	0.05515965
57	0x3dd5d704	0.104414016
58	0x3e070fd3	0.1318963
59	0x3dc55142	0.09634639
60	0x3dcee6d8	0.10102624
61	0xbe0ebe8b	-0.13939874
62	0xbe6c6847	-0.23086654
63	0x3dd0eef9	0.102018304
64	0xbd656622	-0.056005605
65	0x3e18791c	0.1488995
66	0xbcb63ed4	-0.022246756
67	0xbda8b50c	-0.08237657
68	0x3dee71c4	0.11642793
69	0xbe5bd75e	-0.21468875
70	0xbdb8390a	-0.08995254
71	0xbd824b47	-0.06362014
72	0xbd9a8ce3	-0.07546403
73	0x3e1cee80	0.15325356
74	0x3ad76b1f	0.0016435123
75	0xbd3cc6cd	-0.04608803
76	0xbdd0b176	-0.10190098
77	0xbd678f75	-0.056533296
78	0xbd6f2222	-0.05838216
79	0xbd9c0345	-0.07617811
80	0x3c6d8db2	0.014499115
81	0x3d8801fb	0.06641003
82	0x3e22dd8e	0.15904829
83	0xbdb991b0	-0.09060991
84	0xbc849f75	-0.016189316
85	0x3d55f1a1	0.05223239
86	0xbe292675	-0.16518576
87	0xbe48d79e	-0.19613501
88	0x3d6d1855	0.057884533
89	0x3d0ce761	0.034400348
90	0xbe51e2fb	-0.20496742
91	0xbd075ae9	-0.033045683
92	0xbe1842a9	-0.14869179
93	0xbda64494	-0.08118549
94	0x3ddbc67b	0.107312165
95	0xbd1e0816	-0.03858193
96	0xbe2c0e38	-0.16802299
97	0xbe0a5c2e	-0.13511726
98	0xbe12e777	-0.1434611
99	0x3d451a79	0.04812095
100	0xbe327202	-0.17426303
101	0xbb29a065	-0.0025882956
102	0xbd6d9df5	-0.058011968
103	0xbe4862c8	-0.19568932
104	0xbde0746b	-0.10959705
105	0xbd2880a5	-0.04113831
106	0x3d7c58ea	0.061608233
107	0xbe088f3b	-0.13335888
108	0xbe81e225	-0.25367847
109	0xbde030f8	-0.1094684
110	0x3dad611b	0.08465787
111	0x3e162471	0.14662339
112	0xbe07f42e	-0.13276741
113	0x3e2d7d10	0.16942239
114	0x3ddf1a99	0.10893745
115	0x3c968e2b	0.018378338
116	0xbe4271e3	-0.18988757
117	0xbe1440ee	-0.14477894
118	0x3ce055f2	0.027384732
119	0x3e220e56	0.15825781
120	0x3d882d2c	0.06649241
121	0x3d94a40b	0.07257851
122	0xbd98d71a	-0.07462902
123	0xbe1d4222	-0.15357259
124	0xbd485153	-0.04890568
125	0x3d465dae	0.048429184
126	0xbbcf5ab0	-0.0063279495
127	0xbd7f59aa	-0.06234137
128	0x3e35386c	0.17697304
129	0x3e2fd51f	0.17171143
130	0xbcff2982	-0.031147722
131	0x3d014bd2	0.03156645
132	0x3d426fb2	0.047469802
133	0xbddc6b5c	-0.10762665
134	0xbde2a977	-0.11067479
135	0xbe354bf7	-0.1770476
136	0x3d0f606a	0.035004057
137	0xbe3441cb	-0.17603223
138	0x3e0bc6ba	0.13650027
139	0xbd8bf84e	-0.0683447
140	0x3e12167f	0.14266394
141	0xbd3999e8	-0.045312792
142	0x3d1d5ec9	0.038420472
143	0xbe02a5e5	-0.12758596
144	0x3e2c1d17	0.16807972
145	0xbd9e99cc	-0.07744178
146	0xbdf384b1	-0.11890543
147	0xbd995204	-0.07486346
148	0x3da59627	0.0808528
149	0x3cdad2ef	0.02671191
150	0xbd1c241a	-0.038120367
151	0xbcc897c9	-0.02448644
152	0x3da43727	0.08018332
153	0xbd22e8e1	-0.039772872
154	0x3ca4dd6a	0.02012511
155	0x3d33229e	0.043734185
156	0xbd35fbb6	-0.044429503
157	0x3d4e8541	0.05042005
158	0x3d732507	0.059361484
159	0xbdcb2dfd	-0.09920881
160	0xbe6cbf17	-0.2311977
161	0x3d604881	0.054756645
162	0x3d9a065f	0.075207464
163	0x3e533911	0.20627238
164	0xbe36d5c1	-0.17854978
165	0x3d12b3c8	0.035815984
166	0xbd692c6b	-0.056927126
167	0xbdc06b1d	-0.0939543
168	0x3d2ed52a	0.042683758
169	0xbcf7543f	-0.030191539
170	0xbe20f9ff	-0.15720366
171	0xbe295a39	-0.16538323
172	0xbd99c073	-0.0750741
173	0x3debb3be	0.115088925
174	0x3dbd3bc4	0.09239915
175	0xbe7042ea	-0.23463026
176	0x3e04de65	0.12975462
177	0xbda64b88	-0.08119875
178	0xbb857097	-0.0040722596
179	0x3d4e3881	0.050346855
180	0xbe1974a2	-0.14985898
181	0x3e28a340	0.16468525
182	0xbafdc18e	-0.0019360052
183	0x3de8ca0b	0.11366662
184	0x3e1cc09f	0.15307854
185	0xbe46aeea	-0.19402662
186	0x3d977112	0.07394613
187	0x3db59d27	0.08867865
188	0x3e0c787f	0.1371784
189	0xbdee7b27	-0.11644583
190	0xbd7cc927	-0.06171527
191	0x3d8c43fb	0.06848904
192	0xba47a0f4	-0.00076152314
193	0x3dacccd1	0.08437503
194	0xbe43d11d	-0.19122739
195	0xbd9a5958	-0.07536572
196	0xbcf8101e	-0.030281123
197	0xbdb642ed	-0.08899484
198	0x3e7664c0	0.2406187
199	0x3d2c20a8	0.04202333
200	0x3d9deb2b	0.0771087
201	0x3dc2a2d4	0.09503713
202	0xbce6e832	-0.028186891
203	0x3dfdd677	0.123944215
204	0xbddb0d30	-0.10695875
205	0x3e14bc73	0.14525013
206	0xbe33bc41	-0.17552282
207	0x3db40609	0.087902136
208	0xbdb1e3bb	-0.08686014
209	0xbdf190dc	-0.11795208
210	0xbd153765	-0.03642978
211	0xbe60369f	-0.21895836
212	0x3e27ddf7	0.16393267
213	0xbde028ea	-0.10945304
214	0xbcd2ff66	-0.02575655
215	0x3d10b2e7	0.035326865
216	0xbe38c13f	-0.18042468
217	0xbdbc7fe1	-0.092040785
218	0x3cd9ba7b	0.026578179
219	0xbda99a80	-0.08281422
220	0xbdf24fb6	-0.1183161
221	0x3cc7233a	0.02430879
222	0xbe35b471	-0.17744614
223	0x3c5d5dbb	0.013511117
224	0xbd927e6f	-0.071530215
225	0x3dc9464c	0.09827861
226	0x3dd3509c	0.103181094
227	0x3d7a49ae	0.061105423
228	0xbe021866	-0.1270462
229	0xbd8e22a0	-0.06940198
230	0x3e407637	0.18795095
231	0xbda22763	-0.07917669
232	0x3e1452e9	0.14484753
233	0xbdc41e53	-0.095760964
234	0x3e1e1aed	0.15439959
235	0xbd7997a7	-0.060935643
236	0xbe2ac8d9	-0.1667818
237	0x3e057cc2	0.13035873
238	0xbe052df8	-0.13005817
239	0xbcfeb0f2	-0.031090233
240	0xbd12d6a0	-0.035849214
241	0xbde67196	-0.112521335
242	0xbe05e858	-0.13076913
243	0x3c2993f0	0.010350212
244	0xbcf9c53d	-0.030489558
245	0xbd112af4	-0.035441354
246	0x3d1c455a	0.038152076
247	0x3dcae164	0.09906271
248	0xbd8e75d9	-0.069560714
249	0xbdd19150	-0.10232794
250	0x3e29579d	0.16537328
251	0x3d57d928	0.05269733
252	0x3db93c6a	0.09044726
253	0x3c95910d	0.018257642
254	0xbe1fd781	-0.15609552
255	0x3ca89730	0.020579904

kenc0.encoder.9.bias f4 [64]
0	0xbe0c32bb	-0.13691227
1	0x3e649d99	0.22325744
2	0x3d83f392	0.06442942
3	0xbd9c8e62	-0.07644345
4	0x3d1df750	0.038565934
5	0xbdee0bd6	-0.11623351
6	0x3e394387	0.18092166
7	0x3ce7f8a6	0.028316807
8	0xbbbe8de9	-0.005815257
9	0x3d2423c4	0.04007317
10	0x3de94c95	0.1139156
11	0x3defd127	0.117098145
12	0x3d805945	0.06267027
13	0xbc5efb4c	-0.0136097185
14	0xbdb29885	-0.08720497
15	0x3dce950d	0.10087023
16	0x3d0d71c0	0.03453231
17	0x3dfe4c51	0.124169
18	0xbd9abb16	-0.07555215
19	0x3e0667a1	0.13125469
20	0xbc2f0609	-0.010682591
21	0xbde9144b	-0.11380824
22	0x3e73da2c	0.23813695
23	0x3d9c0311	0.07617772
24	0x3cb01608	0.02149488
25	0x3caf5b6e	0.021405902
26	0x3db27d3a	0.08715291
27	0xbd268bbc	-0.040660605
28	0x3e112d61	0.14177467
29	0x3e241b2a	0.16025987
30	0x3bf1aa5c	0.0073750447
31	0xbd8e73e7	-0.069557
32	0x3d3b5282	0.045732982
33	0xbd5b0dbb	-0.05347989
34	0x3e743449	0.2384807
35	0xbddd8025	-0.10815457
36	0x3de78948	0.11305481
37	0x3e152704	0.14565665
38	0xbe6bb57f	-0.23018454
39	0x3dfa40bd	0.12219379
40	0x3e437783	0.19088559
41	0xbdc64788	-0.09681612
42	0x3d91a429	0.07111389
43	0xbcb58a6d	-0.022160733
44	0xbe07a3b0	-0.13246036
45	0xbd2112ab	-0.039324444
46	0x3da11a78	0.07866377
47	0xbda5a7d4	-0.08088651
48	0xbe49aede	-0.19695613
49	0xbdf62f0a	-0.12020691
50	0x3d6a4d3f	0.057202574
51	0xbdfc595b	-0.12321731
52	0xbdc44dd6	-0.095851585
53	0x3d494470	0.049137533
54	0x3e0e91e8	0.13922846
55	0xbe051473	-0.12996082
56	0x3e181aa9	0.1485392
57	0xbe2f5373	-0.17121677
58	0xbc29dd06	-0.0103676375
59	0xb9b3ec4c	-0.00034317595
60	0xbdb3d06f	-0.0877999
61	0xbc9a2165	-0.018814752
62	0x3e159ab5	0.14609797
63	0xbdb98f53	-0.0906054

kenc0.encoder.10.weight f4 [64]
0	0x3f825b98	1.0184202
1	0x3f822619	1.0167876
2	0x3f81974e	1.01243
3	0x3f6b5458	0.91925573
4	0x3f7bc830	0.98352337
5	0x3f6e26e9	0.9302812
6	0x3f787ef4	0.97068715
7	0x3f7a429c	0.9775789
8	0x3f6df1ee	0.9294728
9	0x3f7d5618	0.98959494
10	0x3f797929	0.974505
11	0x3f6bad33	0.92061156
12	0x3f790cb4	0.9728501
13	0x3f800ff0	1.0004864
14	0x3f77874b	0.96690816
15	0x3f67f880	0.90613556
16	0x3f801a91	1.0008107
17	0x3f78255e	0.9693202
18	0x3f758bd4	0.95916486
19	0x3f7cce65	0.98752433
20	0x3f7b021b	0.9805009
21	0x3f7f8c83	0.9982378
22	0x3f81107c	1.0083156
23	0x3f7b3f06	0.9814304
24	0x3f75e9db	0.9605996
25	0x3f71e281	0.9448624
26	0x3f6e7576	0.9314798
27	0x3f80baa9	1.0056964
28	0x3f7c2a43	0.98501986
29	0x3f804b12	1.002291
30	0x3f7ad8de	0.97987163
31	0x3f81e08d	1.0146652
32	0x3f73032c	0.94926715
33	0x3f899c2b	1.0750784
34	0x3f7c0094	0.9843838
35	0x3f6da4b4	0.9282944
36	0x3f7d4be6	0.98943937
37	0x3f741a71	0.95352846
38	0x3f7ee523	0.99568385
39	0x3f7c017e	0.98439777
40	0x3f7ef179	0.9958721
41	0x3f6d3403	0.9265749
42	0x3f748782	0.9551927
43	0x3f66bb4a	0.9012953
44	0x3f6f7625	0.9353965
45	0x3f6e10e2	0.9299451
46	0x3f6b7519	0.9197555
47	0x3f7f1951	0.99648005
48	0x3f7d4272	0.9892951
49	0x3f70d33d	0.94072324
50	0x3f719a13	0.94375724
51	0x3f7523ec	0.9575794
52	0x3f829a4f	1.0203341
53	0x3f68fff2	0.9101554
54	0x3f7e8e3e	0.99435794
55	0x3f6b9757	0.920278
56	0x3f5e0a12	0.86734116
57	0x3f856694	1.0421929
58	0x3f804158	1.0019941
59	0x3f78a8dd	0.97132665
60	0x3f7d4cfe	0.98945606
61	0x3f6f2117	0.93409866
62	0x3f6d977f	0.9280929
63	0x3f81cc6f	1.0140513

kenc0.encoder.10.bias f4 [64]
0	0x3dd7cbe0	0.10536933
1	0x3d402451	0.046909634
2	0x3dbb8cf9	0.09157748
3	0xbe37f0f9	-0.17963018
4	0x3d6d6ff0	0.05796808
5	0xbd90bc74	-0.070671946
6	0xbdc2517d	-0.09488199
7	0xbd97875a	-0.07398863
8	0xbce9f900	-0.028561115
9	0x3d4bee23	0.04978765
10	0xbc946ecd	-0.01811924
11	0xbc97bffc	-0.018524162
12	0x3dbba51d	0.09162352
13	0xbca595a2	-0.020212952
14	0xbc806f20	-0.015677989
15	0x3abbaa20	0.0014317669
16	0x3d19c71c	0.0375434
17	0x3e269625	0.16268213
18	0x3d75e5ae	0.060033493
19	0xbd9a2354	-0.075262696
20	0xbd9bd4af	-0.076089256
21	0xbc93b1e0	-0.018029153
22	0x3cef20cf	0.029190449
23	0x3d58b5a5	0.052907605
24	0x3c44dd0e	0.012015594
25	0xbd897857	-0.06712406
26	0xbd858d6d	-0.065211155
27	0x3cd119b2	0.025524948
28	0xbc9d3656	-0.019190948
29	0x3de1f88f	0.11033737
30	0x3dafb753	0.08579888
31	0x3d8f8c23	0.07009151
32	0x3cbe456a	0.023226459
33	0x3da8cf9c	0.08242723
34	0x3d4b67c9	0.049659524
35	0x3cb084c4	0.021547683
36	0x3d2ed864	0.042686835
37	0xbd958e3b	-0.07302519
38	0x3d03317a	0.032029606
39	0xbbe25da4	-0.0069081355
40	0xbcc8ca9c	-0.024510674
41	0xbceefd36	-0.029173475
42	0x3cbfae28	0.023398474
43	0xbdaaf05e	-0.08346628
44	0xbd6a4d18	-0.05720243
45	0x3cacf30a	0.021111984
46	0xbd117372	-0.035510488
47	0x3d3a68a4	0.04550995
48	0xbc2cbfb0	-0.010543749
49	0xbd4d3d6f	-0.050107416
50	0x3d683ffe	0.056701653
51	0xbda12608	-0.07868582
52	0x3b81f97d	0.003966509
53	0xbdb3e23a	-0.08783384
54	0xbcbec145	-0.023285517
55	0xbd812af1	-0.063070185
56	0xbe17637a	-0.14784041
57	0x3da6ad6f	0.081385486
58	0x3ce37c5a	0.027769256
59	0x3d46753d	0.04845165
60	0x3df10fba	0.11770578
61	0xbd5e9f00	-0.054350853
62	0x3bbe1332	0.005800628
63	0x3a20da7c	0.00061360723
