hyperglue/weights/weights_A100_V1.pth (torch, 614439 bytes, 160 tensors)

penc0.lin.weight f4 [36, 100]
00000000: 0ebe 1ebd c026 9a3d d4dc 0b3e 2401 8bc0
00000010: eb4d aebe 173b a940 2722 513e cb11 813d
00000020: 5f29 87bd 906a 5c3d 23f8 103c be4e 89bd
00000030: df85 f63d 9296 0bc0 358b e6be 277d db3f
00000040: aa25 4cbe 443d 863d 64e1 aebe c7b8 87bf
00000050: bad8 b7bd 03f5 1bbd b8ea 463c acc9 0ebf
00000060: f7fb ed3e 6ca6 fd3e 4f53 213e 1664 cf3f
00000070: 3b89 303f fd9b e4bf 370b 063d a431 a8bc
00000080: 5fc1 dbbd dfd9 413f 6cfe 853d 97a4 d0be
00000090: e4fe 1b3e d78b 3740 7523 233e a034 2bc0
000000a0: 0643 8c3c 7655 963d 635d 823d a1d4 0a3f
000000b0: e9da 0fbf bd52 58bd 5935 b9bc 8b6a 2140
000000c0: 5d20 84be 7a34 0ec0 3ce2 303d 2ca1 843b
000000d0: eae2 a6bd 5924 883e eeb4 0abf 19a5 71bf
000000e0: b24e 223e c54e ec3f 4303 51be 203a 3ec0
000000f0: 24cb 4a3d 2d44 4bbd 2ce4 efbd 6a21 b33e
00000100: 56d2 5ebf abdf b7bf 16c6 48be d531 f63f
00000110: 87cd 1bbf 9c6b 50c0 4d6b 0c3e 49ed e23c
00000120: bc9a 5cb9 3993 2d3f 2eaf a63f f2f7 e23d
00000130: c265 41be a07c 0640 964d 963f 443f d6bf
00000140: 1938 013e 9e34 133e c447 cdbd f47f 143f
00000150: 95a8 663f cfe6 cebe 29fc 3ebe 05b5 e73f
00000160: 9dc9 5f3f e2e0 06c0 99ec b43d 48e5 e13c
00000170: d8b6 00be b59b 6b3f 2fe0 b3be 2d66 83bf
00000180: 8a4b b4bd de39 0d40 9b11 29be 31c4 1dc0
00000190: 2bd9 eabd b612 e2bd 2cfb 253a c9f4 45be
000001a0: 44a4 35c0 3e2b 5cbf d893 16bd bb41 ab3d
000001b0: 9745 333d e353 58bd 1200 2bbe 9953 5b3d
000001c0: 9787 b8bd 6142 2ebf 0dca bcbf bb3c 823e
000001d0: c83d 013d 0ad4 f1be b2bb 673f ad50 533f
000001e0: 0f0e 8d3d 86f5 a33d 89a9 a6bd 6c0f 8a40
000001f0: cb20 0540 f3b8 043e 14e0 ea3d 4f1e 8d40
00000200: fc10 8540 94f8 e23e 68e1 03be 1764 893d
00000210: 990d b23b 598a 0bc0 a7be 7cbf 3644 98bf
00000220: 1571 84be 0ddc 01c0 2db4 733f 8288 4cbf
00000230: 4890 1cbe cddc 9c3e 8f23 72bd 664f 22c0
00000240: 044d 5740 74e5 bebe d36e b4bb 9863 1cc0
00000250: 55aa 8a40 6555 183c 2254 90bd b4db 863c
00000260: b4e0 873d 48e8 5c3f 64a3 d2bf 65a4 27bf
00000270: 3dfe c3bd 99f2 5f3f 98f9 1bbe f3d5 b3bd
00000280: 0be7 88bd 6a00 8d3d 175c 1d3e 4356 06bf
00000290: 193b abbd 1434 b83f ab68 883e 7bb5 d3be
000002a0: 54f3 b53f 90b7 d03f f2ae 0ebe 5f45 fe3c
000002b0: 061a 1e3d 917d aebd 1de9 7dbf 694b ef3c
000002c0: ffec 333e 4573 3bbe e068 0b3f a3ae 5c3e
000002d0: a0b9 d43d 28d3 3c3d 30ef 83bd fc51 cd3f
000002e0: b45b 563d ac62 88be 8b7f ccbd 5764 c73f
000002f0: d241 aa3f 07e3 4d3e 4bb9 cbbd dcf1 813e
00000300: 2fed aabd 5b90 6ebf 9513 bc3f a3a7 f83e
00000310: ad98 1e3e 6720 33bf 6b3b 0f40 7da5 2b3f
00000320: d71e 3ebe 4279 a1be 0302 ca3d 20ca c4bd
00000330: 7a90 b2bf fd85 1a3f 3300 4d3d 1bcc a0bd
00000340: 80a6 a83c 0322 20bd eadf fcbd fded aebe
00000350: 2b91 203e d726 223f 2d46 cabf 166c 1740
00000360: 513b e73d e0e0 183f 2e7f 45bf b403 f23f
00000370: 291c 6fbe 6a55 c3be f1b5 23bd 1c3e e7bf
00000380: 6738 a5bf 921f 8c3e 788b 27be 7a9f efbf
00000390: 0eb9 13bf 6c8c cfbc ee4a 4f3c cfc0 92be
000003a0: 9009 343c 669d 4c40 b70e 023f a3f7 babf
000003b0: 53ec 1b3e 159a 3a40 890b 9c3f d310 d3bf
000003c0: 9d81 89bd ff5b b4bd 15e5 103e b2f3 0ec0
000003d0: b1b8 733f fcad 7040 0e0c e4be b85c fbbf
000003e0: 716d af3f 78a9 4540 1228 46bd 0065 35be
000003f0: c56f 4b3d 3c32 1a3f 310a 273f 57f4 83bf
-0.03875547 0.07526922 0.13658458 -4.343889 -0.34043822 5.288463 0.20423184 0.06302222
-0.06599688 0.053812563 0.008848223 -0.06704472 0.12037253 -2.181065 -0.45028082 1.7147568
-0.19936243 0.06554654 -0.34156334 -1.0603265 -0.08976884 -0.03807546 0.012140922 -0.55776477
0.46481296 0.49541032 0.15754436 1.6202419 0.689594 -1.7860104 0.03272554 -0.020531483
-0.10730242 0.7572307 0.06542668 -0.40750572 0.15233952 2.8679101 0.15931495 -2.675087
0.017121803 0.07340519 0.06365468 0.54230696 -0.56193405 -0.05281328 -0.022608446 2.5221279
-0.2580594 -2.221953 0.043184504 0.0040475335 -0.08148749 0.2659023 -0.54182327 -0.94392544
0.15850332 1.8461539 -0.204114 -2.9722977 0.049510136 -0.049625564 -0.11713442 0.3498643
-0.870397 -1.4365133 -0.19606814 1.9233958 -0.60860485 -3.256568 0.13712807 0.027701037
-0.00021038478 0.6780277 1.3022211 0.11082448 -0.18886474 2.1013565 1.1742427 -1.6738057
0.12619056 0.1437554 -0.10023454 0.5800774 0.90100986 -0.40410468 -0.18650879 1.8102118
0.8741701 -2.1074758 0.0883419 0.02757515 -0.1256975 0.92034465 -0.35131976 -1.0265557
-0.088034704 2.206657 -0.16510622 -2.4650996 -0.11467203 -0.11038725 0.0006331678 -0.1933166
-2.838151 -0.8600348 -0.03676209 0.083621465 0.043767538 -0.052814376 -0.16699246 0.05354652
-0.09010237 -0.68070036 -1.4749161 0.2543696 0.03155306 -0.47232085 0.90520775 0.82544976
0.06887447 0.08005814 -0.08137805 4.3143826 2.0801265 0.12961178 0.11468521 4.40995
4.1583233 0.44330275 -0.12878954 0.06708544 0.00543375 -2.180319 -0.9872841 -1.1895816
-0.25867525 -2.0290558 0.951968 -0.79895794 -0.15289414 0.30637208 -0.059115943 -2.536096
3.3640757 -0.37284434 -0.0055063753 -2.4435787 4.3332925 0.009297703 -0.07047297 0.016462184
0.066346556 0.86291933 -1.6456113 -0.6548522 -0.095699765 0.8747955 -0.15231931 -0.08781042
-0.06684693 0.068848446 0.1536716 -0.52475375 -0.08360881 1.4390893 0.26642355 -0.41349396
1.4214883 1.6306019 -0.13933924 0.031038938 0.038599037 -0.08520044 -0.9918383 0.029210763
0.17570876 -0.1830569 0.544569 0.21550994 0.10386968 0.04609981 -0.06442106 1.6040645
0.05233355 -0.2663778 -0.099852644 1.5577496 1.3301337 0.20106135 -0.09947451 0.25379837
-0.083460204 -0.9318902 1.4693476 0.48565397 0.15487929 -0.6997132 2.2380016 0.6704939
-0.18566452 -0.31537825 0.09863665 -0.09608865 -1.3950341 0.603607 0.050049018 -0.0785143
0.020587206 -0.039094936 -0.12347396 -0.34165946 0.15680377 0.63340515 -1.5802666 2.365972
0.112906106 0.5971813 -0.77147186 1.890738 -0.23350586 -0.38151103 -0.039968435 -1.8065829
-1.2907838 0.27367836 -0.16361797 -1.8720543 -0.57704246 -0.025335513 0.012652142 -0.28662726
0.010988608 3.1971068 0.50803703 -1.4606823 0.1522687 2.9156544 1.219102 -1.6489509
-0.06714175 -0.08806609 0.14149888 -2.233624 0.9520369 3.7606192 -0.44540447 -1.963767
1.3705274 3.0884686 -0.048378058 -0.1771431 0.04966714 0.602329 0.65249926 -1.0308942

penc0.bn.weight f4 [36]
00000000: 04f2 ab3f aaa3 9a3f 79b1 ad3f 4426 c43f
00000010: a142 643f 4ab9 9a3f deaf b63f 339f 8d3f
00000020: d6a3 713f c7fb c63f 9362 7f3f 984f ab3f
00000030: a0c7 aa3f 8f44 bb3f 6b7f 973f cd8b 913f
00000040: 3716 963f ed93 933f a708 803f 5193 c23f
00000050: e4a7 8f3f 85aa 943f 0027 2f3f 46bd a13f
00000060: a781 c43f 0d38 953f cdce 8e3f ab7d b83f
00000070: f7dc ce3f 0479 a53f e90b ab3f e0b3 993f
00000080: 48bb be3f e97b 5a3f d007 9b3f 1dcd ba3f
1.3433232 1.2081196 1.3569785 1.5324178 0.8916417 1.2087796 1.427242 1.1064209
0.9439062 1.5545586 0.9975979 1.3383665 1.3342171 1.4630297 1.183576 1.1370789
1.172553 1.1529518 1.000264 1.5201207 1.1223111 1.1614538 0.68418884 1.2635887
1.5352067 1.165773 1.115686 1.4413351 1.6161183 1.2927556 1.336301 1.2008018
1.4900904 0.8534532 1.2111759 1.4593846

penc0.bn.bias f4 [36]
00000000: 0874 d0be 76be 5bbc ff9b 82bd 7015 e03d
00000010: 56e2 02bc 4a49 823c b2b1 c33c dae3 c13d
00000020: 34d6 79be 264f c13d ff92 153e ed78 713e
00000030: 6797 88be ea4d 61be ab55 a6be a3bb e6bc
00000040: dcc0 82be 1019 a33d b0e6 3dbe 44b4 d9be
00000050: 2770 463d 11a4 593e d379 24be 26c6 fcbd
00000060: 5273 e6bd 5303 f73c c4da 70be c014 8d3d
00000070: 2c1f 23be cca7 e43c 141c e93c 182e 4aba
00000080: 0e3e 22be 051f 55bd 1306 7b3b 9535 10bd
-0.40713525 -0.013412109 -0.0637741 0.10941589 -0.007988533 0.015904088 0.023888443 0.09467287
-0.24398118 0.094389245 0.14606856 0.23581286 -0.2667801 -0.22002378 -0.32487234 -0.028165644
-0.25537765 0.07963765 -0.18545032 -0.42520344 0.0484468 0.21253993 -0.16062097 -0.12342481
-0.11252464 0.030152952 -0.23520952 0.068887234 -0.1592986 0.027912043 0.028455772 -0.0007712557
-0.15843984 -0.052031536 0.003830318 -0.03520735

penc0.bn.running_mean f4 [36]
00000000: e8ca 17be 76bd 453e 6bc8 0e3c 5be9 02c0
00000010: 6e95 c03e 20b9 f8bd 4dc0 a8bf 438d bd3d
00000020: d430 61be b9ac c4bf c14f dcbe 0b90 e7bf
00000030: c1c7 a2bf 40d2 93bf 52df 5abf e9a7 e73d
00000040: 2f42 a7bf 6b0e 973f fc84 82bf 7df4 cdbe
00000050: bc33 e93b b412 8840 1254 d33f bf84 83bf
00000060: d6b3 87bf b570 50bd 6b49 ae3e 0f6a 10bf
00000070: bd15 17bf 15f2 86bf e63e 01bf 9fad c93f
00000080: c860 c7bf 71b3 513f 1794 e43f 6a58 55bf
-0.14823496 0.19310555 0.008714776 -2.045493 0.37614006 -0.12144685 -1.3183686 0.09255459
-0.21991283 -1.5365211 -0.43029597 -1.8090833 -1.271721 -1.1548538 -0.8549701 0.11311323
-1.3067073 1.1801275 -1.0196834 -0.40225592 0.007116763 4.252283 1.6510031 -1.0274886
-1.0601757 -0.050888736 0.34040388 -0.5641183 -0.59017545 -1.0542628 -0.504866 1.575611
-1.557641 0.8191443 1.7857693 -0.83338034

penc0.bn.running_var f4 [36]
00000000: 6a6b 923e 7900 fa3e 14ca c63f 9e6c 5640
00000010: 0d4b 883f 57eb b53f 14cd d63f 6822 493f
00000020: bff3 0a40 e8ce c83f aeb7 6d3f e375 503f
00000030: 34bd 1340 0b8e db3f be88 bc3f 6829 ac3f
00000040: 6452 1040 cc90 5c3f 4ee6 0140 b94f 343e
00000050: da21 273f 5d15 5f40 fe40 973f 1ab8 d13e
00000060: 9970 af3e f9f8 2f3f ed8c b33f a2d8 663e
00000070: cb7f 343f 35f2 e33f bf5a b73f e6c8 a83f
00000080: 4990 5040 a6a8 9a3f df74 893f 822a a03f
0.28597575 0.48828486 1.5530419 3.3503795 1.0647904 1.4212445 1.6781335 0.78568125
2.171127 1.5688143 0.928584 0.8142988 2.308423 1.7152723 1.472923 1.3450136
2.2550287 0.8615844 2.0296817 0.17608537 0.6528603 3.485679 1.1816709 0.4096077
0.34265593 0.6873928 1.4027382 0.22543576 0.70507497 1.7808291 1.4324569 1.3186309
3.2588065 1.2082717 1.0738791 1.2512972

penc1.lin.weight f4 [36, 100]
00000000: 0ebe 1ebd c026 9a3d d4dc 0b3e 2401 8bc0
00000010: eb4d aebe 173b a940 2722 513e cb11 813d
00000020: 5f29 87bd 906a 5c3d 23f8 103c be4e 89bd
00000030: df85 f63d 9296 0bc0 358b e6be 277d db3f
00000040: aa25 4cbe 443d 863d 64e1 aebe c7b8 87bf
00000050: bad8 b7bd 03f5 1bbd b8ea 463c acc9 0ebf
00000060: f7fb ed3e 6ca6 fd3e 4f53 213e 1664 cf3f
00000070: 3b89 303f fd9b e4bf 370b 063d a431 a8bc
00000080: 5fc1 dbbd dfd9 413f 6cfe 853d 97a4 d0be
00000090: e4fe 1b3e d78b 3740 7523 233e a034 2bc0
000000a0: 0643 8c3c 7655 963d 635d 823d a1d4 0a3f
000000b0: e9da 0fbf bd52 58bd 5935 b9bc 8b6a 2140
000000c0: 5d20 84be 7a34 0ec0 3ce2 303d 2ca1 843b
000000d0: eae2 a6bd 5924 883e eeb4 0abf 19a5 71bf
000000e0: b24e 223e c54e ec3f 4303 51be 203a 3ec0
000000f0: 24cb 4a3d 2d44 4bbd 2ce4 efbd 6a21 b33e
00000100: 56d2 5ebf abdf b7bf 16c6 48be d531 f63f
00000110: 87cd 1bbf 9c6b 50c0 4d6b 0c3e 49ed e23c
00000120: bc9a 5cb9 3993 2d3f 2eaf a63f f2f7 e23d
00000130: c265 41be a07c 0640 964d 963f 443f d6bf
00000140: 1938 013e 9e34 133e c447 cdbd f47f 143f
00000150: 95a8 663f cfe6 cebe 29fc 3ebe 05b5 e73f
00000160: 9dc9 5f3f e2e0 06c0 99ec b43d 48e5 e13c
00000170: d8b6 00be b59b 6b3f 2fe0 b3be 2d66 83bf
00000180: 8a4b b4bd de39 0d40 9b11 29be 31c4 1dc0
00000190: 2bd9 eabd b612 e2bd 2cfb 253a c9f4 45be
000001a0: 44a4 35c0 3e2b 5cbf d893 16bd bb41 ab3d
000001b0: 9745 333d e353 58bd 1200 2bbe 9953 5b3d
000001c0: 9787 b8bd 6142 2ebf 0dca bcbf bb3c 823e
000001d0: c83d 013d 0ad4 f1be b2bb 673f ad50 533f
000001e0: 0f0e 8d3d 86f5 a33d 89a9 a6bd 6c0f 8a40
000001f0: cb20 0540 f3b8 043e 14e0 ea3d 4f1e 8d40
00000200: fc10 8540 94f8 e23e 68e1 03be 1764 893d
00000210: 990d b23b 598a 0bc0 a7be 7cbf 3644 98bf
00000220: 1571 84be 0ddc 01c0 2db4 733f 8288 4cbf
00000230: 4890 1cbe cddc 9c3e 8f23 72bd 664f 22c0
00000240: 044d 5740 74e5 bebe d36e b4bb 9863 1cc0
00000250: 55aa 8a40 6555 183c 2254 90bd b4db 863c
00000260: b4e0 873d 48e8 5c3f 64a3 d2bf 65a4 27bf
00000270: 3dfe c3bd 99f2 5f3f 98f9 1bbe f3d5 b3bd
00000280: 0be7 88bd 6a00 8d3d 175c 1d3e 4356 06bf
00000290: 193b abbd 1434 b83f ab68 883e 7bb5 d3be
000002a0: 54f3 b53f 90b7 d03f f2ae 0ebe 5f45 fe3c
000002b0: 061a 1e3d 917d aebd 1de9 7dbf 694b ef3c
000002c0: ffec 333e 4573 3bbe e068 0b3f a3ae 5c3e
000002d0: a0b9 d43d 28d3 3c3d 30ef 83bd fc51 cd3f
000002e0: b45b 563d ac62 88be 8b7f ccbd 5764 c73f
000002f0: d241 aa3f 07e3 4d3e 4bb9 cbbd dcf1 813e
00000300: 2fed aabd 5b90 6ebf 9513 bc3f a3a7 f83e
00000310: ad98 1e3e 6720 33bf 6b3b 0f40 7da5 2b3f
00000320: d71e 3ebe 4279 a1be 0302 ca3d 20ca c4bd
00000330: 7a90 b2bf fd85 1a3f 3300 4d3d 1bcc a0bd
00000340: 80a6 a83c 0322 20bd eadf fcbd fded aebe
00000350: 2b91 203e d726 223f 2d46 cabf 166c 1740
00000360: 513b e73d e0e0 183f 2e7f 45bf b403 f23f
00000370: 291c 6fbe 6a55 c3be f1b5 23bd 1c3e e7bf
00000380: 6738 a5bf 921f 8c3e 788b 27be 7a9f efbf
00000390: 0eb9 13bf 6c8c cfbc ee4a 4f3c cfc0 92be
000003a0: 9009 343c 669d 4c40 b70e 023f a3f7 babf
000003b0: 53ec 1b3e 159a 3a40 890b 9c3f d310 d3bf
000003c0: 9d81 89bd ff5b b4bd 15e5 103e b2f3 0ec0
000003d0: b1b8 733f fcad 7040 0e0c e4be b85c fbbf
000003e0: 716d af3f 78a9 4540 1228 46bd 0065 35be
000003f0: c56f 4b3d 3c32 1a3f 310a 273f 57f4 83bf
-0.03875547 0.07526922 0.13658458 -4.343889 -0.34043822 5.288463 0.20423184 0.06302222
-0.06599688 0.053812563 0.008848223 -0.06704472 0.12037253 -2.181065 -0.45028082 1.7147568
-0.19936243 0.06554654 -0.34156334 -1.0603265 -0.08976884 -0.03807546 0.012140922 -0.55776477
0.46481296 0.49541032 0.15754436 1.6202419 0.689594 -1.7860104 0.03272554 -0.020531483
-0.10730242 0.7572307 0.06542668 -0.40750572 0.15233952 2.8679101 0.15931495 -2.675087
0.017121803 0.07340519 0.06365468 0.54230696 -0.56193405 -0.05281328 -0.022608446 2.5221279
-0.2580594 -2.221953 0.043184504 0.0040475335 -0.08148749 0.2659023 -0.54182327 -0.94392544
0.15850332 1.8461539 -0.204114 -2.9722977 0.049510136 -0.049625564 -0.11713442 0.3498643
-0.870397 -1.4365133 -0.19606814 1.9233958 -0.60860485 -3.256568 0.13712807 0.027701037
-0.00021038478 0.6780277 1.3022211 0.11082448 -0.18886474 2.1013565 1.1742427 -1.6738057
0.12619056 0.1437554 -0.10023454 0.5800774 0.90100986 -0.40410468 -0.18650879 1.8102118
0.8741701 -2.1074758 0.0883419 0.02757515 -0.1256975 0.92034465 -0.35131976 -1.0265557
-0.088034704 2.206657 -0.16510622 -2.4650996 -0.11467203 -0.11038725 0.0006331678 -0.1933166
-2.838151 -0.8600348 -0.03676209 0.083621465 0.043767538 -0.052814376 -0.16699246 0.05354652
-0.09010237 -0.68070036 -1.4749161 0.2543696 0.03155306 -0.47232085 0.90520775 0.82544976
0.06887447 0.08005814 -0.08137805 4.3143826 2.0801265 0.12961178 0.11468521 4.40995
4.1583233 0.44330275 -0.12878954 0.06708544 0.00543375 -2.180319 -0.9872841 -1.1895816
-0.25867525 -2.0290558 0.951968 -0.79895794 -0.15289414 0.30637208 -0.059115943 -2.536096
3.3640757 -0.37284434 -0.0055063753 -2.4435787 4.3332925 0.009297703 -0.07047297 0.016462184
0.066346556 0.86291933 -1.6456113 -0.6548522 -0.095699765 0.8747955 -0.15231931 -0.08781042
-0.06684693 0.068848446 0.1536716 -0.52475375 -0.08360881 1.4390893 0.26642355 -0.41349396
1.4214883 1.6306019 -0.13933924 0.031038938 0.038599037 -0.08520044 -0.9918383 0.029210763
0.17570876 -0.1830569 0.544569 0.21550994 0.10386968 0.04609981 -0.06442106 1.6040645
0.05233355 -0.2663778 -0.099852644 1.5577496 1.3301337 0.20106135 -0.09947451 0.25379837
-0.083460204 -0.9318902 1.4693476 0.48565397 0.15487929 -0.6997132 2.2380016 0.6704939
-0.18566452 -0.31537825 0.09863665 -0.09608865 -1.3950341 0.603607 0.050049018 -0.0785143
0.020587206 -0.039094936 -0.12347396 -0.34165946 0.15680377 0.63340515 -1.5802666 2.365972
0.112906106 0.5971813 -0.77147186 1.890738 -0.23350586 -0.38151103 -0.039968435 -1.8065829
-1.2907838 0.27367836 -0.16361797 -1.8720543 -0.57704246 -0.025335513 0.012652142 -0.28662726
0.010988608 3.1971068 0.50803703 -1.4606823 0.1522687 2.9156544 1.219102 -1.6489509
-0.06714175 -0.08806609 0.14149888 -2.233624 0.9520369 3.7606192 -0.44540447 -1.963767
1.3705274 3.0884686 -0.048378058 -0.1771431 0.04966714 0.602329 0.65249926 -1.0308942

penc1.bn.weight f4 [36]
00000000: 04f2 ab3f aaa3 9a3f 79b1 ad3f 4426 c43f
00000010: a142 643f 4ab9 9a3f deaf b63f 339f 8d3f
00000020: d6a3 713f c7fb c63f 9362 7f3f 984f ab3f
00000030: a0c7 aa3f 8f44 bb3f 6b7f 973f cd8b 913f
00000040: 3716 963f ed93 933f a708 803f 5193 c23f
00000050: e4a7 8f3f 85aa 943f 0027 2f3f 46bd a13f
00000060: a781 c43f 0d38 953f cdce 8e3f ab7d b83f
00000070: f7dc ce3f 0479 a53f e90b ab3f e0b3 993f
00000080: 48bb be3f e97b 5a3f d007 9b3f 1dcd ba3f
1.3433232 1.2081196 1.3569785 1.5324178 0.8916417 1.2087796 1.427242 1.1064209
0.9439062 1.5545586 0.9975979 1.3383665 1.3342171 1.4630297 1.183576 1.1370789
1.172553 1.1529518 1.000264 1.5201207 1.1223111 1.1614538 0.68418884 1.2635887
1.5352067 1.165773 1.115686 1.4413351 1.6161183 1.2927556 1.336301 1.2008018
1.4900904 0.8534532 1.2111759 1.4593846

penc1.bn.bias f4 [36]
00000000: 0874 d0be 76be 5bbc ff9b 82bd 7015 e03d
00000010: 56e2 02bc 4a49 823c b2b1 c33c dae3 c13d
00000020: 34d6 79be 264f c13d ff92 153e ed78 713e
00000030: 6797 88be ea4d 61be ab55 a6be a3bb e6bc
00000040: dcc0 82be 1019 a33d b0e6 3dbe 44b4 d9be
00000050: 2770 463d 11a4 593e d379 24be 26c6 fcbd
00000060: 5273 e6bd 5303 f73c c4da 70be c014 8d3d
00000070: 2c1f 23be cca7 e43c 141c e93c 182e 4aba
00000080: 0e3e 22be 051f 55bd 1306 7b3b 9535 10bd
-0.40713525 -0.013412109 -0.0637741 0.10941589 -0.007988533 0.015904088 0.023888443 0.09467287
-0.24398118 0.094389245 0.14606856 0.23581286 -0.2667801 -0.22002378 -0.32487234 -0.028165644
-0.25537765 0.07963765 -0.18545032 -0.42520344 0.0484468 0.21253993 -0.16062097 -0.12342481
-0.11252464 0.030152952 -0.23520952 0.068887234 -0.1592986 0.027912043 0.028455772 -0.0007712557
-0.15843984 -0.052031536 0.003830318 -0.03520735

penc1.bn.running_mean f4 [36]
00000000: e8ca 17be 76bd 453e 6bc8 0e3c 5be9 02c0
00000010: 6e95 c03e 20b9 f8bd 4dc0 a8bf 438d bd3d
00000020: d430 61be b9ac c4bf c14f dcbe 0b90 e7bf
00000030: c1c7 a2bf 40d2 93bf 52df 5abf e9a7 e73d
00000040: 2f42 a7bf 6b0e 973f fc84 82bf 7df4 cdbe
00000050: bc33 e93b b412 8840 1254 d33f bf84 83bf
00000060: d6b3 87bf b570 50bd 6b49 ae3e 0f6a 10bf
00000070: bd15 17bf 15f2 86bf e63e 01bf 9fad c93f
00000080: c860 c7bf 71b3 513f 1794 e43f 6a58 55bf
-0.14823496 0.19310555 0.008714776 -2.045493 0.37614006 -0.12144685 -1.3183686 0.09255459
-0.21991283 -1.5365211 -0.43029597 -1.8090833 -1.271721 -1.1548538 -0.8549701 0.11311323
-1.3067073 1.1801275 -1.0196834 -0.40225592 0.007116763 4.252283 1.6510031 -1.0274886
-1.0601757 -0.050888736 0.34040388 -0.5641183 -0.59017545 -1.0542628 -0.504866 1.575611
-1.557641 0.8191443 1.7857693 -0.83338034

penc1.bn.running_var f4 [36]
00000000: 6a6b 923e 7900 fa3e 14ca c63f 9e6c 5640
00000010: 0d4b 883f 57eb b53f 14cd d63f 6822 493f
00000020: bff3 0a40 e8ce c83f aeb7 6d3f e375 503f
00000030: 34bd 1340 0b8e db3f be88 bc3f 6829 ac3f
00000040: 6452 1040 cc90 5c3f 4ee6 0140 b94f 343e
00000050: da21 273f 5d15 5f40 fe40 973f 1ab8 d13e
00000060: 9970 af3e f9f8 2f3f ed8c b33f a2d8 663e
00000070: cb7f 343f 35f2 e33f bf5a b73f e6c8 a83f
00000080: 4990 5040 a6a8 9a3f df74 893f 822a a03f
0.28597575 0.48828486 1.5530419 3.3503795 1.0647904 1.4212445 1.6781335 0.78568125
2.171127 1.5688143 0.928584 0.8142988 2.308423 1.7152723 1.472923 1.3450136
2.2550287 0.8615844 2.0296817 0.17608537 0.6528603 3.485679 1.1816709 0.4096077
0.34265593 0.6873928 1.4027382 0.22543576 0.70507497 1.7808291 1.4324569 1.3186309
3.2588065 1.2082717 1.0738791 1.2512972

kenc0.encoder.0.weight f4 [32, 4, 1]
00000000: 2dcc 0ebe ce6e d2bd 2299 acbd 0a4c a2bf
00000010: 768d ffbe 3680 0ebf 27a6 11bf 90e6 4c3e
00000020: 9579 c2bc 5a64 a53c 9131 543c a890 24c0
00000030: 2c82 473c e3d8 5cbc 83da 9f3e 720d 923f
00000040: 9b56 d43c b2cb 163d 6a90 5e3d 6f7d 52c0
00000050: 6d10 42bf 5e1f d93e 131a 39be 7052 dcbd
00000060: 4a3d 003d 6b37 af3c d913 203d 665a 5bc0
00000070: 0151 843c 3779 84bd 61ca 863d 02d3 2d40
00000080: b72e 6abd aa2b 5bbc 3c95 3c3e 884b df3f
00000090: c316 db3b a697 7b3d 84cf c9be 71de 8d3f
000000a0: da25 eebd 2a87 1cbc 5c3e b0bd 55bc dc3f
000000b0: 1fb6 e9bd 8230 bebe 43f1 5d3f b710 a13e
000000c0: aab9 c33d 1984 58be 0746 a53c 57be c43f
000000d0: 9eb0 41bc 6e4c 9b3d 1d9e c23c eeeb 28c0
000000e0: ed62 46bd 9167 5abd ff45 683c e663 1140
000000f0: 1663 2f3c b57c 1d3d aadf 383d ccd3 54c0
00000100: 18b5 8abb 9f90 3a3d e9a6 cbbc d1d3 35c0
00000110: 806b bd3e 4266 373f a198 133f 3c9f d6bd
00000120: bae6 243d fb18 263c 7052 1fbc b11a 49c0
00000130: 681d 973d 3a38 5bbd 6a59 1d3c ead8 4740
00000140: d4f7 4d3d 3f70 89bd e012 8e3d b54b 6040
00000150: a5c5 443f 5f01 ecbd 2dcc 8dbe ae85 0dbf
00000160: e4e4 b0bc 484b 873d be0d 0a3d 7361 10c0
00000170: 670f 2abd 9069 aa3d 7791 f23d cbb0 f83f
00000180: 60ae d3bd 1008 203e 64f4 58ba b5e5 73bf
00000190: 6764 51bf 007a 293f d43a 703d ebd7 3e3e
000001a0: 9ee6 7fbd 2518 ebbd 493f 223e b3d8 d73f
000001b0: 18e1 323b 8789 2c3d 8f19 183d a563 1bc0
000001c0: b511 3d3d 6250 88bd a47a 8b3d b6b1 6740
000001d0: 20ed ee3c e510 613d 5f1e 273d 3127 4ec0
000001e0: 2f27 d83e 152e 6b3f 392a d9be b1e2 34bd
000001f0: 4645 ae3e 7cb7 e9bd d3d7 3dbd b8eb ac3f
-0.13945074 -0.102750406 -0.08427645 -1.2679455 -0.49912614 -0.55664384 -0.56894153 0.20009828
-0.023739615 0.020189453 0.012951271 -2.571329 0.0121770315 -0.013479444 0.312214 1.1410353
0.025920203 0.036815353 0.054336943 -3.2889059 -0.75806314 0.42406744 -0.18076353 -0.10757911
0.03130845 0.02138873 0.03908143 -3.4273925 0.016151907 -0.064684324 0.065815695 2.716004
-0.057173457 -0.01337711 0.18416303 1.7444925 0.006686063 0.06142392 -0.39416134 1.1083509
-0.11628313 -0.00955371 -0.08605644 1.7244974 -0.1141169 -0.37146384 0.8669626 0.31458065
0.09556897 -0.21144141 0.020174993 1.5370587 -0.011821894 0.07582937 0.023757035 -2.6394
-0.048434187 -0.053321425 0.014176845 2.2717223 0.010704776 0.038449008 0.045135178 -3.325427
-0.004233014 0.045548078 -0.024859862 -2.8410532 0.36996078 0.7164041 0.5765477 -0.1047959
0.0402591 0.010137792 -0.0097242445 -3.142254 0.07378656 -0.05352042 0.0096038375 3.1226144
0.050285175 -0.06710862 0.06937194 3.5046208 0.7686408 -0.11523699 -0.27694836 -0.55282104
-0.021593519 0.06606156 0.03370451 -2.2559478 -0.041518595 0.08320916 0.118441515 1.9428953
-0.10335994 0.15628076 -0.0008276163 -0.9527238 -0.81793827 0.6620178 0.058649853 0.18637054
-0.062475793 -0.114792146 0.15844454 1.6863006 0.002729481 0.042123344 0.03713375 -2.4279568
0.046159465 -0.06655957 0.06810501 3.6202216 0.029165804 0.054947753 0.04080045 -3.221142
0.42217395 0.9186719 -0.42415026 -0.044161502 0.34037226 -0.1141195 -0.046348404 1.3509436

kenc0.encoder.0.bias f4 [32]
00000000: 2c98 fc3e 34aa bcbd c54b aabf 3ab3 173e
00000010: f9ca b9be 53f1 69be f9e4 cabe c699 27be
00000020: da89 683f b701 49be 9437 0a3f 6af7 e03d
00000030: 8568 3c3f b8c4 f33c 9257 733e 1e4f 463f
00000040: 4a34 b7be c7d3 b33d fd0b 153f d880 9f3e
00000050: dfb2 dd3e ef95 b5be 3538 1dbe 70df adbe
00000060: 0ac4 0bbf 8014 06bd a5cb 92be 1047 273c
00000070: de73 3e3f 24df 443e 2c30 8a3e 68bd 66be
0.49334848 -0.09212151 -1.3304373 0.14814463 -0.36287668 -0.22845964 -0.39627817 -0.16367254
0.90835345 -0.1962956 0.53991055 0.109846905 0.73596984 0.029756889 0.23763874 0.77464473
-0.3578208 0.08780628 0.5822142 0.31152987 0.4330053 -0.35465953 -0.15353473 -0.33959532
-0.54596007 -0.032734394 -0.28670993 0.010209814 0.7439555 0.19225746 0.26989877 -0.2253319

kenc0.encoder.1.weight f4 [32]
00000000: e402 b13e 4e4a ab3e 6cb8 433f 891d 283f
00000010: 8774 7b3f 2153 563e 0070 c93f 224d 9a3f
00000020: 9e43 203f 4a44 113f 0243 563f 0302 e93e
00000030: d5b7 703f 0423 4c3f 1e99 863f 63f7 c73f
00000040: b0d1 973f 1395 823e 785c 773f 1505 c23f
00000050: c182 eb3f 5b0e c53e 7d51 393f e9fb 643f
00000060: 58f7 f93e 627e da3e d4af 393f 56eb 4d3f
00000070: 7786 eb3f 66f2 a33f ca9a c43e cd60 0f3f
0.34572518 0.33455127 0.7645328 0.6567007 0.9822468 0.20930149 1.5737305 1.2054789
0.62603176 0.56744826 0.83695996 0.45509347 0.94030505 0.7974093 1.0515478 1.5622371
1.1860867 0.2550436 0.9662547 1.5157801 1.8399278 0.38487515 0.72389966 0.89446884
0.4882152 0.42674547 0.7253392 0.8043722 1.840041 1.2808349 0.38399345 0.5600708

kenc0.encoder.1.bias f4 [32]
00000000: f6a7 4a3d ff3c a6be 3ac2 cabd 3f9f b13d
00000010: 3b4d 0bbe a0b7 eebe 7eae 3abd d2d3 2d3c
00000020: 65e1 9c3e 0675 453d 71e6 113d c02c c4be
00000030: 2022 69bd 5cb5 2bbd f706 ba3c f949 d0be
00000040: 859a 5fbe b08c 4fbe cd98 88bd b8ba f4bd
00000050: 58fc 7d3f 6d6f d6be 6c46 24bd e2df b2bd
00000060: 1ce7 06bf 2073 b8be 4a69 903d 97d4 57bd
00000070: 57ad 003e 2433 8dbe b2b7 4fbf 376a 4ebb
0.049476586 -0.3246841 -0.09900327 0.08672952 -0.1360368 -0.4662447 -0.045576565 0.010609584
0.30640712 0.048207305 0.035620157 -0.38315392 -0.05691731 -0.041921005 0.0227084 -0.40681437
-0.21836288 -0.20268512 -0.066697694 -0.11949676 0.9921317 -0.41881886 -0.040106222 -0.087341085
-0.52696395 -0.36025333 0.07051332 -0.052692976 0.12566124 -0.2757808 -0.8113967 -0.0031496414

kenc0.encoder.1.running_mean f4 [32]
00000000: 66e5 533e 8609 57bd d821 f3bf b6ad d23e
00000010: c529 8dbf dd14 82be 9c8b 94bf ca01 e13e
00000020: 7382 a53f 1227 4a3d 6d6d 6d3f d1d3 413e
00000030: 8caa 893f fbbe 0fbf b753 3f3f e899 003d
00000040: 7a28 7dbf 0663 813d e6b0 f2bd da30 813f
00000050: 55c6 9b3f ecf9 f6be 3bf0 28bf c937 c23d
00000060: f901 42bf e6eb 693c 6803 b73d ce9d 09bf
00000070: 6f4e c63f 3ddc 06bf ee64 843e d38e a53d
0.20692977 -0.052499317 -1.8994703 0.41148156 -1.1028372 -0.25406542 -1.1605105 0.43946677
1.2930435 0.049353667 0.92745095 0.18928458 1.0755172 -0.5615079 0.74737114 0.031396776
-0.9888989 0.06317715 -0.11850147 1.0093033 1.2169901 -0.4823755 -0.6599156 0.094832964
-0.7578426 0.014277434 0.089361966 -0.53756416 1.5492686 -0.52679807 0.25858253 0.08083882

kenc0.encoder.1.running_var f4 [32]
00000000: 60e4 cf3e ed34 183e 2a46 c73f f385 ae3e
00000010: 4d62 2140 ea07 133e cb9f 2f40 9005 df3f
00000020: 44b5 3a3f c486 983e 4cdb 2e3f 0a04 363e
00000030: 77a5 103f 70b2 d13f f659 9a3f 7576 2540
00000040: 1a25 f33f 8427 283e e9a4 1340 7684 1340
00000050: 787b 3940 3969 2d3e b027 993f 690d 663f
00000060: 04b3 613e 675b 423e 2f6a 2c3f b69b b03f
00000070: 590b 4640 dbdc 1a40 8e4f 473e 8414 f43e
0.40603924 0.1486394 1.5568287 0.3408657 2.5216248 0.14358488 2.744128 1.7423573
0.7293284 0.29790318 0.6830337 0.17774978 0.5650248 1.638258 1.2058704 2.585355
1.8995697 0.16421324 2.3069403 2.3049598 2.898161 0.1693467 1.1965237 0.8986421
0.22040945 0.1898018 0.67349523 1.3797519 3.0944426 2.41973 0.19463941 0.47671902

kenc0.encoder.4.weight f4 [64, 32, 1]
00000000: a6b5 763e b58e b9be b6ac 8a3d e714 79be
00000010: 1381 b43e 7cc7 053c cfba 6c3f 3deb fa3c
00000020: 3321 bdbe 8b55 a2be dedd 233e 31d5 e2be
00000030: 5363 ad3e b9d6 c33e 6859 7d3d beb9 f03e
00000040: c311 813e b9a2 cb3e ae88 233d fdd0 823e
00000050: b750 c3be 3e25 b2be af3e 673e 6750 a53e
00000060: 77e1 f5be eeeb fc3c 82fc b8bd f54f 1d3d
00000070: a177 033e 4221 0a3f 38dc 61bf 08cc 43bc
00000080: ff32 08be ec4f d0be 6dd5 0c3f ce6d 10bf
00000090: 9b6f 9b3e ff13 7dbd 567d 033f 1509 6fbd
000000a0: 4e93 cfbe de19 0abf 0b5f 3fbe 166e 49be
000000b0: 6ca6 51bd 2ac6 82be 9f67 0fbd 23e6 033f
000000c0: 042e 623e 042f dc3c d357 3fbe e389 423e
000000d0: afaa 67be 4336 bebd 43b8 c33d bc74 bb3d
000000e0: 237f 05bf 9712 bebd c163 8cbe 2c30 8d3d
000000f0: 9c1d 24be 62a4 673d 2843 34bf 8268 cbbe
00000100: e4d1 f53d 6d38 a63e 84ee 8e3c 56cf 9ebe
00000110: 4e0e 353d 8a3f a8be 9c99 813e 9152 d1be
00000120: 64b3 abbe d99c 10bf d12b b1be ca9c 84be
00000130: e114 38bf 5baa 74be 3662 13bf 9546 70bd
00000140: 76d7 813e 5c05 adbe 0a5e 283e ad2a 1bbf
00000150: 4dd4 06be 131e b8be 8d71 83be e12b 32bf
00000160: 6686 0cbf a27f d9be 8665 e7be 12ce 4ebc
00000170: eb4c d3bd 519f 953e e603 fbbe 6a39 60bf
00000180: e2ff cd3e 3a04 2e3e 65ab ec3e e4ff 25be
00000190: e9fc f13e ddc7 3d3d 2feb 713f 68f1 ed3d
000001a0: c265 afbe cce2 16be b752 60bb 44fe 35bf
000001b0: f331 383e d6fa 033f 164e 133d 8540 4b3f
000001c0: be13 c63e c58e a13e 6aaf e7bc dc9d 593d
000001d0: 4ea0 99be 2748 a7bd 1269 cb3e 1913 893e
000001e0: 75dd 90be b667 fe3d e5e3 133d e43b de3e
000001f0: e6d0 e03c 3ef2 123f 0ad7 40be 3648 c73d
00000200: ce3e 993d faa1 493c 6b29 2e3e 8cb8 ddbe
00000210: 64c3 013e 5604 f03d 7dc8 803e 484b cfbe
00000220: 83ef 9fbe 51e1 1ebf bfcb cdbe f68c a93e
00000230: 09b4 12be 2484 7e3e b8ac fabe 0823 4a3d
00000240: daeb 883e 6c4c 923e 7fee 683e 01f1 1dbe
00000250: 7e25 7fbe 7987 a73d e2e7 a03e ef11 04be
00000260: 70a1 fdbe 3666 aa3e 9f2e 06bf 72a4 363e
00000270: e974 14bf 35bf 743e cff0 803e 620e d3be
00000280: b783 9fbc da65 8cbe 32fe 5fbe c261 25bd
00000290: 1ffd f23e 09df b2be 43d3 433e 0dde 15bd
000002a0: 9dc0 18be 5555 46bd 2b39 94bd c608 edb9
000002b0: 69d4 d2bd e72d 3abe 93b5 17be acb3 3b3e
000002c0: 8e8b 963e ce50 ce3d c659 eebd 1885 c1bd
000002d0: 4196 db3f ee42 0abe 284e 773e 345c 58be
000002e0: ab80 f63e d8e2 f5bd 5d33 9cbd faba c23e
000002f0: 40bd 15bc 9911 893e 8027 343d b6d4 ebbd
00000300: f330 7d3e 6545 a23c 20cd 533e e4d8 29be
00000310: bd83 843e d6af a1be 2260 773e 83b5 e1be
00000320: 50ff 4fbe 0c9a dabe 794c 0abf adfc 0ebe
00000330: 158f 1ebf 15c2 683e 5468 c2be 4e7b 823e
00000340: 56e5 a13e 5d9e 0f3e 3a92 8c3d d94c 15bf
00000350: 992b b3bd 8a30 03be c178 213e 5e7b c4be
00000360: 2c08 a7be df15 b7be 184c bebe ef8c 973e
00000370: f9df 44be 291c aa3d cef3 2fbe b598 0cbf
00000380: 1f38 743e 4fda 53be 37f6 aa3e d21e 6fbe
00000390: 7c97 5a3e 2a12 213d fc15 c43e 2d1f 9fbe
000003a0: c423 4abb 7e6f b4be 9f21 0abf 5d3d dcbc
000003b0: aa65 85be 39fc b03e 26e0 05bf 4676 733e
000003c0: c360 7b3e eb3f ef3d 9e65 433d e47e a3be
000003d0: 1d4c 95bd eeb2 473e 0ee0 b23e 88f8 87be
000003e0: d90a f2be 21ac 33bf 6ca2 c2be 610b f13e
000003f0: 6e65 e2be c229 aa3d 3715 e63d b53e 4abe
0.24092731 -0.3624169 0.06771223 -0.2432438 0.35254726 0.008165237 0.9247255 0.030629748
-0.36939391 -0.3170589 0.16002604 -0.44303277 0.3386484 0.38249758 0.061852843 0.4701671
0.25208864 0.39772585 0.03992527 0.2555007 -0.38147518 -0.3479404 0.22582506 0.32287905
-0.4802358 0.030874219 -0.09032537 0.03840633 0.12838604 0.53957 -0.8822665 -0.0119505
-0.13300703 -0.40685976 0.5501316 -0.5641755 0.30358586 -0.061786648 0.5136312 -0.05835827
-0.40542072 -0.5394572 -0.186886 -0.196709 -0.051184103 -0.25541812 -0.03501093 0.51523036
0.22087866 0.026877888 -0.18685846 0.18997912 -0.22623704 -0.09287693 0.095566295 0.09153125
-0.5214712 -0.092808895 -0.27419856 0.06893954 -0.1602692 0.056553252 -0.7041497 -0.3972817
0.12002924 0.32464924 0.017447717 -0.3101756 0.044203095 -0.32860976 0.25312507 -0.40883306
-0.33535302 -0.5648933 -0.34603742 -0.2590087 -0.7190686 -0.2389311 -0.57571733 -0.058661062
0.25359696 -0.3379315 0.16442123 -0.60611993 -0.13166924 -0.35960445 -0.2567257 -0.69598204
-0.54892576 -0.4248019 -0.45194644 -0.012622373 -0.10317405 0.2922311 -0.49026412 -0.87587607
0.40234286 0.169938 0.46224514 -0.16210896 0.47263268 0.046333183 0.94499487 0.1161831
-0.34257323 -0.14734954 -0.003422899 -0.71091104 0.17987804 0.5155462 0.03596314 0.79395324
0.38686937 0.31554237 -0.028281886 0.053129062 -0.30005115 -0.08168059 0.397286 0.26772383
-0.28293958 0.12422125 0.03610601 0.43405068 0.02744336 0.5740088 -0.18832031 0.0973057
0.07482682 0.012306685 0.17007987 -0.4330486 0.12672192 0.11719577 0.2515296 -0.40487123
-0.3123742 -0.62062556 -0.40194508 0.33115357 -0.1432649 0.24855095 -0.489599 0.049349815
0.2674244 0.2857393 0.22747229 -0.15423967 -0.24916646 0.08180136 0.31426913 -0.12897466
-0.4953723 0.33281106 -0.5241489 0.17836168 -0.5799089 0.23901065 0.25183722 -0.4122191
-0.019471986 -0.27421457 -0.21874312 -0.040376432 0.4745874 -0.34935787 0.19123559 -0.036588717
-0.14917226 -0.048421223 -0.072374664 -0.000452107 -0.1029442 -0.18181573 -0.14815359 0.18330258
0.29403347 0.10074006 -0.11638217 -0.09449214 1.7155229 -0.13502094 0.24150908 -0.21128923
0.4814504 -0.12006158 -0.07626984 0.38033277 -0.009139359 0.26771238 0.043982983 -0.11515181
0.24725704 0.01980848 0.20683718 -0.16586643 0.25881758 -0.31579465 0.24157766 -0.44083795
-0.20312238 -0.42695653 -0.5402294 -0.13963576 -0.61937076 0.22730286 -0.3797022 0.254847
0.31620282 0.14025255 0.06863828 -0.58320385 -0.0874855 -0.12811485 0.1576872 -0.38375372
-0.32623422 -0.35758874 -0.3716743 0.2959971 -0.19226064 0.083061524 -0.17182848 -0.5492051
0.23849533 -0.20688747 0.33390972 -0.23351601 0.21346849 0.039323963 0.38298023 -0.31078473
-0.0030844072 -0.35241312 -0.5395755 -0.026884729 -0.26054126 0.3456743 -0.5229515 0.23775586
0.2454863 0.11682113 0.04770433 -0.31932747 -0.07289908 0.1950185 0.34936565 -0.26556802
-0.472739 -0.7018452 -0.38014543 0.47078994 -0.4421801 0.08308746 0.11234515 -0.19750483

kenc0.encoder.4.bias f4 [64]
00000000: fa52 d9be 9331 f33d f9ae 9e3e 189d 403f
00000010: 8d79 84bc 5467 353f c4c6 07bf df7d 1cbe
00000020: 8279 d2be be17 27be 15e1 54be 70b0 b4be
00000030: a279 773e c622 d43e 6504 d03e c755 703e
00000040: af16 313f 4f33 0b3f 6ee6 a83e 09ca 7b3d
00000050: f200 e2be 96ac 06bd 44ee 573f b44c dabd
00000060: cd4b c3bd 5902 303f dec6 5dbe d9c4 09be
00000070: 6d6e bf3a 7e3e 79bf c691 2d3e aadb 983e
00000080: 20b3 16be 20a4 843f 843b bcbe 0e09 d7be
00000090: ac8d acbe e4cf c83e df20 c6be 2a49 2ebf
000000a0: 0e14 1e3d 0233 a53e 6072 073f 296a 1ebd
000000b0: ab77 b83e 00d5 7a3b b5c7 003f 4746 2fbf
000000c0: 94f3 e3bd ef05 593f aa44 1d3f a054 233f
000000d0: 02cd b0be a5f3 4fbe 45d0 e73e 8182 f0be
000000e0: 40d2 90be cfa1 b13f c26d e4be fe99 183f
000000f0: dde7 ebbe 9473 90be 5c9e 133f 3a74 01be
-0.4244612 0.1187469 0.3099287 0.75239706 -0.016171241 0.7086079 -0.5303767 -0.15282391
-0.41108328 -0.1631765 -0.20788987 -0.3529086 0.24167493 0.4143278 0.40628353 0.23470221
0.6917524 0.54375166 0.32988304 0.061471973 -0.44141346 -0.032879435 0.8434794 -0.10659161
-0.09535942 0.6875358 -0.21657893 -0.13453998 0.0014605053 -0.9736098 0.1695014 0.2985509
-0.14716768 1.0362587 -0.36764157 -0.41999096 -0.33701837 0.39221108 -0.38696954 -0.6808039
0.038593344 0.32265478 0.529089 -0.03867546 0.360288 0.003827393 0.5030473 -0.6846661
-0.11130443 0.8477468 0.614329 0.63801 -0.3453141 -0.20307787 0.45276085 -0.46974567
-0.28285408 1.3877505 -0.4461499 0.59609973 -0.46075335 -0.2821318 0.5766351 -0.12641993

kenc0.encoder.5.weight f4 [64]
00000000: 64f7 a73f 5ac1 6f3f 3c87 523f ea86 9d3f
00000010: 282a 843f 0720 7f3f 8273 5e3f b408 553f
00000020: c9a1 5c3f 7635 803f a80a 9b3f 48c1 af3f
00000030: cf76 503f c7a8 a93f 0ad2 803f 7b63 c93f
00000040: ac02 ad3f c90a 6e3f 21fc 663f 45b9 583f
00000050: c2d3 683f 6966 563f 4e99 7b3f a22b 7d3f
00000060: 3450 833f 3da5 733f 7504 623f b2df b33f
00000070: 4fe6 5d3f 6c7a a63f b48b 493f 8eeb 793f
00000080: 4f64 743f 2a1e c13f e59c a93f abca bb3f
00000090: 77e6 753f b23c c23f f3c2 993f 4b4b 8d3f
000000a0: 01a6 7a3f edae 6a3f 5cdc 3f3f 5fe6 ae3f
000000b0: b3e3 6a3f c921 bd3f 7dd1 c73f e0a6 703f
000000c0: 970a 943f 5e76 573f 8590 373f 1f33 853f
000000d0: 7b2a 6a3f 0de5 673f 1f8a 9b3f 39c1 583f
000000e0: 3dda 6b3f a3fd 9c3f cc1d 513f 1116 873f
000000f0: 5bc0 663f a4cc 8c3f fc9c 6f3f 675e 983f
1.3122373 0.93654406 0.822376 1.2306798 1.0325365 0.99658245 0.86895 0.83216405
0.86184365 1.0016315 1.2112627 1.373086 0.8143129 1.3254632 1.0064099 1.5733484
1.351644 0.92985207 0.9022847 0.846577 0.90948117 0.83750015 0.982808 0.98894703
1.0258851 0.9517401 0.8828805 1.4052641 0.8667955 1.300611 0.78728795 0.9762505
0.9546556 1.508733 1.3251005 1.4671224 0.96054786 1.5174773 1.2012619 1.1038603
0.9790955 0.91673166 0.74945617 1.3664054 0.9175369 1.4775935 1.5610806 0.9400463
1.1565732 0.8416499 0.71704894 1.0406226 0.9147107 0.9058388 1.2151526 0.84669834
0.9212988 1.2264904 0.8168609 1.0553609 0.9013726 1.0999951 0.93598914 1.1903809

kenc0.encoder.5.bias f4 [64]
00000000: ac10 de3d c167 c3bd 337c 8abd 4784 9e3e
00000010: a308 82be b7a1 e7be 67fb 00bc 777a 63bd
00000020: bf75 4cbe 7133 49bf 1551 c9be 336e aabe
00000030: 5982 08be c96e 6cbf 1545 34be a726 263d
00000040: e553 68bd 3b3d 53be 7031 92bd d01f e7bd
00000050: cf7a f43d 1654 c2be c379 d33e 644a 0bbe
00000060: 2b0d 21bd a19a 1abf 3abe 07be dfea b0be
00000070: 91bb 89bd e7de 89be c381 ddbe a357 34be
00000080: 94fc b8be 228f 253e 1d45 6bbe a623 55bc
00000090: 2074 713d 1b41 15bf 5954 b7be a5d5 ba3e
000000a0: 8169 aa3e 8cca 363d 60a7 72bd e0aa 3ebf
000000b0: fe82 a9bd fc7b 1abf 3851 0abf ef00 abbd
000000c0: 884c a6bb 2795 30be 0ca8 073e da4b 73bf
000000d0: 6a3c 803e 5935 ecbc 9a5d 59bf 594d 1ebe
000000e0: c364 0abe 325c 16be 0bba 65be c42a 8f3e
000000f0: 49ed 82bd 2aaa 56be 077e 2fbd ff62 6b3c
0.10843024 -0.09541274 -0.0676197 0.30960295 -0.25397214 -0.45240566 -0.007872439 -0.055536713
-0.19966792 -0.7859412 -0.39319673 -0.332872 -0.13330974 -0.92356545 -0.17604478 0.040564205
-0.056720633 -0.20628826 -0.07138336 -0.11285365 0.119374864 -0.37954777 0.41303834 -0.13602597
-0.0393192 -0.60392195 -0.1325616 -0.34554192 -0.067252286 -0.26927873 -0.43263063 -0.17611556
-0.36130202 0.16167882 -0.22975583 -0.0130089875 0.058948636 -0.5830247 -0.3580654 0.36491123
0.33283618 0.044626758 -0.059241652 -0.74479485 -0.08276938 -0.60345435 -0.5403018 -0.083497874
-0.005075041 -0.17244397 0.13247699 -0.95037615 0.25046092 -0.028834032 -0.8490845 -0.15459193
-0.13515 -0.14683607 -0.22434251 0.27962315 -0.06392915 -0.2096335 -0.0428448 0.014366864

kenc0.encoder.5.running_mean f4 [64]
00000000: f9ff f43e 97cb 99be 40d1 d9bf 66e3 0b40
00000010: 8a21 b2bf 4bb4 4b40 97c6 d5bf 02a1 5fbf
00000020: 437a bcbf 8874 543f 2c34 353f b3aa 2540
00000030: fb91 763f 6606 3f3e f6b0 f83f 3fff 1740
00000040: f04f 0440 1f5c d7bf b087 e63f 9b1a 113f
00000050: ddac c8be b886 0540 259b 2140 4c40 91bf
00000060: 25d7 06bf 9670 993f 4fc2 6ebf 221a 2440
00000070: 8c15 b43f a530 6abf 03f8 fd3f 658b 2ec0
00000080: a0ad 1040 f8d4 4140 53fa 1040 3721 a83f
00000090: 9680 4dbf 5940 073f fe2e d33f cfd0 ce3e
000000a0: e24d ac3f 7e12 c1bb c320 85be 0280 43c0
000000b0: 737d 10bf e7f0 c43f b48f 5340 e6d6 b7bf
000000c0: 9bc8 b63e ca34 7040 3b8e 783e 9018 f83f
000000d0: 789c 0e3f 281e c1bf 7351 02bc b4d8 a6bd
000000e0: fa6a 58c0 ab23 9240 9c40 2a3f a9fb cd3f
000000f0: ea8e 11c0 1de2 66bf 1de1 423d 87f6 823d
0.47851542 -0.3003814 -1.7016983 2.1857543 -1.3916485 3.1828792 -1.670123 -0.87355053
-1.4724811 0.8299031 0.7078273 2.5885437 0.963165 0.18654785 1.9429004 2.374954
2.067379 -1.6824988 1.8010159 0.5668122 -0.39194384 2.0863476 2.5250943 -1.1347747
-0.52672035 1.1987484 -0.9326524 2.564095 1.4069076 -0.91480476 1.9841312 -2.727258
2.2605972 3.0286236 2.2652786 1.3135136 -0.8027433 0.5283256 1.6498716 0.40393683
1.3461268 -0.005892097 -0.26001558 -3.054688 -0.5644142 1.5386018 3.305646 -1.4362457
0.35699925 3.753222 0.24273007 1.9382496 0.557075 -1.5087328 -0.007953989 -0.081468016
-3.3815293 4.566854 0.66504836 1.6092426 -2.2743478 -0.9018877 0.047577966 0.063946776

kenc0.encoder.5.running_var f4 [64]
00000000: 94ac 0541 6109 9c40 55be 1441 bfde 8441
00000010: 967f 2f41 380e 4840 3976 2c41 89b9 2941
00000020: 6043 9640 60be ba3f 6f52 543f 877d e140
00000030: e363 0741 1864 b83e c4b1 3440 c995 4141
00000040: 80cb 7c3f c35a 4b41 183d 5541 c81a 4b41
00000050: 2e1a 3241 da2a fc40 89de 9a41 2b14 2941
00000060: 7192 0141 14f0 043f 4e3c b440 0e46 cd40
00000070: 75ce 4041 c74b fa3e c259 1541 3c59 8841
00000080: d8e5 9440 361b 1040 6ddb eb40 946d 5641
00000090: d9e4 3441 984f fd3e 30e3 0c40 2439 3e41
000000a0: f620 5241 da1d 4641 79d5 8940 c081 4541
000000b0: 4f90 2f41 889b 8f40 d4f2 1c41 b4ef 3441
000000c0: 6fc8 fb40 74a0 0c41 4122 1b41 1aac f23f
000000d0: 6b17 5741 5a6d 4541 e840 d23e 3541 1041
000000e0: b506 9041 5a0a 1b41 5e0b f040 75ee 4241
000000f0: bf1d 1941 92be d940 5c40 3841 3c9f f140
8.354633 4.876145 9.296468 16.608763 10.968649 3.1258678 10.778863 10.607797
4.6957245 1.4589348 0.82938284 7.046573 8.461886 0.36013865 2.82335 12.099069
0.98748016 12.709659 13.327415 12.694038 11.131392 7.880231 19.35866 10.567424
8.098252 0.5192883 5.6323614 6.4148016 12.050405 0.4888594 9.334414 17.043571
4.653057 2.2516608 7.3705354 13.401752 11.305871 0.49474788 2.2013664 11.88895
13.133047 12.382288 4.3073087 12.344177 10.972732 4.4877357 9.809284 11.308521
7.868217 8.789173 9.695863 1.8958771 13.443217 12.339197 0.41065145 9.01592
18.003275 9.690027 7.5013876 12.183217 9.569762 6.804513 11.515713 7.550688

kenc0.encoder.8.weight f4 [128, 64, 1]
00000000: b2ba 263e 2323 123e f4fb c53e fa86 d43d
00000010: d10c b53e b5f9 5e3e 8a6e d13e 714c ad3e
00000020: 823d 1e3e 9d57 0b3f 5677 003f 2e5b 413e
00000030: f175 673d 4767 3e3f 1f74 cb3e 21e0 8d3d
00000040: bdc2 d33e f121 b33e 96ad 873e 646a 8f3e
00000050: a31e 313e ca4d 0b3e 8a4c 743e 7d01 aa3e
00000060: b499 893e fc4e 883e 141e ca3d 3fae 6f3e
00000070: 3952 163e 7723 203e 22bf b43e 1963 fe3e
00000080: 8756 6e3e 13a9 563e f8a2 423f adb3 af3d
00000090: 8801 623e cb52 153f 52e2 0e3f 9c5e d73d
000000a0: 3ec6 823e 16b8 4d3e 8893 ae3d 6c0f 963f
000000b0: 1274 3f3e 34fa 563f 321e 2a3f b38d f93d
000000c0: 3d96 983d 0fd9 cd3e e390 953e 9f54 ef3e
000000d0: 8829 3d3e 7050 8c3e ddf2 403f 7854 c53e
000000e0: 8b45 e63e 09b0 6f3e b09d c93e 9001 0f3e
000000f0: caa4 7d3e 91e7 6d3e d532 9f3e f630 ae3d
00000100: 848d 403e 15da 203e 1997 1ebe 078e 563e
00000110: 6838 0a3e f53b 89bf 1d18 b4bd 915a 063c
00000120: 12a6 01bf b0d8 7ebf a31b 07bf 71be f1bd
00000130: 2d62 c3be 46ab c5be 856e 46bf a702 eabd
00000140: f998 fbbd fd9f 9abd f406 b7be d568 bbbe
00000150: ecf4 40bd 241d 37bf db68 ec3d c935 b2bd
00000160: 5b0c 72bb cfe6 16bf 9b70 c9be eff0 2ebe
00000170: 1074 90be f096 87be 2911 77bf 8567 27be
00000180: 2fe9 c8be 88bb b3be ff52 98be 97aa 6c3d
00000190: 075a 58bd 56cd 4cbf af4b 07bf 1680 933e
000001a0: 251b 783e 6316 913d dcf8 cfbe 583e 67bf
000001b0: 13dd b5bd 1083 66be bc4c 3ebe 40d2 c53d
000001c0: eec8 853e 57a0 89be a72a 5ebd 5a48 56bf
000001d0: 8f93 2c3e 36c3 94bd 3c91 1c3d c985 eabe
000001e0: aa32 82be 3e95 bcbe 84b6 1bbf c420 553e
000001f0: 4f1d c7bd af6e 683e dc0a 9c3d 30e0 903e
00000200: 7127 573e b5ab aa3d cb51 5f3e 8165 323e
00000210: e25a 163d dd6d 1cbe afb2 5f3e 0628 c13e
00000220: 299d 33bf cf76 76be 5d7e 02bf 1385 62be
00000230: 618d 74be 00d8 843d c008 90be 4ba9 9dbe
00000240: 7be7 01bf 8238 e03e 06b3 1dbf 04c0 18bf
00000250: ae32 163e a878 2abe fb4f bf3e 2f8a 8dbc
00000260: 5b85 073e b82b 0f3e bbf0 44bf 1130 8ebd
00000270: cf11 d6be ae28 a7be 8373 07be 0d60 193f
00000280: ad21 68be 6d91 73be 77fd 79be 8c93 84be
00000290: a3c6 283e 04cf 093d 588c 473c bf9b 853e
000002a0: 58e8 593e 2c9b 4e3e 0605 46bf 4fec 58be
000002b0: cab8 b03e cd29 5cbe aa34 6cbe 23c8 263e
000002c0: 3c79 0f3d ca9b 1cbf d5ac 983e 5e8c b7be
000002d0: d9b4 513e 2f63 8d3e 9815 4a3f e5ec 66be
000002e0: 3fae cf3e 5513 a8be 8b10 e33c b49a f63d
000002f0: 6f47 0a3e 6bbf 313e 0291 193e b68b 703d
00000300: aadc 073f fa4c e23e fa9d e33e 945c fb3e
00000310: 4d15 9f3e 4613 e6bd 11e4 b13e df30 523e
00000320: 651d 60bc 4a7f 3bbd 069b f8bd 5b58 153e
00000330: ecac 40be f9e1 54be bbf0 6fbd 0a2a 31be
00000340: 368b 93bd f2da c93e db23 95be 87a3 71be
00000350: 6c48 a73e 1267 86be 609c 143f 2c1d 4a3e
00000360: 97e3 b13e f85a f93d b1e1 10bd ed90 c13d
00000370: a50e 96be 772a 1cbd 457f de3b 2193 863e
00000380: 8132 aabe 48cc 69bd 6dbe 313e fd41 eabd
00000390: 5098 d23e 3a30 33be c117 8fbe c8e9 113f
000003a0: 4dd2 0b3f d117 cc3e e1bf 1abd ec72 763d
000003b0: a52a 883e 073e d3bd 5207 cbbc 9593 a03e
000003c0: 731d 163f 3ce0 aebe 1fff 023f e221 8abe
000003d0: 303e ce3e 7193 813e 3961 003f fcca 21be
000003e0: d707 ab3e 8482 cbbc b8f6 10be 7e75 093f
000003f0: a0eb c43e f5f9 013f 34c9 873e 2e47 1c3f
0.16282156 0.14271216 0.38668787 0.10377307 0.3536134 0.21774943 0.40904647 0.33847383
0.15453151 0.5443056 0.5018209 0.18882439 0.056508962 0.7437634 0.3973703 0.06927515
0.4135951 0.34986833 0.26499623 0.28010857 0.17296843 0.13603893 0.23857322 0.3320426
0.2687508 0.2662276 0.09869018 0.23406313 0.14679803 0.15638529 0.35302073 0.4968498
0.23275195 0.20962934 0.7602992 0.08579192 0.22070897 0.5832946 0.5581409 0.10516092
0.25541872 0.20089754 0.08524233 1.1723456 0.18696621 0.8397553 0.66452324 0.1218523
0.07450531 0.40204665 0.29212102 0.46744248 0.18472874 0.2740512 0.7537058 0.38541007
0.44974932 0.23406996 0.3937812 0.1396544 0.24769893 0.23232867 0.3109347 0.08505432
0.18803984 0.15708192 -0.15487327 0.20952617 0.1349808 -1.0721422 -0.08793662 0.008200304
-0.5064403 -0.9954939 -0.52776545 -0.11803902 -0.3816084 -0.38607234 -0.7751239 -0.11426287
-0.122850366 -0.075500466 -0.35747492 -0.36603418 -0.047108576 -0.7152884 0.11543437 -0.08701665
-0.0036933634 -0.58945936 -0.39343724 -0.17084096 -0.2821355 -0.26482344 -0.9651056 -0.16348083
-0.39240405 -0.35104012 -0.2975082 0.057779875 -0.05282023 -0.8000082 -0.5284986 0.2880866
0.24229105 0.07084348 -0.40619552 -0.90329504 -0.08880057 -0.22510934 -0.1858396 0.09659243
0.2612986 -0.26880142 -0.054239895 -0.8370415 0.16853164 -0.07263796 0.038224444 -0.45805195
-0.2542928 -0.36832613 -0.6082537 0.2081328 -0.09722387 0.22698472 0.07619259 0.2829604
0.2101114 0.08333532 0.21808545 0.17421533 0.036707766 -0.15276285 0.21845506 0.37725848
-0.7016168 -0.2406876 -0.50974065 -0.22121076 -0.23882057 0.06486511 -0.28131676 -0.30793223
-0.50743836 0.43793112 -0.61601293 -0.5966799 0.1466777 -0.16647589 0.37365708 -0.017277805
0.13234465 0.13981521 -0.76929826 -0.06942762 -0.41810462 -0.32648224 -0.13227658 0.59912187
-0.22669096 -0.23785944 -0.24413095 -0.2589382 0.16482024 0.03364469 0.012179457 0.26095387
0.21280038 0.20176381 -0.77351415 -0.21183895 0.34515983 -0.2150032 -0.23066965 0.16287284
0.035027727 -0.61175215 0.2981936 -0.3584928 0.20479144 0.27614734 0.789392 -0.22551306
0.40562627 -0.3282725 0.02771785 0.12041226 0.13503812 0.17358176 0.14996722 0.05872699
0.5307108 0.44199353 0.44456464 0.4909407 0.3107094 -0.11234145 0.34744313 0.20526455
-0.013678883 -0.04577569 -0.121389434 0.14584486 -0.18815964 -0.20789327 -0.058579188 -0.17301193
-0.07204287 0.39424855 -0.29128918 -0.23597537 0.3267244 -0.2625051 0.5805111 0.1973769
0.3474395 0.12175554 -0.035371486 0.094514705 -0.29308048 -0.038126435 0.006790074 0.26284125
-0.33241656 -0.057079583 0.17357798 -0.114383675 0.4113183 -0.17498866 -0.2794781 0.56997347
0.5461777 0.3986192 -0.037780646 0.06016819 0.26595035 -0.10314565 -0.024783764 0.31362596
0.58638686 -0.34155452 0.51170534 -0.26978976 0.4028182 0.253078 0.5014835 -0.15800089
0.3340442 -0.024842508 -0.14156616 0.53694904 0.38461018 0.5077203 0.26520693 0.6104611

kenc0.encoder.8.bias f4 [128]
00000000: 91ec 703e ed97 76be 89cf f3bd bff7 03be
00000010: 440b 893d be70 ba3d bed1 363f c019 4e3e
00000020: 7184 463f 4d98 63be 7421 303d b540 c3bd
00000030: 0193 5a3f 31d2 6bbe 43a2 b3be a9f0 abbe
00000040: 3831 573c a55b 06bf 2c68 6fbe 53ec 763d
00000050: fe3b 7fbd 6f8d 333f 5ba5 0d3f bfbc 533e
00000060: 9711 e5be 0569 f33e 9fe9 64be c4e2 273f
00000070: 6795 013e de21 d9be 85c8 ea3e 11bb 7a3f
00000080: e041 3d3e add2 303f 0c28 193f abf5 e2bd
00000090: 9b3e 383e 07da 1e3e 7db4 f6be a8a2 4f3e
000000a0: e880 e5be ccb9 68bd 6d53 8cbe 3f73 323f
000000b0: 7dc1 3b3f 9a2a 1b3f b17c 1b3e f3f1 34bf
000000c0: de26 853d 69f3 f8be 0ff0 bdbe 898b d7bc
000000d0: 1d73 313e f81d 803e 93df e2be f876 673e
000000e0: 0415 cdbe a063 50bf 6092 a1ba 8be9 303f
000000f0: 4961 b93e 736b 1f3f cd11 2bbe de8c a33e
00000100: e589 67bf 1d53 c33e 0e37 89bd 7bd6 10be
00000110: 5df6 c03e b210 263e 78e3 823e 49bb 4dbe
00000120: 7c7c 093e a46a 3c3f 1721 9bbe d849 063e
00000130: defa a3bc 5ddf 313f 91b1 373f c5e4 d93d
00000140: 09a3 f4bd 3c89 ebbd 5a22 d7be a995 d7bd
00000150: d8c6 0fbf 187e 4c3f 02d4 0bbf 03ee ae3e
00000160: c630 11bf b22b 333f b753 453e ca7d 833f
00000170: 0fec 633f 4050 b3be b478 fd3e ef20 46bb
00000180: 6dd7 dc3e bde9 513e c132 50be a4b3 283d
00000190: bdff d33e 2e59 1b3f 79b9 16be 5352 8bbd
000001a0: 2c73 eb3d c4ea d13e 3156 99be dce1 3cbe
000001b0: 9284 9ebe 8b2d c7be 4417 82bc 3dee cbbd
000001c0: a5d6 63bd 87ba 1abf 3759 e13e c6ec 26bf
000001d0: 1ef0 75be 636e 0cbe 41ce f0be 9845 3d3f
000001e0: fa48 a03e d2d7 a8be c313 b3be 29d6 05bf
000001f0: 4317 30bf 4c50 8cbe 2803 873f 2951 6abe
0.23527743 -0.24081393 -0.119048186 -0.12887476 0.06691602 0.09103535 0.7141379 0.2012701
0.7754584 -0.22226067 0.043000653 -0.09533826 0.8538056 -0.230294 -0.35084733 -0.33582047
0.013134293 -0.5248359 -0.23379582 0.06028397 -0.062313072 0.70137686 0.5533044 0.2067747
-0.44739982 0.4754106 -0.22354744 0.6558039 0.12654649 -0.4240865 0.4585611 0.9794169
0.1848216 0.69071466 0.5982673 -0.11082014 0.17992632 0.15512858 -0.48184577 0.20276892
-0.4482491 -0.056817815 -0.274074 0.697071 0.73342115 0.6061188 0.15184285 -0.70681685
0.06501554 -0.48623207 -0.37097213 -0.026311653 0.17329068 0.25022864 -0.443112 0.22603977
-0.40055096 -0.81402016 -0.0012326948 0.6910636 0.36207035 0.6227333 -0.16706009 0.3194341
-0.90444785 0.38149348 -0.06699954 -0.14144318 0.3768796 0.16217306 0.2556417 -0.20090975
0.13426393 0.7360022 -0.30298683 0.13114107 -0.020017084 0.6948145 0.7175532 0.106393375
-0.11945159 -0.11500785 -0.42018396 -0.10526592 -0.56162786 0.79879904 -0.54620373 0.34165964
-0.5671505 0.6998855 0.19270216 1.0272763 0.8903207 -0.35022163 0.49506152 -0.0030232032
0.43133107 0.2049932 -0.20331861 0.041186944 0.4140605 0.6068295 -0.1471919 -0.068028115
0.11496577 0.40999424 -0.2994857 -0.18445534 -0.30960518 -0.38901934 -0.015880235 -0.0995755
-0.055624623 -0.6044087 0.44013378 -0.6520504 -0.24017379 -0.13713984 -0.4703236 0.73934317
0.31305677 -0.32977158 -0.34976014 -0.5227991 -0.68785495 -0.27405012 1.0547838 -0.22882523
