hyperglue/weights/weights_A100_V2.pth (torch, 614439 bytes, 160 tensors)

penc0.lin.weight f4 [36, 100]
00000000: a373 83bd f2b7 ab3d 07a0 323e a5f4 c6c0
00000010: 2bcd 00bf 1dcc f140 2637 b63e cb11 813d
00000020: 5f29 87bd 906a 5c3d 99ec 46bc d003 7bbd
00000030: 935e 0f3e 6afb 44c0 a699 1dbf ae38 1540
00000040: fda7 65be b51f 2b3e 12ae c8be cb85 c6bf
00000050: 05bc b1bd 1f2e 8cbc 6360 9b3c a6a4 2fbf
00000060: ddfb 393f 2f1f 383f 058b 263e 8d84 1840
00000070: c0e2 843f befc 26c0 214c 433d a21c 00bc
00000080: 04e4 e7bd 6643 753f 036a 013e 0559 0abf
00000090: accf 293e 8724 7d40 b173 913e 4a32 72c0
000000a0: ddcf 0c3d 4d1f 953d 395e 833d 5093 483f
000000b0: 5096 4ebf 1324 ee3b 0407 14bd 44f8 6440
000000c0: 5ff9 d1be 646c 43c0 8cc4 5d3d 61e6 073b
000000d0: 7016 cebd 24b9 ab3e f6e1 58bf b632 a7bf
000000e0: ef4e 1b3e 42c8 2840 f31e d9be 6bb6 83c0
000000f0: a29f 823d c321 63bd b3e9 14be 62e7 053f
00000100: 191d 9bbf 95c9 00c0 b8fd b1be 0c12 3140
00000110: 4bce 5bbf 85b5 92c0 30de 1f3e fd1a 843d
00000120: 0fb9 bc3a 55ef 6e3f 7c4f e83f 170a 373e
00000130: d6ac 3ebe d609 3d40 ddd1 d63f ca51 11c0
00000140: 1588 1a3e f55f 2f3e 1731 e4bd fd14 673f
00000150: 5d69 9b3f bf13 12bf 0116 7dbe ff25 2b40
00000160: e6c1 9a3f 72c1 3cc0 0e1b e13d 3556 143d
00000170: 429d 13be 9896 983f 40c4 c9be 34ca aabf
00000180: 4beb c7bd 7d85 4040 c47e 1bbe 33ed 57c0
00000190: 6388 1cbe 9971 cbbd d5fd edba 8e79 91be
000001a0: e092 86c0 ce89 95bf fc96 96bd bb41 ab3d
000001b0: 9745 333d e353 58bd 18f7 55be 792b 973d
000001c0: 0b17 aabd 0a7f 61bf d6d8 02c0 07bb c33e
000001d0: 0d70 693d d131 1bbf 0261 9f3f f6ef 913f
000001e0: 5c2b b93d b3af 0e3e 9ec9 8ebd 90e3 be40
000001f0: 4163 2c40 832a c03e 817c 2a3e 77e9 c340
00000200: f869 b440 7e1d 5c3f 18cd 43be 5df6 cb3d
00000210: ba0a 89bc 19e0 3dc0 db4a 95bf 0af4 00c0
00000220: e852 bebe fa85 2fc0 e4db be3f 7dac b5bf
00000230: 52d0 6fbe f6bd ce3e 157a 74bd 8f77 75c0
00000240: bdc1 9640 d446 efbe 7160 e53d b887 64c0
00000250: 9d47 c240 5059 a83d 762d aebd 8d9b 8f3c
00000260: 2e29 883d d281 b03f e6e6 23c0 5aa4 47bf
00000270: ca06 64bd 07ea ae3f 5e97 c4be ea24 adbd
00000280: ba65 e9bd 8597 dd3d d03e 3b3e bdc2 4fbf
00000290: cc29 80bd a5fb 0840 4b4b d63e 36f3 1bbf
000002a0: da4c 0140 7ffb 1440 83a1 37be 7852 4f3d
000002b0: 952b 363d 1b87 2dbe 1fa5 babf 70e2 bf3d
000002c0: 30dd 053e e928 64be 8bf1 2f3f 55d9 c63e
000002d0: 1d34 cd3d f5c6 a63d 8747 87bd 571b 1440
000002e0: d396 41bc c578 c3be 6b9a 98be 7e64 0d40
000002f0: 9d8b e23f 45ba 4d3e 55f6 1bbe 2439 a83e
00000300: f13f 93bd 2d9b a3bf 8cdf 0840 651e 263f
00000310: 424f a73e b689 75bf 7883 4f40 959e 683f
00000320: 2ad0 5dbe d08c cfbe 6cc0 e13d b2ad 8cbe
00000330: 5965 debf f15a 163f 8fd4 123d 1bcc a0bd
00000340: 80a6 a83c 0322 20bd 40be 12be 721f fabe
00000350: 3afa 523e a372 5c3f 4fe2 2fc0 d021 6440
00000360: 5495 e43d 64fe 683f d792 e1bf d607 4c40
00000370: fcac 90be 4710 01bf 6fae fcbc d1f9 1dc0
00000380: 50a6 04c0 0eae 503e ce02 dbbe 5451 1cc0
00000390: fd07 94bf 45c7 c3bd 1b1e ee3c 4ca4 b8be
000003a0: 29a7 693c 920e 9040 0a2b 0c3f 384d d9bf
000003b0: 50e5 4d3e 02d0 8640 5d7d b43f 78f3 edbf
000003c0: 53fb f9bd bf0c dfbd 94de 573e 62c8 42c0
000003d0: 3c92 d73f 8517 a940 158a 1abf b13c 25c0
000003e0: 3911 0b40 9a3f 8e40 f76e 90bd 9277 5bbe
000003f0: c316 fa3c 1193 3d3f 19bf 993f d1bc eabf
-0.0641854 0.08384694 0.17443858 -6.217364 -0.5031306 7.556166 0.3558895 0.06302222
-0.06599688 0.053812563 -0.01214137 -0.061282933 0.14000921 -3.077845 -0.61562574 2.3315845
-0.22427364 0.16711314 -0.39195305 -1.550958 -0.0867844 -0.017111836 0.01896686 -0.6861061
0.7264994 0.7192258 0.16263969 2.3830903 1.0381699 -2.6091762 0.047680024 -0.007819327
-0.113227874 0.95805967 0.12638097 -0.54042083 0.16583127 3.9553545 0.28408578 -3.7843194
0.03437792 0.07281361 0.06414456 0.7834978 -0.8069811 0.007267484 -0.036139503 3.577653
-0.41010568 -3.0534906 0.05414252 0.0020736682 -0.10062873 0.3353969 -0.8471979 -1.3062351
0.1516683 2.6372228 -0.42406425 -4.116018 0.06378104 -0.05545212 -0.14542274 0.5230619
-1.2118255 -2.0123036 -0.34763885 2.7667265 -0.85861653 -4.584658 0.15612102 0.0645046
0.0014398413 0.9333394 1.8149257 0.17874943 -0.18620619 2.9537253 1.6782795 -2.270617
0.15090974 0.17126448 -0.11142176 0.902664 1.2141529 -0.5706138 -0.24715425 2.674194
1.2090423 -2.949307 0.109914884 0.036215026 -0.14415458 1.1920958 -0.3940754 -1.3342957
-0.097616754 3.0081475 -0.15185076 -3.3738525 -0.15286402 -0.099337764 -0.0018157313 -0.2841305
-4.205429 -1.168268 -0.07353017 0.083621465 0.043767538 -0.052814376 -0.2089504 0.073813386
-0.08305176 -0.8808447 -2.0444846 0.38228628 0.056991626 -0.6062289 1.245148 1.1401355
0.09041473 0.13934211 -0.06972049 5.9652786 2.693558 0.37532434 0.16649057 6.122249
5.6379356 0.859825 -0.19121206 0.099590994 -0.016728748 -2.9668028 -1.1663469 -2.014895
-0.37172627 -2.7425523 1.4910855 -1.4193264 -0.23419312 0.40379304 -0.05968674 -3.8354223
4.7111497 -0.46733725 0.11200035 -3.5707836 6.071242 0.0822016 -0.08504765 0.017530227
0.066484794 1.3789618 -2.560968 -0.77985156 -0.055670537 1.366517 -0.38396734 -0.084543064
-0.11396356 0.10819916 0.1828568 -0.8115652 -0.06257972 2.1403592 0.4185432 -0.60917985
2.0203156 2.32785 -0.17932706 0.050615758 0.044475157 -0.1694607 -1.4581641 0.093693614
0.13072658 -0.22281231 0.6872794 0.38837686 0.100197054 0.08143417 -0.0660544 2.3141687
-0.011815744 -0.38178077 -0.29805312 2.2092586 1.7698857 0.20090587 -0.15230687 0.32856095
-0.0718993 -1.2781731 2.1386442 0.6489013 0.32677656 -0.95913255 3.2423992 0.90866977
-0.2166144 -0.4053712 0.1102303 -0.2747627 -1.7374679 0.58732516 0.035847243 -0.0785143
0.020587206 -0.039094936 -0.14330387 -0.48852116 0.20603266 0.8611242 -2.7481878 3.5645638
0.111612946 0.9101317 -1.7622937 3.1879783 -0.28256977 -0.5041546 -0.030844895 -2.4683726
-2.072651 0.20378897 -0.42775577 -2.4424639 -1.1564938 -0.09559492 0.02906709 -0.3606285
0.0142610455 4.5017786 0.5475317 -1.697669 0.20107007 4.2128916 1.4100758 -1.8589926
-0.122061394 -0.10891103 0.21081 -3.0434804 1.6841502 5.284121 -0.60366946 -2.5818293
2.1729262 4.445264 -0.07052415 -0.21432331 0.030528432 0.7405253 1.2011443 -1.8338872

penc0.bn.weight f4 [36]
00000000: 2a0d 983f 4237 8d3f 5c7e 923f 015b ae3f
00000010: f028 463f be76 873f c038 9f3f 8dba 753f
00000020: 4673 5b3f 7f10 b63f 8817 623f 9a05 953f
00000030: 32a7 953f d775 a83f bfae 893f 8139 803f
00000040: cc9a 803f 3b18 833f 61a5 5f3f f290 ad3f
00000050: 440d 7b3f 978b 843f cffa 103f d0e2 8c3f
00000060: c90e ac3f 7a5a 843f b864 773f 5f5e 9b3f
00000070: dac7 b63f 7071 8f3f 00b2 993f fab9 833f
00000080: c4b2 a63f eda3 3c3f ee8f 853f ea11 a33f
1.1879017 1.1032488 1.1444812 1.3621522 0.77406216 1.0583112 1.2439194 0.9598778
0.8572277 1.4223784 0.88317156 1.1642334 1.1691649 1.3160962 1.0756453 1.0017549
1.004724 1.024177 0.87361723 1.3559859 0.98067117 1.03551 0.56632704 1.1006718
1.3442012 1.0340111 0.9663806 1.2138175 1.427974 1.1206493 1.2007446 1.029113
1.3023305 0.7368763 1.0434549 1.2739842

penc0.bn.bias f4 [36]
00000000: 7f62 bebe dcb8 89bc e93c 34bd d32c 8c3d
00000010: e3ae adbc 5835 fd3c 5f7f 213d 09ff 9f3d
00000020: 1878 61be f616 c53d 3cc9 d93d 9c82 7f3e
00000030: 42d8 72be 2146 5dbe 3c4d 99be 37d6 52bd
00000040: 5e01 62be bfbb 8d3d 6e79 15be edd0 bfbe
00000050: b2d3 533d 2ba7 1f3e 7679 12be 05fa afbd
00000060: 134d cdbd 335b a63c 92dd 4dbe e9ba 7f3d
00000070: 1fa6 18be 4153 1d3d c2fc ac3b 1d38 263c
00000080: 62fb 21be 5bae bbbc 233a 90bb e532 60bd
-0.37184522 -0.01681178 -0.0440034 0.06844487 -0.021201557 0.030909225 0.03942811 0.07812316
-0.22018468 0.0962352 0.106340855 0.24952167 -0.23715308 -0.21608783 -0.29941738 -0.051473822
-0.22070834 0.06920575 -0.14597103 -0.37464085 0.05171556 0.15591113 -0.14304146 -0.08592609
-0.10024466 0.020307159 -0.20104054 0.06243411 -0.1490712 0.038409475 0.0052791545 0.010145214
-0.15818551 -0.022910288 -0.0044014617 -0.054736037

penc0.bn.running_mean f4 [36]
00000000: 0c3c 3abe 664c 8f3e 9066 bfbd bcd3 38c0
00000010: 3887 ea3e 6c49 43be 956d efbf 0d8a e33d
00000020: 7530 c8be 04c8 0cc0 f3d4 38bf 6a0a 23c0
00000030: 9152 e3bf 173d bebf 74ac 9cbf fd40 1c3e
00000040: d6b7 eebf 908d c73f 09fe a8bf d12f 17bf
00000050: 6c83 d03c 97ed af40 dc5f 0d40 d508 afbf
00000060: 58ed bdbf c6a5 47be 3e0c 043f ddd4 47bf
00000070: 70fc 4cbf 2c8c c7bf 2cf2 42bf 767b 0b40
00000080: 53d3 13c0 15df a73f 94e8 1e40 ab9f 9abf
-0.18186969 0.27987975 -0.09345734 -2.8879232 0.4580629 -0.19070977 -1.8705317 0.111103155
-0.3909947 -2.199708 -0.72199935 -2.5475106 -1.7759572 -1.4862393 -1.2240129 0.15259166
-1.8649852 1.5590076 -1.3202525 -0.5905734 0.025453292 5.4977527 2.2089758 -1.367457
-1.4838057 -0.19496831 0.5158118 -0.7805918 -0.8007269 -1.5589652 -0.76150775 2.1794105
-2.3097732 1.3114954 2.4829454 -1.2079977

penc0.bn.running_var f4 [36]
00000000: e1fb 0f3f 24d2 813f 8778 2c40 2f17 ce40
00000010: 6677 0440 357c 2a40 75b6 5040 66b8 bd3f
00000020: 3a3b 8240 585a 5240 9529 ef3f d6ff d23f
00000030: d9d8 8440 7958 4040 83fb 3f40 b2db 2940
00000040: 0061 9540 aa0c d43f 4159 7240 45a7 bc3e
00000050: 6323 9d3f 0978 c440 ab04 0a40 0746 453f
00000060: 8da5 323f 4c88 b83f 2f9d 2440 c9d1 e83e
00000070: 07d4 aa3f 9617 5040 1b14 3940 69fb 1b40
00000080: 8f38 d840 0704 1740 244a 0640 fcc6 1f40
0.5624371 1.0142255 2.6948564 6.44033 2.0697875 2.663831 3.2611363 1.4821899
4.06973 3.2867641 1.8684565 1.6484325 4.1514707 3.0054 2.999726 2.6540341
4.668091 1.6566365 3.7866976 0.36846367 1.2276424 6.1396527 2.156535 0.7705998
0.6978386 1.4416595 2.5720937 0.45472553 1.3345956 3.2514396 2.8918521 2.4372199
6.756904 2.3596208 2.0982752 2.49652

penc1.lin.weight f4 [36, 100]
00000000: a373 83bd f2b7 ab3d 07a0 323e a5f4 c6c0
00000010: 2bcd 00bf 1dcc f140 2637 b63e cb11 813d
00000020: 5f29 87bd 906a 5c3d 99ec 46bc d003 7bbd
00000030: 935e 0f3e 6afb 44c0 a699 1dbf ae38 1540
00000040: fda7 65be b51f 2b3e 12ae c8be cb85 c6bf
00000050: 05bc b1bd 1f2e 8cbc 6360 9b3c a6a4 2fbf
00000060: ddfb 393f 2f1f 383f 058b 263e 8d84 1840
00000070: c0e2 843f befc 26c0 214c 433d a21c 00bc
00000080: 04e4 e7bd 6643 753f 036a 013e 0559 0abf
00000090: accf 293e 8724 7d40 b173 913e 4a32 72c0
000000a0: ddcf 0c3d 4d1f 953d 395e 833d 5093 483f
000000b0: 5096 4ebf 1324 ee3b 0407 14bd 44f8 6440
000000c0: 5ff9 d1be 646c 43c0 8cc4 5d3d 61e6 073b
000000d0: 7016 cebd 24b9 ab3e f6e1 58bf b632 a7bf
000000e0: ef4e 1b3e 42c8 2840 f31e d9be 6bb6 83c0
000000f0: a29f 823d c321 63bd b3e9 14be 62e7 053f
00000100: 191d 9bbf 95c9 00c0 b8fd b1be 0c12 3140
00000110: 4bce 5bbf 85b5 92c0 30de 1f3e fd1a 843d
00000120: 0fb9 bc3a 55ef 6e3f 7c4f e83f 170a 373e
00000130: d6ac 3ebe d609 3d40 ddd1 d63f ca51 11c0
00000140: 1588 1a3e f55f 2f3e 1731 e4bd fd14 673f
00000150: 5d69 9b3f bf13 12bf 0116 7dbe ff25 2b40
00000160: e6c1 9a3f 72c1 3cc0 0e1b e13d 3556 143d
00000170: 429d 13be 9896 983f 40c4 c9be 34ca aabf
00000180: 4beb c7bd 7d85 4040 c47e 1bbe 33ed 57c0
00000190: 6388 1cbe 9971 cbbd d5fd edba 8e79 91be
000001a0: e092 86c0 ce89 95bf fc96 96bd bb41 ab3d
000001b0: 9745 333d e353 58bd 18f7 55be 792b 973d
000001c0: 0b17 aabd 0a7f 61bf d6d8 02c0 07bb c33e
000001d0: 0d70 693d d131 1bbf 0261 9f3f f6ef 913f
000001e0: 5c2b b93d b3af 0e3e 9ec9 8ebd 90e3 be40
000001f0: 4163 2c40 832a c03e 817c 2a3e 77e9 c340
00000200: f869 b440 7e1d 5c3f 18cd 43be 5df6 cb3d
00000210: ba0a 89bc 19e0 3dc0 db4a 95bf 0af4 00c0
00000220: e852 bebe fa85 2fc0 e4db be3f 7dac b5bf
00000230: 52d0 6fbe f6bd ce3e 157a 74bd 8f77 75c0
00000240: bdc1 9640 d446 efbe 7160 e53d b887 64c0
00000250: 9d47 c240 5059 a83d 762d aebd 8d9b 8f3c
00000260: 2e29 883d d281 b03f e6e6 23c0 5aa4 47bf
00000270: ca06 64bd 07ea ae3f 5e97 c4be ea24 adbd
00000280: ba65 e9bd 8597 dd3d d03e 3b3e bdc2 4fbf
00000290: cc29 80bd a5fb 0840 4b4b d63e 36f3 1bbf
000002a0: da4c 0140 7ffb 1440 83a1 37be 7852 4f3d
000002b0: 952b 363d 1b87 2dbe 1fa5 babf 70e2 bf3d
000002c0: 30dd 053e e928 64be 8bf1 2f3f 55d9 c63e
000002d0: 1d34 cd3d f5c6 a63d 8747 87bd 571b 1440
000002e0: d396 41bc c578 c3be 6b9a 98be 7e64 0d40
000002f0: 9d8b e23f 45ba 4d3e 55f6 1bbe 2439 a83e
00000300: f13f 93bd 2d9b a3bf 8cdf 0840 651e 263f
00000310: 424f a73e b689 75bf 7883 4f40 959e 683f
00000320: 2ad0 5dbe d08c cfbe 6cc0 e13d b2ad 8cbe
00000330: 5965 debf f15a 163f 8fd4 123d 1bcc a0bd
00000340: 80a6 a83c 0322 20bd 40be 12be 721f fabe
00000350: 3afa 523e a372 5c3f 4fe2 2fc0 d021 6440
00000360: 5495 e43d 64fe 683f d792 e1bf d607 4c40
00000370: fcac 90be 4710 01bf 6fae fcbc d1f9 1dc0
00000380: 50a6 04c0 0eae 503e ce02 dbbe 5451 1cc0
00000390: fd07 94bf 45c7 c3bd 1b1e ee3c 4ca4 b8be
000003a0: 29a7 693c 920e 9040 0a2b 0c3f 384d d9bf
000003b0: 50e5 4d3e 02d0 8640 5d7d b43f 78f3 edbf
000003c0: 53fb f9bd bf0c dfbd 94de 573e 62c8 42c0
000003d0: 3c92 d73f 8517 a940 158a 1abf b13c 25c0
000003e0: 3911 0b40 9a3f 8e40 f76e 90bd 9277 5bbe
000003f0: c316 fa3c 1193 3d3f 19bf 993f d1bc eabf
-0.0641854 0.08384694 0.17443858 -6.217364 -0.5031306 7.556166 0.3558895 0.06302222
-0.06599688 0.053812563 -0.01214137 -0.061282933 0.14000921 -3.077845 -0.61562574 2.3315845
-0.22427364 0.16711314 -0.39195305 -1.550958 -0.0867844 -0.017111836 0.01896686 -0.6861061
0.7264994 0.7192258 0.16263969 2.3830903 1.0381699 -2.6091762 0.047680024 -0.007819327
-0.113227874 0.95805967 0.12638097 -0.54042083 0.16583127 3.9553545 0.28408578 -3.7843194
0.03437792 0.07281361 0.06414456 0.7834978 -0.8069811 0.007267484 -0.036139503 3.577653
-0.41010568 -3.0534906 0.05414252 0.0020736682 -0.10062873 0.3353969 -0.8471979 -1.3062351
0.1516683 2.6372228 -0.42406425 -4.116018 0.06378104 -0.05545212 -0.14542274 0.5230619
-1.2118255 -2.0123036 -0.34763885 2.7667265 -0.85861653 -4.584658 0.15612102 0.0645046
0.0014398413 0.9333394 1.8149257 0.17874943 -0.18620619 2.9537253 1.6782795 -2.270617
0.15090974 0.17126448 -0.11142176 0.902664 1.2141529 -0.5706138 -0.24715425 2.674194
1.2090423 -2.949307 0.109914884 0.036215026 -0.14415458 1.1920958 -0.3940754 -1.3342957
-0.097616754 3.0081475 -0.15185076 -3.3738525 -0.15286402 -0.099337764 -0.0018157313 -0.2841305
-4.205429 -1.168268 -0.07353017 0.083621465 0.043767538 -0.052814376 -0.2089504 0.073813386
-0.08305176 -0.8808447 -2.0444846 0.38228628 0.056991626 -0.6062289 1.245148 1.1401355
0.09041473 0.13934211 -0.06972049 5.9652786 2.693558 0.37532434 0.16649057 6.122249
5.6379356 0.859825 -0.19121206 0.099590994 -0.016728748 -2.9668028 -1.1663469 -2.014895
-0.37172627 -2.7425523 1.4910855 -1.4193264 -0.23419312 0.40379304 -0.05968674 -3.8354223
4.7111497 -0.46733725 0.11200035 -3.5707836 6.071242 0.0822016 -0.08504765 0.017530227
0.066484794 1.3789618 -2.560968 -0.77985156 -0.055670537 1.366517 -0.38396734 -0.084543064
-0.11396356 0.10819916 0.1828568 -0.8115652 -0.06257972 2.1403592 0.4185432 -0.60917985
2.0203156 2.32785 -0.17932706 0.050615758 0.044475157 -0.1694607 -1.4581641 0.093693614
0.13072658 -0.22281231 0.6872794 0.38837686 0.100197054 0.08143417 -0.0660544 2.3141687
-0.011815744 -0.38178077 -0.29805312 2.2092586 1.7698857 0.20090587 -0.15230687 0.32856095
-0.0718993 -1.2781731 2.1386442 0.6489013 0.32677656 -0.95913255 3.2423992 0.90866977
-0.2166144 -0.4053712 0.1102303 -0.2747627 -1.7374679 0.58732516 0.035847243 -0.0785143
0.020587206 -0.039094936 -0.14330387 -0.48852116 0.20603266 0.8611242 -2.7481878 3.5645638
0.111612946 0.9101317 -1.7622937 3.1879783 -0.28256977 -0.5041546 -0.030844895 -2.4683726
-2.072651 0.20378897 -0.42775577 -2.4424639 -1.1564938 -0.09559492 0.02906709 -0.3606285
0.0142610455 4.5017786 0.5475317 -1.697669 0.20107007 4.2128916 1.4100758 -1.8589926
-0.122061394 -0.10891103 0.21081 -3.0434804 1.6841502 5.284121 -0.60366946 -2.5818293
2.1729262 4.445264 -0.07052415 -0.21432331 0.030528432 0.7405253 1.2011443 -1.8338872

penc1.bn.weight f4 [36]
00000000: 2a0d 983f 4237 8d3f 5c7e 923f 015b ae3f
00000010: f028 463f be76 873f c038 9f3f 8dba 753f
00000020: 4673 5b3f 7f10 b63f 8817 623f 9a05 953f
00000030: 32a7 953f d775 a83f bfae 893f 8139 803f
00000040: cc9a 803f 3b18 833f 61a5 5f3f f290 ad3f
00000050: 440d 7b3f 978b 843f cffa 103f d0e2 8c3f
00000060: c90e ac3f 7a5a 843f b864 773f 5f5e 9b3f
00000070: dac7 b63f 7071 8f3f 00b2 993f fab9 833f
00000080: c4b2 a63f eda3 3c3f ee8f 853f ea11 a33f
1.1879017 1.1032488 1.1444812 1.3621522 0.77406216 1.0583112 1.2439194 0.9598778
0.8572277 1.4223784 0.88317156 1.1642334 1.1691649 1.3160962 1.0756453 1.0017549
1.004724 1.024177 0.87361723 1.3559859 0.98067117 1.03551 0.56632704 1.1006718
1.3442012 1.0340111 0.9663806 1.2138175 1.427974 1.1206493 1.2007446 1.029113
1.3023305 0.7368763 1.0434549 1.2739842

penc1.bn.bias f4 [36]
00000000: 7f62 bebe dcb8 89bc e93c 34bd d32c 8c3d
00000010: e3ae adbc 5835 fd3c 5f7f 213d 09ff 9f3d
00000020: 1878 61be f616 c53d 3cc9 d93d 9c82 7f3e
00000030: 42d8 72be 2146 5dbe 3c4d 99be 37d6 52bd
00000040: 5e01 62be bfbb 8d3d 6e79 15be edd0 bfbe
00000050: b2d3 533d 2ba7 1f3e 7679 12be 05fa afbd
00000060: 134d cdbd 335b a63c 92dd 4dbe e9ba 7f3d
00000070: 1fa6 18be 4153 1d3d c2fc ac3b 1d38 263c
00000080: 62fb 21be 5bae bbbc 233a 90bb e532 60bd
-0.37184522 -0.01681178 -0.0440034 0.06844487 -0.021201557 0.030909225 0.03942811 0.07812316
-0.22018468 0.0962352 0.106340855 0.24952167 -0.23715308 -0.21608783 -0.29941738 -0.051473822
-0.22070834 0.06920575 -0.14597103 -0.37464085 0.05171556 0.15591113 -0.14304146 -0.08592609
-0.10024466 0.020307159 -0.20104054 0.06243411 -0.1490712 0.038409475 0.0052791545 0.010145214
-0.15818551 -0.022910288 -0.0044014617 -0.054736037

penc1.bn.running_mean f4 [36]
00000000: 0c3c 3abe 664c 8f3e 9066 bfbd bcd3 38c0
00000010: 3887 ea3e 6c49 43be 956d efbf 0d8a e33d
00000020: 7530 c8be 04c8 0cc0 f3d4 38bf 6a0a 23c0
00000030: 9152 e3bf 173d bebf 74ac 9cbf fd40 1c3e
00000040: d6b7 eebf 908d c73f 09fe a8bf d12f 17bf
00000050: 6c83 d03c 97ed af40 dc5f 0d40 d508 afbf
00000060: 58ed bdbf c6a5 47be 3e0c 043f ddd4 47bf
00000070: 70fc 4cbf 2c8c c7bf 2cf2 42bf 767b 0b40
00000080: 53d3 13c0 15df a73f 94e8 1e40 ab9f 9abf
-0.18186969 0.27987975 -0.09345734 -2.8879232 0.4580629 -0.19070977 -1.8705317 0.111103155
-0.3909947 -2.199708 -0.72199935 -2.5475106 -1.7759572 -1.4862393 -1.2240129 0.15259166
-1.8649852 1.5590076 -1.3202525 -0.5905734 0.025453292 5.4977527 2.2089758 -1.367457
-1.4838057 -0.19496831 0.5158118 -0.7805918 -0.8007269 -1.5589652 -0.76150775 2.1794105
-2.3097732 1.3114954 2.4829454 -1.2079977

penc1.bn.running_var f4 [36]
00000000: e1fb 0f3f 24d2 813f 8778 2c40 2f17 ce40
00000010: 6677 0440 357c 2a40 75b6 5040 66b8 bd3f
00000020: 3a3b 8240 585a 5240 9529 ef3f d6ff d23f
00000030: d9d8 8440 7958 4040 83fb 3f40 b2db 2940
00000040: 0061 9540 aa0c d43f 4159 7240 45a7 bc3e
00000050: 6323 9d3f 0978 c440 ab04 0a40 0746 453f
00000060: 8da5 323f 4c88 b83f 2f9d 2440 c9d1 e83e
00000070: 07d4 aa3f 9617 5040 1b14 3940 69fb 1b40
00000080: 8f38 d840 0704 1740 244a 0640 fcc6 1f40
0.5624371 1.0142255 2.6948564 6.44033 2.0697875 2.663831 3.2611363 1.4821899
4.06973 3.2867641 1.8684565 1.6484325 4.1514707 3.0054 2.999726 2.6540341
4.668091 1.6566365 3.7866976 0.36846367 1.2276424 6.1396527 2.156535 0.7705998
0.6978386 1.4416595 2.5720937 0.45472553 1.3345956 3.2514396 2.8918521 2.4372199
6.756904 2.3596208 2.0982752 2.49652

kenc0.encoder.0.weight f4 [32, 4, 1]
00000000: 06cc 303d ec52 ae3d 02af c23d 9609 6ec0
00000010: bbef 37bf b2da d8be 9f31 48bf 6021 1e3f
00000020: 504b be3d 6d3f 943d b25a 2e3d 77da b4c0
00000030: 5528 5abe b884 cd3d fbee c03e 1723 c73f
00000040: f76a c03d a814 053d 9bf1 703c 40ce b6c0
00000050: 231a 65bf 67eb a43e 562c 74be b147 a6be
00000060: d1af 003d d017 d33d d577 de3c 4217 dcc0
00000070: 40d7 2d3d 8900 cfbd d7e1 c73d ab75 ac40
00000080: 5e05 30bd d350 203d edd1 b13e 6964 2740
00000090: 1bb2 0d3d fb16 123e 9475 16bf c857 ae3f
000000a0: 92f9 de3c 83bd 8bbc e10a 123d 43a5 7f40
000000b0: d20d 8fbc c81f 02bf 6bfb b33f 72b3 7f3e
000000c0: 4877 b03d c56c c9bd 066b 363d 8458 4440
000000d0: 8a39 f63c 7dd9 7a3d c092 74bd d25a bac0
000000e0: 8418 e3bc 29f7 cd3d 0745 983b f193 a840
000000f0: 8884 473d fc3b 583d f5b5 d83c 5bb3 cbc0
00000100: 6e47 323d 9ced 243d 591a efbb a79c c0c0
00000110: 3aa0 ce3e 2ae5 1b3f 5b09 3e3f 4c8e 8a3d
00000120: b6cd 543d 6c07 143e 2223 c0bc bc27 b8c0
00000130: 1c28 663d 693f edbd b82b 6b3d 78b2 c740
00000140: de7e 7d3d 5a43 c9bd 8bb7 a03d f467 b040
00000150: 9ff5 843f ef58 3dbf a5d1 f4be 0617 b7be
00000160: 1def 513d 9510 f33c 9d0f 2f3c ceb7 aec0
00000170: 38fe 6fbd be1c 523d 196c bc3d d4ea 5340
00000180: 0fb8 9bbc d55c 76bd cbea e1bd 5c78 18c0
00000190: 189b 59bf 92fe 823f 82bf 5f3e ab20 cc3e
000001a0: b53e 86be f2f6 93be 1015 933e c700 0f40
000001b0: 9bd2 4d3c f602 b53d 7e86 ecbc f84d afc0
000001c0: 5dfd 633d 41e9 cdbd 0abe 9e3d 84c2 b840
000001d0: 94a2 b33d 125b 9d3d 2751 0f3d 5322 c7c0
000001e0: ce1e dc3e 56c5 be3f 2a57 00bf 70ef b5be
000001f0: 2e9e 043f ff15 a0be c5b6 e1bd 984b db3f
0.043163322 0.0851191 0.09506036 -3.719335 -0.71850175 -0.4235435 -0.78200716 0.61769676
0.092917085 0.0723866 0.042566963 -5.651668 -0.21304448 0.1003508 0.37682328 1.5557584
0.09395402 0.032490402 0.014706041 -5.712677 -0.89493006 0.32210848 -0.23845038 -0.3247657
0.03141767 0.10307276 0.02715675 -6.877839 0.042441607 -0.10107524 0.097598724 5.389364
-0.04297387 0.03913958 0.34730473 2.6155035 0.034593683 0.14266579 -0.5877316 1.3620539
0.027218614 -0.01705814 0.035654906 3.9944618 -0.017462645 -0.50829744 1.4061102 0.24970797
0.08616501 -0.09835199 0.04453566 3.0679026 0.030056734 0.06124257 -0.059710264 -5.8235865
-0.02772165 0.10056908 0.0046469006 5.2680593 0.048710376 0.05279158 0.026453951 -6.365644
0.043525152 0.040265664 -0.007296842 -6.0191226 0.40356618 0.6089655 0.74233025 0.06765422
0.051953994 0.14455956 -0.023454253 -5.7548504 0.056190595 -0.1158436 0.05741474 6.2405357
0.061888568 -0.098272994 0.07847508 5.5126896 1.0387458 -0.73963827 -0.47816196 -0.35759753
0.051253427 0.029670993 0.010684875 -5.459937 -0.05859205 0.051296942 0.092003055 3.3112078
-0.019008664 -0.060147125 -0.11031111 -2.3823462 -0.8500228 1.0233939 0.21850398 0.39868674
-0.26219717 -0.28899342 0.28727007 2.2344224 0.012562419 0.088384554 -0.028872725 -5.4782677
0.055661548 -0.10054255 0.07751091 5.7737446 0.08771244 0.07683386 0.034989502 -6.22294
0.42992252 1.4903972 -0.50133 -0.3553424 0.51803863 -0.31266782 -0.11021189 1.7132444

kenc0.encoder.0.bias f4 [32]
00000000: dd07 b13e 0458 51be 1893 3bbf de4b b6bc
00000010: fa76 f9be 7471 32be ae77 ed3d 5a0d 5abf
00000020: 5450 533f 862b babe 3269 0f3e 7b46 293f
00000030: c3bc 873f 69d0 a9bc f963 503f e2e2 f33e
00000040: 4b39 0fbf da03 4abd 2e7f 703f fbf6 71be
00000050: 9de1 78bd a16c 0abf a698 aabe 71af a2be
00000060: bec2 62bf e6b8 a7bd c502 87bf 22b0 2dbf
00000070: 863b 283f 20f9 323f 84d5 8c3d dced d8bd
0.34576312 -0.20443732 -0.7327132 -0.022252973 -0.48723584 -0.17426091 0.11595093 -0.8517662
0.82544446 -0.3636133 0.14004973 0.6612317 1.060448 -0.02072926 0.81402546 0.47634035
-0.559468 -0.04932008 0.9394406 -0.23629372 -0.060762037 -0.54072005 -0.33319587 -0.31774476
-0.88578403 -0.081895635 -1.054772 -0.6784688 0.65715826 0.69911385 0.068766624 -0.10592243

kenc0.encoder.1.weight f4 [32]
00000000: 3228 053f 0b19 b93e 3b5d 503f 5d51 153f
00000010: 3158 793f 7d6c 093e f1ce e53f e288 a73f
00000020: c35c 113f 0784 1f3f 384c 7e3f ef19 f23e
00000030: f063 613f cdcd 4a3f 88da 993f a3a5 d73f
00000040: c813 973f b602 a53d d0e3 673f 2ba8 e63f
00000050: ec79 0640 19c9 bf3e 43ce 373f f6c9 683f
00000060: 43a2 523f 8dbb be3e 026d 283f d90e 4f3f
00000070: 035e 0640 8330 ad3f 531c 123f 26ca 253f
0.5201446 0.3615192 0.8139226 0.58327276 0.97400194 0.13420291 1.7953779 1.3088648
0.5678217 0.6231083 0.9933505 0.4728541 0.8804312 0.7922028 1.2019815 1.6847423
1.1802912 0.08057158 0.9058199 1.8020071 2.1011915 0.37458113 0.71799105 0.9093317
0.8227884 0.37252465 0.6579133 0.8088203 2.099488 1.353043 0.5707447 0.6476158

kenc0.encoder.1.bias f4 [32]
00000000: a865 0f3d 8040 cbbe 96f4 57bd 5278 8e3d
00000010: 30ac c9bd 6bf5 17bf 40cc e2bc f712 913d
00000020: 23cf 3d3e a024 31bd 4d7a a03d 9337 cebe
00000030: c8c6 28bd ca7f 55bd ce6a 2a3d e2c2 cfbe
00000040: 205a 54be 5590 ddbe 4673 55bd 3778 9abd
00000050: d5ef 8b3f acce 43bf da1a 4dbd 9159 d8bd
00000060: 6dbc 2bbf d2b3 b7be 8214 813c de7e 05bd
00000070: 447a 073e a5c8 8abe 2f3b 9fbf 5dee 98bd
0.035009056 -0.39697647 -0.05272349 0.06956543 -0.09847295 -0.59358853 -0.027685285 0.070836954
0.18536048 -0.04324782 0.07835827 -0.40276775 -0.041205198 -0.052123822 0.041605763 -0.4057837
-0.20737505 -0.4327418 -0.052111886 -0.075424604 1.0932566 -0.7648723 -0.050074436 -0.105639584
-0.6708439 -0.3587938 0.01575685 -0.032591693 0.13230234 -0.27106205 -1.2439936 -0.07467339

kenc0.encoder.1.running_mean f4 [32]
00000000: 36b0 0abf d23b 52bd 1b04 05c0 3699 af3e
00000010: 4657 ebbf 33cc 80be 9383 c1bf 7043 e13e
00000020: 7946 b93f cd9a 39bd 4bd3 8c3f 7525 393f
00000030: aed7 e43f fff2 b2bf cb45 0440 87bd 83bf
00000040: b698 febf c50e 08bd 0482 d5be 8799 9f3f
00000050: 12f0 9e3f 937b 20bf 640c d1bf 2e1b f23e
00000060: 6f2c babf cb9d 2b3c 4792 03bf 852d ffbf
00000070: 9a57 0240 d84d 48bf b9f4 38bc 899f 9a3e
-0.54175127 -0.05132658 -2.0783756 0.34296578 -1.8386009 -0.25155792 -1.5118278 0.43996763
1.4474632 -0.045313645 1.1001981 0.7232278 1.787832 -1.3980407 2.0667598 -1.0292214
-1.9890354 -0.03321721 -0.41700757 1.2468728 1.2417014 -0.6268856 -1.6331906 0.4728636
-1.454481 0.0104746325 -0.51395077 -1.9935766 2.0365968 -0.7824378 -0.011288815 0.3019984

kenc0.encoder.1.running_var f4 [32]
00000000: afe9 4840 eae9 753e ae2a e940 cd48 1b3f
00000010: 83bf ee40 9d47 593e 36ac 2c41 1a75 d540
00000020: 7040 d13f 268c e63e 94ac 6a40 5b65 c33e
00000030: b15a 0b40 feb2 f840 cbeb cb40 24a7 1341
00000040: 6e92 0441 7305 433e 9607 f240 4145 0f41
00000050: 12a3 df40 74dc b53e 5938 da40 bb8f 2140
00000060: 8fbc a93f 0fb7 b83e 6b8f 933f 0bba db40
00000070: c554 f540 79f9 0c41 2acf df3e 40f3 453f
3.139263 0.24015012 7.28646 0.6065796 7.460878 0.21218725 10.792044 6.6705446
1.634779 0.450288 3.6667833 0.38163266 2.1774104 7.7718496 6.3725333 9.228306
8.285749 0.19045047 7.563426 8.954408 6.988656 0.35519755 6.8193784 2.5243976
1.3260669 0.36077163 1.1528143 6.8664603 7.666598 8.810906 0.4371274 0.77324295

kenc0.encoder.4.weight f4 [64, 32, 1]
00000000: 19b7 36bf 4b9c 0ebf 2978 2ebf 6dd8 7ebe
00000010: a469 e4be 69cc 80be 1308 5540 1774 0b3d
00000020: 7ccf 92be 8597 fabe bdca 153e 26de 1abf
00000030: e4b5 9b3e 98c1 1abf fe85 d23d 1078 a43d
00000040: 6fb5 cabe d474 a43e 5e27 23bf 0d59 753e
00000050: 69e6 efbd 2024 15bf 1710 36bf 0c11 993e
00000060: b591 8bbf e208 b0be b8db 65bd 383b 52bf
00000070: 03e6 a93d 8fe6 353c 8bc9 26bf 370f 82bd
00000080: 825b d5bc 468e 75bf dac5 153f 002b 4ebf
00000090: 8dd5 a43e 0f37 97bd 678f 033f 7963 f7bd
000000a0: ebe4 45bf a90b 71bf 0127 73be 3cba ff3c
000000b0: 18c6 a3bd 4e3f 71be 75da 92bd 009e fd3e
000000c0: 0117 873e a6ff 3fbd 291a 24be a897 343e
000000d0: b0d4 d9be 9462 6fbe e17e bd3d d936 993d
000000e0: 05ea 80bf 5632 efbd 9657 c4be 1f9c d03d
000000f0: 0728 71be 005d aa3d 912c 0bbf df03 06bf
00000100: cd05 c03d 2302 d13c 5bce c9bc d7de 61bf
00000110: b92a 633d e408 01bf 3d87 603e 5666 afbe
00000120: 4be3 04bf 429e a0bf eb75 6ebf 4532 22bf
00000130: a3d4 8fbf 6129 8bbe 9f94 88bf ac78 25bd
00000140: 1bc6 823e f36c afbe 1e68 cf3d 5b84 77bf
00000150: e7e2 95be be5a 23bf 6769 a6be 8017 b3bf
00000160: 3dcf 30bf 3178 18bf 8179 56bf 4bd2 9ebc
00000170: 0e79 b9bd 5bc8 a53e 3b5c b1bf 5234 aebf
00000180: 00b7 2c3f 3600 eebe 0710 533f d3a2 49be
00000190: 28d7 503f 26b3 023d e12d 4f3f b6f2 043e
000001a0: 6187 cbbe fe46 b1be 5d22 0e3d 3498 60be
000001b0: f249 4f3e 7cc2 a03f d807 a43d 02dc 9a3f
000001c0: 5693 583f f456 a33e 384a 973e 5b48 d73d
000001d0: 97b4 8ebe 8875 e8be 6b38 713f 7b7a 9b3e
000001e0: 8efc 82bf 81f1 08be 47a5 6b3d 3979 8d3f
000001f0: 2538 3d3d 82b7 7e3f ec1b 3bbd 2235 2d3d
00000200: f7d1 433e 5363 023e 0760 4f3e b3ef 39bf
00000210: f1fa 153e eacf 263e a185 9b3e 698d 22bf
00000220: 6606 1bbf 0ebc 5ebf 1db7 2fbf 3b9d d33e
00000230: 3b99 02be c028 993e 526e 32bf fcd4 b8bd
00000240: 8148 653e 341e 5c3e a88c 863e fd43 2bbe
00000250: fb99 8bbe 71d6 703d b2a9 bd3e b433 e5bd
00000260: 3d08 6cbf 5156 383f b108 35bf 50e3 6b3e
00000270: d429 56bf 3248 363e 0c4d 9b3e 7e14 1fbf
00000280: 264c 14bc 92af f2be b6ee 1dbe 81a2 543d
00000290: 2fbb 103f 290b 9ebe ccfb 8e3e e574 cf3d
000002a0: 73be a9bc 5d62 d83d 1b7d 1e3d e83f d5be
000002b0: f8c3 873d 5758 0fbe 7606 30be 2b10 943e
000002c0: 8063 c73e 376f fe3c 1b33 04be 6f2f abbc
000002d0: c1e0 0240 71c5 53be 1988 983e b66b ccbd
000002e0: 68fe fc3e fd20 b4be 0035 c3bd 3e98 de3e
000002f0: e2c1 0abc dcec db3e 36cb 8f3f 2a7d 413e
00000300: 638f b93e 341c 813c cce6 2b3e 56c3 aebe
00000310: d7c2 673e ba42 93be 22ff 893e e027 0ebf
00000320: 2d12 b3be 85a4 41bf 24c1 64bf 5c42 10be
00000330: db9d 89bf b9ec 553e 7ccc 40bf 24a3 493e
00000340: 70f5 833e 9b8b f23d 662d a83c 8f9e 5bbf
00000350: 890e 5abe d81a a3be 3878 103e ac6c 2dbf
00000360: d2ce 08bf 2364 37bf 631e 26bf dc26 983e
00000370: ceed 89be f663 873d c385 7fbf cdf6 5dbf
00000380: 8f79 093f 694b 0fbf bdfe c23e 4c76 d1be
00000390: fa60 773e 10eb 87be bb3e 0d3f ddb4 0fbf
000003a0: 31ec c8bd 0db0 09bf e7f0 45bf afea 623d
000003b0: b361 a3be 2e0a e93e 5b2e 35bf 8933 d43d
000003c0: 3461 473e 4f96 853d 526d f63d aa5d cbbe
000003d0: 911b 0ebe ad22 2dbc 12b1 ec3e add9 74be
000003e0: 44b8 52bf 2fa1 9cbf 1e28 09bf 7ee2 0d3f
000003f0: d093 0abf 42c8 c63c 9ce9 a8bd a037 bdbe
-0.71373135 -0.55707234 -0.681521 -0.24887247 -0.44611847 -0.25155953 3.3286178 0.03404626
-0.28673923 -0.48943725 0.1462812 -0.6049522 0.3041221 -0.6045165 0.10279463 0.080307126
-0.39591548 0.32120383 -0.63731945 0.23959751 -0.11713869 -0.5825825 -0.711183 0.29895818
-1.0903841 -0.34381777 -0.056117743 -0.8212161 0.082958244 0.011102333 -0.6515128 -0.06350558
-0.02604461 -0.9592022 0.5850502 -0.8053436 0.32194176 -0.073835485 0.5139069 -0.1207952
-0.77302426 -0.94158417 -0.23745348 0.031216733 -0.07996768 -0.23559305 -0.071705736 0.49534607
0.26384738 -0.046874665 -0.16025604 0.17635977 -0.4254508 -0.23377448 0.09252716 0.074811645
-1.0071417 -0.11679523 -0.38348073 0.10186028 -0.23550425 0.083185196 -0.5436488 -0.52349657
0.093761064 0.025513714 -0.02463453 -0.8823065 0.055460665 -0.5040419 0.2192659 -0.34257764
-0.5190932 -1.2548296 -0.9314868 -0.63357955 -1.1236767 -0.27180007 -1.0670356 -0.040398285
0.25541767 -0.3426281 0.10127281 -0.96686333 -0.29274675 -0.63810337 -0.3250229 -1.3991547
-0.6906622 -0.595584 -0.8377915 -0.019387385 -0.090562925 0.32379422 -1.3856272 -1.3609717
0.67466736 -0.46484536 0.8244633 -0.19691019 0.815783 0.03190913 0.8092938 0.12983212
-0.39751723 -0.34624475 0.03470074 -0.21933061 0.20243052 1.2559352 0.080093086 1.2098391
0.84599817 0.31902277 0.29548812 0.105118476 -0.27872154 -0.4540217 0.9422671 0.30366883
-1.0233324 -0.13373376 0.057530668 1.1052619 0.04619612 0.9949876 -0.045680925 0.042287
0.19123064 0.12733202 0.20251475 -0.72631377 0.14646508 0.1629025 0.30375388 -0.63497025
-0.6055664 -0.870057 -0.68638784 0.41330895 -0.12753765 0.29913902 -0.69699585 -0.090249985
0.2239094 0.21495897 0.26279187 -0.16725154 -0.27265915 0.058798257 0.3704353 -0.11191502
-0.9220007 0.7200671 -0.7071639 0.23035932 -0.83657575 0.17800978 0.3033222 -0.62140644
-0.009051358 -0.47399575 -0.15423092 0.05191279 0.5653562 -0.3086789 0.2792648 0.10129718
-0.020720696 0.10565636 0.03869353 -0.4165032 0.06629175 -0.13998543 -0.17189965 0.28918585
0.389431 0.03105889 -0.1291012 -0.020896642 2.044968 -0.20680787 0.29791334 -0.09981482
0.49412847 -0.35181418 -0.09531593 0.43475527 -0.008469077 0.42954147 1.123389 0.18895403
0.36242208 0.015760519 0.16787261 -0.34133404 0.22632919 -0.28761846 0.26952463 -0.55529594
-0.34974805 -0.7564166 -0.8935721 -0.14087814 -1.0751299 0.20891084 -0.7531202 0.1969114
0.2577319 0.11843034 0.02052946 -0.85788816 -0.21294607 -0.31856418 0.1410836 -0.67743945
-0.5344058 -0.7163717 -0.64890116 0.29717147 -0.26939243 0.06610863 -0.9981348 -0.86704713
0.5370111 -0.5597444 0.38084975 -0.40910566 0.24158087 -0.26546526 0.55173844 -0.5613535
-0.09810675 -0.5378426 -0.7732071 0.055399593 -0.31910476 0.4551558 -0.7077386 0.10361392
0.19470674 0.0652281 0.1203257 -0.39719898 -0.13877703 -0.010567349 0.46228844 -0.23911162
-0.8231242 -1.2236689 -0.5357684 0.55423725 -0.54131794 0.024265412 -0.082476825 -0.369565

kenc0.encoder.4.bias f4 [64]
00000000: aba3 26be 6b2b 49be 819c 1bbd 5744 213f
00000010: 29fc 33bf 3030 c73f d6e9 a7bf 4fe7 2a3f
00000020: df43 4abf 01db e03e 5e27 b7bf 116d 9b3e
00000030: e100 0cbf 2908 603f 799d 803f 44fb 383e
00000040: 7978 6a3f 0b95 a33f d636 853e 33a4 07bf
00000050: be84 2abf 2ca4 0f3f 002b 1f3f 9403 75bd
00000060: aa20 293f 9a52 8f3e 1f5a 373e 8449 0c3f
00000070: 186b 2e3e d49a a3bf 0bc3 533e 4ef9 643e
00000080: 1d55 123e 365c 0040 e819 8e3e 4360 36be
00000090: be09 cf3e c3fc 4d3f cc2d 45bf 2289 8cbf
000000a0: 9a94 dfbe f7f5 5c3f 9d59 503f 56bc d43e
000000b0: 91c8 a13e 38de cebe 5627 df3d 4f74 24be
000000c0: 8a0a 4d3c 7def b83e 90ab 993f 967a af3e
000000d0: d887 9c3e fe55 e4be b255 df3f d090 bfbe
000000e0: 621a dcbe 2ffb f13f b8fa 0fbe a1a8 72be
000000f0: beee 93bf 6e99 3d3e 79e0 063e 6df8 b4be
-0.16273372 -0.19645469 -0.03799105 0.62994903 -0.7030664 1.5561581 -1.3118236 0.667592
-0.79009813 0.43917087 -1.4308889 0.3035665 -0.5468884 0.8751245 1.0048057 0.180646
0.91590077 1.2779859 0.260184 -0.52984923 -0.666088 0.5610988 0.6217499 -0.059817865
0.66065466 0.27992707 0.17905472 0.54799676 0.1703304 -1.2781625 0.20679872 0.22360727
0.1429028 2.005628 0.2775414 -0.17810158 0.4043712 0.8046381 -0.77023005 -1.097935
-0.43668061 0.8631281 0.8138674 0.4154994 0.31598333 -0.40403914 0.108961746 -0.16059993
0.01251472 0.36120215 1.2005482 0.34273213 0.3057239 -0.44596857 1.7448027 -0.3741517
-0.42988878 1.890478 -0.14060485 -0.2369714 -1.1557233 0.1851556 0.13171567 -0.35345784

kenc0.encoder.5.weight f4 [64]
00000000: e410 c43f 8a3a 743f 484b 643f f4f1 a23f
00000010: 9e67 8b3f cc2a 8b3f 3fe2 583f 83ba 5c3f
00000020: 0209 5c3f ccff 913f 7499 a73f ac3d bd3f
00000030: ca19 4b3f 9719 c33f 71e3 773f 5240 e83f
00000040: 8fc0 c23f 9876 8a3f bc66 5a3f a3a7 573f
00000050: 8908 5c3f 7671 653f 63c8 873f e930 7e3f
00000060: 68b2 7f3f 1d4d 7e3f 3758 4d3f 1b7a ca3f
00000070: ffac 523f 00ee a23f 3ac0 4e3f 3f5e 8d3f
00000080: 1e91 863f e981 bf3f 96ee b53f 0b83 d83f
00000090: 0a7a 653f c4bb e43f eb39 9b3f d2fb 913f
000000a0: edca 813f c0af 593f c6df 163f e503 cc3f
000000b0: 224d 723f 6f40 d93f 12b6 e63f 3591 6f3f
000000c0: e76c 9a3f 2d0c 5b3f b7ec 323f 9569 993f
000000d0: 4e9f 653f 5889 693f dbb5 ae3f c9cb 5f3f
000000e0: 55a0 7c3f e10e a33f b986 583f 6085 8e3f
000000f0: 6761 613f 0b6b 933f db33 673f 1685 9d3f
1.5317655 0.95401824 0.8917737 1.2730088 1.0890996 1.0872436 0.84720224 0.86222094
0.85951245 1.1406188 1.3093705 1.4784446 0.79336226 1.5242184 0.96831423 1.8144629
1.5215014 1.0817442 0.8531301 0.8424017 0.85950524 0.8962625 1.0608028 0.9929338
0.998816 0.99336416 0.8021273 1.5818514 0.8229522 1.2728882 0.80762064 1.1044387
1.0513036 1.496152 1.4213436 1.6914991 0.8963934 1.7869802 1.212705 1.1404974
1.0140053 0.850338 0.589352 1.5938689 0.94648945 1.6972789 1.8024313 0.93580943
1.2064484 0.85565454 0.6989245 1.1985346 0.89696205 0.91225195 1.3649248 0.87420326
0.9868215 1.2738916 0.8458057 1.1134453 0.8803925 1.1517042 0.903135 1.230624

kenc0.encoder.5.bias f4 [64]
00000000: 0b55 ad3c 13ca 2abe 1203 c0bd f208 cd3e
00000010: 99ac bfbe 8c4f 2dbf 7255 93bd b446 16be
00000020: 5212 e2be 1230 8fbf d526 dcbe eb7c bdbe
00000030: 3822 25be 2459 a3bf 69ff a1be 734e 803d
00000040: 38e4 db3b 12f1 b0be b1b5 cdbd 53f1 1ebe
00000050: 8505 ca3d 5b87 fdbe 907a f53e 20a0 86be
00000060: a906 67bd a0aa 2dbf cab5 bcbd 5933 60be
00000070: 73fb 9cbd 8d73 84be e016 f4be 615b 54be
00000080: eb2e e7be 8d47 843e 9993 5fbe 17b6 3d3d
00000090: bc94 153b a804 1dbf d9c1 b7be 6f4a ff3e
000000a0: 91b0 e23e b486 db3c 4cd4 0ebe cd02 4fbf
000000b0: 2466 2cbe a3aa 3abf dad2 1cbf b6dc 1cbe
000000c0: 6f9f 2b3e 3346 85be 75ab 4e3d 24be 9fbf
000000d0: 19ed bf3e 26a4 03be 3aa2 87bf 2281 34be
000000e0: 0793 40be db25 1ebe 7b2d 87be 68a9 c53e
000000f0: 5c1f 02be 6ef2 b1be 956c a2bd 6d9f 1c3e
0.021158716 -0.16678648 -0.093755856 0.40045887 -0.3743637 -0.67699504 -0.07194032 -0.14675409
-0.44154602 -1.1186545 -0.42998376 -0.37009367 -0.16126335 -1.2761579 -0.31640175 0.06264963
0.0067105554 -0.34558922 -0.100444205 -0.15521745 0.09864334 -0.4951733 0.4794507 -0.2629404
-0.056402836 -0.6783848 -0.09214361 -0.21894588 -0.07665148 -0.25869408 -0.47673702 -0.20737983
-0.45152983 0.2583584 -0.21833648 0.046316233 0.0022824248 -0.6133523 -0.35890082 0.49861476
0.44275334 0.02679763 -0.13948172 -0.8086365 -0.16835839 -0.7291662 -0.61259234 -0.1531857
0.16760038 -0.2603012 0.050456483 -1.2479901 0.3748558 -0.12855586 -1.0596383 -0.17627385
-0.18806086 -0.15444128 -0.26401886 0.3860581 -0.12707275 -0.34755272 -0.07930867 0.15295191

kenc0.encoder.5.running_mean f4 [64]
00000000: 23b0 113f 2a50 9fbf c511 7cc0 65b2 5f40
00000010: 4de4 42c0 9dd7 ae40 b9fd 7ac0 33b7 36bf
00000020: 4d71 21c0 ccf4 0840 6bc1 bbbe 4520 9540
00000030: 646a c13e 3fb8 293f 7749 2a40 b0a8 5e40
00000040: e3cb 4640 6779 2cc0 a799 0e40 fba4 a03e
00000050: 91cf 78bf 2c74 ad40 a9ad 7d40 f839 e6bf
00000060: 5003 093d a054 8f3f 8ad2 85bf c19e 9040
00000070: 5ef3 e83f d6f1 a0bf 986c 5440 cbc4 98c0
00000080: ccd4 6240 b2d4 aa40 ab2d 6d40 0737 3c40
00000090: 0627 96bf 3b0e ce3f d0e8 0f40 f1c0 0740
000000a0: 9f14 3840 482d b13d 8af1 12bf b953 82c0
000000b0: 12ab d4bf 53d8 0c40 b101 8940 eb35 d7bf
000000c0: 3f87 913f 8658 5640 9f86 26be c866 1440
000000d0: 71aa 3840 1f1b 49c0 c9a9 303f 098f 043f
000000e0: a96b b4c0 74b1 d440 2138 9c3f 0bcf 0640
000000f0: c989 9dc0 82cb afbf 1802 64bf a8fb dc3e
0.5690939 -1.2446339 -3.9385846 3.4952633 -3.0451844 5.46382 -3.921736 -0.7137329
-2.5225403 2.1399412 -0.36671004 4.660189 0.37776482 0.6629676 2.660734 3.4790459
3.1061943 -2.6949098 2.2281282 0.3137587 -0.9719172 5.420431 3.9637244 -1.7986441
0.033450425 1.11977 -1.0454876 4.519379 1.819927 -1.2573802 3.319128 -4.7740226
3.544238 5.338464 3.7059124 2.9408586 -1.1730659 1.6098093 2.2485847 2.1211512
2.8762586 0.08651215 -0.5739981 -4.07272 -1.6614707 2.2007034 4.2814565 -1.681333
1.1369399 3.349153 -0.16262291 2.3187733 2.885403 -3.1422803 0.6900907 0.51780754
-5.638142 6.6466618 1.2204629 2.106387 -4.9230695 -1.3733981 -0.89065695 0.43160748

kenc0.encoder.5.running_var f4 [64]
00000000: 7903 6f40 851f 0e41 b825 ed41 0f80 3242
00000010: 39f9 a141 4ba5 0941 2432 c941 47fb a241
00000020: 3492 7e40 f6ac 8a40 e6fa cb3f 3712 8d41
00000030: 9f53 9741 4961 2e3f dbd6 6240 916a f541
00000040: 6f35 1d40 d2df 0942 51e3 0242 ef47 d041
00000050: 91a4 a041 4f5a da41 4b03 7142 ac26 9d41
00000060: b081 6741 c993 e13f 09be 5541 1195 8341
00000070: eb2d d841 549e 863f b5dd af41 ea8e 3042
00000080: 5250 1441 4f96 e340 59bf 6f41 05b0 1742
00000090: f2a2 b041 de15 1a40 740b 9d40 cc1f 4c42
000000a0: f225 5a42 924a b941 3a85 d540 cd75 af41
000000b0: d5d5 b941 1d85 4041 4583 c141 8bac 9e41
000000c0: efea 9c41 8e14 eb40 a76e a241 437b 8a40
000000d0: f9fa 1142 5ae0 ca41 4c27 df3f 9404 b341
000000e0: 586a 4542 3be3 b441 0f60 8441 b0ef fe41
000000f0: a1c1 f441 1f1c 2941 3e69 a341 4c15 7341
3.734587 8.882695 29.643417 44.625057 20.24669 8.602855 25.149483 20.372694
3.9776735 4.3336134 1.5935943 17.633894 18.91583 0.68117195 3.5443637 30.677034
2.4563863 34.468575 32.72199 26.035124 20.080355 27.294096 60.253216 19.643883
14.469162 1.7623225 13.358895 16.447786 27.02242 1.0517068 21.983255 44.139565
9.269609 7.112098 14.984216 37.921894 22.079563 2.4075847 4.907648 51.03105
54.537056 23.161411 6.672513 21.93252 23.22941 12.032498 24.189096 19.83425
19.614714 7.346259 20.30403 4.3275466 36.49509 25.359547 1.7433867 22.377235
49.35385 22.610952 16.546904 31.867035 30.594545 10.5693655 20.426388 15.192699

kenc0.encoder.8.weight f4 [128, 64, 1]
00000000: d8ad 6d3e 34b8 863e 95a6 513f f67a 7c3d
00000010: adc8 223f 8f7c cf3e 7b4e 273f 4dd1 de3e
00000020: 3953 a83e 6682 6a3f 43b1 793f ed4c 643e
00000030: 3b63 263e 945a 3d3f 7661 f63e d535 393e
00000040: c0d3 953e cdaf 543f 0c3b a53e 13c5 983e
00000050: 02b2 8a3e 03b4 b63e af90 323e 689d 123f
00000060: 2494 b63e 1e66 c93e eb48 d03d 422c a73e
00000070: 326c 533e c9b9 633e baab 033f 45e8 833f
00000080: 1178 b93e 591b ea39 acee 3d3f 7ae3 d83d
00000090: c77b ad3e 5189 163f 484e 183f f2df 8f3d
000000a0: d3fb 843e 4235 783e 5f3c 1a3e f116 b83f
000000b0: b664 cd3e fb00 913f b678 523f 6e4b 893e
000000c0: 9cea 0f3d 9c49 113f e4b3 ce3e 1c21 553f
000000d0: d05d 513e 6843 fd3e 446c 8a3f 1bc5 ff3e
000000e0: e053 7d3f f6a4 043f 9c1f 063f 5c1d e43d
000000f0: 4801 1d3f 7cf0 ad3e 1c68 e73e 1eb8 883d
00000100: 1c87 623e 7c0a 653e 794d dfbe d387 893e
00000110: aba9 203e a642 e2bf 38ab 61be 6629 5d3d
00000120: 2f0b e1be fb5d febf c698 cdbe e0c3 34be
00000130: 26ec 18bf b02a 4cbf 083a 6ebf 7769 4bbd
00000140: 3e8d aabe 3634 4fbe 23bb 11bf 3008 2fbf
00000150: 6aba a13c fa61 adbf 7c65 293e 540d 51bd
00000160: c011 753d 2dc5 82bf 5553 b9be 721e 55be
00000170: f619 00bf 4f6d 03bf 1715 e7bf 8695 12bf
00000180: 701e 18bf 4b3b d6be 3e5a bbbe 3496 82bd
00000190: d13c b9bd b0c7 51bf ca61 06bf 2cbe a93e
000001a0: fba1 923e 20a1 c73d 7f18 03bf a2f2 e6bf
000001b0: b0d1 88bd c0d4 98be 980b 45be 2b51 d23d
000001c0: bda5 a23e bc6f 933b 30d9 b9bd e00d bebf
000001d0: fb24 563e 5354 1bbe e982 b5bd bdb2 c9be
000001e0: 98c1 28bf c4a4 dcbe 6701 92bf fa7c 983e
000001f0: bac8 babe 76e4 8f3e fbc4 753d 5ec3 b03e
00000200: e2cb ab3e cbc6 4b3d 728b b63e 49ca 503e
00000210: 70dc 7c3d 8b72 c4be 458e a73e c166 d43e
00000220: e8d0 febf c8b7 9ebe f879 5fbf 331a acbe
00000230: a574 08bf af56 0e3e 1774 c2be 94a6 09bf
00000240: 7792 73bf 6df3 413f fa8b 4bbf 7eab 6fbf
00000250: 0111 023e 5d66 a3bd a075 ca3e 6a8f 2bbc
00000260: fdc0 c63d 5cbc 933e 7613 ccbf bbee 3bbe
00000270: a348 0cbf b0f1 b4be 6083 8abd 5771 383f
00000280: 9e18 f4be 24e2 f5be eba0 d9be 353b ebbe
00000290: f310 703e ec19 ec3d ea67 9dbd 9b93 863e
000002a0: f9a6 503e d2fb 6c3e 074f cdbf 10ec 63be
000002b0: e670 de3e 43f1 c2be 9fe3 bbbe 0adf 063e
000002c0: edfe 573d f18f d1bf 9d54 ac3e f217 14bf
000002d0: 812a 2a3e 05ba e23e 689a 563f cc09 d2be
000002e0: a963 f73e 3fff fdbe f586 013e b5f6 103e
000002f0: 654f 683d 8ace 0a3e 7ba2 1c3e 84e7 b43d
00000300: 9ae3 553f 9266 293f 31b1 f73e 579c 573f
00000310: 8f11 f33e 3281 a5bd aea3 d63e 39cb 183e
00000320: 6901 14be e673 8e3d 75f8 153d d85d 063e
00000330: 0102 53be c253 c5be fa92 0dbe 7a59 bdbd
00000340: ed65 9bbd b5bd fc3e f5ff a5be 2db0 7ebe
00000350: 3365 8b3e 76ae b9be f625 5f3f d850 0e3e
00000360: b202 013f 61fc 1d3e f9fe fcbc 1e68 de3d
00000370: 18de a6be 76ed 5cbd 17c5 eb3d 15e2 bd3e
00000380: 5111 b0be 76c8 14be 95c1 2a3e 6792 86bd
00000390: 9b7d e03e ac5d 8cbe c07e dfbe c699 5f3f
000003a0: ed9a 5c3f a79b bb3e 7970 20bd 62da 44bc
000003b0: 1d23 3e3e 2ff9 45be 51ae 10be 29a0 7d3e
000003c0: 1cf0 5f3f 6660 9bbe 8fc5 e23e 4329 b2be
000003d0: 9dcc 1c3f 2f11 923e e9ab 543f e054 6cbe
000003e0: d681 e03e cca7 92bb e13e 7ebe 6c3b 623f
000003f0: fe02 073f d3ed 583f a3e6 623e ac37 6c3f
0.23210847 0.2631241 0.8189481 0.061640702 0.63587457 0.40524718 0.65354127 0.4351906
0.32875994 0.9160522 0.97536105 0.2229497 0.16248791 0.73966336 0.48121232 0.18086942
0.29263115 0.8308075 0.32271612 0.29837856 0.27088934 0.35684213 0.17438005 0.5727143
0.35659897 0.39335722 0.10170158 0.32650954 0.20646742 0.2223884 0.5143391 1.0305258
0.36224416 0.00044652334 0.7419231 0.10590263 0.33883497 0.5880328 0.5949445 0.07025136
0.25973377 0.24239066 0.15062092 1.4382001 0.401159 1.1328424 0.8221544 0.2681536
0.03513585 0.56752944 0.4037162 0.83253646 0.20445943 0.4946549 1.081429 0.49955067
0.9895611 0.5181421 0.5239198 0.11138412 0.6133008 0.33972538 0.45196617 0.066757426
0.22121853 0.2236728 -0.43613794 0.26861438 0.15689723 -1.767659 -0.22037971 0.05399456
-0.43953845 -1.987243 -0.4015562 -0.17652845 -0.59735334 -0.79752636 -0.930573 -0.049661126
-0.33310884 -0.2023476 -0.5692617 -0.6837187 0.01974221 -1.3545525 0.1654262 -0.0510381
0.05983138 -1.0216423 -0.3619639 -0.20812395 -0.50039613 -0.51338667 -1.8053311 -0.57259405
-0.59421444 -0.41842112 -0.36592287 -0.06376305 -0.09044803 -0.81945324 -0.52492964 0.33152902
0.28639206 0.09747529 -0.51209253 -1.8042796 -0.0668062 -0.29849815 -0.19242704 0.10269388
0.31767073 0.0044994038 -0.09074628 -1.4847984 0.20912544 -0.15168886 -0.0886286 -0.3939418
-0.659204 -0.43094456 -1.1406678 0.2978285 -0.36481267 0.2810399 0.06000231 0.34524053
0.33553988 0.04975013 0.35653263 0.20389666 0.061733663 -0.3836864 0.3272573 0.41484645
-1.9907503 -0.3099959 -0.87295485 -0.33613738 -0.53302985 0.13900255 -0.37979195 -0.53769803
-0.9514536 0.75762063 -0.7951046 -0.9362105 0.12701799 -0.079785086 0.39542866 -0.010471204
0.09704778 0.28854644 -1.5943439 -0.18352787 -0.54798335 -0.35340643 -0.06763339 0.7204794
-0.4767503 -0.48024094 -0.42505583 -0.4594361 0.23443966 0.11528382 -0.07685836 0.2628449
0.20376195 0.23142937 -1.6039742 -0.2225802 0.4344551 -0.38074693 -0.366971 0.1317102
0.05273335 -1.6372052 0.33658305 -0.5784904 0.16617776 0.44282547 0.83829355 -0.410231
0.48318222 -0.496088 0.12649138 0.14156611 0.05671634 0.13555351 0.15296356 0.088332206
0.8355042 0.66172135 0.48377374 0.8422293 0.47474334 -0.08081283 0.41921753 0.14921273
-0.14453663 0.069556996 0.0366139 0.13121736 -0.20606233 -0.38540465 -0.13825598 -0.09245582
-0.075878 0.49363485 -0.32421842 -0.24871893 0.27225646 -0.36265916 0.871673 0.13898027
0.5039474 0.15428306 -0.0308833 0.108597025 -0.3259132 -0.053937398 0.11512201 0.3708655
-0.3438821 -0.14529595 0.16675408 -0.06570893 0.4384583 -0.27415216 -0.4365139 0.87344015
0.861739 0.3664219 -0.039169762 -0.012014957 0.18568082 -0.19333337 -0.14128996 0.24768128
0.8747575 -0.30346984 0.4429135 -0.34797105 0.61249715 0.28528735 0.83074814 -0.23079252
0.43849057 -0.0044755694 -0.24828674 0.8837192 0.5273894 0.8473789 0.22158293 0.9227245

kenc0.encoder.8.bias f4 [128]
00000000: 4385 083f 4c9b bbbf c35e fcbe 854e 38be
00000010: 980e dd3e 5302 e93d 0c09 a4be 2423 213f
00000020: 43cc b23f c169 f93d cfa6 573e 4606 3dbf
00000030: 979a 463f 2987 f5be e42e 50bf a898 95be
00000040: 80bd 653e 6183 e8be e04b 99bd e494 dabe
00000050: d05f 5dbd 5c6c eb3f 38b5 32bb 1522 b23e
00000060: d2aa 4cbf 9bdf 813f ab6c 8abe a17e 7e3f
00000070: 5706 72be b44e 7fbe 0a0e 813f b86d 693f
00000080: 1df6 3c3f ddf8 933f 3f6b 6c3f f56e 543e
00000090: c3fd aebe b4fc 573f 80df 6fbf 9f63 0c3e
000000a0: 1daa 98be 79cd f63d c7a8 fb3e 7ead 233f
000000b0: 4ab3 453f fd8c 9cbd 60ca d73c ee57 43bf
000000c0: 0eaf cf3e 91fe 2fbf daf3 9bbe e222 b1be
000000d0: fcd6 df3e 7b01 9e3f 92e2 11bf 969a 2dbe
000000e0: 9ed9 c2be 949c 0ebf 3533 793f 676f cfbe
000000f0: cdb9 273f 59ae a73c 7652 e33e ed90 06be
00000100: d354 aabe d35b 5b3f 0e29 d43e b5d5 a2bf
00000110: c853 9e3e 6b9e 89be 18f4 02bf 57ff 4bbf
00000120: 24ae 61be 1ad9 093f 77eb 01bf 6441 acbf
00000130: 6d46 37be c5cd 803f e3a8 463e a2cf 393d
00000140: 26cb 2dbf aa0d f0be e3a5 4b3f 7e35 19bc
00000150: 7a66 5bbf 6529 b43f bbb8 86bf 4702 d33e
00000160: 6d25 29bf 761d c03f 9909 2abe db8c b53f
00000170: 99f1 a93f 9eed 72be 0f41 c83e 6ade 60bf
00000180: 8973 213f 6b1e 7d3f fd3a fc3d 93fe 9ebd
00000190: 8fae 833e 8d7e 713f fae5 ae3e e74a dc3e
000001a0: 2604 603e 9cac 203f fa51 aebe 0442 3a3f
000001b0: 62f2 b7be a0c3 29bd 981b 50be 8236 17bf
000001c0: 500e 14bf ba4c 83bf cd7b a8bd 62df 0fbf
000001d0: 515d 5ebf 1306 203f 0956 aebf 9e2a 923f
000001e0: 1015 073f 24e8 76be 3fb6 09be 6b9e c9be
000001f0: 2106 3bbf db71 8ebe 4b19 e43f 13fc 1fbe
0.5332834 -1.4656768 -0.49291047 -0.17998703 0.43175197 0.113773964 -0.32038152 0.62944245
1.3968586 0.12178374 0.21059726 -0.738377 0.77579635 -0.47954682 -0.8132155 -0.2921803
0.2243557 -0.45412734 -0.07485175 -0.4269172 -0.054046452 1.8392444 -0.002726866 0.34791628
-0.7994815 1.0146364 -0.27036032 0.9941197 -0.23635231 -0.24932367 1.0082409 0.9118304
0.7381304 1.1560322 0.92351145 0.20745452 -0.3417798 0.8436997 -0.9370041 0.13709877
-0.29817286 0.120509095 0.49152204 0.63936603 0.772267 -0.07644079 0.026341617 -0.76306045
0.40563244 -0.6874781 -0.3045948 -0.34596926 0.43718708 1.2344202 -0.56986344 -0.16953501
-0.38056654 -0.5570767 0.9734376 -0.4051468 0.65517884 0.020468878 0.4439885 -0.13141222
-0.3326784 0.8568699 0.41437572 -1.2721468 0.30923295 -0.26878676 -0.5115371 -0.7968649
-0.22039086 0.53846896 -0.50749916 -1.3457456 -0.17897959 1.0062796 0.19400363 0.04536403
-0.67888105 -0.46885425 0.7955 -0.009351132 -0.8570324 1.4075133 -1.0525125 0.41212675
-0.6607273 1.5008991 -0.16605224 1.4183611 1.3276855 -0.23723456 0.39112136 -0.87839377
0.6306692 0.9887454 0.123159386 -0.077634 0.25719115 0.94333726 0.34159833 0.43025896
0.21876583 0.6276338 -0.34046918 0.7275698 -0.3592711 -0.04144633 -0.20323026 -0.5906755
-0.5783434 -1.025779 -0.08226738 -0.5620023 -0.8686114 0.6250927 -1.3620006 1.1419256
0.52766514 -0.24111992 -0.13448428 -0.39378676 -0.73056227 -0.2782124 1.7820219 -0.15623502
