hyperglue/weights/weights_CUBES_ALL_5_CTD.pth (torch, 462239 bytes, 160 tensors)

penc0.lin.weight f4 [36, 100]
0	0x3f049646	0.517918
1	0x3cb1625a	0.021653343
2	0x3cc6668c	0.02421882
3	0x40ffe38d	7.996527
4	0x4093f65e	4.623824
5	0x40897b8e	4.2963324
6	0xbf845b91	-1.0340444
7	0xbdc9e543	-0.09858181
8	0x3d8a4015	0.06750504
9	0xbdb1ac95	-0.086754955
10	0x3e927094	0.28601515
11	0x3e15e9d7	0.14639984
12	0xbe1c9669	-0.15291752
13	0x3e8b378a	0.2719081
14	0x4055a1ea	3.3380075
15	0xbfdabb29	-1.7088367
16	0x3f8cc178	1.0996542
17	0xc06b7cd1	-3.6794932
18	0x3f60f614	0.87875485
19	0xc06a41a8	-3.6602573
20	0x3d167c7f	0.036739822
21	0xbe6067b0	-0.21914554
22	0x3c4820b1	0.0122148255
23	0xbffd0cc7	-1.9769524
24	0xbff020cc	-1.8760009
25	0x3efa38d7	0.4887149
26	0xbf7a9258	-0.9787955
27	0xc0b7a5fe	-5.7390127
28	0xc0855b7f	-4.167419
29	0xbfdfbdac	-1.7479758
30	0x3f802f43	1.0014423
31	0x3f290078	0.6601634
32	0x3f1ebc06	0.6200565
33	0x4138e53b	11.555964
34	0x41233329	10.19999
35	0x4102508b	8.144664
36	0x3f4b6ff5	0.7946771
37	0x40e1977a	7.049741
38	0x40e8daa7	7.276691
39	0x40b3aab7	5.614589
40	0x3e8f31cc	0.2796768
41	0xbe9a550a	-0.30143005
42	0xbf16694a	-0.5875441
43	0xbf11c588	-0.56942034
44	0xc02a4445	-2.6604168
45	0xc0d710b0	-6.720787
46	0xbf941a0f	-1.1570452
47	0xc074d278	-3.825346
48	0xc08b591b	-4.354627
49	0xc102a255	-8.164632
50	0xbe8aecbd	-0.27133742
51	0xbfdb3ad2	-1.7127326
52	0x3e219eb3	0.15783195
53	0xc0d55cb2	-6.6675653
54	0xc19c81f1	-19.563448
55	0x3fe0495d	1.7522389
56	0x3e0a46d6	0.13503584
57	0xc112f929	-9.18583
58	0xc1a0e7de	-20.113216
59	0xbc491554	-0.012273151
60	0x3dfe0373	0.12403002
61	0x3f723c09	0.94622856
62	0xbdba27a1	-0.0908959
63	0x3cbc072e	0.022952642
64	0x4139fff4	11.624989
65	0xbe3517f6	-0.17684922
66	0x3f3e4f5d	0.7433985
67	0xc02f4db5	-2.7391179
68	0x410be328	8.742958
69	0xbff04715	-1.8771693
70	0x3f56bc23	0.83880824
71	0x3ee8012a	0.45313388
72	0xbf1ebdea	-0.62008536
73	0x40c871e4	6.2639027
74	0x40972a87	4.7239413
75	0xc0b0c25c	-5.5237255
76	0xbed4d46e	-0.4156832
77	0x403bf484	2.936799
78	0x403796e2	2.8685842
79	0xc0cb0edf	-6.3455653
80	0x3e3785e8	0.17922175
81	0xbe91007c	-0.28320682
82	0x3f12d6fb	0.57359284
83	0xbf9e3b59	-1.2361861
84	0xbfcfc119	-1.6230804
85	0x40cdb275	6.4280343
86	0xbda4ad45	-0.08040861
87	0xc05fb9a6	-3.495706
88	0xc037e8bf	-2.8735807
89	0x4085930b	4.1741996
90	0xbeeb68c8	-0.4597838
91	0xbf3fca1a	-0.7491776
92	0xbed5ec16	-0.41781682
93	0xc0ef9a1e	-7.487563
94	0xc0b29f03	-5.5819106
95	0xc0642c7b	-3.5652149
96	0xc03db4ba	-2.9641557
97	0xc10c5e6f	-8.773055
98	0xc0c391ed	-6.111563
99	0xc087ea95	-4.2473855
100	0xbf64f2ce	-0.8943299
101	0xbe65ae99	-0.22429885
102	0xbe2ad983	-0.16684537
103	0x3ecb1076	0.39660996
104	0xc01b1426	-2.4231048
105	0x40378f0c	2.868106
106	0xbdf51aef	-0.11968028
107	0x3d57ff13	0.052733492
108	0x3d6c0a1a	0.05762682
109	0x3d556947	0.052102353
110	0xbf6c8cbc	-0.92402244
111	0x3cb38380	0.02191329
112	0xbef8e10d	-0.486092
113	0xbe35508d	-0.17706509
114	0x40510961	3.2661974
115	0xc07c910d	-3.9463532
116	0xbffc4802	-1.9709475
117	0xbf129079	-0.572517
118	0x40a6b63a	5.2097445
119	0xc0ac167d	-5.377745
120	0xbf2c6a0d	-0.6734932
121	0x3f8fb153	1.122599
122	0xbdce463b	-0.10071989
123	0x402ee5ed	2.7327836
124	0x4191da58	18.231613
125	0x40168c54	2.352315
126	0xbfb7998a	-1.4343731
127	0x402520b1	2.5801203
128	0x419cb78e	19.589626
129	0x3f881a9d	1.0633122
130	0xbf68ef36	-0.90990007
131	0x3dce8590	0.10084069
132	0xbf4e6a49	-0.8063093
133	0xbe48f05d	-0.19622941
134	0x3fb5b82c	1.419683
135	0xc0f48dcd	-7.6423097
136	0xbf7d6b0a	-0.98991454
137	0xbea4ab61	-0.32162002
138	0x402ae363	2.6701286
139	0xc10ad922	-8.678011
140	0xbedcf8ed	-0.43158665
141	0xbf9727a2	-1.180897
142	0x3e7becae	0.24602005
143	0x409584c3	4.6724563
144	0xc17e131c	-15.879665
145	0x40e7d4b7	7.244716
146	0xc0176b00	-2.3659058
147	0x408861db	4.2619452
148	0xc1575521	-13.458283
149	0x40ac6196	5.3869123
150	0xbf3588ee	-0.70912063
151	0x3e468f85	0.19390686
152	0x3e8fdc9f	0.28098008
153	0x3ffa0866	1.9533813
154	0x401e45f8	2.4730206
155	0x40b2d5fd	5.5886216
156	0x3e095c9e	0.13414237
157	0x3fbd3d49	1.4784328
158	0x405a81db	3.4141757
159	0x407febad	3.9987595
160	0xbf0af218	-0.54275656
161	0x3b7d569a	0.0038656355
162	0xbed39884	-0.41327298
163	0x4037465c	2.8636694
164	0x3d058388	0.03259614
165	0xbffea2b2	-1.9893401
166	0x3f1daeb9	0.6159473
167	0x4020c7fb	2.5122058
168	0x3f705b2b	0.9388911
169	0xc032dbad	-2.794658
170	0xbf5c20fb	-0.85987824
171	0xbeee8038	-0.46582198
172	0xbf9a8c2a	-1.2074025
173	0xbc8f7085	-0.017509708
174	0xc086485b	-4.1963325
175	0xc1266cc3	-10.401553
176	0x3f480c3a	0.78143656
177	0xbeaace4e	-0.33360523
178	0xc0365d8b	-2.8494594
179	0xc11dd13e	-9.8635845
180	0xbf836b89	-1.0267192
181	0xbf499b79	-0.7875286
182	0xbf09b82e	-0.5379666
183	0xc017934e	-2.3683658
184	0xc0f5a9ab	-7.6769614
185	0xc025aa45	-2.5885174
186	0xc01b60a2	-2.427773
187	0xc007ca59	-2.1217253
188	0xc0c034ba	-6.0064363
189	0xc04385f0	-3.05505
190	0xbfd6d65c	-1.6784167
191	0x3f270ed2	0.6525699
192	0x3f3b4c12	0.7316295
193	0xc0d657fa	-6.6982393
194	0x40f1dba7	7.558063
195	0x4106f79f	8.435454
196	0x3d7fca27	0.062448647
197	0xc0b8c0ad	-5.77352
198	0x40e9b50d	7.303351
199	0x40d820b2	6.753991
200	0xbeaa23a5	-0.3323032
201	0xbe67456d	-0.22585078
202	0x3ef0f29e	0.47060102
203	0xc07576ca	-3.8353753
204	0x40b052c0	5.5101013
205	0x41747082	15.277468
206	0xbf0e18c6	-0.5550655
207	0xbc6d50cd	-0.014484596
208	0xbd80cca8	-0.06289035
209	0xbb823380	-0.0039734244
210	0xbea51d53	-0.32248935
211	0xbc9eb61f	-0.019373951
212	0x3d2879cb	0.041131776
213	0x3ea8c693	0.32964
214	0x40ff06b6	7.969569
215	0x3f653178	0.8952861
216	0x3ec566f9	0.38555124
217	0x401b780f	2.4292028
218	0x4098da0c	4.776617
219	0xc0eea1c7	-7.457248
220	0xbe80f566	-0.25187224
221	0xbf3c62c5	-0.7358821
222	0x3ec5e373	0.38650092
223	0x3f2e5684	0.6810076
224	0xc0a81099	-5.252026
225	0x41081184	8.504276
226	0x3da87e91	0.082272656
227	0x402f4339	2.738478
228	0xc107b42b	-8.481486
229	0x3f4fc496	0.8115934
230	0xbf1d5cb2	-0.61469567
231	0x3ea424ee	0.32059425
232	0x3e339a7b	0.17539398
233	0xc0ca6f68	-6.3260994
234	0x411c99e5	9.787572
235	0x3fd8941c	1.6920199
236	0x3f8f569c	1.1198306
237	0xc081c97c	-4.0558453
238	0x40cd8378	6.4222984
239	0xc0c30c72	-6.095269
240	0xbe6c76d7	-0.23092209
241	0xbeff5cdc	-0.49875534
242	0x3e14e59c	0.14540714
243	0xbf4a2618	-0.78964376
244	0xc00c39f0	-2.1910362
245	0x3fa7ca45	1.3108603
246	0xbff92363	-1.9463924
247	0x3f86ff73	1.0546707
248	0xc08c477b	-4.3837256
249	0xc0b39973	-5.6124816
250	0x3d50690f	0.05088144
251	0xbfd1fd7c	-1.6405482
252	0xbdf0fb78	-0.11766714
253	0x40b19ff1	5.550774
254	0xc176a055	-15.414144
255	0xc04838f2	-3.1284757

penc0.bn.weight f4 [36]
0	0x3f86d83e	1.0534742
1	0x3f89b76e	1.0759103
2	0x3f25db00	0.6478729
3	0x3f1e83ca	0.61919844
4	0x3f6a8afd	0.9161833
5	0x3f476f86	0.77904546
6	0x3f56fe80	0.83982086
7	0x3f35ae77	0.7096934
8	0x3f60b57b	0.8777692
9	0x3f751eab	0.9574992
10	0x3f9b7ccd	1.2147461
11	0x3f5af138	0.8552432
12	0x3fa64b87	1.2991799
13	0x3f324c0a	0.69647276
14	0x3f8ed520	1.115879
15	0x3f155c7b	0.5834424
16	0x3f29cb80	0.6632614
17	0x3f8f3338	1.1187506
18	0x3f3f3f6c	0.7470615
19	0x3f8b9d10	1.0907307
20	0x3f4ac868	0.79212046
21	0x3f33723d	0.7009619
22	0x3f1f27c3	0.62170047
23	0x3f64049b	0.8906953
24	0x3f42f531	0.7615538
25	0x3f3a0454	0.72662854
26	0x3f0095b3	0.5022842
27	0x3f9016a1	1.1256906
28	0x3f859a55	1.0437723
29	0x3f8c646e	1.0968149
30	0x3f3b0e67	0.7306885
31	0x3f554afc	0.8331754
32	0x3f9c461b	1.2208894
33	0x3f815f1b	1.0107149
34	0x3f1323f5	0.5747674
35	0x3f71a034	0.94385076

penc0.bn.bias f4 [36]
0	0xbf039de9	-0.51412827
1	0x3e2b3f81	0.16723444
2	0x3db5ea0a	0.0888253
3	0xbd761adb	-0.060084205
4	0x3e2f68d8	0.17129838
5	0xbd534ce0	-0.051586986
6	0xbcb67d5a	-0.02227657
7	0x3ea07d26	0.3134548
8	0x3d69c1fb	0.05706976
9	0x3f083d9e	0.5321902
10	0xbd929ef8	-0.07159227
11	0x3e53a209	0.2066728
12	0x3dcebfc4	0.1009517
13	0xbdbf3e5a	-0.093380645
14	0x3e8c55be	0.27409166
15	0x3ead4089	0.338383
16	0x3db03f25	0.08605794
17	0x3de3197f	0.11088847
18	0x3e2971f9	0.16547383
19	0x3e36b43a	0.17842188
20	0x3e4f428a	0.20240226
21	0x3eb936dd	0.3617467
22	0x3ee67b15	0.4501578
23	0x3e4c6598	0.1996063
24	0x3e249cd8	0.16075456
25	0x3d1340de	0.035950534
26	0x3e0dd917	0.13852344
27	0x3f0b55cd	0.54427797
28	0x3e5530b2	0.20819357
29	0xbe236447	-0.15956222
30	0x3ef0fbd6	0.47067136
31	0x3d80de2d	0.06292377
32	0x3dce806a	0.10083087
33	0x3c5bb76a	0.013410429
34	0x3e39800c	0.18115252
35	0x3e78580b	0.24252336

penc0.bn.running_mean f4 [36]
0	0xc027c5f9	-2.6214583
1	0xc0a88b4c	-5.267004
2	0x4027b16b	2.6202037
3	0x3c43050c	0.011903059
4	0xbfc1d125	-1.5141951
5	0xc04c3118	-3.1904964
6	0xbfd25dfa	-1.6434929
7	0x408172af	4.0452495
8	0xc081e5d5	-4.0593057
9	0xbfb32896	-1.3996761
10	0xc02604d4	-2.5940447
11	0xc014b8e9	-2.323786
12	0xc0116b67	-2.2721803
13	0x405d5306	3.4581923
14	0xbfbccbf4	-1.4749742
15	0xbdbea38a	-0.09308536
16	0x4057f8c6	3.374559
17	0xc0299f93	-2.6503646
18	0x3fab521c	1.3384433
19	0xbfa689d8	-1.3010817
20	0xc03fdef0	-2.997982
21	0x40ca64eb	6.324819
22	0x4015c5cd	2.3401978
23	0xbd88e2fd	-0.066839196
24	0xbf817b7d	-1.0115811
25	0x40c49558	6.1432304
26	0x4076898e	3.8521457
27	0xc01959e1	-2.3961108
28	0xc024de77	-2.5760782
29	0xbff20850	-1.8908787
30	0x40a350fa	5.103635
31	0xc0904d90	-4.509468
32	0xc01472ed	-2.3195145
33	0xbfa86841	-1.3156816
34	0x4031c29b	2.7775028
35	0xc04ab408	-3.1672382

penc0.bn.running_var f4 [36]
0	0x40f24a60	7.571579
1	0x41cd8b95	25.693155
2	0x41328049	11.15632
3	0x41146e73	9.276965
4	0x4110f4ab	9.059733
5	0x41846bcc	16.552635
6	0x40f04675	7.5086007
7	0x41bb7bfd	23.435541
8	0x4112ab54	9.166828
9	0x40c7ff7c	6.249937
10	0x40cef71f	6.467666
11	0x411fd598	9.989647
12	0x40d55aed	6.6673493
13	0x40e71744	7.22159
14	0x40ea7c97	7.3277087
15	0x40ff943b	7.9868445
16	0x411827aa	9.509684
17	0x41126163	9.148776
18	0x411d42b5	9.828786
19	0x40b98bab	5.7982993
20	0x4159bcb6	13.608572
21	0x41849f00	16.577637
22	0x410e0807	8.87696
23	0x4151ac63	13.104587
24	0x41c6244f	24.767729
25	0x4165f224	14.371616
26	0x41459257	12.3482275
27	0x40f1321c	7.537367
28	0x40a44125	5.132952
29	0x40b2e13e	5.5899954
30	0x41958584	18.690193
31	0x411c2fe3	9.761691
32	0x40d719c6	6.721896
33	0x4110b9b7	9.045341
34	0x413c63ed	11.774396
35	0x416ae76d	14.6815

penc1.lin.weight f4 [36, 100]
0	0xbdfded7a	-0.12398811
1	0x3ed24f5e	0.41076177
2	0xbf267a33	-0.6503021
3	0xc086d0e0	-4.2129974
4	0x40ba06f5	5.8133492
5	0xc114b6f9	-9.294671
6	0xbec4d9ff	-0.38447568
7	0x3da2d0d5	0.07949988
8	0xbd04a64a	-0.032385148
9	0x3d9f3d38	0.077753484
10	0x3dd8d757	0.10587948
11	0x3e03d92d	0.12875815
12	0x3eb0c91a	0.34528428
13	0x3f215281	0.63016516
14	0xbfa32081	-1.2744294
15	0x412fa470	10.977646
16	0xbfcf1077	-1.61769
17	0x4034152d	2.8137925
18	0xc09d9ae9	-4.92516
19	0x41800f6e	16.007534
20	0x3c9e8715	0.019351522
21	0x3da93342	0.0826173
22	0xbf42745e	-0.7595881
23	0x3f37cad4	0.71793866
24	0x3f2268ff	0.6344146
25	0xc08002f7	-4.000362
26	0x3fba20ea	1.4541295
27	0x402c7538	2.6946545
28	0xc01c6988	-2.443941
29	0x3f5d0b71	0.86345583
30	0x3f0c3039	0.5476108
31	0x3d3b5542	0.045735605
32	0xbeb47584	-0.35245907
33	0x40e18304	7.047243
34	0xc0347ffd	-2.8203118
35	0x402f3ef2	2.7382169
36	0xbfb2266b	-1.3917974
37	0x410e9359	8.910974
38	0xc0a8deae	-5.2771826
39	0x40e142c2	7.039399
40	0x3f18f5e8	0.59750223
41	0x3ea945b7	0.33061
42	0xbef0ce8b	-0.4703258
43	0x40eee9bc	7.466032
44	0x4036e064	2.8574457
45	0x3ef0f3d5	0.4706103
46	0xbe91217d	-0.28345862
47	0x41091a5f	8.568938
48	0x3e3ad4d4	0.1824525
49	0x4091996e	4.549979
50	0xbe0f37d0	-0.13986135
51	0x3e2b0b9d	0.16703649
52	0xbeae978f	-0.34100005
53	0xc00a5d75	-2.1619542
54	0x3e9d2a76	0.30696458
55	0x3fcd63d0	1.6046085
56	0x3ececdf3	0.40391502
57	0xbe9869fd	-0.29768363
58	0xbff434d4	-1.9078622
59	0x40a609fa	5.188718
60	0x3f4640a5	0.7744239
61	0x3e60561c	0.21907848
62	0xbf9da13b	-1.2314829
63	0x4115f668	9.372658
64	0x3f1a123e	0.60184085
65	0xc12a22d3	-10.633502
66	0x3d9cfbfc	0.0766525
67	0x411c57d3	9.771441
68	0xbfc4df1e	-1.538059
69	0xc0c3a3bd	-6.1137376
70	0x3ea4f426	0.3221752
71	0x3f3596e9	0.70933396
72	0x3dfac591	0.12244714
73	0x4010fa6b	2.2652843
74	0x40ffa7d3	7.9892364
75	0x40ecdb64	7.401781
76	0xbf6b6663	-0.91953105
77	0x405ccd6e	3.4500384
78	0x40a6e15f	5.215011
79	0x411d6b83	9.838748
80	0xbfb4962c	-1.4108329
81	0xbf62abf5	-0.88543636
82	0xbf3132e6	-0.6921829
83	0xc196560b	-18.792013
84	0xc1519deb	-13.101054
85	0xbffff6a6	-1.9997146
86	0xbfda7185	-1.7065893
87	0xc16fa0ff	-14.976806
88	0xc157962d	-13.474164
89	0x3f948f4f	1.1606234
90	0x3d867afb	0.065664254
91	0x3e95182a	0.29119998
92	0xbee550ca	-0.447882
93	0xbf673346	-0.9031261
94	0x403b1cfb	2.9236438
95	0xbe52ed88	-0.20598423
96	0x3f451ca4	0.7699683
97	0x3eceed51	0.40415433
98	0x3f3d2767	0.7388825
99	0x4017a91c	2.3696966
100	0x3f4339dc	0.7626016
101	0xbead2b0f	-0.33821914
102	0x3e83ebe8	0.2576592
103	0x40922827	4.5674014
104	0xc06eaccf	-3.7292974
105	0x41141197	9.254294
106	0x3f22fc3a	0.6366612
107	0xbdc5fca7	-0.0966733
108	0x3d4e4d6a	0.050366797
109	0x3d90bb10	0.07066929
110	0x3f92e88b	1.1477216
111	0xbea612d0	-0.32436228
112	0x3e72fb86	0.23728761
113	0x40ec57d6	7.385722
114	0xc016beef	-2.3554037
115	0x40859d3f	4.175445
116	0x3e0cf0ac	0.13763684
117	0x40965f24	4.699114
118	0xbe579611	-0.2105334
119	0xbf27fe19	-0.656221
120	0x3f34d5f1	0.7063895
121	0xbeeecf2d	-0.46642438
122	0xbf541c4a	-0.82855666
123	0x3fbc4d4d	1.471109
124	0xc01a792c	-2.4136457
125	0xc14c53ca	-12.770456
126	0x3eda53b0	0.42641973
127	0xbf80e5e7	-1.0070161
128	0xbebf7515	-0.37394014
129	0xc18ef607	-17.87013
130	0x3f8a7c96	1.0819271
131	0xbf187780	-0.5955734
132	0x3e344fea	0.1760861
133	0x40ad2c40	5.4116516
134	0xc0e7aa90	-7.2395706
135	0x3f2e129b	0.6799714
136	0xbe25b457	-0.16182075
137	0x402bf0b6	2.6865668
138	0xc0a06801	-5.012696
139	0xc06f36fd	-3.7377312
140	0xbf10034c	-0.5625503
141	0xbe9757aa	-0.2955907
142	0xbf078617	-0.5293898
143	0xc14294f0	-12.161362
144	0x3e808135	0.25098577
145	0xc1222ad5	-10.135457
146	0xbfaa85b9	-1.3322059
147	0xc153e1a9	-13.242593
148	0x3fecc85b	1.8498644
149	0xc15742e0	-13.453827
150	0x3e7b4959	0.24539699
151	0xbf1bdcb4	-0.6088364
152	0x3f7c59ff	0.98574823
153	0xc07b3340	-3.925003
154	0xc0a3f066	-5.1230955
155	0x41600bc8	14.002876
156	0x400a93e9	2.1652777
157	0xc0ae3d1d	-5.44496
158	0xc05974d5	-3.3977559
159	0x410c510d	8.769788
160	0x3fc98029	1.5742236
161	0x3d83197f	0.06401347
162	0xbf265595	-0.6497434
163	0x4109332c	8.574993
164	0x408e530c	4.4476376
165	0xc12d2062	-10.820406
166	0x40097f38	2.1483898
167	0x40b581f7	5.672115
168	0x40abd04c	5.369177
169	0xc1519535	-13.0989275
170	0x3f8b20db	1.0869402
171	0xbe751bbc	-0.23936361
172	0xbdebe95e	-0.11519121
173	0x4095e583	4.6842666
174	0x3f6493cc	0.8928802
175	0xc05431bd	-3.3155358
176	0xbf5d0129	-0.86329895
177	0x402bce70	2.684475
178	0x4007962f	2.1185415
179	0xc0c5b9d9	-6.1789365
180	0x3e1796c8	0.14803612
181	0x3ec28981	0.37995532
182	0x3f05393d	0.52040464
183	0xc0824c92	-4.071847
184	0x40dbc6fd	6.8680406
185	0x40e8e304	7.277712
186	0xc0096d80	-2.1473083
187	0xc0a4bc04	-5.147951
188	0x40ee5286	7.4475737
189	0x405bfa56	3.4371543
190	0xbe5e7c53	-0.21727113
191	0xbd7b2ec9	-0.061323915
192	0x3ed622f4	0.41823542
193	0xc0d01039	-6.5019803
194	0x402eabb0	2.729229
195	0x405f4787	3.4887407
196	0xc014cc2b	-2.3249614
197	0xc0deb42b	-6.959493
198	0x405ebdb4	3.4803286
199	0x3ea40b57	0.32039902
200	0xbe831d1d	-0.2560815
201	0x3dfc0ff4	0.1230773
202	0x3db6add5	0.089198746
203	0x402d2ff1	2.706051
204	0x407eea8f	3.9830663
205	0xc013514e	-2.3018374
206	0x3f0c87cb	0.54894704
207	0x3d9e4665	0.077282704
208	0xbd59b297	-0.053148832
209	0x3d4c385d	0.04985844
210	0xbebcdfb4	-0.36889422
211	0xbe1b4578	-0.15163219
212	0x3f0ecdad	0.55782586
213	0xbf695733	-0.9114868
214	0xc0937f35	-4.609278
215	0x408d7c9d	4.4214616
216	0x3fd3794d	1.6521393
217	0xc015ce36	-2.340711
218	0xc0dfa38e	-6.988715
219	0x40b68d0b	5.704717
220	0x3e42753d	0.18990035
221	0xbee83683	-0.4535409
222	0xbeb16dcb	-0.34654078
223	0x40d151e8	6.5412483
224	0xc1129f8a	-9.16395
225	0xc137b79d	-11.482327
226	0xc045ae48	-3.0887623
227	0x40a6229b	5.1917243
228	0xc12e0cdf	-10.878142
229	0xc128d537	-10.552054
230	0xbe0abcf2	-0.1354864
231	0xbedc41b3	-0.43018875
232	0x3ec8a190	0.39185762
233	0x40454798	3.0824947
234	0xc1009575	-8.036489
235	0x3fad5d4d	1.3544098
236	0xbf1c535a	-0.61064684
237	0x3fc2d9d7	1.522273
238	0xc112dc27	-9.178748
239	0x401c22f6	2.4396338
240	0x3f2032d3	0.6257755
241	0xbe13d1ae	-0.14435455
242	0x3d968cbe	0.07351063
243	0x4157f621	13.49759
244	0xc08d818f	-4.4220653
245	0xbfa8d614	-1.3190331
246	0x3f2d3b26	0.6766838
247	0x41332ac9	11.197946
248	0xc0b1bd51	-5.55436
249	0xbec2a877	-0.38019153
250	0xbfa89b53	-1.3172401
251	0xbda0cb9e	-0.07851337
252	0x3f731f98	0.94970083
253	0xc153b367	-13.231299
254	0xc024f7f8	-2.5776348
255	0x410c025d	8.750577

penc1.bn.weight f4 [36]
0	0x3f891258	1.0708723
1	0x3f0b4a68	0.5441041
2	0x3f87f180	1.0620575
3	0x3f763146	0.96168935
4	0x3f7f4e8d	0.99729234
5	0x3f31fde1	0.69528013
6	0x3f51827c	0.8183973
7	0x3f1bcc38	0.6085849
8	0x3f8ea28a	1.1143353
9	0x3f843eb7	1.0331639
10	0x3f4151d3	0.7551548
11	0x3f587d08	0.8456578
12	0x3f49e448	0.78863955
13	0x3f95b3f3	1.1695541
14	0x3f1ca1ea	0.6118456
15	0x3f6fef2f	0.9372434
16	0x3f60b78f	0.8778009
17	0x3f438f83	0.76390857
18	0x3f27f66d	0.6561039
19	0x3f377aef	0.71671957
20	0x3f5826a5	0.84433967
21	0x3efca860	0.4934721
22	0x3f1ebf0f	0.6201028
23	0x3f713bbd	0.9423178
24	0x3fad863c	1.355659
25	0x3f5cac37	0.8620028
26	0x3f8b464a	1.0880826
27	0x3f69d164	0.9133513
28	0x3f6911cf	0.910428
29	0x3f48f69c	0.78501296
30	0x3f54c087	0.83106273
31	0x3f4f5707	0.8099217
32	0x3f89570a	1.0729687
33	0x3f7529eb	0.95767087
34	0x3f4b17a3	0.7933294
35	0x3f45e416	0.77301157

penc1.bn.bias f4 [36]
0	0x3dc4ffce	0.09619103
1	0x3e33b665	0.17550047
2	0x3e85b1b4	0.2611214
3	0x3d8b39d1	0.06798137
4	0x3c350a11	0.011049763
5	0x3f10ffad	0.5664013
6	0xbd217b39	-0.039424155
7	0x3d989eaf	0.074521415
8	0xbdcb36c0	-0.09922552
9	0x3e08167f	0.13289832
10	0x3e0ee50f	0.13954566
11	0x3e65d424	0.22444206
12	0x3e204074	0.15649587
13	0x3db9717c	0.090548486
14	0x3e62f1bd	0.22162528
15	0x3ebc1287	0.36732885
16	0xbda7076b	-0.08155712
17	0x3f00b623	0.5027792
18	0x3e093534	0.13399202
19	0x3d9b8d68	0.075953305
20	0x3e3c3d72	0.18382815
21	0x3e01ef02	0.1268883
22	0x3e4366d4	0.19082195
23	0x3e093739	0.13399972
24	0x3d0e74a9	0.034779225
25	0x3ec3dd87	0.3825495
26	0xbd9562bb	-0.07294222
27	0x3d7631ac	0.060105965
28	0x3ee12787	0.4397547
29	0x3d1c5772	0.03816933
30	0x3e3783ad	0.17921324
31	0x3e827820	0.25482273
32	0xbe20e8a9	-0.15713753
33	0x3d5feb3d	0.0546677
34	0x3e83bbf7	0.25729343
35	0x3e83f2e2	0.25771242

penc1.bn.running_mean f4 [36]
0	0xc01fd95c	-2.4976416
1	0xbf6b1f56	-0.9184469
2	0xbff5f915	-1.9216639
3	0xbf82e6a2	-1.0226634
4	0xc03ce239	-2.9513075
5	0x3f940f16	1.1567104
6	0xbfaf17d2	-1.3679144
7	0x3fc3efc6	1.5307548
8	0xbf9fbef7	-1.2480153
9	0xbfd8f6cb	-1.6950315
10	0x3f858865	1.0432249
11	0xbfc598b3	-1.5437225
12	0x3e1c4d93	0.15263967
13	0xc0072581	-2.111664
14	0xbfffff78	-1.9999838
15	0xc079fee5	-3.9061825
16	0xbfe0149c	-1.750629
17	0xc027c808	-2.621584
18	0x402a9ea0	2.6659317
19	0x3e7d1aa4	0.24717194
20	0xc091bb56	-4.554118
21	0x40c91255	6.283488
22	0xbfb48653	-1.4103492
23	0x406c6b19	3.6940367
24	0xc1076c89	-8.463998
25	0x3f9a0568	1.20329
26	0xbf4eccbf	-0.8078117
27	0xc0b09dd4	-5.519266
28	0x3ded9ddc	0.11602375
29	0xc024ce57	-2.575094
30	0xc079f045	-3.90529
31	0x40c059cc	6.0109615
32	0xbf37cace	-0.7179383
33	0xc0a58ca4	-5.173418
34	0x408262dc	4.074568
35	0xc0aacb4b	-5.337316

penc1.bn.running_var f4 [36]
0	0x410db430	8.856491
1	0x4147fb13	12.498797
2	0x4101f759	8.122888
3	0x40ff72a5	7.9827447
4	0x40bc4969	5.883961
5	0x40ce489f	6.446365
6	0x411d8323	9.844516
7	0x4143eb76	12.244986
8	0x40f96830	7.793968
9	0x40ed6e0d	7.419684
10	0x40ed5489	7.416569
11	0x411e4b58	9.893394
12	0x40ef6a10	7.481697
13	0x40d7627c	6.730772
14	0x416fc0c8	14.984566
15	0x40e6ebc1	7.2162786
16	0x411ca586	9.790411
17	0x40efa3f9	7.488766
18	0x41369695	11.411763
19	0x413a84c3	11.657413
20	0x412bc2a4	10.73502
21	0x41939e2a	18.452229
22	0x41882f0f	17.022978
23	0x411f6ad1	9.963578
24	0x4263bf97	56.9371
25	0x410b5875	8.709096
26	0x41012bd0	8.073196
27	0x4158875c	13.533047
28	0x40c4ed31	6.153954
29	0x4157dadc	13.490932
30	0x41b39781	22.448977
31	0x41520a3b	13.127498
32	0x40f43ba4	7.6322803
33	0x41b42981	22.520266
34	0x4133b371	11.231309
35	0x4117e052	9.492266

kenc0.encoder.0.weight f4 [8, 3, 1]
0	0x3f74e4bd	0.95661527
1	0x3e89865f	0.2686033
2	0x401061e5	2.255975
3	0xbf2fe157	-0.68703216
4	0xbfe9fa6b	-1.8279546
5	0x402037fe	2.5034175
6	0x3f7a1706	0.9769138
7	0x3f902758	1.1262007
8	0xbfa86c6d	-1.3158089
9	0xbf4f1e34	-0.8090546
10	0x3e78f0c8	0.24310601
11	0xbffeea22	-1.9915202
12	0x3fb2ad00	1.3959045
13	0xbfb61687	-1.4225625
14	0x3f66c731	0.9014769
15	0xbe814a72	-0.2525211
16	0x3dc137bc	0.094344586
17	0x406e2c35	3.7214482
18	0x3f8c0954	1.0940347
19	0xbf3baa22	-0.7330648
20	0x400c0079	2.1875288
21	0x400e018b	2.2188442
22	0xbea294d2	-0.31754166
23	0x3f768527	0.96296924

kenc0.encoder.0.bias f4 [8]
0	0x3fc2bbf3	1.5213608
1	0xbfd123c8	-1.6339045
2	0xbfe50780	-1.7892914
3	0x3fc2ef7a	1.5229332
4	0xbfc9f3e4	-1.5777555
5	0xc01bff1c	-2.4374456
6	0xbfabbc34	-1.341681
7	0xbdf4059f	-0.11915135

kenc0.encoder.1.weight f4 [8]
0	0x400632ab	2.0968425
1	0x40419892	3.0249372
2	0x4003ba25	2.0582364
3	0x3d9f7a6c	0.07787022
4	0x400e29c0	2.2212982
5	0x40671a64	3.6109858
6	0x3fccb746	1.5993431
7	0x4017cb2d	2.3717759

kenc0.encoder.1.bias f4 [8]
0	0xbed5e9b5	-0.41779867
1	0x3f187ef5	0.5956872
2	0xbfc1727e	-1.5113065
3	0xbe950fce	-0.2911362
4	0x3ce105af	0.02746853
5	0x3e66e539	0.22548379
6	0xbf63af0b	-0.8893897
7	0x3c182e30	0.009288356

kenc0.encoder.1.running_mean f4 [8]
0	0x3fc2bbf4	1.5213609
1	0xbfd123c9	-1.6339046
2	0xbfe50779	-1.7892905
3	0x3fc2ef7a	1.5229332
4	0xbfc9f3de	-1.5777547
5	0xc01bff16	-2.4374442
6	0xbfabbc2e	-1.3416803
7	0xbdf4059c	-0.119151324

kenc0.encoder.1.running_var f4 [8]
0	0x3f84b159	1.0366622
1	0x3fc7bfa2	1.5605357
2	0x3f20dab2	0.628337
3	0x3f46ab92	0.77605546
4	0x3f4860cb	0.78272694
5	0x40121279	2.2823775
6	0x3f88410a	1.0644848
7	0x3f8636ea	1.0485508

kenc0.encoder.4.weight f4 [16, 8, 1]
0	0xbf8b04d3	-1.0860847
1	0xbfa4e01e	-1.2880895
2	0x4083efc2	4.1230173
3	0xbd8616fd	-0.065473534
4	0xbed6ec86	-0.41977328
5	0xbf7026cc	-0.938092
6	0xbf4d483d	-0.8018835
7	0xbda7b52a	-0.08188851
8	0x4055b599	3.3392088
9	0xbe81260e	-0.25224346
10	0xbf07a693	-0.5298855
11	0xbf16b39f	-0.5886783
12	0xbd156c8a	-0.036480464
13	0x3f9bd55e	1.217449
14	0x40180a41	2.3756258
15	0xbf8add42	-1.0848773
16	0xbb86d68f	-0.004114933
17	0xbf840180	-1.0312958
18	0x409746fa	4.727414
19	0xbf9ee44f	-1.2413424
20	0xbf055d1c	-0.520952
21	0xbd7be2e6	-0.061495684
22	0x3ec974c2	0.39346892
23	0xbecffa0e	-0.40620464
24	0x3f3aae1f	0.7292194
25	0xbff8cc82	-1.9437411
26	0xbeba879a	-0.3643158
27	0x3f4e87e5	0.8067611
28	0xbd9d438d	-0.076789
29	0x403135fd	2.7689202
30	0x3f93c069	1.1543094
31	0xbe8f2b18	-0.27962565
32	0xc037a5fe	-2.8695064
33	0x3e92a4b6	0.2864129
34	0x3f6862f4	0.9077599
35	0x3ea29619	0.3175514
36	0xbfedace0	-1.8568382
37	0xc00307e0	-2.0473557
38	0x3f443c69	0.7665468
39	0xbffc2cbe	-1.9701154
40	0xbda016b5	-0.07816831
41	0x402a2325	2.658395
42	0xbeffd241	-0.49965099
43	0x3f65cecf	0.8976869
44	0xbf7ca85d	-0.986944
45	0xbed078a7	-0.4071705
46	0xbf6e98ed	-0.93202096
47	0x3eca3bb9	0.3949869
48	0xbf12df84	-0.5737231
49	0xbfe06554	-1.7530923
50	0xbf583c62	-0.84467137
51	0x3ec9b6d4	0.393973
52	0xbfd727ed	-1.6809059
53	0xbf3c67ad	-0.73595697
54	0x3f7ccea3	0.987528
55	0xbf94203a	-1.1572335
56	0x3e6d4b91	0.23173358
57	0xbf98ffc8	-1.1953058
58	0xbebbe3de	-0.36697286
59	0x3ecdd178	0.40198874
60	0xbf857eeb	-1.0429357
61	0xbf8e329d	-1.1109196
62	0xbf6bf509	-0.9217077
63	0x403b4876	2.9262977
64	0xc0066576	-2.0999427
65	0x3e0c7ef7	0.13720308
66	0x3d0e8683	0.03479625
67	0x3f09cac9	0.5382505
68	0xc07f741e	-3.9914622
69	0xbf883913	-1.0642418
70	0x3e9ebba2	0.31002527
71	0xc01527af	-2.330547
72	0x3e038466	0.12843475
73	0xbf23dddc	-0.64010406
74	0x4099f434	4.81106
75	0x3ef8ea75	0.48616377
76	0xbf81a966	-1.0129821
77	0xbefaab20	-0.48958683
78	0x3ed16f48	0.40905213
79	0xbf812e55	-1.0092264
80	0xc071a39d	-3.7756112
81	0xbd6d3a38	-0.05791685
82	0xbf26b257	-0.65115875
83	0xbf1659ff	-0.58731073
84	0xbe9ddd8e	-0.30833095
85	0xc06f5545	-3.7395794
86	0xbf5ba19f	-0.8579349
87	0xbe8c144d	-0.27359238
88	0xbf6c93d3	-0.9241306
89	0x3d39b0d7	0.045334663
90	0x3f8c4989	1.0959941
91	0xbecac063	-0.39599904
92	0xbe4c9479	-0.19978513
93	0x40ad2188	5.410343
94	0x3f0d0c58	0.5509696
95	0xbec38a73	-0.38191566
96	0xc0803c4f	-4.007362
97	0x3e663655	0.22481664
98	0xbf1b4f64	-0.60668015
99	0xbf10af2b	-0.56517285
100	0xc00175ad	-2.0228074
101	0xc03c78c2	-2.9448705
102	0xbedcecbc	-0.43149364
103	0xbf72a939	-0.94789463
104	0xbf886395	-1.065539
105	0xbfcecd8f	-1.6156482
106	0xc0386e75	-2.8817418
107	0xbcb72e70	-0.02236101
108	0x3e90bafa	0.28267652
109	0xc02a7021	-2.6630938
110	0x3ec1cd46	0.37851924
111	0xbf09c838	-0.53821135
112	0xbc348fb3	-0.011020589
113	0x3f907a61	1.1287347
114	0xbe9171b6	-0.28407067
115	0xbf882f45	-1.0639426
116	0x4002e64d	2.0453064
117	0x3fbf137b	1.492782
118	0x3fcc6ae4	1.597012
119	0x3fab0580	1.3361053
120	0xbf21eaf6	-0.63249147
121	0xbfdc25ab	-1.7198995
122	0xbf169eab	-0.5883586
123	0x3eaa1171	0.33216432
124	0xc02fe08e	-2.7480807
125	0x3d8abcc6	0.06774287
126	0xbe51d71e	-0.20492217
127	0xc00ebe33	-2.2303588

kenc0.encoder.4.bias f4 [16]
0	0xbfb7b5c0	-1.4352341
1	0xbf1f3e54	-0.6220448
2	0xbf7fc90d	-0.99916154
3	0xbfcef075	-1.6167132
4	0xbd548da5	-0.051892895
5	0x3fd44528	1.6583605
6	0x3f5b542e	0.85675323
7	0x3fac5f84	1.3466649
8	0xbe0b74e9	-0.13618816
9	0x4006d376	2.1066566
10	0xbf1c78d4	-0.6112187
11	0xbe800ba5	-0.25008884
12	0x3e5fec18	0.21867406
13	0x3f21110c	0.62916636
14	0x3f99e8fd	1.2024227
15	0x3df31f8e	0.11871253

kenc0.encoder.5.weight f4 [16]
0	0x3f9cb7ee	1.2243631
1	0x4018d829	2.3881934
2	0x4027324f	2.6124456
3	0x3fcf841d	1.6212193
4	0x405d6cbe	3.459762
5	0x4014fc8b	2.327914
6	0x4017ca56	2.3717246
7	0x3ed24191	0.41065648
8	0x3fc64e83	1.549271
9	0x3fe86b9e	1.8157842
10	0x4035d5e9	2.841181
11	0x402c1167	2.6885622
12	0x4025fab3	2.5934265
13	0x4072ace9	3.7918036
14	0x3fea6938	1.831336
15	0x3fe85801	1.8151857

kenc0.encoder.5.bias f4 [16]
0	0xbf919f57	-1.1376752
1	0x3bf99955	0.0076171556
2	0xbf72017e	-0.94533527
3	0xbee17273	-0.4403263
4	0xbf1a717a	-0.603294
5	0xbf30ff6b	-0.69139737
6	0xbee92dd9	-0.4554279
7	0xc00df59f	-2.2181165
8	0xbfd386e9	-1.6525546
9	0xbfc54eb8	-1.5414648
10	0x3e3b0195	0.18262322
11	0xbe6f8962	-0.23392251
12	0xbf434450	-0.7627611
13	0x3f4fa3a0	0.81109047
14	0x3ee21421	0.44155982
15	0xbf8f4561	-1.1193048

kenc0.encoder.5.running_mean f4 [16]
0	0xc0a39c34	-5.112818
1	0x4021dc70	2.5290794
2	0xc006652c	-2.099925
3	0x3e0fdb56	0.14048514
4	0xc0f7c5f4	-7.742914
5	0x40830a6b	4.0950217
6	0xc0bc7958	-5.8898125
7	0xbf1444e6	-0.5791763
8	0xc10a6033	-8.648486
9	0x3cd2bdbe	0.025725242
10	0xc11f6273	-9.961535
11	0x40f44f44	7.634676
12	0xc11a5aa4	-9.647129
13	0xc0f46d20	-7.638321
14	0x410bfce7	8.749244
15	0xc0f38bca	-7.610814

kenc0.encoder.5.running_var f4 [16]
0	0x425c11a5	55.01723
1	0x4231d032	44.453316
2	0x41c119a8	24.137527
3	0x42107d1b	36.122173
4	0x42c89e51	100.30921
5	0x41acadd1	21.584871
6	0x4240ab55	48.167316
7	0x41fddb8e	31.732204
8	0x42e47551	114.22913
9	0x41f49ae8	30.575638
10	0x432b966e	171.58762
11	0x4310c077	144.75182
12	0x43205bb0	160.35815
13	0x42afea64	87.957794
14	0x429c1a81	78.051765
15	0x429a6e24	77.21512

kenc0.encoder.8.weight f4 [32, 16, 1]
0	0xbea13cfc	-0.3149184
1	0xc052a726	-3.291452
2	0xbf861226	-1.0474288
3	0xbfab5f01	-1.3388368
4	0xbc6c0ffa	-0.014408106
5	0xbffc5729	-1.9714099
6	0xbd8bb8c7	-0.06822353
7	0x3e1cc838	0.15310752
8	0x3f0e3401	0.555481
9	0xbfe117a5	-1.7585341
10	0x3f2edb3e	0.6830329
11	0xc02b80b1	-2.6797297
12	0x3e9ce8d2	0.30646378
13	0x3e367704	0.17818838
14	0xc04b0ef5	-3.172788
15	0xbf763452	-0.96173584
16	0x3f825d2b	1.0184683
17	0x3f4acd76	0.7921976
18	0x3f0d7ffe	0.55273426
19	0x3fac61e4	1.3467374
20	0x3f997143	1.198769
21	0x3e799398	0.24372709
22	0xbf2193c2	-0.63116086
23	0x4009d930	2.153881
24	0x3f70ff7e	0.9413985
25	0x3f84c99f	1.037403
26	0xbf335590	-0.70052433
27	0x3fd0e0c6	1.6318595
28	0xbe297ad4	-0.16550761
29	0x3d4c8670	0.049932897
30	0x3f964378	1.173934
31	0xbf29c0f9	-0.6631008
32	0x40072783	2.1117866
33	0x3f880d76	1.0629108
34	0x406bcdb7	3.6844308
35	0x3f9469d4	1.1594796
36	0x4006477a	2.0981126
37	0xbf8b34d9	-1.0875503
38	0xbfe42cd9	-1.7826186
39	0xb8057ea3	-3.182761e-05
40	0x3f2472ed	0.6423786
41	0x3ff10b93	1.8831657
42	0x3f83ac2f	1.0286921
43	0x3ee7c8a1	0.45270255
44	0x3f7f14d9	0.99641186
45	0xbf58c9c7	-0.8468289
46	0xbea1adc1	-0.31577876
47	0xbfaea76d	-1.3644844
48	0x3ed08f61	0.4073439
49	0x4029c746	2.6527877
50	0x3f089b76	0.53362215
51	0x3f90973a	1.1296151
52	0xbfe231a8	-1.7671404
53	0x3f5defd7	0.8669409
54	0x3d9742e6	0.07385807
55	0x3b35f062	0.0027761688
56	0x3f09a3a1	0.537653
57	0x3f19f65e	0.6014155
58	0xc027c24f	-2.6212347
59	0x3ff1a366	1.887799
60	0xbfc3603d	-1.5263745
61	0xc004ad5e	-2.0730815
62	0x3f76b16f	0.9636449
63	0xbf20856e	-0.627036
64	0x3fb4d173	1.4126419
65	0x3d37ce72	0.044874616
66	0x40a10681	5.032044
67	0x3e089184	0.1333676
68	0x400e730f	2.2257726
69	0xbe39571c	-0.18099636
70	0xbf42ee6e	-0.76145065
71	0x3c84b282	0.0161984
72	0x3ee656d1	0.4498811
73	0x4013b5f5	2.3079808
74	0x3f9366b6	1.151572
75	0x3e1280fa	0.14307013
76	0x3fb3140f	1.3990496
77	0xbfa90afa	-1.3206475
78	0x3e151c60	0.14561605
79	0xbf966b0b	-1.1751417
80	0xbe3203f8	-0.17384326
81	0xbf167e46	-0.5878643
82	0xbe821df8	-0.2541349
83	0x3e73348e	0.23750517
84	0x3d977197	0.073947124
85	0xbe9f462d	-0.31108227
86	0xbe0accee	-0.13554737
87	0x3dd50a48	0.104023516
88	0x3e81b689	0.25334576
89	0xbe244f8c	-0.1604597
90	0x3ea63d7e	0.3246879
91	0xbeee8247	-0.4658377
92	0x3d77484c	0.060371682
93	0x3f1300ad	0.57422906
94	0xbe80fe6f	-0.25194117
95	0x3e8c20b0	0.2736869
96	0x400a0788	2.1567097
97	0x3e4589cb	0.19290845
98	0x408cab77	4.395931
99	0x3f5e4440	0.8682289
100	0x401cda40	2.450821
101	0x3f576df6	0.8415216
102	0x3ec92e78	0.39293265
103	0xbcd4facd	-0.025998497
104	0x3f47c996	0.7804197
105	0x4086420a	4.1955614
106	0x3f69f094	0.9138272
107	0xbe94ad69	-0.2903855
108	0x3f3bc767	0.7335114
109	0x3f537f35	0.8261598
110	0xbf0e9912	-0.55702317
111	0x3f1c9af7	0.6117396
112	0x3ee908c3	0.45514497
113	0xbe57e492	-0.21083286
114	0x3f355152	0.7082721
115	0xbf2a12dd	-0.66435033
116	0x400776ed	2.1166337
117	0x4039720e	2.8975863
118	0x3ee32f2b	0.44371924
119	0xbf8ef7cb	-1.116937
120	0x3f824da6	1.0179946
121	0x3d9b819d	0.07593081
122	0x3f9a2547	1.2042626
123	0xbeb7c3f5	-0.3589169
124	0x3f80356b	1.0016302
125	0x3f8b9fe6	1.0908172
126	0xbf9553f3	-1.1666244
127	0x3e89b041	0.26892284
128	0x3f3d9fc6	0.7407192
129	0xc02edcc9	-2.7322257
130	0x3eaf5dba	0.34251195
131	0xbfa18591	-1.2618886
132	0xbeab9f99	-0.335202
133	0xbfb6d82a	-1.4284718
134	0x3fa69c31	1.3016416
135	0xbe810fdf	-0.2520742
136	0x3ef9fa80	0.4882393
137	0x3e587366	0.21137771
138	0x3fbaab9c	1.4583621
139	0xc0553b27	-3.3317354
140	0x3f52d614	0.8235791
141	0x3f9bbf02	1.2167666
142	0xbffaeb68	-1.960309
143	0x3f197e47	0.5995831
144	0x3dda68bd	0.106645085
145	0xc004791b	-2.0698917
146	0x3f2f6a13	0.6852123
147	0x3dc89af2	0.097951785
148	0x402c671b	2.693793
149	0x3ecbcc14	0.39804137
150	0x40206e33	2.506726
151	0xbfa26b76	-1.2689044
152	0xbf022350	-0.5083513
153	0x3f46484a	0.77454054
154	0x3fdaa5ae	1.7081811
155	0xbfb5f62e	-1.4215753
156	0x4009333a	2.1437516
157	0x3f8d0a04	1.1018682
158	0xbf47f4f4	-0.78108144
159	0x3fdeefee	1.7416971
160	0xbf51fc35	-0.8202546
161	0xbf99a4be	-1.20034
162	0x3f4d7b52	0.80266297
163	0x3f2197a5	0.63122016
164	0x40202984	2.502534
165	0xbd305a0c	-0.043054625
166	0xbf7bc93f	-0.9835395
167	0xbffd8d4d	-1.9808747
168	0x3f4663de	0.77496135
169	0x3e9949c2	0.29939085
170	0x3f37df15	0.7182477
171	0xbfccba9a	-1.5994446
172	0x3f8af3d9	1.0855666
173	0xbf9a1a8b	-1.203935
174	0xbedb9dc1	-0.42893794
175	0xbf144724	-0.5792105
176	0xbec17f6f	-0.37792537
177	0xc015d643	-2.3412025
178	0xbebfd21d	-0.3746499
179	0xc026b61b	-2.6048648
180	0xbf209910	-0.62733555
181	0xc00b625e	-2.1778789
182	0xc0037f78	-2.054655
183	0x3e9bc1f3	0.3042141
184	0xbda33992	-0.07969965
185	0x3ec7758f	0.38956878
186	0x3f23e6c9	0.64024025
187	0xc0012371	-2.0177882
188	0x3e0051f9	0.1253127
189	0x3eec9b56	0.46212262
190	0xc0101c8c	-2.2517424
191	0xbf840d56	-1.031657
192	0x3fd39268	1.6529055
193	0xbf3a6377	-0.7280802
194	0x402ddc71	2.7165797
195	0xbf005d09	-0.5014196
196	0xbf0d8322	-0.5527822
197	0xbf1bfec4	-0.60935616
198	0xbf097ba0	-0.5370426
199	0xbf4f5a15	-0.8099683
200	0xc0322adb	-2.7838657
201	0x3fbb6aa8	1.4641924
202	0xc0274e03	-2.6141365
203	0xbec0cec6	-0.37657756
204	0xbf9d3cea	-1.2284214
205	0xc0039e6f	-2.056545
206	0xbeea929d	-0.45814982
207	0xbe15bf9e	-0.14623877
208	0x3faadfe0	1.3349571
209	0xbfd28fb2	-1.6450102
210	0x4013460d	2.3011506
211	0xc00680df	-2.1016157
212	0xbf3081bb	-0.68947953
213	0xc013e2cd	-2.3107178
214	0x3e36fd76	0.17870125
215	0x3eb2f1c5	0.3495008
216	0xbfe562ac	-1.7920737
217	0x3fcaa810	1.5832539
218	0x3f58be1d	0.8466509
219	0xc015ab5d	-2.3385842
220	0x3f148625	0.5801719
221	0x3d7b6dea	0.06138412
222	0xbfe0ba9e	-1.7556951
223	0xbec78b45	-0.38973442
224	0xbed9863d	-0.42485228
225	0xbf620a8f	-0.8829736
226	0xbf241a54	-0.64102674
227	0xc024f9d8	-2.5777493
228	0x3f517cc7	0.8183102
229	0xbd225905	-0.039635677
230	0xc03db4c1	-2.9641573
231	0x3ebd7005	0.36999527
232	0x3f5fe340	0.8745613
233	0x3f1559a9	0.58339936
234	0x3f383061	0.7194882
235	0xbfdec268	-1.7403078
236	0x3e4045d5	0.18776639
237	0x3ebbaeb8	0.36656737
238	0xbf5ceef2	-0.863021
239	0xc0073eae	-2.1132007
240	0x3e737d34	0.2377823
241	0xbfc7f4b1	-1.5621549
242	0xbeeecd4f	-0.46641013
243	0xbf230874	-0.63684773
244	0xc00f9ba5	-2.2438748
245	0xbfaa4c50	-1.3304539
246	0x3e472365	0.19447096
247	0x3f426976	0.7594217
248	0xc010f1d6	-2.2647605
249	0xbf82cd96	-1.021899
250	0xc024d8c4	-2.5757303
251	0xbf9744d9	-1.1817886
252	0xc01917cd	-2.3920777
253	0xbf773a8a	-0.965737
254	0xbf794718	-0.97374105
255	0x3e95f2ce	0.29286808

kenc0.encoder.8.bias f4 [32]
0	0x3f197600	0.5994568
1	0xbe1b86ed	-0.15188189
2	0xbf5caaf5	-0.8619836
3	0xbfec04f7	-1.8439015
4	0x3f045523	0.5169241
5	0xbe879d6a	-0.26487285
6	0xbf70ec15	-0.9411023
7	0xbe91bb82	-0.2846337
8	0xbe9792c6	-0.29604167
9	0x3ea4c77b	0.32183442
10	0x3f7e53ed	0.9934681
11	0xc012da91	-2.2945902
12	0xbf6f6755	-0.9351705
13	0x3f276053	0.65381354
14	0xbf1ef1a4	-0.62087464
15	0x3ef1daf7	0.4723737
16	0xbeaa5120	-0.33265018
17	0xbfb498e6	-1.4109161
18	0xbd6143c7	-0.054996278
19	0xbf26294a	-0.6490675
20	0xbeedd5f4	-0.46452296
21	0xbf46569d	-0.7747591
22	0xbfaf9d9f	-1.3719977
23	0x3f426d1d	0.75947744
24	0xbf74509c	-0.954355
25	0x3f13c134	0.5771668
26	0xbe98dc45	-0.29855552
27	0xbf3765f9	-0.7163997
28	0xbea59750	-0.32342005
29	0xbeec3088	-0.46130776
30	0xbfbc5cad	-1.4715782
31	0xbeab7369	-0.33486488

kenc0.encoder.9.weight f4 [32]
0	0x403cdf87	2.951143
1	0x3f8bc4fe	1.0919492
2	0x403db36c	2.964076
3	0x3fa4b5b1	1.2867948
4	0x405a89a1	3.4146502
5	0x3ef7d335	0.48403326
6	0x407ab8e3	3.9175346
7	0x3ebf4e2d	0.3736433
8	0x402a39ca	2.6597772
9	0x3f6554ef	0.89582723
10	0x400ffa16	2.249639
11	0x3f851f18	1.0400114
12	0x3f385b8c	0.7201469
13	0x3f1d49dc	0.61440825
14	0x3fabfb5d	1.3436085
15	0x3f27a6b3	0.6548874
16	0x404d3cf8	3.2068462
17	0x3f2955b0	0.66146374
18	0x3f2ddc66	0.67914426
19	0x4016106d	2.3447526
20	0x3fe4992b	1.7859243
21	0x3fb71a4d	1.4304901
22	0x3e1b8326	0.15186748
23	0x3f96c177	1.1777791
24	0x3f99a91f	1.2004737
25	0x404ec6f7	3.2308939
26	0x402d7959	2.7105315
27	0x4023745d	2.5539773
28	0x3ef613de	0.48062032
29	0x3eb23c5f	0.34811684
30	0x3fab36d9	1.3376113
31	0x4030ee97	2.7645624

kenc0.encoder.9.bias f4 [32]
0	0xbeda365c	-0.42619598
1	0xbfc71196	-1.5552242
2	0xbf20baf0	-0.62785244
3	0x3f0882dc	0.53324676
4	0x3f4cfaf4	0.80070424
5	0xbf3931d5	-0.7234166
6	0xbdfcf942	-0.1235223
7	0xc00e9d16	-2.2283378
8	0x3fbaa936	1.4582889
9	0x3db08abe	0.08620213
10	0xbec9eddc	-0.39439285
11	0xbfabb09d	-1.3413273
12	0xbfc402c6	-1.5313346
13	0x3f10f569	0.56624466
14	0xc00e0c6f	-2.219509
15	0xbfc5a72c	-1.5441642
16	0xbe471f46	-0.19445524
17	0xc03c8a23	-2.9459312
18	0xbe0200ee	-0.12695667
19	0xbe274b8c	-0.16337413
20	0x3ef7b7a7	0.48382303
21	0x3e39856a	0.181173
22	0xc02ad4ea	-2.6692452
23	0xc033faee	-2.8121905
24	0x3f54fc1d	0.83197194
25	0xbea7e7f7	-0.32794163
26	0xbe9733c6	-0.29531687
27	0x3edd751a	0.43253404
28	0x3ec958cc	0.3932556
29	0xbfa4ee79	-1.2885276
30	0xbe12c1d9	-0.1433176
31	0x3f83e00a	1.0302746

kenc0.encoder.9.running_mean f4 [32]
0	0xc119d269	-9.61387
1	0x408e5fbf	4.4491878
2	0x405cf292	3.4523053
3	0xc0a4f903	-5.155397
4	0x40a6f096	5.2168684
5	0xbe24409c	-0.16040272
6	0x410f626c	8.961529
7	0x40dd2a8d	6.911444
8	0xc06d04b8	-3.703413
9	0x40e98b06	7.2982206
10	0xbf192c15	-0.5983289
11	0xc1397764	-11.591648
12	0xc11f3f5d	-9.95297
13	0xc093e6b9	-4.6219144
14	0xc0a46139	-5.136868
15	0xc150960c	-13.036633
16	0xc1323be3	-11.139621
17	0x4176df3d	15.429502
18	0xc122e136	-10.179983
19	0xc0f92766	-7.7860594
20	0xc0c4d55e	-6.151046
21	0xc07d4240	-3.9571686
22	0x4163f151	14.246415
23	0x412e159c	10.880276
24	0xc0fb58f8	-7.8546104
25	0xc0f27112	-7.5763025
26	0xc132c345	-11.172673
27	0xc1655dad	-14.33537
28	0x3fa9b254	1.3257546
29	0xc1578b36	-13.471487
30	0xc1568e8f	-13.409804
31	0x413b1238	11.691948

kenc0.encoder.9.running_var f4 [32]
0	0x43abb64a	343.42413
1	0x42726119	60.594822
2	0x42d1e665	104.94999
3	0x439cfadf	313.95993
4	0x431cf6f5	156.96468
5	0x41378f1c	11.472439
6	0x43317500	177.45703
7	0x42737973	60.868603
8	0x43bec671	381.55032
9	0x4357563d	215.33687
10	0x4245b7a0	49.42932
11	0x4360f077	224.93932
12	0x42a71426	83.53935
13	0x437fffc2	255.99905
14	0x42a0ddfd	80.43357
15	0x423c9804	47.148453
16	0x44056e43	533.72284
17	0x42939cee	73.8065
18	0x43776726	247.40292
19	0x440d73fb	565.8122
20	0x440286c4	522.1057
21	0x42f4559c	122.167206
22	0x42a162e6	80.69316
23	0x42278642	41.88111
24	0x43be0422	380.0323
25	0x4412da56	587.4115
26	0x43fa880e	501.06293
27	0x4391c48c	291.53552
28	0x437a0bbd	250.04585
29	0x4223febd	40.998768
30	0x4329f337	169.95006
31	0x432bd80b	171.84392

kenc0.encoder.12.weight f4 [64, 32, 1]
0	0xbe08cb33	-0.13358764
1	0xbe6f0ed0	-0.23345494
2	0x3e3afcf9	0.18260564
3	0xbe1df8b3	-0.15426902
4	0xbe02e580	-0.1278286
5	0xbf078705	-0.529404
6	0xbe17ab05	-0.14811333
7	0xbe172492	-0.14760044
8	0xbec73e49	-0.38914707
9	0xbd9027cb	-0.0703884
10	0xbd84f17d	-0.06491373
11	0x3e869506	0.2628557
12	0x3eba6dcc	0.36411893
13	0x3e2a4aa6	0.16630039
14	0x3e779d92	0.24181202
15	0xbde3d8b4	-0.11125317
16	0xbe12b1a9	-0.14325584
17	0xbe826e0d	-0.25474587
18	0xbd82ef52	-0.06393303
19	0xbf5032ff	-0.81327814
20	0x3dccb582	0.09995557
21	0xbe2a191a	-0.16611138
22	0xbe88c4cc	-0.26712644
23	0xbe97433d	-0.29543486
24	0xbd8d0b73	-0.068869494
25	0xbc83027d	-0.015992397
26	0x3f1d8482	0.61530316
27	0xbe27a72b	-0.16372363
28	0xbeba15ae	-0.36344665
29	0xbc8bebce	-0.017080214
30	0xbe28cc4d	-0.16484185
31	0xbf6c0ea1	-0.9220982
32	0x3eb239cc	0.3480972
33	0xbe258a76	-0.161661
34	0x3eb88bf3	0.36044273
35	0x39975ec7	0.0002887158
36	0x3ca0ef72	0.019645426
37	0xbe7d16d2	-0.24715737
38	0x3e90087d	0.28131476
39	0xbed3f8b9	-0.41400698
40	0x3e9e634c	0.30935133
41	0xbea3a81b	-0.31964192
42	0x3daacbcc	0.083396524
43	0x3eafcdbb	0.34336647
44	0xbe28b082	-0.16473582
45	0xba2ff63e	-0.0006712413
46	0x3ea020d8	0.31275058
47	0xbebd67fa	-0.3699339
48	0x3ecd7918	0.4013145
49	0xbf0f7645	-0.5603984
50	0xbf13dbba	-0.5775715
51	0x3e71ba49	0.23606218
52	0x3e3c4758	0.1838659
53	0xbda196f5	-0.07890121
54	0xbe853de3	-0.26023778
55	0xbeba5993	-0.36396465
56	0xbed62512	-0.41825157
57	0xbd9a0061	-0.075196035
58	0xbd8da93e	-0.06917046
59	0x3e40e331	0.18836667
60	0xbea72181	-0.3264275
61	0x3e4581e3	0.19287829
62	0xbec3a3ac	-0.3821081
63	0xbec0d907	-0.3766558
64	0x3dbbabc3	0.0916362
65	0xbe55a4da	-0.20863667
66	0x3ee3a141	0.44458964
67	0x3c127e68	0.00894127
68	0x3eba5280	0.36391068
69	0xbe5c5155	-0.215154
70	0x3e35a800	0.17739868
71	0xbca85f7d	-0.020553345
72	0xbe81f07c	-0.25378788
73	0xbecebe64	-0.40379632
74	0xbdc608b8	-0.09669632
75	0x3e8bbdcb	0.27293238
76	0x3d60aa8d	0.05485015
77	0x3ee471f3	0.44618186
78	0x3e5e3f1c	0.21703762
79	0xbd711c7c	-0.058865055
80	0x3e9a2139	0.30103472
81	0xbe68226b	-0.2266938
82	0xbe260a0f	-0.16214775
83	0x3e551d50	0.20811963
84	0xbcda41fd	-0.026642794
85	0x3cf1dff1	0.029525729
86	0xbda5942c	-0.08084902
87	0xbf017f63	-0.50585
88	0x3de113db	0.10990115
89	0xbc627cfa	-0.013823742
90	0xbe8eb716	-0.27874058
91	0xbcbe3ea7	-0.023223234
92	0xbdab9f8a	-0.08380039
93	0x3d80c2b0	0.06287134
94	0xbec769ac	-0.3894781
95	0x3e2fb071	0.17157151
96	0xbe23640e	-0.15956137
97	0xbd57eb46	-0.05271461
98	0xbf01e468	-0.50739145
99	0xbc8b3867	-0.016994668
100	0xbefe547f	-0.4967384
101	0x3ddcb751	0.10777152
102	0xbf56fafe	-0.83976734
103	0x3cd82b34	0.026387788
104	0xbda3a330	-0.0799011
105	0xbe936534	-0.2878815
106	0xbe0f18bb	-0.13974278
107	0xbf9814f1	-1.1881391
108	0x3e1d45d0	0.15358663
109	0xbee273d7	-0.44229004
110	0xbdf31012	-0.118682995
111	0x3edc2d67	0.4300339
112	0xbe289c18	-0.16465795
113	0xbe1f1a3c	-0.15537351
114	0x3d8a6f01	0.067594536
115	0x3e1f5e91	0.15563418
116	0xbea2ed03	-0.3182145
117	0x3e9cbb38	0.30611587
118	0xbdc94892	-0.09828295
119	0xbe426b6b	-0.18986289
120	0xbd907bc5	-0.07054857
121	0xbf06d305	-0.5266574
122	0xbf4d0b48	-0.8009534
123	0x3e99b9e3	0.30024633
124	0x3e125c93	0.14293127
125	0x3e181df9	0.14855184
126	0x3ebc89e6	0.36823958
127	0x3e3ea8cc	0.18619078
128	0xbe48787a	-0.19577208
129	0xbd4657e7	-0.048423674
130	0xbe597eb4	-0.2123974
131	0x3d8d394a	0.06895693
132	0xbdb82f25	-0.08993367
133	0xbe3eaa13	-0.18619566
134	0xbe5845f2	-0.21120432
135	0xbed48e83	-0.41514978
136	0xbe901e68	-0.28148198
137	0xbda7fc3c	-0.08202407
138	0xbed68983	-0.41901788
139	0x3ebb4f98	0.36584163
140	0x3ef47ed4	0.47753012
141	0x3de5e197	0.112246685
142	0xbeaee3c3	-0.34158143
143	0x3cb68e45	0.022284636
144	0xbd39317e	-0.045213215
145	0xbe253d74	-0.16136724
146	0xbe156543	-0.1458941
147	0xbdf250de	-0.118318304
148	0xbdcf0b3f	-0.10109567
149	0xbec877ec	-0.39153993
150	0xbe8a79d2	-0.27046067
151	0x3e27678d	0.16348095
152	0xbeafb1df	-0.34315392
153	0x3eb4c073	0.35303077
154	0x3ebcb825	0.3685924
155	0x3d721664	0.059103385
156	0xbeb76156	-0.3581645
157	0xbbccd42e	-0.0062508797
158	0xbe38a256	-0.18030676
159	0xbf06a557	-0.5259604
160	0x3f6f112c	0.9338558
161	0xbe97b977	-0.29633686
162	0xbeb7def7	-0.35912296
163	0xbebc7654	-0.36809027
164	0xbf0a0107	-0.5390782
165	0x3e0069fb	0.12540428
166	0xbe5cf0f0	-0.21576285
167	0xbf27fdc5	-0.65621597
168	0x3f439c8a	0.76410735
169	0x3f00f770	0.5037756
170	0x3f5fd933	0.87440795
171	0xbecbe4da	-0.39823037
172	0xbf4f7d26	-0.81050336
173	0xbf3b0db8	-0.7306781
174	0x3f24e9c7	0.64419216
175	0xbf86bf6c	-1.0527167
176	0x3ef71170	0.4825549
177	0x3da053ce	0.078284845
178	0xbf634b2d	-0.88786584
179	0x3f5e5de3	0.8686201
180	0x3d1c7df9	0.038206074
181	0x3f31ee19	0.69503933
182	0xbeabe8f5	-0.3357617
183	0xbc99352b	-0.01870211
184	0xbe2c0662	-0.1679931
185	0x3f5e39a9	0.8680673
186	0xbecf7376	-0.40517777
187	0xbf8243ba	-1.0176919
188	0x3f574023	0.8408224
189	0xbf3c6a47	-0.73599666
190	0xbf70fc88	-0.9413533
191	0x3e57c355	0.21070607
192	0x3b7638f5	0.003757057
193	0xbdd733b5	-0.10507909
194	0xbe146347	-0.14490996
195	0xbe0f3143	-0.13983636
196	0xbe7ca14f	-0.2467091
197	0xbf1eb5f1	-0.6199637
198	0xbf11a61e	-0.568941
199	0xbe3c6c8e	-0.18400785
200	0xbe11440a	-0.14186111
201	0x3df366a1	0.11884809
202	0xbdae5650	-0.085125566
203	0xbdb49ff3	-0.088195704
204	0x3ca4fec2	0.02014101
205	0xbe0b8003	-0.13623051
206	0x3d9ec68f	0.07752716
207	0x3db49d6e	0.0881909
208	0xbe22b518	-0.15889394
209	0xbea85245	-0.32875267
210	0x3e59eaed	0.21281023
211	0xbe870cda	-0.26376992
212	0xbe836197	-0.25660393
213	0xbe0bdf11	-0.13659312
214	0xbe322a49	-0.17398943
215	0xbf0cc454	-0.5498707
216	0xbe992851	-0.2991357
217	0x3d965de1	0.07342125
218	0xbe115d96	-0.14195856
219	0xbd97ab99	-0.074057765
220	0xbdd96e07	-0.10616689
221	0xbdaffce1	-0.08593155
222	0xbcfb673f	-0.03068888
223	0xbea165df	-0.31523034
224	0x3e947fe0	0.2900381
225	0xbea6eb37	-0.3260133
226	0xbdd14b2a	-0.102194145
227	0xbe3ed2f9	-0.18635167
228	0xbd69dcfd	-0.057095516
229	0x3b841fe7	0.0040321234
230	0xbdb7c84e	-0.08973752
231	0xbe5de64a	-0.2166988
232	0xbdac9ae3	-0.0842798
233	0x3e0a210e	0.13489172
234	0x3d90203a	0.07037397
235	0x3ea03dd5	0.31297174
236	0x3c1a2375	0.009407868
237	0x3d513d55	0.05108388
238	0x3d449458	0.047993034
239	0xbe4e06e3	-0.20119815
240	0x3e2b5680	0.16732216
241	0xbec08758	-0.3760326
242	0xbd637974	-0.05553575
243	0x3d189154	0.03724797
244	0x3e265c0b	0.16246049
245	0xbd767497	-0.060169782
246	0xbe376802	-0.1791077
247	0x3dc6c1b4	0.09704915
248	0xbed50784	-0.41607296
249	0x3e83b5d3	0.25724658
250	0x3de4bb70	0.11168563
251	0xbe6e6b88	-0.23283207
252	0xbdceffe1	-0.10107399
253	0xbd9a5eb5	-0.07537595
254	0xbe72ab27	-0.23698102
255	0x3df11fe0	0.11773658

kenc0.encoder.12.bias f4 [64]
0	0xbf11ff3f	-0.570301
1	0x3e9f7c6d	0.31149617
2	0x3f045d49	0.5170484
3	0xbea7595a	-0.32685357
4	0xbeea7423	-0.4579173
5	0xbe850049	-0.2597678
6	0xbe99cf08	-0.30040765
7	0x3e09ef94	0.13470298
8	0xbd596a3a	-0.05307982
9	0x3d3c81e1	0.0460223
10	0xbb16e71f	-0.0023025943
11	0x3dfbce52	0.12295212
12	0xbc5767a5	-0.013147269
13	0x3d027f05	0.031859417
14	0x3dcb9424	0.09940365
15	0xbdfbe811	-0.123001225
16	0xbe490e67	-0.196344
17	0x3e5c7347	0.2152835
18	0xbc7053e6	-0.01466844
19	0x3e326a07	0.17423259
20	0x3dea0249	0.11426217
21	0x3f7302a1	0.94925886
22	0xbd919f79	-0.07110495
23	0xbd7d333c	-0.06181644
24	0x3e869cf1	0.26291612
25	0x3ea2e872	0.31817967
26	0x3e8d015a	0.27540094
27	0x3e5a8899	0.2134117
28	0xbde34a7e	-0.11098193
29	0xbe5fc806	-0.21853647
30	0x3e429239	0.19001092
31	0x3eda28f8	0.42609382
32	0xbdafc54a	-0.08582552
33	0xbe4ff49a	-0.20308152
34	0xbc708da6	-0.014682209
35	0xbdf696ee	-0.12040506
36	0xbd6b9794	-0.057517603
37	0xbe9c1881	-0.30487445
38	0x3e3654e8	0.17805827
39	0xbe32094e	-0.17386362
40	0xbdaab1c2	-0.08334686
41	0xbde2ba0c	-0.11070642
42	0x3d56693a	0.052346446
43	0x3e4ad0ae	0.19806167
44	0xbe8e5ca1	-0.27805045
45	0x3c8045f8	0.015658364
46	0x3eb3a193	0.3508421
47	0x3f046fe2	0.5173322
48	0xbebfab1c	-0.37435234
49	0xbee52f78	-0.44762778
50	0x3f051962	0.51991856
51	0xbdd142fb	-0.10217854
52	0x3ed80c1d	0.42196742
53	0xbbc95653	-0.006144324
54	0xbdd8e6d2	-0.105909005
55	0xbe254c5a	-0.16142407
56	0xbe8d52c6	-0.27602214
57	0xbd480032	-0.04882831
58	0x3db34d07	0.08754926
59	0x3f0cae3e	0.5495337
60	0xbe190a9c	-0.14945453
61	0x3ec4bb99	0.38424376
62	0xbd040e07	-0.03223994
63	0x3d91c7fe	0.071182236

kenc0.encoder.13.weight f4 [64]
0	0x3b773742	0.0037722145
1	0xbb7e76ff	-0.0038828251
2	0x3a60759d	0.00085624476
3	0x3981eeb2	0.0002478264
4	0x3c69d9b9	0.0142731005
5	0x3d147b2c	0.03625028
6	0x3be5595c	0.006999178
7	0x3b5c853b	0.0033648747
8	0x3cc82568	0.0244319
9	0x3d54de64	0.0519699
10	0xbd31dce0	-0.043423533
11	0xbdbca7b0	-0.09211671
12	0x3da971d1	0.08273662
13	0xb9e87873	-0.0004434023
14	0x3e34e231	0.1766441
15	0x3cf87daf	0.030333368
16	0x3ba51036	0.005037333
17	0x3c698f05	0.01425529
18	0x3d3f1c08	0.046657592
19	0xbd599124	-0.053116933
20	0xbdf5a57b	-0.119944535
21	0x3e77e5ae	0.2420871
22	0x3b29dd7f	0.0025919375
23	0xbd75dc8f	-0.060024794
24	0xbab81379	-0.0014043889
25	0x3db40aa2	0.087910905
26	0xbc117fff	-0.008880614
27	0xbcaafbe0	-0.020872056
28	0x3a4fa6a4	0.0007921255
29	0xbbc97296	-0.006147693
30	0x3d04dc17	0.032436457
31	0x3e062d54	0.13103229
32	0x3d10f9bb	0.03539441
33	0xbd315931	-0.04329795
34	0xbabad271	-0.001425339
35	0x3d9f2168	0.077700436
36	0xbe5f4de1	-0.21807052
37	0x3bb44296	0.0055011017
38	0x3b5b5ee1	0.00334733
39	0xbdaa4c36	-0.08315317
40	0x3b4dafd1	0.0031385312
41	0xbc0edf2d	-0.008720201
42	0x3d8937d5	0.06700102
43	0x3d713e27	0.058897164
44	0xbb12a126	-0.0022373884
45	0x3aef17f8	0.0018241396
46	0xbc909611	-0.017649682
47	0x3cba15a0	0.02271539
48	0x3da7dc0b	0.08196267
49	0x3d5267ff	0.05136871
50	0xbe647366	-0.22309646
51	0x3d5c9588	0.05385354
52	0x3aa2590c	0.0012386157
53	0xbb982a57	-0.004643719
54	0x3b5d5397	0.0033771747
55	0x3d9a79d3	0.075427674
56	0x3d0491e6	0.032365702
57	0xbb1d1a6c	-0.0023972047
58	0x3e47b573	0.19502811
59	0x3c93eedc	0.018058233
60	0xbce51bb5	-0.027967313
61	0x3cca010d	0.024658704
62	0xbb1a021d	-0.0023499795
63	0x3cd84443	0.026399737

kenc0.encoder.13.bias f4 [64]
0	0xbd40c7b3	-0.047065448
1	0xbe249d35	-0.16075595
2	0xbe0db7e6	-0.13839683
3	0xbd7cf241	-0.06175447
4	0xbdd19228	-0.10232955
5	0xbf3bf07d	-0.7341383
6	0xbd767dc4	-0.060178533
7	0xbc995288	-0.018716112
8	0xbe18583b	-0.14877407
9	0xbee3462b	-0.4438947
10	0xbf273ba5	-0.65325385
11	0xbf00a580	-0.5025253
12	0xbf57a364	-0.8423369
13	0xbc540d1c	-0.012942579
14	0xbedbf79e	-0.42962354
15	0xbe302e7f	-0.17205237
16	0xbf1bd2ec	-0.60868716
17	0xbe010f0f	-0.126034
18	0xbf07467a	-0.52841914
19	0xbf744791	-0.954217
20	0xbed6f30e	-0.4198231
21	0xbf11ac68	-0.56903696
22	0xbdc935d9	-0.09824724
23	0xbf136d37	-0.57588524
24	0xbc90351c	-0.01760345
25	0xbefbf2c5	-0.49208656
26	0xbe323f78	-0.17407024
27	0xbdfa4d00	-0.12221718
28	0xbd2c30ac	-0.042038605
29	0xbeb109ea	-0.34577876
30	0xbf3d362e	-0.73910797
31	0xbf282659	-0.65683514
32	0xbdb87a52	-0.09007706
33	0xbf5e3d83	-0.8681261
34	0xbe024a40	-0.12723637
35	0xbeaf1fd5	-0.34203973
36	0xbf7ec77d	-0.99523145
37	0xbdbb9d14	-0.0916082
38	0xbdd68b18	-0.10475749
39	0xbf22504a	-0.6340376
40	0xbe473e62	-0.19457391
41	0xbd2a1049	-0.041519437
42	0xbf6de9c7	-0.9293484
43	0xbe2e15b3	-0.17000465
44	0xbf4e8130	-0.80665874
45	0xbd97bd03	-0.07409098
46	0xbed8945b	-0.42300686
47	0xbdc9f6fb	-0.09861561
48	0xbecddd88	-0.40208077
49	0xbe410ad9	-0.18851794
50	0xbf474b8c	-0.7784965
51	0xbed02f03	-0.40660867
52	0xbd813360	-0.06308627
53	0xbdad7f8a	-0.08471592
54	0xbd98c085	-0.07458595
55	0xbeb5cbae	-0.35506958
56	0xbedbb557	-0.4291179
57	0xbd6e3d91	-0.058164183
58	0xbf11c0c1	-0.56934744
59	0xbe2b117b	-0.16705887
60	0xbe76ed43	-0.24113946
61	0xbdb3af2a	-0.08773644
62	0xbd5f7aeb	-0.054560583
63	0xbf3e9b9c	-0.7445619
