hyperglue/weights/weights_A100_V3.pth (torch, 614439 bytes, 160 tensors)

penc0.lin.weight f4 [36, 100]
00000000: bf0a 01be 55f8 e73d e5c6 813e 0282 1cc1
00000010: 4686 4cbf c23e 4941 7fd1 a73e cb11 813d
00000020: 5f29 87bd 906a 5c3d 3ee3 8cbd d6fd 0abd
00000030: 5ead 3d3e b018 98c0 d096 52bf 12e8 6d40
00000040: dcde c2be b1c8 953e 71bf e0be b025 13c0
00000050: 5a69 d3bd 517f 473d f426 873c 7979 afbf
00000060: fb40 aa3f 7315 963f e73a 92be fe0f 5540
00000070: 9980 e23f 5e13 88c0 bd8b 003d a8b6 f13c
00000080: 0ea7 ffbd 448e 943e 53e5 0e3e 134c 7ebe
00000090: 20aa c33e 958c 9c40 90a3 d43e 1352 afc0
000000a0: 7766 a13d 2c9f 9d3d 2384 183d 9093 a03f
000000b0: 54f0 b2bf 685c c63b 56b8 55bd e9f9 ae40
000000c0: 3777 57bf dda5 99c0 abdb e33d 6b48 cc3c
000000d0: 655c 5ebe f57f 853f 987a 8bbf 1abe 32c0
000000e0: 663e 083f bbab 9040 5aa1 0abf 60f9 e4c0
000000f0: 31b3 053e f7ab 46bc 9b8c 3abe b463 b43f
00000100: ea36 a5bf 7def 10c0 2813 25be 2c16 9940
00000110: 1bd9 51bf f64b cbc0 4267 8c3e fad8 203e
00000120: 96ed f3bc 9931 1440 675e 2f40 dca2 933d
00000130: 21f9 45bd e765 ad40 89fe 2540 d431 6dc0
00000140: cae2 3b3e 4c7d 7a3e 2890 3fbe 9041 923f
00000150: 90e6 e83f a273 97bf 3840 18bf 5290 7c40
00000160: e51f ea3f 36c0 9ac0 57e6 ed3d 9748 07bb
00000170: a6b6 63be 9929 9c3f 1904 b8bf 0a57 00c0
00000180: 67b8 a9be 2656 7f40 b9c0 79bf 20d1 a7c0
00000190: b316 40be 2442 01be c6d0 3cbc 77ba 5bbe
000001a0: d1db f9c0 4d9e 07c0 4bc9 1c3d bb41 ab3d
000001b0: 9745 333d e353 58bd 6ef1 67be fb72 f53d
000001c0: 3c90 44bd 1def e9be 1532 15c0 0f9a 6b3f
000001d0: d1ba 4e3e f2ee 57be aaca 4640 d891 0f40
000001e0: c7a0 7b3e 96f3 543e 3a9e 22bb 5cbb 2341
000001f0: a806 3f40 27a3 d13f 79f7 873d 2ab0 2541
00000200: 5358 fb40 c085 2740 df20 95be 8579 c53d
00000210: f679 67bc cbea 8bc0 b21c 19c0 0437 12c0
00000220: 5b12 ccbe 5757 83c0 46d5 ff3f d177 90bf
00000230: ed71 d2be 475a 0c3f 1c87 07bd 11ed d8c0
00000240: 9861 c940 cf98 0fbe 9d19 283e f48e c8c0
00000250: fb35 1141 a46b 5d3f 9d86 22be 40ae b93c
00000260: 5567 413d 24d4 093f 0769 5bc0 494a b0bf
00000270: ef08 5fbe dc56 073f 3eac 5f3e 0f46 5ebe
00000280: 7f4d 56be 3464 4b3e f7c4 753e 2183 e5bf
00000290: e3fb e43e 122f 3f40 7e92 393e 802d c0bf
000002a0: cf2e 6d40 74df 5f40 9b0f 67be 26b8 cf3d
000002b0: 044f 413c cfd2 acbe 0830 c9bf 1217 36bf
000002c0: 27d9 0b3e 923a c1be cd9e e43f 7225 553d
000002d0: 9da5 3e3e 71d1 e63d 55a2 93bd 09ce 8740
000002e0: 7296 ddbe 3bbe 39bf b4a8 e6be ae8b 7640
000002f0: 652f 2540 7240 5f3e 004c 4dbe a95a fd3e
00000300: f096 78bd bc7d c0bf 704b 7140 076d 1a3f
00000310: 8b97 233f b36c 93bf ad9b b840 1297 953f
00000320: cad8 82be 7af9 f3be c953 893d 5db1 63be
00000330: c3ef ffbf 4bc6 1dbf 1cd1 6bba 1bcc a0bd
00000340: 80a6 a83c 0322 20bd 1f8a 30be 6f68 31bf
00000350: adca 773e 5115 843f 5b6c 98c0 c835 9940
00000360: 5ee8 913e e906 8a3f ca94 68c0 00ee a240
00000370: 9f46 cbbe 9f97 28bf c6f3 4b3c b365 82c0
00000380: af8b 52c0 05c3 bc3f c45b e8be 1e34 83c0
00000390: 895f 0dc0 616c e43f a161 fd3d 76eb 95be
000003a0: a9fa fdbd da80 ef40 ce84 0d40 7c55 93c0
000003b0: 75c8 123f a5bd df40 11af 4540 776b 7ec0
000003c0: cb58 4cbe bb11 abbc a8c0 953e 4878 77c0
000003d0: e4c5 5240 9d3e f240 6351 58bf b984 56c0
000003e0: 08f6 6f40 1233 e440 bf21 5dbd 6599 9cbe
000003f0: 6846 ffbb f289 e23f 63d6 6b3f db02 0fc0
-0.12601756 0.113266625 0.25347057 -9.78174 -0.79892385 12.577822 0.3277702 0.06302222
-0.06599688 0.053812563 -0.068792805 -0.033933483 0.18523166 -4.7530136 -0.8226137 3.7172894
-0.38060653 0.29254678 -0.43896058 -2.2991753 -0.103228286 0.048705403 0.016498066 -1.3708946
1.330108 1.1725296 -0.28560564 3.329101 1.7695495 -4.252364 0.031383265 0.029506043
-0.12483035 0.2901479 0.13954668 -0.24833708 0.38215733 4.892161 0.41531038 -5.478769
0.07880872 0.07696375 0.03723539 1.2545033 -1.3979592 0.006053496 -0.05217775 5.4680066
-0.8416628 -4.801497 0.11125883 0.024936875 -0.21714933 1.0429674 -1.0896788 -2.7928529
0.5322021 4.520963 -0.5415245 -7.1554413 0.13056637 -0.012125961 -0.18217699 1.4092927
-1.2907383 -2.2646172 -0.16120589 4.7839565 -0.819719 -6.3530226 0.2742253 0.1570777
-0.029776376 2.3155272 2.7401369 0.07208797 -0.04833329 5.4186893 2.5936606 -3.7061663
0.18348232 0.2446186 -0.18707335 1.1426258 1.8195362 -1.1832163 -0.5947299 3.9463086
1.8290983 -4.8359632 0.116161995 -0.0020642632 -0.22237644 1.2200195 -1.437625 -2.0053124
-0.331485 3.989633 -0.97559696 -5.244278 -0.18758659 -0.12622887 -0.011524385 -0.2145785
-7.808083 -2.119037 0.038277905 0.083621465 0.043767538 -0.052814376 -0.22650692 0.119848214
-0.047989115 -0.4569024 -2.3311818 0.9203195 0.20188452 -0.21087244 3.1061196 2.2432766
0.2457305 0.20796046 -0.0024813549 10.233242 2.9847813 1.6377915 0.066389985 10.355509
7.854532 2.6175385 -0.2912664 0.09642319 -0.014128199 -4.3724113 -2.3923764 -2.284608
-0.39857754 -4.1044116 1.9986961 -1.1286565 -0.41102543 0.5482525 -0.033087835 -6.778939
6.2931633 -0.14023136 0.1641602 -6.2674503 9.075679 0.8649237 -0.15871663 0.022666097
0.047217686 0.53839326 -3.4282854 -1.377267 -0.21780752 0.5286691 0.21843049 -0.21706413
-0.20928 0.19862443 0.24000917 -1.7930642 0.44723424 2.987248 0.18122289 -1.5013885
3.705982 3.4980135 -0.22564547 0.101425454 0.011798624 -0.33754584 -1.5717783 -0.7112895
0.13657056 -0.37739998 1.7860962 0.052037664 0.18617864 0.112704165 -0.07208697 4.243901
-0.43278843 -0.72555894 -0.45050585 3.8522754 2.5810177 0.21801928 -0.20048523 0.4948323
-0.06069082 -1.5038371 3.7702293 0.6032261 0.6390311 -1.1517547 5.7690034 1.1686728
-0.25556022 -0.47651273 0.06705434 -0.22235627 -1.9995044 -0.61630696 -0.00089956983 -0.0785143
0.020587206 -0.039094936 -0.17240189 -0.6929998 0.24198408 1.0319005 -4.763227 4.787815
0.28497595 1.0783359 -3.6340814 5.0915527 -0.39702317 -0.65856355 0.012448257 -4.0749145
-3.2897756 1.4747015 -0.45382512 -4.100112 -2.208956 1.7845575 0.12372137 -0.29281205
-0.12401325 7.484479 2.2112308 -4.604185 0.57337123 6.9919 3.0888102 -3.9753091
-0.19955747 -0.020882478 0.29248548 -3.8667164 3.2933283 7.570143 -0.84499186 -3.3518507
3.7493916 7.131234 -0.05398726 -0.3058578 -0.0077903755 1.7698348 0.92124003 -2.2345493

penc0.bn.weight f4 [36]
00000000: dc60 813f 9089 603f f6e2 6c3f 5cc4 a93f
00000010: dcbb 293f 6d54 6e3f 8c9f 923f 51f8 653f
00000020: 3476 4b3f 403c 9f3f ccc7 3d3f 6e90 803f
00000030: 3b90 833f 74dd 953f 3bde 773f 943c 623f
00000040: a005 5d3f ab01 4a3f 3919 573f d6e4 9c3f
00000050: 4efd 483f 87b0 623f cea8 003f 9da5 813f
00000060: 1223 903f 4df2 753f 7d85 5b3f 5678 7a3f
00000070: e4e8 a03f 0db0 723f b175 8a3f d6bb 553f
00000080: 98d6 933f 413d 1d3f a25c 513f 12b8 8e3f
1.0107684 0.87709904 0.92533815 1.3263049 0.66302276 0.93097574 1.145494 0.89832026
0.7947724 1.2440262 0.7413299 1.0044076 1.0278391 1.1708207 0.9682347 0.88373685
0.8633671 0.78908795 0.8402286 1.2257335 0.7851151 0.8855061 0.50257576 1.0128666
1.1260703 0.96072847 0.8575056 0.9783987 1.2571073 0.9479988 1.0817167 0.8348974
1.1549864 0.6142159 0.8178197 1.1149924

penc0.bn.bias f4 [36]
00000000: 669e 72be 5f29 a03d 2b42 44bd 79b5 9abd
00000010: 7946 cdbc 9e08 b23c 9bfc bfbd 1931 92bc
00000020: 391c 8abe b881 5abb 676f ea3d d385 7a3e
00000030: 661a 5fbe 216d 96be 15af a0be 488b cdba
00000040: 96e3 6bbe e08f 9b3d 630f 28be b900 9bbe
00000050: e33b 253d 1176 e73d e70b 81bd 8572 7dbc
00000060: 997c abbd be00 a83d d173 48be 8d57 e73d
00000070: 4449 4ebe 8fb3 923c 3d72 46bc a3a0 04bc
00000080: 4ee8 44be 6246 2e3c 463a 75bc 47b3 dfbd
-0.23693237 0.07820391 -0.047914665 -0.075541444 -0.025058018 0.021732625 -0.093743525 -0.017845677
-0.26974657 -0.0033341479 0.114470296 0.24465112 -0.21787414 -0.29380134 -0.31383577 -0.0015681768
-0.23036036 0.07595801 -0.1641212 -0.3027399 0.040340316 0.11301816 -0.06301098 -0.015469198
-0.083733745 0.082032666 -0.1957543 0.11295996 -0.20145136 0.017907886 -0.0121121975 -0.008094939
-0.19229242 0.010636898 -0.014967507 -0.10922866

penc0.bn.running_mean f4 [36]
00000000: fa65 ccbe 0ffb 563e f24e d5bd d23f 8fc0
00000010: a196 533e 1b44 2ebf ed95 38c0 ef7c 9c3d
00000020: 1d82 b3bf bef4 47c0 3f1a a5bf b89e 85c0
00000030: 7866 28c0 4065 0bc0 d292 1cc0 95ff 12be
00000040: 5091 34c0 8f1c 0540 6c8e 12c0 bd3e 85bf
00000050: 3f46 8ebe 4d92 da40 5704 5640 d387 0ec0
00000060: dbd0 12c0 b7b2 a5be 08f3 4b3e 125d b2bf
00000070: ac77 9fbf 8ef3 0dc0 777f a3bf d50e 4740
00000080: 30fc 91c0 afd5 ad3f c031 3240 6908 cdbf
-0.39921552 0.20994209 -0.10415448 -4.4765406 0.20662929 -0.6807267 -2.8841507 0.07641017
-1.4024082 -3.1243129 -1.2898635 -4.175625 -2.6312542 -2.1780548 -2.4464612 -0.1435531
-2.8213692 2.079868 -2.2899427 -1.0409771 -0.2778797 6.830359 3.344015 -2.22704
-2.2939975 -0.3236291 0.19916928 -1.3934653 -1.2458396 -2.2179904 -1.2773274 3.1102803
-4.5620346 1.3580836 2.7842865 -1.6018192

penc0.bn.running_var f4 [36]
00000000: 86f0 ad3f f2ac 0640 d19a 8740 e28a 6b41
00000010: 3004 a440 88df 9d40 d131 0141 ed2b 5f40
00000020: cb71 4841 8f5d d740 e6ba 6f40 2718 8740
00000030: f62e ed40 bd49 c640 8017 e240 0bce cb40
00000040: 726e 1641 0abe 6740 1aa2 1541 dcd3 713f
00000050: e33b 4740 e9cb 2441 d78c 9840 fbf0 ee3f
00000060: e71e e43f 9d08 2240 6a2c 9e40 78d4 9c3f
00000070: 2bb0 5b40 70cd c040 162e b040 f7ac b040
00000080: 7b5a 9e41 192e 6640 dcf6 6b40 5983 8940
1.3589027 2.1043057 4.2376485 14.721407 5.125511 4.9335365 8.074662 3.487056
12.5277815 6.7301707 3.7457824 4.2216983 7.4119825 6.1965013 7.0653687 6.3689017
9.401964 3.620974 9.352076 0.94463897 3.1130302 10.299783 4.7671924 1.8667291
1.7821931 2.5317757 4.9429216 1.225234 3.4326274 6.025078 5.5056257 5.521114
19.79418 3.5965636 3.686942 4.2972836

penc1.lin.weight f4 [36, 100]
00000000: bf0a 01be 55f8 e73d e5c6 813e 0282 1cc1
00000010: 4686 4cbf c23e 4941 7fd1 a73e cb11 813d
00000020: 5f29 87bd 906a 5c3d 3ee3 8cbd d6fd 0abd
00000030: 5ead 3d3e b018 98c0 d096 52bf 12e8 6d40
00000040: dcde c2be b1c8 953e 71bf e0be b025 13c0
00000050: 5a69 d3bd 517f 473d f426 873c 7979 afbf
00000060: fb40 aa3f 7315 963f e73a 92be fe0f 5540
00000070: 9980 e23f 5e13 88c0 bd8b 003d a8b6 f13c
00000080: 0ea7 ffbd 448e 943e 53e5 0e3e 134c 7ebe
00000090: 20aa c33e 958c 9c40 90a3 d43e 1352 afc0
000000a0: 7766 a13d 2c9f 9d3d 2384 183d 9093 a03f
000000b0: 54f0 b2bf 685c c63b 56b8 55bd e9f9 ae40
000000c0: 3777 57bf dda5 99c0 abdb e33d 6b48 cc3c
000000d0: 655c 5ebe f57f 853f 987a 8bbf 1abe 32c0
000000e0: 663e 083f bbab 9040 5aa1 0abf 60f9 e4c0
000000f0: 31b3 053e f7ab 46bc 9b8c 3abe b463 b43f
00000100: ea36 a5bf 7def 10c0 2813 25be 2c16 9940
00000110: 1bd9 51bf f64b cbc0 4267 8c3e fad8 203e
00000120: 96ed f3bc 9931 1440 675e 2f40 dca2 933d
00000130: 21f9 45bd e765 ad40 89fe 2540 d431 6dc0
00000140: cae2 3b3e 4c7d 7a3e 2890 3fbe 9041 923f
00000150: 90e6 e83f a273 97bf 3840 18bf 5290 7c40
00000160: e51f ea3f 36c0 9ac0 57e6 ed3d 9748 07bb
00000170: a6b6 63be 9929 9c3f 1904 b8bf 0a57 00c0
00000180: 67b8 a9be 2656 7f40 b9c0 79bf 20d1 a7c0
00000190: b316 40be 2442 01be c6d0 3cbc 77ba 5bbe
000001a0: d1db f9c0 4d9e 07c0 4bc9 1c3d bb41 ab3d
000001b0: 9745 333d e353 58bd 6ef1 67be fb72 f53d
000001c0: 3c90 44bd 1def e9be 1532 15c0 0f9a 6b3f
000001d0: d1ba 4e3e f2ee 57be aaca 4640 d891 0f40
000001e0: c7a0 7b3e 96f3 543e 3a9e 22bb 5cbb 2341
000001f0: a806 3f40 27a3 d13f 79f7 873d 2ab0 2541
00000200: 5358 fb40 c085 2740 df20 95be 8579 c53d
00000210: f679 67bc cbea 8bc0 b21c 19c0 0437 12c0
00000220: 5b12 ccbe 5757 83c0 46d5 ff3f d177 90bf
00000230: ed71 d2be 475a 0c3f 1c87 07bd 11ed d8c0
00000240: 9861 c940 cf98 0fbe 9d19 283e f48e c8c0
00000250: fb35 1141 a46b 5d3f 9d86 22be 40ae b93c
00000260: 5567 413d 24d4 093f 0769 5bc0 494a b0bf
00000270: ef08 5fbe dc56 073f 3eac 5f3e 0f46 5ebe
00000280: 7f4d 56be 3464 4b3e f7c4 753e 2183 e5bf
00000290: e3fb e43e 122f 3f40 7e92 393e 802d c0bf
000002a0: cf2e 6d40 74df 5f40 9b0f 67be 26b8 cf3d
000002b0: 044f 413c cfd2 acbe 0830 c9bf 1217 36bf
000002c0: 27d9 0b3e 923a c1be cd9e e43f 7225 553d
000002d0: 9da5 3e3e 71d1 e63d 55a2 93bd 09ce 8740
000002e0: 7296 ddbe 3bbe 39bf b4a8 e6be ae8b 7640
000002f0: 652f 2540 7240 5f3e 004c 4dbe a95a fd3e
00000300: f096 78bd bc7d c0bf 704b 7140 076d 1a3f
00000310: 8b97 233f b36c 93bf ad9b b840 1297 953f
00000320: cad8 82be 7af9 f3be c953 893d 5db1 63be
00000330: c3ef ffbf 4bc6 1dbf 1cd1 6bba 1bcc a0bd
00000340: 80a6 a83c 0322 20bd 1f8a 30be 6f68 31bf
00000350: adca 773e 5115 843f 5b6c 98c0 c835 9940
00000360: 5ee8 913e e906 8a3f ca94 68c0 00ee a240
00000370: 9f46 cbbe 9f97 28bf c6f3 4b3c b365 82c0
00000380: af8b 52c0 05c3 bc3f c45b e8be 1e34 83c0
00000390: 895f 0dc0 616c e43f a161 fd3d 76eb 95be
000003a0: a9fa fdbd da80 ef40 ce84 0d40 7c55 93c0
000003b0: 75c8 123f a5bd df40 11af 4540 776b 7ec0
000003c0: cb58 4cbe bb11 abbc a8c0 953e 4878 77c0
000003d0: e4c5 5240 9d3e f240 6351 58bf b984 56c0
000003e0: 08f6 6f40 1233 e440 bf21 5dbd 6599 9cbe
000003f0: 6846 ffbb f289 e23f 63d6 6b3f db02 0fc0
-0.12601756 0.113266625 0.25347057 -9.78174 -0.79892385 12.577822 0.3277702 0.06302222
-0.06599688 0.053812563 -0.068792805 -0.033933483 0.18523166 -4.7530136 -0.8226137 3.7172894
-0.38060653 0.29254678 -0.43896058 -2.2991753 -0.103228286 0.048705403 0.016498066 -1.3708946
1.330108 1.1725296 -0.28560564 3.329101 1.7695495 -4.252364 0.031383265 0.029506043
-0.12483035 0.2901479 0.13954668 -0.24833708 0.38215733 4.892161 0.41531038 -5.478769
0.07880872 0.07696375 0.03723539 1.2545033 -1.3979592 0.006053496 -0.05217775 5.4680066
-0.8416628 -4.801497 0.11125883 0.024936875 -0.21714933 1.0429674 -1.0896788 -2.7928529
0.5322021 4.520963 -0.5415245 -7.1554413 0.13056637 -0.012125961 -0.18217699 1.4092927
-1.2907383 -2.2646172 -0.16120589 4.7839565 -0.819719 -6.3530226 0.2742253 0.1570777
-0.029776376 2.3155272 2.7401369 0.07208797 -0.04833329 5.4186893 2.5936606 -3.7061663
0.18348232 0.2446186 -0.18707335 1.1426258 1.8195362 -1.1832163 -0.5947299 3.9463086
1.8290983 -4.8359632 0.116161995 -0.0020642632 -0.22237644 1.2200195 -1.437625 -2.0053124
-0.331485 3.989633 -0.97559696 -5.244278 -0.18758659 -0.12622887 -0.011524385 -0.2145785
-7.808083 -2.119037 0.038277905 0.083621465 0.043767538 -0.052814376 -0.22650692 0.119848214
-0.047989115 -0.4569024 -2.3311818 0.9203195 0.20188452 -0.21087244 3.1061196 2.2432766
0.2457305 0.20796046 -0.0024813549 10.233242 2.9847813 1.6377915 0.066389985 10.355509
7.854532 2.6175385 -0.2912664 0.09642319 -0.014128199 -4.3724113 -2.3923764 -2.284608
-0.39857754 -4.1044116 1.9986961 -1.1286565 -0.41102543 0.5482525 -0.033087835 -6.778939
6.2931633 -0.14023136 0.1641602 -6.2674503 9.075679 0.8649237 -0.15871663 0.022666097
0.047217686 0.53839326 -3.4282854 -1.377267 -0.21780752 0.5286691 0.21843049 -0.21706413
-0.20928 0.19862443 0.24000917 -1.7930642 0.44723424 2.987248 0.18122289 -1.5013885
3.705982 3.4980135 -0.22564547 0.101425454 0.011798624 -0.33754584 -1.5717783 -0.7112895
0.13657056 -0.37739998 1.7860962 0.052037664 0.18617864 0.112704165 -0.07208697 4.243901
-0.43278843 -0.72555894 -0.45050585 3.8522754 2.5810177 0.21801928 -0.20048523 0.4948323
-0.06069082 -1.5038371 3.7702293 0.6032261 0.6390311 -1.1517547 5.7690034 1.1686728
-0.25556022 -0.47651273 0.06705434 -0.22235627 -1.9995044 -0.61630696 -0.00089956983 -0.0785143
0.020587206 -0.039094936 -0.17240189 -0.6929998 0.24198408 1.0319005 -4.763227 4.787815
0.28497595 1.0783359 -3.6340814 5.0915527 -0.39702317 -0.65856355 0.012448257 -4.0749145
-3.2897756 1.4747015 -0.45382512 -4.100112 -2.208956 1.7845575 0.12372137 -0.29281205
-0.12401325 7.484479 2.2112308 -4.604185 0.57337123 6.9919 3.0888102 -3.9753091
-0.19955747 -0.020882478 0.29248548 -3.8667164 3.2933283 7.570143 -0.84499186 -3.3518507
3.7493916 7.131234 -0.05398726 -0.3058578 -0.0077903755 1.7698348 0.92124003 -2.2345493

penc1.bn.weight f4 [36]
00000000: dc60 813f 9089 603f f6e2 6c3f 5cc4 a93f
00000010: dcbb 293f 6d54 6e3f 8c9f 923f 51f8 653f
00000020: 3476 4b3f 403c 9f3f ccc7 3d3f 6e90 803f
00000030: 3b90 833f 74dd 953f 3bde 773f 943c 623f
00000040: a005 5d3f ab01 4a3f 3919 573f d6e4 9c3f
00000050: 4efd 483f 87b0 623f cea8 003f 9da5 813f
00000060: 1223 903f 4df2 753f 7d85 5b3f 5678 7a3f
00000070: e4e8 a03f 0db0 723f b175 8a3f d6bb 553f
00000080: 98d6 933f 413d 1d3f a25c 513f 12b8 8e3f
1.0107684 0.87709904 0.92533815 1.3263049 0.66302276 0.93097574 1.145494 0.89832026
0.7947724 1.2440262 0.7413299 1.0044076 1.0278391 1.1708207 0.9682347 0.88373685
0.8633671 0.78908795 0.8402286 1.2257335 0.7851151 0.8855061 0.50257576 1.0128666
1.1260703 0.96072847 0.8575056 0.9783987 1.2571073 0.9479988 1.0817167 0.8348974
1.1549864 0.6142159 0.8178197 1.1149924

penc1.bn.bias f4 [36]
00000000: 669e 72be 5f29 a03d 2b42 44bd 79b5 9abd
00000010: 7946 cdbc 9e08 b23c 9bfc bfbd 1931 92bc
00000020: 391c 8abe b881 5abb 676f ea3d d385 7a3e
00000030: 661a 5fbe 216d 96be 15af a0be 488b cdba
00000040: 96e3 6bbe e08f 9b3d 630f 28be b900 9bbe
00000050: e33b 253d 1176 e73d e70b 81bd 8572 7dbc
00000060: 997c abbd be00 a83d d173 48be 8d57 e73d
00000070: 4449 4ebe 8fb3 923c 3d72 46bc a3a0 04bc
00000080: 4ee8 44be 6246 2e3c 463a 75bc 47b3 dfbd
-0.23693237 0.07820391 -0.047914665 -0.075541444 -0.025058018 0.021732625 -0.093743525 -0.017845677
-0.26974657 -0.0033341479 0.114470296 0.24465112 -0.21787414 -0.29380134 -0.31383577 -0.0015681768
-0.23036036 0.07595801 -0.1641212 -0.3027399 0.040340316 0.11301816 -0.06301098 -0.015469198
-0.083733745 0.082032666 -0.1957543 0.11295996 -0.20145136 0.017907886 -0.0121121975 -0.008094939
-0.19229242 0.010636898 -0.014967507 -0.10922866

penc1.bn.running_mean f4 [36]
00000000: fa65 ccbe 0ffb 563e f24e d5bd d23f 8fc0
00000010: a196 533e 1b44 2ebf ed95 38c0 ef7c 9c3d
00000020: 1d82 b3bf bef4 47c0 3f1a a5bf b89e 85c0
00000030: 7866 28c0 4065 0bc0 d292 1cc0 95ff 12be
00000040: 5091 34c0 8f1c 0540 6c8e 12c0 bd3e 85bf
00000050: 3f46 8ebe 4d92 da40 5704 5640 d387 0ec0
00000060: dbd0 12c0 b7b2 a5be 08f3 4b3e 125d b2bf
00000070: ac77 9fbf 8ef3 0dc0 777f a3bf d50e 4740
00000080: 30fc 91c0 afd5 ad3f c031 3240 6908 cdbf
-0.39921552 0.20994209 -0.10415448 -4.4765406 0.20662929 -0.6807267 -2.8841507 0.07641017
-1.4024082 -3.1243129 -1.2898635 -4.175625 -2.6312542 -2.1780548 -2.4464612 -0.1435531
-2.8213692 2.079868 -2.2899427 -1.0409771 -0.2778797 6.830359 3.344015 -2.22704
-2.2939975 -0.3236291 0.19916928 -1.3934653 -1.2458396 -2.2179904 -1.2773274 3.1102803
-4.5620346 1.3580836 2.7842865 -1.6018192

penc1.bn.running_var f4 [36]
00000000: 86f0 ad3f f2ac 0640 d19a 8740 e28a 6b41
00000010: 3004 a440 88df 9d40 d131 0141 ed2b 5f40
00000020: cb71 4841 8f5d d740 e6ba 6f40 2718 8740
00000030: f62e ed40 bd49 c640 8017 e240 0bce cb40
00000040: 726e 1641 0abe 6740 1aa2 1541 dcd3 713f
00000050: e33b 4740 e9cb 2441 d78c 9840 fbf0 ee3f
00000060: e71e e43f 9d08 2240 6a2c 9e40 78d4 9c3f
00000070: 2bb0 5b40 70cd c040 162e b040 f7ac b040
00000080: 7b5a 9e41 192e 6640 dcf6 6b40 5983 8940
1.3589027 2.1043057 4.2376485 14.721407 5.125511 4.9335365 8.074662 3.487056
12.5277815 6.7301707 3.7457824 4.2216983 7.4119825 6.1965013 7.0653687 6.3689017
9.401964 3.620974 9.352076 0.94463897 3.1130302 10.299783 4.7671924 1.8667291
1.7821931 2.5317757 4.9429216 1.225234 3.4326274 6.025078 5.5056257 5.521114
19.79418 3.5965636 3.686942 4.2972836

kenc0.encoder.0.weight f4 [32, 4, 1]
00000000: 9b4c afbd b6a9 333d 23ad 823e a0b8 ffc0
00000010: 609d 94bf 6af4 34bc 09e6 81bf 8d71 ae3f
00000020: 7ba9 17be c403 153e 0e42 c83b 2e9c 2fc1
00000030: cfb0 8ebe e9ed 933d 4428 233f 3d4f 3d40
00000040: d876 3bbe 11e0 4bbd c2a0 c0bd e8c6 29c1
00000050: fb78 73bf 71bf 8a3e 1f11 3ebe 8906 eabe
00000060: 9d35 2abe bd41 e83d 0f42 be3d 135e 6cc1
00000070: 5f4b bc3d df5a 11be a4b1 043d 5be2 2c41
00000080: faf1 603d 124b 183d c980 b2be 804c bc40
00000090: 73f4 823d e04a adbc 82fb b5bd 4c7a 8b40
000000a0: f19e 833e 0278 b43c 1275 aabe 4ba2 dc40
000000b0: 22a5 1abe a37f 68bf d68b 0940 1cef 083f
000000c0: 9e75 1fbe e498 df3c 53f4 96be 2be3 c540
000000d0: 1393 833d a5ac d2bd 100a 04be c969 40c1
000000e0: 89dc 8c3d 829c c4bb ccfb 3ebd e001 1441
000000f0: 5aa9 133d 2e23 523e 665d 023d abfc 1ec1
00000100: 14a7 79bd 471e 0e3e 7cb4 abbb 7d60 3cc1
00000110: 3aa0 ce3e 2ae5 1b3f 5b09 3e3f 4c8e 8a3d
00000120: c914 f03c 8da3 4d3c 1029 473d dda7 36c1
00000130: e936 c83d c087 41be 91e2 56bd 16ca 2241
00000140: c81d eb3d 7264 b9bd b62e 203e 860c 3f41
00000150: 547d 1840 7f8f 6d3f 9b89 05bf 53ae cf3e
00000160: 4812 8fbc cc72 8fbd fb57 8d3d 56c8 3ec1
00000170: ed78 763d bf06 5f3e 26f3 35be 3760 e140
00000180: fa1d 273e a34b 5fbd 1dac ce3d 37e7 cfc0
00000190: 120c abbf 1b6d 8e3f 8e99 f63e 7ba8 6e3f
000001a0: 0b4e c2bd d77d 01bf ad0a 453f 3347 6a40
000001b0: 60ff 2bbe df77 593d 66c6 adbd b35d 32c1
000001c0: ebab a73d 79c2 f2bd 5129 4c3e 8bad 3a41
000001d0: b225 de3d 9837 483e 154e 3f3d a380 1cc1
000001e0: b087 593d da1c 1940 fd32 6bbf 4be6 9bbe
000001f0: 55d9 ee3e cf77 26bf fc1b a5be 5723 2140
-0.08559533 0.04386302 0.25522718 -7.991287 -1.1610527 -0.011044601 -1.0148326 1.3628403
-0.14810745 0.14552218 0.00611139 -10.97563 -0.2786927 0.07223112 0.63733315 2.9579613
-0.18307054 -0.049774233 -0.09405662 -10.611061 -0.95106477 0.27099183 -0.18561219 -0.4570811
-0.16622014 0.113406636 0.092899434 -14.772967 0.091940634 -0.14194821 0.032395974 10.805263
0.054918267 0.037180968 -0.3486388 5.8843384 0.06394281 -0.021153867 -0.08885862 4.358679
0.257072 0.02202988 -0.33292443 6.894811 -0.15102056 -0.9081976 2.14916 0.5348985
-0.15572211 0.027294584 -0.2948328 6.1839805 0.064245366 -0.102868356 -0.12894464 -12.025826
0.06878001 -0.0060001025 -0.04662685 9.250458 0.036050178 0.20521232 0.031827353 -9.9366865
-0.060950354 0.13878737 -0.0052400213 -11.773557 0.40356618 0.6089655 0.74233025 0.06765422
0.029306786 0.012551201 0.048623145 -11.415982 0.09776098 -0.18899441 -0.052462164 10.174337
0.1148029 -0.090523615 0.15642819 11.9405575 2.3826494 0.9279708 -0.52163094 0.40562686
-0.017464772 -0.07004318 0.069015466 -11.92391 0.060173918 0.21779917 -0.17768535 7.042995
0.16320029 -0.054515492 0.10091422 -6.4969745 -1.3363059 1.1127046 0.48164028 0.9322583
-0.09487542 -0.5058264 0.76969415 3.6605957 -0.16796637 0.053092834 -0.08485107 -11.147876
0.081870876 -0.11853499 0.19937636 11.667369 0.108470336 0.19552457 0.046705324 -9.781405
0.053107917 2.392386 -0.91874677 -0.30449137 0.46650186 -0.65026563 -0.32247913 2.517782

kenc0.encoder.0.bias f4 [32]
00000000: 59f8 d9bc 81fd 623d c94d 4c3f 37da 6d3f
00000010: 4e24 223f 02b3 2abe a054 cebe 8ff3 353f
00000020: 9600 ea3e 7c50 aabe e700 0b3f 5071 0e3f
00000030: 2b2e e4be c896 443f 821b 943f d386 933e
00000040: a745 8f3f da03 4abd 280f 833f 77be 86be
00000050: e632 a0bd 2f48 893f 32ef 69bf 4164 363f
00000060: d1df cc3f b1cf 603e 94a4 e5be 7bff 34bf
00000070: d69c 9f3f 9066 0040 88bc 56bf 8092 64be
-0.02660768 0.05541754 0.7980619 0.92911094 0.63336647 -0.16669849 -0.4029894 0.71074766
0.45703572 -0.3326453 0.5429825 0.5564165 -0.44566473 0.76792574 1.1570895 0.288138
1.1193131 -0.04932008 1.0239 -0.26317188 -0.07822208 1.0725154 -0.9138061 0.71246725
1.6005803 0.21954228 -0.44852126 -0.7070233 1.2469738 2.00626 -0.83881426 -0.2232151

kenc0.encoder.1.weight f4 [32]
00000000: b10d 483f 1f31 d03e 0413 843f 4e4b 0e3f
00000010: d5d6 8b3f 4a79 ad3d 0c01 1740 c766 c83f
00000020: fc29 003f 45a3 443f f6f8 a03f 916c 033f
00000030: b650 4e3f ff2a 6b3f baf4 b43f 3220 ff3f
00000040: 5e27 b63f b602 a53d 5271 803f 39a1 1c40
00000050: ccda 2a40 f942 193f 92ef 7e3f f57a 5c3f
00000060: 49be db3f 690a dd3e e4b3 2f3f d1c8 883f
00000070: fc63 2440 2c27 b43f 65ea 493f fd1d 2f3f
0.7814589 0.40662476 1.0318303 0.55583656 1.0924937 0.084704 2.359439 1.5656365
0.50064063 0.7681163 1.2575977 0.51337534 0.80591905 0.9186248 1.4137185 1.99317
1.4230764 0.08057158 1.0034583 2.4473403 2.6696043 0.5986782 0.99584305 0.8612512
1.7167445 0.43172005 0.68633866 1.0686284 2.5686026 1.4074454 0.7887328 0.68405133

kenc0.encoder.1.bias f4 [32]
00000000: 6f8a 72bc d8b9 1ebf e71f cebd a6ba aa3d
00000010: 9e3a 23be f083 24bf 89af a5bd 7567 6f3e
00000020: a593 7c3e 3dc8 71bf 2f1d 013e 8c9a 6ebe
00000030: 07bc 883d 1c93 82bd 3cd4 2b3e 1992 20bf
00000040: 3de5 8abe 5590 ddbe 4b06 a9bd c0c7 41be
00000050: 491e b13f c93d 94bf 9331 e0bd d2b0 113d
00000060: d9cf a8bf 1fce c4be 6462 d53d 609f ffbd
00000070: edc6 823e 74d2 9fbe 92ee a0bf 1251 00bf
-0.014803513 -0.62002325 -0.10064679 0.083363816 -0.1594033 -0.6426382 -0.08090121 0.2337931
0.24665697 -0.94446164 0.12608789 -0.23301142 0.06676488 -0.06375715 0.1678018 -0.6272293
-0.2712802 -0.4327418 -0.082531534 -0.18923855 1.3837367 -1.1581355 -0.109469555 0.03556902
-1.318843 -0.38438508 0.10419157 -0.1248157 0.25542393 -0.3121525 -1.2572806 -0.50123703

kenc0.encoder.1.running_mean f4 [32]
00000000: 0523 ebbf e158 b93e 6cb7 d8bf b5f6 cc3f
00000010: 2ec9 e2bf 0d73 8abe 348e 6fc0 f605 4a40
00000020: c089 e53f 5532 273f 0037 0740 66c7 2f3f
00000030: f8b6 733f 37b7 fabf 0d37 5140 ea27 fcbf
00000040: 7cc4 c6bf 9a23 0bbd e499 cabf f734 0240
00000050: 8614 2940 b215 953f 1875 67c0 c9b1 1340
00000060: 63af 003e 2622 e03e 9de9 c73e 87df 4ec0
00000070: 2bee 7840 3fdf 57be 41e3 69bf 98a7 b53e
-1.8370062 0.36200622 -1.6930976 1.6012789 -1.7717645 -0.27040902 -3.7430544 3.1566138
1.7932663 0.65311176 2.112732 0.6866363 0.95201063 -1.9587163 3.268985 -1.9699681
-1.5528712 -0.0339695 -1.5828214 2.0344827 2.6418777 1.1647246 -3.6165218 2.3077261
0.12566905 0.43776053 0.3904542 -3.232393 3.8895366 -0.21081255 -0.91362387 0.35479426

kenc0.encoder.1.running_var f4 [32]
00000000: d368 6a41 50b3 313f 4104 df41 7a0f 0b40
00000010: 383d d141 8547 7f3e 18a0 4942 450b d741
00000020: 171e fd40 c0e5 8b40 69b0 2f41 d529 7b3f
00000030: 59f0 0a41 3aa0 0542 1df9 9d41 582f b541
00000040: e90a 0042 ee98 473e 8c03 f041 ad71 be41
00000050: db12 0442 97ac 9f3f db13 0342 cf3e 3741
00000060: f8ab 1a41 4b89 373f 18e6 5340 eaa3 e641
00000070: b535 fc41 6775 af41 f6f5 813f ba4b c43f
14.650592 0.69414234 27.877077 2.1728196 26.154892 0.24929626 50.40634 26.880503
7.909923 4.3717957 10.980569 0.98110706 8.683679 33.40647 19.746637 22.648117
32.010654 0.19491932 30.001732 23.805506 33.018414 1.2474545 32.76939 11.452834
9.666985 0.7169387 3.3109188 28.830036 31.526224 21.932325 1.0153186 1.533561

kenc0.encoder.4.weight f4 [64, 32, 1]
00000000: 5b4c 63bf 7f8d 62be d0fe 80bf 477d cfbd
00000010: c373 55bf ccaa 4abe 4f74 7a40 69e1 b0bb
00000020: bdac 283e d5db 003f 5273 f13d 357f 91be
00000030: cf97 083e fb74 61bf 7a01 2d3d 7b6a 26be
00000040: cbe0 38bf d474 a43e aea1 50bf fd5b 9e3d
00000050: cb37 96bc 22fa 3fbe f09d 83bf 8c16 783d
00000060: 6ecb babf d8bd c4bc 073d a73d 9030 77bf
00000070: e837 0b3c 5c44 08bf b036 e93b ce1b 323d
00000080: 1156 7d3e b005 9bbf 1a9c 593f b232 3cbf
00000090: 8c45 2c3f 52c8 a4bb 5709 133f a791 77bd
000000a0: a28c c1bf fdb6 f53e c7c6 2fbe 6a4e 09bf
000000b0: b5e9 77bd 9b80 d23d b386 573c 623e 2f3f
000000c0: bbbf 093f a6ff 3fbd e7fa 033e 4fdc 923e
000000d0: ed6a 7dbf ade1 aebe c3f0 ef3e c8f7 be3d
000000e0: cab8 05c0 9fd2 ed3e 7f67 b3be c603 cc3e
000000f0: 752c 06be ab02 953e c2a2 27bf 9a04 3ebe
00000100: 7479 323c fbc1 9b3e 1b25 b53c 8e45 03c0
00000110: 0631 193e d1bf c0be 3317 2b3e f2de 50bf
00000120: 6cc4 a6bf 2780 04c0 7dbe c8bf 10a0 ccbf
00000130: 30bd 25c0 dc83 8dbe 5a40 e9bf df70 5d3e
00000140: 266f c63e f36c afbe 70ce 353e 09b7 08c0
00000150: 95d5 913d 2da9 a3bf 0aa0 b6be ca30 30c0
00000160: ec47 4abf e9b7 4b3e 53c9 40c0 2216 9e3d
00000170: 2c09 34bf 4735 f53e 2bb0 c9be 7bad 17c0
00000180: 45f4 a93f 878c f3be 370e 543f 9afa f9bd
00000190: 561b 693f 30d0 153e 0c8c 93be 35cc 0c3d
000001a0: 16a3 fdbe 8ed5 923f 4b4b b93c d1c2 7f3e
000001b0: ffea 8c3d ad59 e83f b128 7c3d 65d4 e93f
000001c0: c55a c33f f456 a33e c73f 543f c93e cc3d
000001d0: 2f21 75be b7e3 76be 669d 8f3f 8837 223e
000001e0: 5125 69c0 2bb8 0b3e 7ce0 0c3e 5f5d 973f
000001f0: 97c6 183c 276d c23f ff31 503f f4d0 d33e
00000200: 5186 c73e 1056 34bc b746 b53e 07bf ddbf
00000210: 3546 a63e fd06 5b3e 661c 9b3e 3b13 c0bf
00000220: 1689 c2bf 8fdb 52bf c978 b9bf 34da 213f
00000230: 3b0e 86be 93b3 023f 7e0f 8abf 50d6 cdbe
00000240: 68b0 833e 341e 5c3e b00f c13e 742c ad3e
00000250: d45f 26bf 58cb 3fbe 8761 063f 5961 2a3e
00000260: fd69 f9bf 90f8 8d3f 7459 b1bf 0958 c53e
00000270: 0931 8bbf 23a8 8a3d 7bc2 0e3f 0133 323f
00000280: 7127 4f3d d3bb f33e c1e9 c2bc 1652 79be
00000290: b3f9 1b3f 7b85 6fbe 8dad e13e d829 913e
000002a0: 95dd df3e 911a 913f 2fd0 3f3a 099e 1dc0
000002b0: acbd ab3e 94ee adbd d4d5 31bc 0f54 183f
000002c0: 2adb 2b3f 376f fe3c 36db 27bc b3b8 a43e
000002d0: 440b 4840 1158 613d 23a6 d53e 7e4d 4c3c
000002e0: ca01 2c3f e59c fdbe 6c5d ddbe d056 223f
000002f0: d6aa 01bc 3afb 2c3f 82c5 043e 1a82 4f3f
00000300: b7e9 d73e c48e 84be 2699 063e aee9 53bf
00000310: b456 883e 4000 4dbe da38 ba3e 42c6 a6bf
00000320: 5dc5 6fbf 5c66 8fbf 6309 dabf ec7c 0abf
00000330: 0ca7 21c0 1f59 333e 4466 d3bf 0cee 7d3e
00000340: bfd0 843e 9b8b f23d 733f 923c e187 f1bf
00000350: e49e 74bd bffc 7ebf 5d22 383e f72f 09c0
00000360: 8396 20bf c058 9cbf f5fb d7bf bf4c b53e
00000370: 9f80 19bf dbb1 d63d b094 43bf 38eb 0dc0
00000380: 2dcf 833f 5572 23bc 1add 1f3f e5dc 44bf
00000390: c250 d23e 150c afbe 391e 723f b890 9fbf
000003a0: 6471 0cbe 3dd1 f4be fbb9 a3bf 0b20 68be
000003b0: 3db2 88bf 749b 313f c47c a3bf 0100 1fbe
000003c0: 7626 283e 4f96 853d 08de a53e 543d 21bf
000003d0: 336e afbe 0ca2 f4be 5f4c 433f 1f11 35bf
000003e0: f8f1 8abf fb14 54bf 9028 a3bf d672 4b3f
000003f0: 00d9 8fbf b37c b7bd e87e 903d 31db 09bf
-0.88788384 -0.22124289 -1.0077763 -0.10131317 -0.83379763 -0.19791716 3.913349 -0.0053979647
0.16472144 0.5033544 0.11789574 -0.28417364 0.1333916 -0.88069123 0.042237736 -0.16251557
-0.72218007 0.32120383 -0.81496704 0.07732389 -0.018337151 -0.18747762 -1.0282574 0.060568377
-1.4593332 -0.024016306 0.08165937 -0.96558475 0.008497216 -0.5322931 0.007117115 0.043483548
0.24739863 -1.2111111 0.8500382 -0.73514855 0.6729362 -0.005028763 0.57436126 -0.06044164
-1.5121043 0.4799117 -0.17165671 -0.53635275 -0.060525615 0.10278436 0.013154673 0.68454564
0.5380818 -0.046874665 0.1288868 0.28683707 -0.9899128 -0.34156552 0.46863374 0.09324604
-2.0894036 0.46449754 -0.350399 0.3984663 -0.13102897 0.29103598 -0.65482724 -0.18556443
0.0108932145 0.30421433 0.02211242 -2.0511203 0.14960107 -0.37646344 0.16708069 -0.8159019
-1.3028693 -2.0703218 -1.5683132 -1.5986347 -2.589672 -0.27639663 -1.8222764 0.21625088
0.38756675 -0.3426281 0.17754531 -2.1361716 0.07120816 -1.2786003 -0.35668975 -2.7529778
-0.79015994 0.19894375 -3.0122879 0.07719065 -0.70326495 0.4789221 -0.39392218 -2.3699634
1.327767 -0.4756815 0.8283419 -0.122060016 0.91057336 0.14630198 -0.28817785 0.034374435
-0.49538487 1.1471422 0.02261891 0.2497666 0.068807594 1.8152367 0.061562244 1.8267943
1.5262076 0.31902277 0.82909817 0.09972913 -0.2393844 -0.24110304 1.1219909 0.15841496
-3.6429026 0.13644473 0.13757509 1.182537 0.009324691 1.5189561 0.8132629 0.41370356
0.38969663 -0.011006847 0.35405514 -1.7323922 0.3247544 0.21389385 0.30295104 -1.5005869
-1.5198085 -0.8236627 -1.4489986 0.63223577 -0.26182732 0.5105526 -1.0785978 -0.4020257
0.25720525 0.21495897 0.3770728 0.33822978 -0.6498997 -0.18729913 0.52492565 0.16638698
-1.948547 1.109148 -1.3855424 0.38543728 -1.0874339 0.06770351 0.55765504 0.69609076
0.050574724 0.47604236 -0.023793103 -0.2434772 0.60927886 -0.23390763 0.4407772 0.28352237
0.4372374 1.1336232 0.00073170936 -2.4627707 0.33543146 -0.08492771 -0.010854203 0.59503263
0.6713129 0.03105889 -0.010245135 0.32172164 3.1256876 0.055015627 0.41728315 0.012469647
0.6719023 -0.49533764 -0.43235338 0.63413715 -0.007914266 0.6757084 0.12965968 0.81057894
0.42170498 -0.25890172 0.13144359 -0.8277844 0.2662865 -0.20019627 0.363715 -1.3029253
-0.9366053 -1.1203113 -1.7034115 -0.54096866 -2.5258207 0.17514466 -1.6515584 0.24797839
0.2594051 0.11843034 0.01785252 -1.8869592 -0.059721842 -0.9960441 0.17981859 -2.1435525
-0.6272966 -1.2214584 -1.6873766 0.35410115 -0.59961885 0.10483142 -0.76398754 -2.2174816
1.02976 -0.009975989 0.6244675 -0.7689956 0.41077238 -0.34188905 0.94577366 -1.246604
-0.1371513 -0.47815886 -1.2791132 -0.22668473 -1.0679394 0.6937783 -1.277245 -0.15527345
0.16420922 0.0652281 0.3239596 -0.62984204 -0.34263763 -0.47779882 0.7628841 -0.7072925
-1.0855093 -0.82844514 -1.2746754 0.794721 -1.1238098 -0.08959331 0.070554554 -0.53850085

kenc0.encoder.4.bias f4 [64]
00000000: 30a9 633f 855a f63f 2c2e a4be 09f0 c03f
00000010: cabb 44be 2f7b de3f 2449 05c0 01ec 313f
00000020: aed0 88bf 61b7 4c3f d788 14c0 f074 13be
00000030: b792 e7be b2e9 393f efc5 0d40 86bb 64bf
00000040: b08f 1d3f dc7e ba3f ec97 0cbf 4243 9e3e
00000050: 45fe 58bf 6cb6 9e3f 6967 9a3f 41f2 e1bf
00000060: 1029 0040 8f12 46bd 3659 963e 0ab7 873f
00000070: e74c 423f 9a7d 18c0 e4a3 bc3f f445 213f
00000080: a2f8 5d3f 6424 3140 c76b ae3f 54ca c93d
00000090: ec26 2040 1901 8e3e 8e25 afbf 5db2 f4bf
000000a0: 9449 34bf 083f 4c3e b3c9 7b3f c8e7 c4bf
000000b0: a92e 2640 116d 493f 6c69 083e 3263 90bf
000000c0: 6f07 8a3e eea3 e1ba c162 ab3f f408 153f
000000d0: 7796 4abf 8f36 1dbf 3685 8f3f 1352 71bf
000000e0: 5c09 a0bf 0454 823f ced9 7e3f 672b 80bf
000000f0: ad9f 07bf 17e6 823f e647 503d 7fd5 78be
0.88930035 1.9246374 -0.32066476 1.5073253 -0.19212261 1.7381343 -2.0825891 0.6950074
-1.0688684 0.79967314 -2.320852 -0.14400077 -0.45229122 0.72622216 2.215206 -0.8934864
0.61547375 1.4569964 -0.54919314 0.3091069 -0.84762985 1.2399421 1.2062808 -1.7652055
2.0025063 -0.048357543 0.29364938 1.0602734 0.75898594 -2.382666 1.4737515 0.62997365
0.8670751 2.767846 1.3626641 0.09853044 2.5023756 0.27735212 -1.3683336 -1.9116932
-0.7042477 0.1994592 0.98354644 -1.5383234 2.596598 0.7868205 0.13321465 -1.1280272
0.26958796 -0.0017214993 1.3389512 0.58216786 -0.7913584 -0.61411375 1.1212528 -0.9426586
-1.2502856 1.018189 0.99551094 -1.0013245 -0.5297802 1.0226468 0.050849818 -0.24300192

kenc0.encoder.5.weight f4 [64]
00000000: c35f 1940 0117 a13f 9467 753f 0f96 cd3f
00000010: f12a ab3f c6b3 c53f 61b6 893f 4dda 943f
00000020: 08fd 9c3f edb3 cf3f f48b b43f 07c0 e23f
00000030: 5319 833f e540 e03f fd2a aa3f 054c 1740
00000040: 4274 ca3f d0eb ba3f 7332 5f3f 965c 7c3f
00000050: 698f 823f 9be8 9b3f 8d49 ae3f 7ed2 a03f
00000060: be95 9d3f 40e7 b13f b815 583f 0b70 f93f
00000070: bddf 683f 30f6 b33f 4c51 983f e70e 8f3f
00000080: e709 a63f 03c3 d13f 9514 ff3f 97e8 e33f
00000090: 169a 933f e410 1e40 0189 ac3f f041 b43f
000000a0: c1aa ac3f 6b36 903f 5478 2c3f 67b4 0a40
000000b0: f176 9d3f 04cf 0940 0634 1940 a6c3 9b3f
000000c0: d573 c63f e0ae 8a3f d604 813f 8c61 d03f
000000d0: 3259 933f 7115 773f 595b d63f e964 8a3f
000000e0: 8a82 a33f 1bd1 c63f f874 7f3f 4b88 b73f
000000f0: 87a6 893f 2101 c03f 95e8 9d3f 56b1 ca3f
2.3964698 1.2585145 0.9586117 1.6061419 1.337248 1.5445487 1.0758783 1.162912
1.2264719 1.6226784 1.410521 1.7714852 1.0242103 1.7519804 1.3294369 2.3640149
1.5816729 1.4603214 0.87186354 0.98578775 1.0200015 1.218036 1.3616196 1.2564237
1.2311323 1.3898697 0.8440814 1.9487318 0.909664 1.4059505 1.189981 1.1176423
1.2971772 1.6387638 1.9928156 1.7805356 1.1531398 2.469781 1.347931 1.4082623
1.348961 1.1266607 0.67371106 2.167261 1.2301923 2.1532602 2.3938003 1.2169082
1.5504099 1.0834618 1.0079601 1.6279769 1.1511595 0.9651709 1.6746627 1.0812045
1.2774212 1.5532564 0.99787855 1.4338468 1.0753945 1.5000345 1.2336603 1.5835369

kenc0.encoder.5.bias f4 [64]
00000000: 49c6 14bf bf98 c0be 2531 b83c 816d ea3e
00000010: 4106 4cbf bbf4 85bf 4039 44be f7b5 54be
00000020: 9be2 88bf 758d 00c0 c38b cfbe 89cb 39be
00000030: 4d91 52be 0f7c d4bf d7e3 0dbf 98b5 8d3e
00000040: 1281 783e 9777 0ebf 662a ddbd 43f1 06be
00000050: 0035 1c3c ab96 47bf 5737 103f 28e3 e8be
00000060: 90ba abbd 7a05 8bbf 1c0e 18bd a6e2 593b
00000070: a21b 1ebe 76d6 1fbf c783 1dbf 50e1 88be
00000080: 7edd 17bf 861b bf3e c609 3cbe 22e6 b6bc
00000090: 844b c3bd c6d9 39bf 78c0 8dbe 10c3 183f
000000a0: 2d15 0d3f 04b1 17bd dd49 00bf 8688 7bbf
000000b0: 9a19 b7be a5f2 40bf ac3d 08bf 68c8 b8be
000000c0: 3f5f 373e 057a 97be f413 10be 58dd 0dc0
000000d0: c974 063f d8c2 f6bd 23ae a7bf 7c90 3bbe
000000e0: e9f7 dfbe 1350 15bd 4968 d0be 7607 013f
000000f0: 69d3 32be 2b50 64bf 0bfd 58be 3e0a 1a3e
-0.5811506 -0.37616536 0.022484371 0.4578667 -0.7969704 -1.0465311 -0.19162464 -0.20772539
-1.0694155 -2.0086339 -0.40536317 -0.18144049 -0.2056324 -1.660036 -0.5542578 0.27677608
0.24267986 -0.5565123 -0.107991025 -0.13177972 0.009534121 -0.77964276 0.5633444 -0.45485806
-0.08385193 -1.0861046 -0.03712283 0.0033246665 -0.15440229 -0.62436616 -0.615292 -0.267344
-0.59322345 0.37325686 -0.18363103 -0.022326533 -0.09535888 -0.7259792 -0.27685905 0.5967264
0.55110437 -0.03703405 -0.50112706 -0.98255193 -0.3576172 -0.75370246 -0.53219104 -0.36090398
0.17907427 -0.2958528 -0.14070112 -2.2166348 0.5252195 -0.12048882 -1.3100017 -0.18316835
-0.43743828 -0.036453318 -0.40704563 0.5040201 -0.17463459 -0.89184827 -0.21190278 0.1504297

kenc0.encoder.5.running_mean f4 [64]
00000000: d389 a53f 94ad 153f a96f 0dc1 2cea 8e40
00000010: 6edc aec0 99a5 1c41 dec2 12c1 9b04 5fc0
00000020: 55b5 96c0 c9ac aa40 12ec 0ebf 581a 0341
00000030: fcbf 1b40 8eb2 303f 6542 3c40 8599 ee40
00000040: 22f0 b140 d75c 1ec1 db70 7340 240f 1540
00000050: 08c1 13c0 4541 d440 f1b0 e140 e948 e1c0
00000060: 74bc cd3f 0830 6e40 ccf1 f8be eaa6 0741
00000070: 8699 9440 821a 58c0 3330 8540 7316 20c1
00000080: 63c3 b340 4538 1741 757a c140 33ac ba40
00000090: 1580 0ec0 41d6 9040 dece a840 fe03 8d40
000000a0: 6e66 5b40 5b09 15c0 9dee 5dc0 958f 0dc1
000000b0: 7c00 4ec0 2bf1 ee40 ce1b 1941 4e30 99c0
000000c0: 2c7a 5740 d6c4 9740 31ce 62c0 3ae6 4740
000000d0: 398e a240 161c 06c1 ac36 93bf 3cbd 823f
000000e0: c43f 4ec1 5113 1641 d1b9 2e40 4f83 0140
000000f0: 4c65 14c1 3083 83c0 4948 24c0 6f07 2f40
1.2932686 0.58467984 -8.839761 4.4660854 -5.464408 9.790429 -9.172575 -3.484656
-4.7096353 5.333592 -0.55828965 8.193932 2.4335928 0.6902245 2.9415524 7.45624
5.560563 -9.897666 3.8037632 2.329049 -2.3086567 6.6329675 7.0528493 -7.04015
1.6073136 3.7216816 -0.48621976 8.4782505 4.6437407 -3.376618 4.1621337 -10.005481
5.617601 9.451238 6.0461984 5.8335204 -2.2265675 4.526154 5.2752523 4.4067373
3.4281268 -2.328696 -3.4676888 -8.847554 -3.2187796 7.4669394 9.569288 -4.7871466
3.3668318 4.742778 -3.543835 3.123427 5.079861 -8.381857 -1.150106 1.0214
-12.890568 9.379716 2.7300913 2.0236394 -9.274731 -4.109764 -2.566912 2.7348287

kenc0.encoder.5.running_var f4 [64]
00000000: 97a3 d440 2707 ba41 07a1 0c43 5c4d 4942
00000010: c7df 5a42 9b5e 2242 bc1a fa42 8fa7 b842
00000020: 2faa ee40 e558 1742 3d3e ee40 a1e1 9642
00000030: d881 9b42 9e37 8940 2e2d bd40 812d 1a43
00000040: 8fb7 5741 4efb 6343 df11 f942 005f d942
00000050: ee1e 8a42 83c6 8d42 79b3 2143 7745 b142
00000060: 9ab3 4542 151d 9241 f6f5 a542 ec60 a042
00000070: 8f6e ba42 876e d140 5542 1042 f9c4 3f43
00000080: 8475 ff41 fae1 2542 8613 4942 4434 f142
00000090: a22c bf42 426c 0242 aea0 d541 85d7 4143
000000a0: 8164 a842 84a5 ab42 3265 8b41 d5db 9342
000000b0: d7cb e542 dd82 8842 d593 0543 6dec 8542
000000c0: 5cd9 7842 cd07 b641 1deb cd42 fa40 5541
000000d0: 9943 2343 1474 0243 9d36 ce40 7a9e 9e42
000000e0: a2ee 7743 f888 ce42 3919 6a42 b997 4f42
000000f0: 2f24 1343 fe28 2042 8f9c 8d42 1e99 5542
6.6449695 23.253492 140.62901 50.325546 54.718533 40.59239 125.052216 92.32726
7.4582744 37.83681 7.4450974 75.44068 77.7536 4.288039 5.911765 154.17775
13.482314 227.98166 124.534904 108.68555 69.06041 70.88772 161.70107 88.63567
49.425392 18.2642 82.98039 80.1893 93.215935 6.544742 36.064777 191.76942
31.93238 41.47068 50.269066 120.60208 95.58717 32.60572 26.703457 193.84187
84.1963 85.82327 17.424412 73.92936 114.898125 68.25559 133.57747 66.96177
62.212265 22.753809 102.959206 13.328363 163.26405 130.45343 6.4441667 79.309525
247.93216 103.26752 58.52463 51.898167 147.14134 40.04003 70.80578 53.39953

kenc0.encoder.8.weight f4 [128, 64, 1]
00000000: 2181 6a3f 280c 4e3e 5aed 993f fbd7 973d
00000010: a8aa 9a3f d1aa 3f3f d791 883f 7947 5a3f
00000020: 55e5 963f 03a8 b03f ee6b b23f 926d 2e3f
00000030: fc43 913e 7a00 aa3f 0be6 933f 94f4 663e
00000040: 4755 db3d c4cf d23f eeba ae3e c496 e43e
00000050: 8bdc 253f d0ae 383f 68c5 8e3d dd7b 523f
00000060: 1886 fe3e 296f 313f e4dd 4b3e d3c9 5e3f
00000070: ec98 a83e 4b90 c23e 7cad 733f 5c9d c13f
00000080: ab54 163f 49dd 57be 6dca 9e3f 3dad a43d
00000090: ccfa 293f 39e4 443f 7ce9 273f 8819 153e
000000a0: 8406 9f3e 2b49 0b3f 04a6 123f 1fc3 0340
000000b0: 7b19 473f 4171 b53f 5c05 a13f 5238 413f
000000c0: 53e5 2f3d 8ffe 843f a5d8 3c3f e563 b33f
000000d0: d712 903e c746 523f 1de9 b53f e94c 163f
000000e0: a7ec b13f ae66 943f b121 2b3f 8207 d43d
000000f0: fb4c 813f 445c 273f 4a65 553f 0ba2 10bd
00000100: ccc7 c0be 30a4 9d3e ad42 09bf 393a de3e
00000110: fd6f ba3e 97e2 73c0 da8d 8dbe a91c 053e
00000120: 9770 98bf 27bc 4dc0 1f5a 25be 1fe9 5bbe
00000130: c61e 98bf 2107 91bf ac90 b0bf 6f1f 213e
00000140: 6990 dcbe 40ec 36be f60b 1dbf d413 a1bf
00000150: dcf5 863d 6922 1fc0 bf1a 943e 4efa 963d
00000160: a05d 023e 0640 7bc0 854d 20bf 0546 5dbe
00000170: 89a8 93bf db0b 82bf c44e 7ac0 48d4 debe
00000180: 0030 f7be a291 8ebe af91 e4be 8da3 b9be
00000190: 17de d43c c4be dabf 6f56 a2bf e57c 0c3f
000001a0: 52b1 063f e699 323e b722 13be a70f 30c0
000001b0: 9b36 c7bd 5e22 8ebe f5b1 23be 6ebd b93d
000001c0: f1b9 063f a9b2 52be 11d2 a13c 00f3 34c0
000001d0: afe2 e63e 240d 97be 2adc 0abf a2da 9bbf
000001e0: 5b7e 09bf 0e2d 03bf 656c 1cc0 77bb cd3e
000001f0: 8b46 c9be d6a0 863e b992 4a3e 9e4d 123f
00000200: e81f de3f baff 16ba dddf 07bf 88d7 483e
00000210: 33bc 953e 47dd 8d3e 1f05 d73e 3071 183f
00000220: 8fe0 40c0 67e5 913e 413f 4fc0 4707 23bf
00000230: 4b92 1dbf f300 47bf 4940 24bf 04b4 66bf
00000240: d1ea 06c0 3cf7 883f 8636 8bbf ae08 a8bf
00000250: e46f f73d 682b 163f 3f5b 623e 0ce2 7e3e
00000260: 28cd 0bbd ff4a 4c3f 6d11 3ac0 eb8e 18bf
00000270: 62d8 76be a794 22c0 13fd 433f fdc0 9d3e
00000280: 74ec 3cbf 4636 8dbf b368 52bf 481f 2abf
00000290: 7359 4d3f 9667 943f 22ce 083f 60d8 283e
000002a0: 0126 c5bd 7df3 463e 9ccc 5fc0 04f3 d4be
000002b0: 231e 413f b7a6 31bf 7520 29bf f0ff 193e
000002c0: 7939 a73e d55c 37c0 19b4 ec3e 2be4 9fbe
000002d0: d0f9 6cbd f467 ae3e 8223 743f f683 1fbf
000002e0: 5d9d be3e 6703 60bf ad0a 2d3f 44e1 a63d
000002f0: 7a83 cabd 2e7b 613e f1ba 393e fa24 a13e
00000300: e3b6 b73f ce72 a43f 4c51 683f b14c c63f
00000310: 35d3 a03f 9fa1 45bd 6009 433f c134 783d
00000320: 7c84 0bbf 1b92 603e 7915 e9bd bf84 4a3e
00000330: d724 a6be 6b0a d6be d9f7 19bf f731 b1bd
00000340: 997f 92be 5342 353f a302 b8be 8854 b0be
00000350: e80e 43bd 9795 27bf bbf4 ba3f b702 363e
00000360: a6e9 663f 3cf0 8c3e f2f0 89be 3e87 463e
00000370: 5eaa d4be 2259 cbbe 5175 42be 3eb6 383f
00000380: 6f3e 0cbf 95c7 a2be 1da0 f43d bb8c 11be
00000390: b5e9 e53e 8cfd e5be 7735 51bf 666a b03f
000003a0: 6422 bd3f 4f65 ba3e de2a 61be a492 20be
000003b0: 3efa 173e a412 8dbe 1ffa 8fbe 4224 2b3e
000003c0: 9a0a be3f 3e2d 83be 19b4 a63e 2865 e6bd
000003d0: e990 783f 4a99 083f 92a8 8b3f 88e3 e7be
000003e0: ef48 2c3f 043d 9b3b f528 8cbe 40b5 c93f
000003f0: aa2b 573f 375e 0d40 0c81 9c3e 965e c73f
0.91603285 0.20121825 1.2025559 0.07414242 1.208333 0.7487002 1.0669507 0.8526531
1.1788737 1.3801273 1.3939188 0.6813594 0.2837218 1.3281395 1.1554579 0.22554237
0.10709625 1.6469655 0.3412699 0.44646275 0.64789647 0.7214174 0.06971246 0.8222025
0.4971168 0.6931024 0.19908863 0.8702671 0.3292917 0.38000712 0.9518659 1.5126147
0.58722943 -0.21080507 1.2405525 0.08040855 0.6639831 0.7691074 0.65590644 0.1456052
0.3105966 0.5440852 0.5728457 2.0587842 0.77773255 1.4175187 1.257976 0.7547656
0.04294331 1.0390185 0.73768073 1.401486 0.28139374 0.8213925 1.4211766 0.58711106
1.3900346 1.1593835 0.66848284 0.103529945 1.0101618 0.6537516 0.8335768 -0.035310786
-0.37652433 0.30789328 -0.53617364 0.43403795 0.36413565 -3.810705 -0.27647287 0.12999214
-1.190936 -3.214609 -0.1614766 -0.21475647 -1.1884391 -1.13303 -1.379415 0.15734647
-0.43078926 -0.1786356 -0.61346376 -1.2584176 0.06589863 -2.4864752 0.28926656 0.073719606
0.12731028 -3.9257827 -0.62618285 -0.21608742 -1.1535808 -1.0159868 -3.9110575 -0.43521333
-0.4827881 -0.27845484 -0.44642398 -0.36257592 0.025984807 -1.7089467 -1.2682627 0.54878074
0.5261432 0.1744152 -0.14368711 -2.7509553 -0.09727212 -0.27760595 -0.15985854 0.09069334
0.52627474 -0.20575966 0.019753488 -2.8273315 0.4509482 -0.29502213 -0.54242194 -1.2176096
-0.5370843 -0.51240623 -2.4441159 0.40182087 -0.39311633 0.26294583 0.19782533 0.57149684
1.7353487 -0.0005760152 -0.53075963 0.19613469 0.29245147 0.27707884 0.41996095 0.5954771
-3.013706 0.28495333 -3.2382357 -0.6368298 -0.6155135 -0.77735823 -0.6416059 -0.9011843
-2.108082 1.070045 -1.0876014 -1.3127649 0.12081888 0.5865998 0.2210512 0.24890918
-0.0341312 0.79801935 -2.9073136 -0.59593076 -0.24105981 -2.540323 0.76558036 0.308113
-0.737983 -1.1032188 -0.8219101 -0.6645398 0.80214614 1.1594112 0.53439534 0.1648879
-0.09626389 0.19428821 -3.4968634 -0.41591656 0.7543661 -0.6939501 -0.6606515 0.15039039
0.32661036 -2.865041 0.46231154 -0.31228766 -0.057855427 0.34063685 0.9536668 -0.6231073
0.37229434 -0.8750519 0.67594415 0.08148435 -0.098883584 0.22019646 0.18137719 0.31473523
1.4352688 1.2847536 0.9074905 1.5492154 1.2564455 -0.048249837 0.7618618 0.060597185
-0.5449903 0.21930735 -0.11381049 0.19777201 -0.32449982 -0.41804823 -0.6014381 -0.08652108
-0.28612974 0.7080433 -0.35939512 -0.34439492 -0.047621638 -0.6546263 1.4605936 0.17774473
0.9020027 0.27527034 -0.2694164 0.19387528 -0.4153623 -0.3971644 -0.18990065 0.7215308
-0.54782766 -0.31792894 0.11944602 -0.1421384 0.44904867 -0.44920003 -0.81722206 1.378247
1.477612 0.36405417 -0.21989009 -0.15680939 0.14841554 -0.27553284 -0.28120515 0.1671305
1.4846985 -0.25620455 0.3255928 -0.11249763 0.97096115 0.533589 1.0910819 -0.4529078
0.6729879 0.0047374982 -0.27374998 1.5758438 0.84051 2.2088754 0.30567205 1.557574

kenc0.encoder.8.bias f4 [128]
00000000: cf30 293f de4f abbe f739 613e 1033 8bbe
00000010: e801 253e ed59 65bf 10c3 533f 8732 b0be
00000020: 6246 c43f d256 6a3e fec6 173e c9e5 acbe
00000030: d64b 6a3f f9b9 33bf 4a9f 9ebf d173 d7bf
00000040: d346 46bf 696f 4fbe 7187 1e3f a1ed 3fbf
00000050: a882 b3bf ac62 4740 375d 51bf 9f7b 923e
00000060: fb5e 8ebf bef9 d23f 153a 98be 4636 fb3f
00000070: db41 c4be fac8 9bbf 4e07 463f 7c45 103f
00000080: 4710 953f c486 fd3f bded 903f 849c 893e
00000090: 9bf1 80bf 3b38 493f c902 753e 0b86 10be
000000a0: 5e26 afbf 78d6 c23d ea43 1abf 5471 b63e
000000b0: 3e2b cdbe c3b4 33bd 1af2 c63e e632 debf
000000c0: 75de 81bf 0adc 3ebf 7e42 edbe 4756 f3bd
000000d0: eb73 02bc fe44 9a3e b70f 52bf df6b e6bf
000000e0: 78ab 083f bc7a 90bf fb77 ca3f 29a5 853f
000000f0: 983b c73f 48be 4abf b2f1 ac3f 1a06 44bf
00000100: 9a96 70bf 8ab4 92bd 8c7d 4ebf 24aa 07bf
00000110: de98 8cbd 624d 6dbf 7228 92be 1d06 3ebf
00000120: 9ec5 99bf 3fbe 423d ddbd b9be 1b8e 1ebf
00000130: a7a2 9a3e 50b4 483f eb09 16bf 5a1f a43d
00000140: 83e6 b5bf 0844 dbbe ea8f 6f3f 62e8 fd3e
00000150: c2a3 d6bf d829 0940 3ccf 08bf 0433 883e
00000160: dbb9 04bf 6d2b b6be 63d5 0cbe c594 ed3f
00000170: 1b38 ef3f fb99 e7be 33f6 e6be 9a3a 12c0
00000180: af9f 703f dc72 ac3e ae02 0cbf 5b39 b9bd
00000190: 9bbc a0bb 6e4a 8d3f 4a36 a33f ca7d 0d3f
000001a0: b75e b83e 3e10 443f aad7 48bf c2fa 143f
000001b0: 960e cdbe 7306 ff3e 2d1a 173f 820a 9c3d
000001c0: 77ea 9fbf 7fcd babf dbec 2d3f 8c5b c3be
000001d0: 7391 5b3d e3bf 693f 0e18 a3bf d8fc 9a3f
000001e0: 3a28 993e 76c7 00bf d8b2 eabe 8347 d2be
000001f0: d501 0f3f 23ab c6bf b2c7 843f f677 6c3f
0.660901 -0.3345937 0.21994768 -0.27187395 0.16114008 -0.8959034 0.82719517 -0.3441355
1.5333979 0.22884682 0.14822003 -0.33769062 0.91521966 -0.70205647 -1.2392361 -1.6832219
-0.7745182 -0.20257343 0.6192542 -0.7497197 -1.4024248 3.1153975 -0.8178286 0.2860994
-1.1122736 1.6482465 -0.29731813 1.9625938 -0.38331494 -1.2170708 0.77354896 0.56356025
1.1645592 1.9806752 1.1322552 0.26877224 -1.0073732 0.78601426 0.23926844 -0.14113633
-1.3683584 0.09513563 -0.6025988 0.35633337 -0.40072054 -0.04387356 0.38856584 -1.7359283
-1.0146013 -0.745545 -0.46339792 -0.118816905 -0.007962207 0.30130762 -0.8205523 -1.800167
0.5338664 -1.1287456 1.5817865 1.0441028 1.5565062 -0.79196596 1.351126 -0.7657181
-0.939798 -0.07163341 -0.8066032 -0.5299399 -0.068650946 -0.926962 -0.28546482 -0.7422808
-1.2013433 0.047544714 -0.36277667 -0.61935586 0.3020222 0.78400135 -0.58608884 0.08013792
-1.4210972 -0.4282534 0.9357897 0.49591357 -1.6768725 2.143179 -0.53441215 0.26601422
-0.5184609 -0.35580006 -0.13753276 1.8561026 1.8688997 -0.45234665 -0.4510971 -2.2848268
0.9399366 0.3368138 -0.5469159 -0.09044143 -0.004905296 1.1038339 1.2750943 0.55270064
0.36009762 0.76587284 -0.7845408 0.58195126 -0.4005019 0.49809608 0.59024316 0.07619192
-1.2493428 -1.4593962 0.6793954 -0.38155782 0.053605508 0.9130842 -1.2741716 1.2108412
0.29913503 -0.50304353 -0.45839572 -0.41070184 0.5586217 -1.5520977 1.0373442 0.92370546
