neural_network/weights/model_weights.pth (torch, 462239 bytes, 160 tensors)

penc0.lin.weight f4 [36, 100]
0	0x3cf00a97	0.029301925
1	0xbc3aa166	-0.011391019
2	0xbdd71c94	-0.10503498
3	0x3d0db87a	0.03459976
4	0x3d4682b3	0.04846449
5	0x3c7ad6cd	0.015310002
6	0xbd380209	-0.044923816
7	0x3db37e3b	0.08764311
8	0x3d69ab62	0.05704821
9	0xbc0e7ab0	-0.008696243
10	0xbd326496	-0.043552957
11	0xbd9bad09	-0.07601363
12	0xbdf37c74	-0.11888972
13	0x3d8dc6f6	0.069227144
14	0x3c1061b3	0.008812356
15	0xbd24c6fc	-0.04022883
16	0xbbb6a5ff	-0.0055739875
17	0x3d0eaef5	0.03483482
18	0xbde4602f	-0.11151158
19	0x3cf5a8b3	0.029987669
20	0x3b2e5beb	0.002660508
21	0xbd881d83	-0.06646254
22	0xbd83f334	-0.06442872
23	0xbd06d796	-0.032920443
24	0x3d902783	0.07038786
25	0x3e60db99	0.2195877
26	0xbcc73057	-0.024315042
27	0xbbc0cada	-0.005883557
28	0x3c715f6f	0.014732226
29	0x3dc5a4d3	0.09650578
30	0xbc92450c	-0.01785519
31	0xbd5d981b	-0.054100137
32	0x3bab86b6	0.0052345647
33	0xbe0d3929	-0.13791336
34	0xbd6320cc	-0.0554512
35	0xbdec77e4	-0.11546305
36	0xbd21385a	-0.03936038
37	0xbdf2300e	-0.11825572
38	0xbd6bd1ce	-0.057573132
39	0xbe57b3d6	-0.21064696
40	0x3cb0d754	0.021587051
41	0x3d362f50	0.044478714
42	0xbd8d83f0	-0.06909931
43	0xbce583d3	-0.02801696
44	0x3d89d2fb	0.067296945
45	0xbd55847c	-0.0521283
46	0xbcfe6c94	-0.031057633
47	0x3d99113e	0.07473992
48	0xbc572a90	-0.013132706
49	0xbd807f30	-0.06274259
50	0xbaaa0ef9	-0.0012974433
51	0xbdadc99c	-0.084857196
52	0x3cdbec69	0.026846128
53	0x3de44dba	0.11147638
54	0xbdcf55a5	-0.10123757
55	0xbb8dc7a7	-0.004326779
56	0xbd8b9818	-0.06816119
57	0x3c94acb4	0.018148758
58	0xbdfde2d5	-0.123967804
59	0x3d00add8	0.03141579
60	0xbda00957	-0.078142814
61	0xbdfaba7a	-0.12242599
62	0xbc2761bf	-0.010216176
63	0xbe046586	-0.12929353
64	0x3d37d823	0.04488386
65	0x3e006534	0.12538606
66	0x3d974570	0.07386291
67	0xbd438715	-0.047736246
68	0xbcdf3bf7	-0.027250273
69	0xbc584b77	-0.013201586
70	0xbd9f2d55	-0.07772318
71	0xbd6b2a68	-0.05741349
72	0x3d5326e9	0.05155078
73	0x3d129b10	0.03579241
74	0x3db53854	0.08848634
75	0xbe03e23b	-0.12879269
76	0x3dd050ba	0.10171647
77	0x3cd62d6c	0.026144706
78	0x3c376dc8	0.0111956075
79	0xbe1f0ea3	-0.15532927
80	0xbdbba81f	-0.09162926
81	0xbd5c9164	-0.053849593
82	0xbd835b42	-0.064138904
83	0x3da1ea70	0.079060435
84	0xbe03d40c	-0.12873858
85	0xbd0274fe	-0.031849854
86	0x3d6da8f8	0.05802247
87	0xbde1bd0a	-0.110223845
88	0xbe4ac89f	-0.19803093
89	0x3b273c5a	0.002551815
90	0xbdb16b77	-0.086630754
91	0xbd54a351	-0.051913563
92	0x3c0c2467	0.008553601
93	0xbdf094a6	-0.117471024
94	0x3cb35ffa	0.021896351
95	0xbc295746	-0.010335749
96	0xbc5cd70f	-0.013479008
97	0xbdf677c1	-0.1203456
98	0x3dbc5e9a	0.09197731
99	0x3d8c387d	0.06846712
100	0x3b996a27	0.004681844
101	0xbddb693e	-0.10713433
102	0x3dd4a21c	0.103824824
103	0xbcc6b833	-0.024257755
104	0x3d3ef6f0	0.046622217
105	0xbe0a3909	-0.1349832
106	0xbdf7040d	-0.120613195
107	0xbc38aa30	-0.011271045
108	0x3c59ac18	0.013285659
109	0xbdb69a12	-0.08916105
110	0xbbe5d358	-0.0070137195
111	0x3cd5e0b2	0.02610812
112	0xbd10949d	-0.03529798
113	0x3d4ac190	0.049501
114	0x3d8ae79d	0.06782458
115	0xbd2d0bac	-0.04224746
116	0xbd9e8768	-0.077406704
117	0xbd6c9fb1	-0.05776948
118	0x3da73b8f	0.08165657
119	0x3de403ac	0.11133513
120	0xbb75bc64	-0.0037496323
121	0xbbae6c78	-0.005322989
122	0x3cb4e7fa	0.022083271
123	0xbd959501	-0.07303811
124	0x3d407076	0.04698225
125	0x3d5f4d92	0.054517336
126	0xbd7ac9fe	-0.06122779
127	0xbdf1c6eb	-0.11805519
128	0x3dca8e11	0.09890378
129	0xbd136a02	-0.03598977
130	0x3d802bb5	0.062583365
131	0xbc9dc6be	-0.019259807
132	0xbc8ba93f	-0.017048476
133	0x3b690f29	0.0035562015
134	0xbe207c99	-0.1567253
135	0xbd90a38f	-0.07062446
136	0x3bccffe2	0.0062560895
137	0x3ddf5aa9	0.10905964
138	0xbbb0700e	-0.0053844517
139	0x3c75f6d8	0.015012465
140	0xbd83b590	-0.06431115
141	0x3d2f1c32	0.0427515
142	0xbd658c0d	-0.056041766
143	0x3cf4fa99	0.02990465
144	0x3da6667c	0.08125016
145	0x3ce8ad73	0.02840302
146	0xbd60a3fc	-0.054843888
147	0xbdee2664	-0.11628416
148	0x3df5e736	0.120069906
149	0x3dae9d4c	0.08526096
150	0x3cbad398	0.022805974
151	0xbd9ddbbb	-0.07707926
152	0xbc84d23f	-0.016213534
153	0xbccf8a21	-0.02533442
154	0x3e1af826	0.15133724
155	0x3dc02f39	0.09384007
156	0xbd6186b1	-0.055060092
157	0xbd38d3f1	-0.045123998
158	0x3bf76874	0.0075502936
159	0xbd6c5814	-0.057701185
160	0x3daa403f	0.08313035
161	0xbdc5926f	-0.096470706
162	0x3d9c3a68	0.076283276
163	0x3d6336aa	0.055472054
164	0xbd43a50c	-0.047764823
165	0xbdecfe60	-0.11571956
166	0xbc3509c4	-0.011049692
167	0x3c0a04cf	0.008423998
168	0x3dc0f03f	0.09420823
169	0x3d988c4a	0.07448633
170	0xbbf7bed4	-0.0075605903
171	0x3cf6cadd	0.03012603
172	0x3dcd1c8b	0.1001521
173	0xbd27d9c5	-0.040979166
174	0xbcd0c228	-0.025483206
175	0x3b93322a	0.004492064
176	0xbd193ae2	-0.03740967
177	0x3d06c1cd	0.032899667
178	0xbd5ef136	-0.054429255
179	0x3d68849b	0.056767087
180	0x3dd95fb5	0.10613958
181	0xbdb3459e	-0.08753513
182	0xbcd5071f	-0.026004372
183	0x3d6fdf87	0.05856278
184	0xbd45306a	-0.048141874
185	0xbc328ea1	-0.010898263
186	0xbbb0a0c5	-0.005390259
187	0x3e17c04d	0.1481945
188	0xbd7d8169	-0.061890993
189	0x3d5f2113	0.0544749
190	0x3c90cedd	0.017676765
191	0xbe028d24	-0.12749153
192	0x3cadd43c	0.021219365
193	0x3d9989fe	0.07497023
194	0xbdf20150	-0.118166566
195	0x3d5567f3	0.052101087
196	0xbce5eb7c	-0.02806639
197	0xbded1847	-0.11576896
198	0xbd441617	-0.04787263
199	0x3df25533	0.11832657
200	0xbd9703fb	-0.07373806
201	0xbd93bd4e	-0.072138414
202	0x3c919aeb	0.017774066
203	0xbcf6a6e0	-0.03010887
204	0x3d85e226	0.06537275
205	0x3df0e9fe	0.117633805
206	0x3d77d625	0.06050696
207	0x3d807c97	0.062737636
208	0x3d43b882	0.047783382
209	0xbcd28280	-0.025696993
210	0x3d10c0df	0.035340186
211	0xbd08df49	-0.033416066
212	0x3e1f0433	0.15528946
213	0xbdfb6ec5	-0.12276987
214	0x3d8216e3	0.063520215
215	0xbd2507a2	-0.040290482
216	0xbdd53e9a	-0.10412331
217	0xbbcf19bf	-0.006320208
218	0xbb310f60	-0.002701722
219	0x3d56f73a	0.052481867
220	0xbd9737cf	-0.073836915
221	0xbc7b822b	-0.015350859
222	0xbc90e6db	-0.017688205
223	0x3d80988c	0.06279096
224	0xbd8923a5	-0.06696252
225	0x3dd76c00	0.10518646
226	0xbc93f4c7	-0.018061055
227	0x3dd6c383	0.1048651
228	0xbb8987c0	-0.004197091
229	0xbd38df32	-0.04513473
230	0xbde78a8f	-0.11305725
231	0xbd6ce4b3	-0.057835292
232	0xbc68abe9	-0.014201143
233	0x3df2128d	0.118199445
234	0x3d8ee424	0.06977108
235	0x3cec52fe	0.028848168
236	0xbce59666	-0.028025817
237	0x3d689592	0.056783266
238	0x3d772efc	0.060347542
239	0xbd7bf4ef	-0.061512884
240	0xbd297e57	-0.041380253
241	0xbdb1f639	-0.08689541
242	0x3e17441a	0.14772072
243	0xbdcec043	-0.10095265
244	0x3d4b09a0	0.049569726
245	0x3d33b037	0.043869223
246	0xbc823f7d	-0.015899414
247	0xbc5790ec	-0.013157111
248	0xbb73384d	-0.0037112415
249	0xbe237069	-0.1596085
250	0xbd1d03b4	-0.03833361
251	0xbca4d1f3	-0.020119643
252	0x3b88c0f2	0.0041733915
253	0x3d98a232	0.07452811
254	0xbd8bb803	-0.06822207
255	0x3d8d0649	0.068859644

penc0.bn.weight f4 [36]
0	0x3f7e8f6f	0.9943761
1	0x3f754301	0.95805365
2	0x3f7a18d8	0.9769416
3	0x3f830d00	1.0238342
4	0x3f7f9c47	0.99847835
5	0x3f8412a9	1.0318195
6	0x3f7737f2	0.9656974
7	0x3f7510ee	0.9572896
8	0x3f68490a	0.9073645
9	0x3f6d5cdd	0.92719823
10	0x3f7c7e50	0.9863024
11	0x3f733df3	0.950164
12	0x3f7e659c	0.99373794
13	0x3f7b0360	0.98052025
14	0x3f7c8621	0.98642164
15	0x3f842752	1.03245
16	0x3f77002f	0.96484655
17	0x3f7c6f65	0.98607475
18	0x3f716d15	0.9430707
19	0x3f70ae85	0.94016296
20	0x3f859e9d	1.043903
21	0x3f7e535e	0.9934596
22	0x3f83380b	1.0251478
23	0x3f85789e	1.0427434
24	0x3f84c369	1.0372134
25	0x3f848a93	1.035479
26	0x3f876ec8	1.0580683
27	0x3f80e2ef	1.0069255
28	0x3f84e893	1.0383476
29	0x3f7b707c	0.9821851
30	0x3f8089a6	1.0042007
31	0x3f84b68a	1.0368207
32	0x3f5f118a	0.8713614
33	0x3f8f7fc9	1.1210872
34	0x3f7d6165	0.9897674
35	0x3f84a13c	1.0361705

penc0.bn.bias f4 [36]
0	0x3cbbddfc	0.022932999
1	0xbda86289	-0.08221919
2	0x3c2a59f8	0.010397427
3	0xbd010369	-0.031497393
4	0x3c86949b	0.016428282
5	0x3be2d286	0.006922069
6	0xbd3908fe	-0.04517459
7	0xbc2044b8	-0.009782009
8	0xbdba3774	-0.09092608
9	0xbd85a3e8	-0.06525403
10	0xbc49395f	-0.012281745
11	0xbd0b4356	-0.033999763
12	0xbce41ab4	-0.027844764
13	0xbcc9e571	-0.024645539
14	0xbd14fe35	-0.036375243
15	0xbd4e6c44	-0.05039622
16	0xbd27ad52	-0.040936776
17	0x3d69ec22	0.05710996
18	0xbdb050c7	-0.08609157
19	0xbd69f53f	-0.05711865
20	0xbd4bed49	-0.04978684
21	0xbb5ab638	-0.003337277
22	0x3ca80ea2	0.02051479
23	0x3dabe8f7	0.08394044
24	0x3d7c4571	0.061589662
25	0x3c8e94d6	0.017404955
26	0x3d797c47	0.060909536
27	0xbc24ae3f	-0.010051309
28	0x3cfc3526	0.030787062
29	0x3ce83bc5	0.028348813
30	0xbbf74df2	-0.0075471336
31	0x3cfec2fd	0.031098837
32	0xbdf736c0	-0.120709896
33	0x3c308691	0.010774271
34	0x3c8582e5	0.016297767
35	0x3ca2676e	0.01982471

penc0.bn.running_mean f4 [36]
0	0xbc3065a2	-0.010766419
1	0xbeaab814	-0.33343565
2	0xbe9c13c3	-0.30483827
3	0x3eec7410	0.461823
4	0x3e85ac49	0.26108006
5	0x3e4c64c2	0.19960311
6	0x3d3aa206	0.045564674
7	0x3e6a00ac	0.22851819
8	0xbc04e68e	-0.008111609
9	0xbe49e03c	-0.19714445
10	0x3e80f5fa	0.25187665
11	0xbeb88f01	-0.36046603
12	0x3e16cba9	0.14726128
13	0xbd89ee2a	-0.06734879
14	0x3ce896fb	0.028392306
15	0x3edc5c9a	0.430394
16	0x3d8bcefa	0.06826587
17	0xbe5bd089	-0.21466269
18	0x3e54fb48	0.20798981
19	0xbd88c11c	-0.06677458
20	0x3f0e89fb	0.5567929
21	0x3ded3a02	0.1158333
22	0x3dd42040	0.10357714
23	0xbef6e400	-0.48220825
24	0xbf0c4a39	-0.54800755
25	0x3f14a201	0.580597
26	0x3e403c0a	0.18772903
27	0x3e69bbca	0.22825542
28	0x3e849354	0.25893652
29	0x3eb9c3e6	0.3628227
30	0x3e32eea5	0.17473848
31	0x3e9758c8	0.29559922
32	0xbee2351b	-0.4418114
33	0x3ebfd7f9	0.37469462
34	0xbd49b125	-0.049241204
35	0xbda67f2d	-0.081297256

penc0.bn.running_var f4 [36]
0	0x3d9574e5	0.072976865
1	0x3d8ae47a	0.0678186
2	0x3dbbe14f	0.091738336
3	0x3e6ff4fe	0.23433301
4	0x3de5c15e	0.112185225
5	0x3e1f980b	0.15585344
6	0x3d9bffc8	0.07617146
7	0x3e03e108	0.12878811
8	0x3e550a74	0.20804769
9	0x3da26b7a	0.07930656
10	0x3d86a3e0	0.065742254
11	0x3dcfe234	0.10150567
12	0x3da5993b	0.08085867
13	0x3e0bd7af	0.13656496
14	0x3e19efd1	0.15032889
15	0x3e0a7a88	0.13523304
16	0x3e126a59	0.14298381
17	0x3e4fd77e	0.20297047
18	0x3dd042fe	0.10169028
19	0x3da0750d	0.07834826
20	0x3dcae58d	0.099070646
21	0x3ddca324	0.10773304
22	0x3e710d96	0.23540339
23	0x3da81f7b	0.082091294
24	0x3d84967e	0.064740166
25	0x3e0d1c8e	0.13780424
26	0x3e11a389	0.1422254
27	0x3db68dce	0.08913766
28	0x3df32502	0.11872293
29	0x3d6d24cd	0.057896424
30	0x3e0afa6e	0.13572094
31	0x3dabdfa8	0.083922684
32	0x3d8db1b3	0.06918659
33	0x3dca0756	0.098646805
34	0x3d880624	0.06641796
35	0x3e181787	0.14852725

penc1.lin.weight f4 [36, 100]
0	0x3d4d2f6e	0.05009406
1	0x3d678ad9	0.0565289
2	0x3dd93f51	0.1060778
3	0xbdaf2789	-0.085524626
4	0x3db9dcd0	0.0907532
5	0xbd45371c	-0.04814826
6	0x3d56370b	0.052298587
7	0xbdc04972	-0.093890086
8	0xbdb1b897	-0.08677786
9	0xbd7ffd00	-0.06249714
10	0x3de9cd1a	0.11416073
11	0xbd6eee39	-0.058332656
12	0xbcfcdc61	-0.030866804
13	0xbd8627fb	-0.065505944
14	0xbb88abf9	-0.0041708914
15	0x3ba46ed4	0.0050180946
16	0xbde88c5c	-0.113548964
17	0xbd00b85b	-0.031425815
18	0x3df4b3a8	0.11948329
19	0xbd4ef328	-0.05052486
20	0x3c824886	0.015903722
21	0xbd90c436	-0.07068674
22	0xbcc4376c	-0.023952208
23	0xbdf0d8a0	-0.11760068
24	0xbd2a4d95	-0.041577894
25	0xbd34c5cc	-0.044133946
26	0x3d89996b	0.06718715
27	0xb8c4aa9b	-9.377786e-05
28	0xbda59385	-0.08084778
29	0xbe11f5df	-0.14253949
30	0x3d2321a2	0.039826997
31	0x3d3e2dc6	0.04643037
32	0x3df9fffd	0.12207029
33	0xbdb04769	-0.086073704
34	0x3dc490d7	0.095979385
35	0x3d7c3a9d	0.061579335
36	0xbdfadaeb	-0.122487865
37	0x3de30e80	0.1108675
38	0xbcb0e0cd	-0.021591568
39	0xbc81fbd6	-0.015867155
40	0xbb4cb4fe	-0.003123581
41	0xbd8f2307	-0.06989103
42	0x3df09702	0.117475525
43	0x3c52256c	0.012826305
44	0xba1e6712	-0.00060425804
45	0xbc247722	-0.010038169
46	0xbd947b7f	-0.072501175
47	0x3d639c41	0.055568937
48	0x3d51bba6	0.051204346
49	0x3dce8583	0.10084059
50	0x3de5567b	0.111981355
51	0xbd88abde	-0.06673406
52	0x3de87fd4	0.11352506
53	0xbd16423e	-0.036684267
54	0x3d265d9c	0.040616617
55	0xbde23e6f	-0.110470645
56	0xbdd6c2e4	-0.10486391
57	0xbd56dcfa	-0.052456833
58	0xbd75db96	-0.060023867
59	0x3d9a8cde	0.075463995
60	0x3d6c1081	0.057632927
61	0xbda67ea5	-0.08129624
62	0xbd62e34c	-0.05539255
63	0xbce94fdc	-0.028480463
64	0x3dc3eeee	0.095670566
65	0xbd0c285d	-0.03421818
66	0xbd92e626	-0.071728036
67	0x3cdbe149	0.026840823
68	0xbbde9a15	-0.0067932704
69	0x3d097736	0.033560954
70	0x3d777a4e	0.060419373
71	0xbd9d4fe1	-0.07681251
72	0x3dc00171	0.09375275
73	0xbd1c94ab	-0.03822772
74	0xbdc622e8	-0.096746266
75	0x3c00e757	0.007867656
76	0xbd95671c	-0.07295057
77	0x3ccb125a	0.024789024
78	0x3d26b8f9	0.040703747
79	0x3cd043df	0.025422988
80	0x3c78ebbe	0.015192924
81	0xbc3f9d48	-0.011695214
82	0xbbd84a93	-0.006600687
83	0xbd5e5c71	-0.054287378
84	0xbd32fcc0	-0.043698072
85	0xbd00cf80	-0.031447887
86	0x3d36a7ae	0.044593506
87	0x3d69db11	0.057093684
88	0xbd8b6d75	-0.06807987
89	0xbcd3980d	-0.02582934
90	0x3da41589	0.0801192
91	0x3d2584d3	0.040409874
92	0xbbbd4bb6	-0.0057768477
93	0x3ca433df	0.020044265
94	0xbdce14b6	-0.10062544
95	0xbd6c4449	-0.05768231
96	0x3d0c6e03	0.034284603
97	0x3dc43dc8	0.09582096
98	0xbd105002	-0.03523255
99	0x3de4c6e0	0.11170745
100	0xbe2ac823	-0.16677909
101	0xbd9dbd8e	-0.0770217
102	0x3d7d8429	0.061893616
103	0x3cea2ffe	0.028587338
104	0xbba3a17d	-0.004993616
105	0x3d19e3c3	0.037570726
106	0xbdc464df	-0.09589552
107	0xbd3bed37	-0.045880523
108	0x3d38680e	0.04502111
109	0xbc86af58	-0.016441032
110	0xbdad54dc	-0.08463451
111	0x3dbb0197	0.091311626
112	0x3d12b904	0.035820976
113	0x3d9036c2	0.07041694
114	0x3b2e1386	0.002656193
115	0x3d8963c8	0.06708485
116	0xbc88eabd	-0.016713494
117	0x3d8ace7f	0.06777667
118	0x3dafef94	0.08590618
119	0x3bd25886	0.006419244
120	0xbc10d7da	-0.0088405255
121	0xbd9d5ffc	-0.07684323
122	0x3c3d2693	0.011544841
123	0xbc77db35	-0.015127947
124	0xbd975cf5	-0.07390777
125	0x3c0a8f83	0.008457067
126	0x3d64f284	0.055895343
127	0xbdbbcc5f	-0.0916984
128	0xbb12087c	-0.002228289
129	0x3c9f6047	0.019455088
130	0xbe033be3	-0.12815814
131	0x3daecc59	0.0853507
132	0x3d25d3db	0.040485244
133	0x3b9f8943	0.004868658
134	0xbdd20320	-0.10254502
135	0x3ddb2bdc	0.10701725
136	0xbd1e7fd0	-0.03869611
137	0xbc3ba02b	-0.011451761
138	0x3bd264b0	0.0064206943
139	0x3c948fb6	0.018134933
140	0xbb812ccb	-0.0039421073
141	0x3c9d4b8d	0.019201064
142	0xbd119578	-0.035542935
143	0xbd733a1f	-0.0593816
144	0x3db074c3	0.086160205
145	0xbe1b8070	-0.15185714
146	0xbd9c6457	-0.07636326
147	0xbc956aa8	-0.018239334
148	0x3d224774	0.039618924
149	0xbdbe1e2e	-0.092831
150	0xbd2cc858	-0.04218325
151	0x3dac1ae2	0.08403565
152	0xbcbf71d8	-0.023369715
153	0xbd4db373	-0.050219964
154	0xbc6eb2f6	-0.014569035
155	0x3d15bca3	0.03655685
156	0xbc668aef	-0.01407121
157	0x3c8bcce5	0.017065475
158	0xbdb080df	-0.0861833
159	0xbd1e4478	-0.038639516
160	0xbdecf2d4	-0.11569753
161	0xbd0aa759	-0.033851
162	0xbd578834	-0.052620128
163	0x3dfa9805	0.12236027
164	0x3dc5e63c	0.09663054
165	0xbd63bc09	-0.055599246
166	0xbdbea597	-0.093089275
167	0x3cc5047e	0.024049994
168	0x3dda804f	0.10669004
169	0x3ca45855	0.020061651
170	0xbd11d50d	-0.03560357
171	0x3da19586	0.078898475
172	0xbdc6f88b	-0.097153746
173	0x3ad7d569	0.00164668
174	0x3d05eb2a	0.032694973
175	0x3d0ce20a	0.034395255
176	0xbdbb5748	-0.09147507
177	0xbc96d704	-0.018413074
178	0x3d924580	0.07142162
179	0xbc6aa75f	-0.014322131
180	0xbe3ebd84	-0.18626982
181	0x3d9d0f71	0.07668961
182	0x3c4c6028	0.012474097
183	0x3d3b2572	0.045690008
184	0x3e2324c0	0.15931988
185	0xbdef6f88	-0.11691195
186	0xbd623913	-0.05523021
187	0x3d9b67f4	0.07588187
188	0xbcfeeb10	-0.031117946
189	0xbc2eb302	-0.010662796
190	0xbdb21a7c	-0.08696458
191	0x3c2a3c21	0.010390312
192	0xbd00c22e	-0.031435184
193	0x3c651832	0.013982819
194	0x3daa4a88	0.08314997
195	0x3d660ffb	0.056167584
196	0x3d73d03c	0.05952476
197	0x3ce86efd	0.028373236
198	0xbda696a7	-0.081342034
199	0x3cca9b88	0.024732366
200	0xbdd2d412	-0.102943555
201	0x3d890d58	0.06691998
202	0xbd8f1f24	-0.069883615
203	0xbd28a1ad	-0.04116981
204	0x3d44403a	0.047912814
205	0xbb7e01c1	-0.003875837
206	0xbdd5176f	-0.1040486
207	0x3c29ced8	0.010364257
208	0x3d303002	0.043014534
209	0x3ccfdbe4	0.025373407
210	0xbdc32209	-0.09527976
211	0x3b451f0f	0.0030078327
212	0xbdffd880	-0.12492466
213	0x3d99bce0	0.07506728
214	0xbccfbff0	-0.025360078
215	0xbd19770d	-0.03746705
216	0x3d5f8a13	0.054575037
217	0x3dee4cc5	0.116357364
218	0xbdb24d0f	-0.08706104
219	0x3d5d96e1	0.054098967
220	0xbdc0279b	-0.09382554
221	0xbdb41c74	-0.087944895
222	0xbdf3c0d6	-0.11902015
223	0xbd1fe664	-0.039038077
224	0x3c85ea29	0.016347008
225	0x3cbf9d6e	0.023390498
226	0x39809123	0.00024522198
227	0xbdf1db1e	-0.118093714
228	0xbd9b4218	-0.07580966
229	0x3d94b933	0.072618864
230	0x3d21ffe0	0.039550662
231	0x3cb47479	0.022028195
232	0xbdf438d9	-0.11924905
233	0x3d984c47	0.07436424
234	0x3e0c2700	0.13686752
235	0xbda1b9db	-0.07896777
236	0xbd39cfc3	-0.045364153
237	0x3ddb5875	0.10710231
238	0x3c4bddb6	0.012442997
239	0xbe14469b	-0.14480059
240	0x3daeb8df	0.08531355
241	0xbd770454	-0.060306862
242	0xbd4b0250	-0.049562752
243	0xbdaf924f	-0.08572828
244	0xbdf1266c	-0.117749065
245	0xbbd0b80b	-0.006369596
246	0xbc091314	-0.008366365
247	0x3db147e3	0.086562894
248	0xbc3f2cb9	-0.011668378
249	0xbc0aad59	-0.008464181
250	0x3d94e949	0.07271058
251	0x3dc262b1	0.0949148
252	0x3cfcaf9e	0.03084546
253	0xbd1b4c6c	-0.03791468
254	0xbcdab220	-0.026696265
255	0xbcc29c6c	-0.023756228

penc1.bn.weight f4 [36]
0	0x3f7141dc	0.9424112
1	0x3f826d7a	1.018966
2	0x3f70d900	0.94081116
3	0x3f85eff2	1.046385
4	0x3f7bcfdb	0.9836404
5	0x3f845d7c	1.0341029
6	0x3f810808	1.0080576
7	0x3f81c0d4	1.0136971
8	0x3f7889ed	0.9708546
9	0x3f7ec8c3	0.9952509
10	0x3f78e2c6	0.9722103
11	0x3f7a56ad	0.97788507
12	0x3f8d3227	1.103093
13	0x3f7d58bc	0.9896352
14	0x3f7d0cbb	0.9884755
15	0x3f7aadd4	0.9792149
16	0x3f6f931c	0.93583846
17	0x3f87b5f1	1.0602399
18	0x3f8b72f8	1.0894461
19	0x3f78a49d	0.9712618
20	0x3f7a33ec	0.97735476
21	0x3f8c95c9	1.0983211
22	0x3f829b70	1.0203686
23	0x3f83a170	1.0283642
24	0x3f7e1997	0.99257797
25	0x3f7b2462	0.9810239
26	0x3f810d30	1.008215
27	0x3f80d446	1.0064781
28	0x3f6e8932	0.93178093
29	0x3f7e750e	0.9939736
30	0x3f841e92	1.0321829
31	0x3f8774af	1.0582484
32	0x3f79ae7a	0.97531855
33	0x3f7d012f	0.9882993
34	0x3f7cfba0	0.9882145
35	0x3f845361	1.0337945

penc1.bn.bias f4 [36]
0	0xbcf306c4	-0.029666312
1	0x3cd967a2	0.026538674
2	0xbbb5b489	-0.005545203
3	0x3d3de74b	0.046363156
4	0xbcddb04a	-0.0270616
5	0x3d5ea025	0.054351944
6	0x3c9d0af8	0.01917027
7	0xbcad4e38	-0.021155462
8	0xbd12c266	-0.035829924
9	0xbb64d6c9	-0.003491806
10	0x3cfb502c	0.030677877
11	0xbc14032a	-0.0090339575
12	0x3da2649a	0.079293445
13	0x3b40580f	0.0029349362
14	0xbc1beb3c	-0.009516533
15	0xbd371f86	-0.044707797
16	0xbd2d4d57	-0.042310085
17	0x3dc87e84	0.09789756
18	0x3cae882a	0.021305162
19	0xbd197ed3	-0.037474465
20	0xbd0135f6	-0.0315456
21	0x3d6569c3	0.056009065
22	0x3d14c80f	0.036323603
23	0x3cc35c76	0.0238478
24	0x3bacd5e6	0.005274522
25	0x3cb63a39	0.02224456
26	0x3cd8b1b3	0.026451921
27	0x3d083c70	0.033260763
28	0xbd8da4db	-0.06916209
29	0x3c715257	0.014729104
30	0x3d8d2876	0.06892483
31	0x3d4ee66a	0.05051271
32	0x3caaffb3	0.02087388
33	0x3b51b7c7	0.003200041
34	0x3cc79036	0.024360757
35	0x3d36d19b	0.04463349

penc1.bn.running_mean f4 [36]
0	0xbe8a1cfd	-0.2697524
1	0xbe4a6f8e	-0.19769117
2	0xbe946d04	-0.28989422
3	0x3ef7d456	0.48404187
4	0xbe7c9128	-0.24664748
5	0x3c53bd61	0.012923569
6	0xbec0c016	-0.3764655
7	0x3f30d1cd	0.6907013
8	0xbef4f929	-0.47846344
9	0x3eb8427c	0.35988224
10	0xbf06bbce	-0.5263032
11	0xbec47f36	-0.38378304
12	0x3e2cd7c0	0.16879177
13	0xbe1e487b	-0.15457337
14	0x3eab3525	0.33438984
15	0x3eabaab5	0.33528677
16	0xbda50219	-0.08057041
17	0xbed012f0	-0.40639448
18	0x3e8b8480	0.27249527
19	0xbe252b6b	-0.16129844
20	0x3effb6fb	0.4994429
21	0x3f26af92	0.6511165
22	0x3ee08298	0.43849635
23	0xbf2a8b09	-0.666184
24	0xbe8a8a62	-0.27058703
25	0xbb4a7c59	-0.003089687
26	0xbd769451	-0.06020004
27	0x3ef96f3c	0.48717678
28	0xbd816105	-0.06317333
29	0xbd935b0b	-0.071950994
30	0x3e143b4d	0.14475746
31	0x3ebc477b	0.36773285
32	0xbecd7764	-0.4013015
33	0x3f2484ee	0.64265335
34	0xbeeb4743	-0.45952806
35	0xbeb16711	-0.34648946

penc1.bn.running_var f4 [36]
0	0x3dfa1606	0.12211232
1	0x3e133f74	0.14379674
2	0x3d9f28ca	0.07771452
3	0x3da5744d	0.08078823
4	0x3ded7bdc	0.1159589
5	0x3e0be165	0.136602
6	0x3d2b151d	0.041768182
7	0x3e01c360	0.12672186
8	0x3d4c7106	0.049912475
9	0x3d9e1dd9	0.07720537
10	0x3dc2def8	0.09515184
11	0x3df36be9	0.118858166
12	0x3dda9cca	0.106744364
13	0x3dd0e5bb	0.102000676
14	0x3e1a95f4	0.15096265
15	0x3e278f42	0.16363242
16	0x3e18cfe2	0.14923051
17	0x3cfbcbe8	0.030736879
18	0x3df0cb34	0.11757508
19	0x3de89445	0.11356405
20	0x3d9eb5d9	0.077495284
21	0x3e0a0f2c	0.1348235
22	0x3df25bc3	0.118339084
23	0x3daf4ba1	0.08559347
24	0x3dd37ad8	0.10326165
25	0x3defef82	0.11715604
26	0x3e10bae0	0.14133787
27	0x3dda115f	0.106478445
28	0x3dcf44eb	0.10120567
29	0x3e10cc78	0.14140499
30	0x3e2d38f7	0.16916262
31	0x3d8d15b5	0.06888906
32	0x3d89fa06	0.06737141
33	0x3db8a0e3	0.09015062
34	0x3d46e808	0.048561126
35	0x3daa016f	0.08301055

kenc0.encoder.0.weight f4 [8, 3, 1]
0	0x3e58ee60	0.21184683
1	0xbeb6cad5	-0.35701624
2	0x3dc441d1	0.09582866
3	0x3e27e484	0.16395766
4	0xbd078fd3	-0.033096146
5	0x3dde38b9	0.10850663
6	0x3eb730cf	0.35779426
7	0x3eb47501	0.35245517
8	0x3e16eddf	0.14739178
9	0x3f03e66f	0.5152349
10	0xbd767827	-0.06017318
11	0xbc8c8193	-0.01715163
12	0x3e0146f9	0.1262473
13	0x3de3ddb3	0.1112627
14	0x3ec609db	0.38679394
15	0x3eb36e81	0.35045245
16	0x3eb70a33	0.3574997
17	0xbc7ad765	-0.015310143
18	0x3e52ea30	0.20597148
19	0x3ef6e714	0.48223174
20	0xbf23b6d9	-0.6395088
21	0x3eb01d64	0.34397423
22	0xbebe14df	-0.37125298
23	0xbe88cc9e	-0.2671861

kenc0.encoder.0.bias f4 [8]
0	0xbf134711	-0.57530314
1	0x3cbcc2df	0.02304214
2	0xbe5c35c1	-0.2150488
3	0x3dc239fb	0.09483715
4	0x3ecd6df7	0.4012296
5	0xbe240c76	-0.16020378
6	0xbe963884	-0.29339993
7	0x3eae7719	0.3407524

kenc0.encoder.1.weight f4 [8]
0	0x3f727656	0.94711816
1	0x3f7f35de	0.9969157
2	0x3f7e59f0	0.99355984
3	0x3f7db10e	0.9909829
4	0x3f84ebe1	1.0384485
5	0x3f85858b	1.0431379
6	0x3f75e235	0.9604829
7	0x3f8112ea	1.0083897

kenc0.encoder.1.bias f4 [8]
0	0xbdb9e731	-0.090772994
1	0x3c2ff9b9	0.010740691
2	0x3b9e65ce	0.0048339134
3	0x3c226ba2	0.009913357
4	0x3dce022f	0.1005901
5	0x3b82c1f6	0.003990407
6	0xbdaf416f	-0.08557402
7	0x3cdfe59f	0.027331172

kenc0.encoder.1.running_mean f4 [8]
0	0xbf119c00	-0.5687866
1	0x3c962d4d	0.018332148
2	0xbe553ac7	-0.20823203
3	0x3dc5966d	0.09647832
4	0x3ecb9e14	0.39769042
5	0xbe1c828e	-0.15284178
6	0xbe902314	-0.28151762
7	0x3eb04fad	0.34435788

kenc0.encoder.1.running_var f4 [8]
0	0x3d0bd7a7	0.03414121
1	0x3bdc7f3b	0.0067290342
2	0x3d1a1692	0.03761918
3	0x3d5391e1	0.051652793
4	0x3cd0914b	0.025459906
5	0x3d08fccc	0.03344421
6	0x3db59c53	0.08867707
7	0x3d88b755	0.06675593

kenc0.encoder.4.weight f4 [16, 8, 1]
0	0x3e9ed83b	0.31024346
1	0x3dad6976	0.08467381
2	0x3eeb24cb	0.45926508
3	0xbe8afa42	-0.27144057
4	0xbe11995e	-0.14218661
5	0xbdf7aee8	-0.120939076
6	0x3c595c3d	0.01326662
7	0x3d3e0516	0.04639157
8	0x3eb4c312	0.35305077
9	0xbe3e103d	-0.18560882
10	0x3e8185e5	0.25297466
11	0xbe2bdee0	-0.16784239
12	0x3e36de60	0.17858267
13	0xbe4572a5	-0.19282015
14	0x3d2d93c7	0.04237726
15	0x3e336bcd	0.17521591
16	0xbea5b9e5	-0.3236839
17	0x3e89797d	0.268505
18	0xbeae5bbc	-0.34054363
19	0x3c02f963	0.007994029
20	0xbc86f639	-0.01647483
21	0xbe574231	-0.21021344
22	0x3ea2ca30	0.31794882
23	0xbe43f650	-0.1913693
24	0xbdfd1ecf	-0.12359392
25	0x3d2a2e78	0.041548222
26	0xbe003142	-0.1251879
27	0xbdb07176	-0.08615391
28	0x3ebf82ee	0.3740458
29	0x3dc814b2	0.09769572
30	0xbe80402e	-0.25048965
31	0xbdb00a75	-0.085957445
32	0xbbbc85a7	-0.0057532373
33	0xbe17d77f	-0.14828299
34	0x3e522c43	0.20524697
35	0xbe36ef17	-0.17864643
36	0xbe8205cf	-0.25395057
37	0x3e95340b	0.29141268
38	0x3c219ed7	0.0098645305
39	0xbe4a4961	-0.19754554
40	0xbd14ee86	-0.036360286
41	0x3e90e28d	0.28297845
42	0x3d9b49d6	0.075824425
43	0xbd1366bc	-0.035986647
44	0xbe6bd124	-0.23029
45	0xbd34a4bb	-0.04410241
46	0x3e4ff1dd	0.20307107
47	0x3e99593f	0.29950902
48	0x3e7acabd	0.24491401
49	0xbab80784	-0.0014040326
50	0x3d6a6ded	0.05723374
51	0x3e3e1632	0.18563154
52	0xbe0f05d7	-0.13967071
53	0x3e60b4a1	0.21943904
54	0x3da562fe	0.08075522
55	0xbead236d	-0.3381609
56	0xbe826627	-0.2546856
57	0xbdcf9056	-0.10134952
58	0x3e86d822	0.2633677
59	0x3e415fc7	0.18884192
60	0x3e16723f	0.14692019
61	0x3e8ab363	0.27089986
62	0xbd432720	-0.047644734
63	0xbe8e1fce	-0.2775864
64	0x3dde40e0	0.10852218
65	0xbe137076	-0.14398369
66	0xbdb7d5ca	-0.08976324
67	0x3ea33ba2	0.31881434
68	0x3ea07431	0.31338647
69	0xbd3d33fd	-0.046192158
70	0x3d831ab5	0.06401578
71	0x3ea41f88	0.32055306
72	0xbcc3bfa4	-0.023895092
73	0x3e079d4d	0.13243599
74	0xbe457deb	-0.19286315
75	0xbd43e047	-0.04782131
76	0x3dd58498	0.10425681
77	0x3eb2802f	0.3486342
78	0xbe8f6ebe	-0.28014177
79	0x3c9d9698	0.019236848
80	0x3e3be117	0.18347584
81	0x3db58dc2	0.08864929
82	0xbc2bab18	-0.010477804
83	0xbeb92bf1	-0.36166337
84	0x3da906b8	0.082532346
85	0x3ec32087	0.38110754
86	0xbe5e29a9	-0.2169558
87	0xbbfe1a2a	-0.007754584
88	0x3d973134	0.073824316
89	0xbe693b1f	-0.22776459
90	0x3e32390c	0.17404574
91	0xbd36f3c3	-0.044666063
92	0x3e76f386	0.24116334
93	0xbde31e45	-0.11089758
94	0xbc6ca396	-0.014443299
95	0xbe81c90d	-0.25348702
96	0x3e93538f	0.28774688
97	0x3ed4be44	0.4155141
98	0xbe8fbe8c	-0.28075063
99	0x3e9930b9	0.29919985
100	0x3e5fdae9	0.21860851
101	0x3e8cdbd4	0.27511466
102	0xbe864f23	-0.26232252
103	0x3e6b407b	0.22973816
104	0xbe35100e	-0.17681906
105	0xbe9b9cbc	-0.30393016
106	0xbe8cbb0c	-0.27486455
107	0x3da8d40b	0.08243569
108	0x3e11ac38	0.14225852
109	0xbeb31484	-0.3497659
110	0x3e478a7d	0.19486423
111	0x3e80b9e5	0.25141826
112	0x3eac6bf3	0.3367611
113	0xbea5c078	-0.32373405
114	0x3e092897	0.1339439
115	0x3eb428b6	0.3518731
116	0x3e633ba9	0.22190727
117	0xbdf3abb4	-0.11897984
118	0xbe95f3ec	-0.2928766
119	0x3dd37193	0.10324397
120	0x3e6908e6	0.227573
121	0x3bf1159a	0.0073573114
122	0x3eb6dfab	0.3571752
123	0x3be051ee	0.0068457043
124	0x3e24875e	0.16067263
125	0xbe01be74	-0.12670308
126	0xbead42f2	-0.33840138
127	0x3eb92a41	0.3616505

kenc0.encoder.4.bias f4 [16]
0	0x3cdf91ce	0.027291205
1	0x3c82c791	0.015964301
2	0xbcc81792	-0.024425302
3	0xbd9089d4	-0.07057539
4	0xbe415cdd	-0.18883081
5	0xbe54dfda	-0.20788518
6	0x3d45bcba	0.048275687
7	0x3e30fc60	0.17283773
8	0xbd18c033	-0.03729267
9	0x3d7cd926	0.061730526
10	0x3e41445c	0.18873733
11	0x3eb3e5a4	0.3513614
12	0xbe1ed1ff	-0.15509795
13	0xbe764ec0	-0.24053478
14	0x3e8c42c0	0.27394676
15	0x3e458521	0.19289066

kenc0.encoder.5.weight f4 [16]
0	0x3f81f42d	1.0152642
1	0x3f871054	1.0551858
2	0x3f7b11fd	0.9807432
3	0x3f82e7f8	1.0227041
4	0x3f7cc81a	0.9874283
5	0x3f7ac92e	0.97963226
6	0x3f7d05f0	0.98837185
7	0x3f863e6e	1.0487802
8	0x3f7d0959	0.9884239
9	0x3f804c42	1.0023272
10	0x3f82a434	1.0206361
11	0x3f752195	0.9575437
12	0x3f7fcab3	0.9991867
13	0x3f80a2d6	1.0049694
14	0x3f877445	1.0582358
15	0x3f717d14	0.9433148

kenc0.encoder.5.bias f4 [16]
0	0xbd1aef33	-0.037825774
1	0xbc8a2c4c	-0.016866826
2	0x3b25e19b	0.0025311473
3	0x3cc49301	0.023995878
4	0xbd1be85b	-0.03806339
5	0xba9ca60a	-0.0011951339
6	0xbcc01603	-0.023447996
7	0x3d9644bb	0.07337328
8	0x3d35e443	0.04440714
9	0x3d2bf382	0.041980274
10	0x3d6e763d	0.05821823
11	0x3d3abfda	0.04559312
12	0xbc69d708	-0.014272459
13	0x3cd51cd5	0.026014725
14	0xbd3e5ce1	-0.046475295
15	0xbd66ffe2	-0.056396373

kenc0.encoder.5.running_mean f4 [16]
0	0x3e2638e7	0.16232644
1	0x3e357f29	0.17724289
2	0xbe6506f6	-0.22365937
3	0xbdb3d14b	-0.08780154
4	0xbe98b484	-0.29825222
5	0xbc132867	-0.008981801
6	0x3e0ea3d1	0.13929678
7	0x3e93ed8c	0.2889217
8	0x3ea484fe	0.32132715
9	0x3df99417	0.12186449
10	0x3e859354	0.26088965
11	0x3e8eca7d	0.2788886
12	0x3ea88d43	0.32920274
13	0xbeda26b8	-0.42607665
14	0x3ee075c7	0.43839857
15	0x3eee4e04	0.46543896

kenc0.encoder.5.running_var f4 [16]
0	0x3da1d880	0.07902622
1	0x3d94f3bf	0.072730534
2	0x3e08a1f8	0.13343036
3	0x3e0da05c	0.13830703
4	0x3e123e93	0.14281683
5	0x3e07691f	0.13223694
6	0x3dab835e	0.08374666
7	0x3e856886	0.26056308
8	0x3e26b50b	0.1628
9	0x3d939cad	0.07207618
10	0x3dc25148	0.094881594
11	0x3de186c7	0.11012035
12	0x3f09f8d8	0.5389533
13	0x3e5df522	0.21675542
14	0x3e2a7bf3	0.16648845
15	0x3e60c9b3	0.21951942

kenc0.encoder.8.weight f4 [32, 16, 1]
0	0xbe0ebe97	-0.13939892
1	0x3e91bd08	0.28464532
2	0xbddcddbc	-0.1078448
3	0x3c7b4508	0.015336283
4	0xbd4880d1	-0.048950974
5	0x3e0c264d	0.13686486
6	0xbe3cfa80	-0.18454933
7	0xbe8db172	-0.27674443
8	0x3d94f9ad	0.072741844
9	0xbe3914ee	-0.1807439
10	0xbd02b3f2	-0.03190989
11	0x3deadc2a	0.11467774
12	0x3db5d025	0.08877591
13	0x3d4c187c	0.049828038
14	0xbe4de5fa	-0.2010726
15	0x3e129719	0.14315452
16	0x3e09635e	0.13416812
17	0x3dd2b809	0.10289008
18	0x3e34c301	0.17652513
19	0x3c8a0e05	0.016852388
20	0x3d73626e	0.05942004
21	0x3e2169c6	0.15763006
22	0xbeabc8d0	-0.33551645
23	0xbe8e9f4b	-0.27855906
24	0x3d0165cc	0.03159122
25	0x3d114d25	0.03547396
26	0xbe0669f8	-0.13126361
27	0x3e42be63	0.1901794
28	0xbe498296	-0.19678721
29	0xbdca9b9d	-0.09892962
30	0xbcb2adf3	-0.021811461
31	0x3e8277ab	0.25481924
32	0x3e81bbb3	0.25338516
33	0xbb90ec6e	-0.004422716
34	0xbc8e0c2f	-0.017339794
35	0x3d812340	0.063055515
36	0x3df9bead	0.12194572
37	0x3c2576eb	0.010099153
38	0x3dc3db7c	0.09563348
39	0x3dcd7566	0.100321576
40	0xbaa20fb2	-0.0012364297
41	0xbc0fa840	-0.008768141
42	0x3de4aa13	0.111652516
43	0xbe3d46cd	-0.1848404
44	0xbd15cb33	-0.03657074
45	0x3d1db3d1	0.038501564
46	0xbdd4a4ea	-0.10383017
47	0xbd7680e3	-0.06018151
48	0xbe032d6f	-0.128103
49	0x3e126d98	0.14299619
50	0xbe8a9de3	-0.27073583
51	0xbe36ceaa	-0.17852274
52	0x3e59ae0b	0.21257798
53	0xbe36065c	-0.17775863
54	0xbda88819	-0.082290836
55	0xbd2747f5	-0.040840108
56	0x3e02d44d	0.12776299
57	0x3d9732bf	0.07382726
58	0x3c577bdb	0.013152088
59	0xbcbb356c	-0.022852622
60	0xbd9dd715	-0.07707039
61	0xbe1d6f79	-0.15374555
62	0xbd4d7689	-0.050161872
63	0xbc9b7aa7	-0.018979384
64	0xbd5c444a	-0.053776063
65	0x3e4b9aa4	0.1988321
66	0x3e691ae6	0.22764167
67	0x3d433b60	0.047664046
68	0x3e992bba	0.29916173
69	0x3d651447	0.05592754
70	0x3e4c550b	0.19954316
71	0xbd643236	-0.055711947
72	0xbe4dc7f9	-0.20095815
73	0x3d2d2741	0.042273764
74	0x3db931e7	0.09042721
75	0xbd27b607	-0.04094508
76	0x3e2fe34a	0.17176548
77	0xbdf2aab8	-0.11848968
78	0xbd2790c7	-0.040909555
79	0xbdcca88b	-0.099930845
80	0x3e596bb3	0.2123249
81	0xbe29a042	-0.1656504
82	0xbe778259	-0.24170817
83	0x3e819b29	0.2531369
84	0xbda9e605	-0.08295826
85	0x3e072f9f	0.1320176
86	0xbd63ac37	-0.05558416
87	0x3e552c28	0.20817626
88	0x3b905b69	0.004405428
89	0x3d9c3239	0.07626767
90	0xbe696def	-0.22795843
91	0x3e01e6a7	0.12685643
92	0xbe6ef7ec	-0.23336762
93	0x3e2a430b	0.16627137
94	0x3dbf7e8e	0.0935031
95	0xbd8cdd01	-0.06878091
96	0xbba7bb3e	-0.0051187566
97	0xbe673c0e	-0.22581503
98	0xb9a9f523	-0.00032416833
99	0xbe4af474	-0.19819814
100	0xbdd4060d	-0.103527166
101	0xbdd0f2b0	-0.10202539
102	0xbdfefabf	-0.1245017
103	0x3d04086e	0.0322346
104	0x3e9e9fe9	0.30981377
105	0xbe6ecd3c	-0.23320478
106	0xbe624434	-0.2209633
107	0x3e20d75a	0.1570715
108	0x3decc095	0.115601696
109	0x3cad994a	0.021191258
110	0x3def4129	0.1168235
111	0x3cff759f	0.031184016
112	0x3e36cc08	0.17851269
113	0xbe621a35	-0.2208031
114	0xbdb8701a	-0.09005757
115	0xbd3048bc	-0.043038115
116	0xbe4746db	-0.19460623
117	0xbd149a11	-0.03627974
118	0xbddf7a83	-0.10912039
119	0xbe846f73	-0.2586628
120	0x3dc34f8e	0.09536658
121	0xbe5ea59f	-0.21742867
122	0xbe35418d	-0.17700787
123	0xbe323fdc	-0.17407173
124	0x3de37f25	0.11108235
125	0x3e84fcc2	0.2597409
126	0xbe01086b	-0.12600867
127	0x3e5791f3	0.21051769
128	0xbdd7e637	-0.10541957
129	0x3e25df3b	0.16198437
130	0x3e001704	0.1250878
131	0x3e413f66	0.18871841
132	0xbe4c8123	-0.19971137
133	0xbdbe66f1	-0.09296978
134	0xbe2ceb0a	-0.16886535
135	0x3e6dbd95	0.23216851
136	0xbdb3b40f	-0.08774578
137	0xbdad2c79	-0.08455748
138	0xbd81aecc	-0.06332168
139	0x3eac14b0	0.33609533
140	0xbca05f31	-0.01957664
141	0xbd00cab5	-0.031443316
142	0xbdab95c2	-0.083781734
143	0xbcc71ce2	-0.024305765
144	0xbe50134b	-0.2031986
145	0x3d419c1f	0.04726803
146	0xbd6cd1d1	-0.057817284
147	0xbe5c78a7	-0.215304
148	0x3d7a1860	0.061058402
149	0xbe5136c3	-0.20431046
150	0xbdfc8c33	-0.123314284
151	0xbccb4aaf	-0.024815885
152	0xbe1159af	-0.14194368
153	0xbd09e413	-0.033664774
154	0xbc53eb93	-0.012934583
155	0x3dce29d1	0.100665696
156	0xbb132537	-0.0022452602
157	0xbda25240	-0.07925844
158	0xbb7a69cb	-0.003821003
159	0x3d45b714	0.0482703
160	0x3e329215	0.17438538
161	0x3e4c18d9	0.19931354
162	0xbe93d791	-0.28875402
163	0x3da99dd6	0.08282058
164	0xbe26fa81	-0.16306497
165	0x3d46920d	0.04847913
166	0xbe7f9ae3	-0.24961428
167	0x3e777331	0.24165036
168	0x3db1dfc7	0.0868526
169	0x3db189fe	0.08668898
170	0x3e8c41fa	0.27394086
171	0x3def43c1	0.11682845
172	0x3d8b7e8e	0.06811248
173	0x3d090085	0.03344776
174	0xbe376826	-0.17910823
175	0xbe293949	-0.16525759
176	0x3e3fd421	0.18733265
177	0x3e65a91b	0.2242779
178	0x3db94761	0.090468176
179	0xbe276cf6	-0.16350159
180	0xbe3b61ef	-0.18299077
181	0xbafe1852	-0.001938591
182	0xbe3528cb	-0.17691343
183	0x3e7970ce	0.24359438
184	0x3e08f3b0	0.1337421
185	0xbdfd9e5b	-0.123837195
186	0xbe01bc5c	-0.1266951
187	0x3e43f9bd	0.19138236
188	0xbdcd3d76	-0.10021488
189	0xbd119da7	-0.03555074
190	0x3e92abb5	0.28646627
191	0x3e14a2bf	0.14515208
192	0x3e380c8d	0.17973538
193	0x3df321ad	0.118716575
194	0x3e080e97	0.13286816
195	0xbe0a9e93	-0.13537054
196	0x3d97d90a	0.07414444
197	0xbe38c807	-0.18045054
198	0xbdce6495	-0.10077778
199	0xbd239257	-0.039934482
200	0x3e0b922e	0.13629982
201	0x3e1d6f9d	0.15374608
202	0xbdd878dd	-0.10569928
203	0xbe7035d4	-0.23458034
204	0xbd4c1bcd	-0.0498312
205	0xbe0f1549	-0.13972963
206	0x3e77a6f6	0.24184784
207	0xbd80a047	-0.062805705
208	0xbe6103b6	-0.21974072
209	0xbe005211	-0.12531306
210	0x3da6f76c	0.08152661
211	0x3e6210a9	0.22076668
212	0x3e40d0e2	0.18829682
213	0x3dc07977	0.093981676
214	0xbe6b6af9	-0.22990026
215	0x3d22ea4e	0.03977423
216	0x3db6a7be	0.08918713
217	0x3e06f07c	0.13177675
218	0xbe4b831d	-0.19874234
219	0x3c3bc83a	0.011461312
220	0xbe1d92ac	-0.15387982
221	0x3e2251f1	0.1585157
222	0x3d39365a	0.04521785
223	0xbe58ca8e	-0.21171018
224	0x3d686212	0.056734152
225	0x3dac0797	0.08399885
226	0x3d838995	0.06422726
227	0xbe3e83b1	-0.18604924
228	0x3c2381ee	0.009979708
229	0x3e27623f	0.16346072
230	0x3dd0dbf4	0.10198203
231	0x3dfbede4	0.123012334
232	0x3dcd3465	0.10019759
233	0xbe001873	-0.12509327
234	0xbe84cd5e	-0.25937933
235	0x3d87c40f	0.06629192
236	0xbe65a627	-0.22426663
237	0x3daafb26	0.08348684
238	0xbe85be10	-0.2612157
239	0x3d47fb8d	0.048823882
240	0xbeb046f4	-0.34429133
241	0xbe2a7bba	-0.1664876
242	0xbd4c00b8	-0.049805373
243	0x3e893a33	0.26802215
244	0xbda39bb0	-0.079886794
245	0xbd61fb63	-0.05517138
246	0x3d1115d5	0.03542121
247	0xbdd06910	-0.10176289
248	0xbe2a07e3	-0.16604571
249	0x3e5e64ed	0.21718188
250	0x3e6310be	0.22174355
251	0xbddd8245	-0.108158626
252	0xbddc3c50	-0.10753691
253	0xbde759a6	-0.11296396
254	0xbd392a03	-0.04520608
255	0x3e3e8f16	0.1860927

kenc0.encoder.8.bias f4 [32]
0	0x3e077e20	0.13231707
1	0x3d4328c9	0.047646318
2	0x3e88527a	0.26625425
3	0xbc83b756	-0.016078632
4	0x3e6500e2	0.22363618
5	0xbe4060e8	-0.18786967
6	0x3c06c01d	0.008224514
7	0x3d17bf05	0.037047405
8	0xbdac8cab	-0.08425268
9	0xbdb6e6ad	-0.08930717
10	0x3e165f34	0.14684755
11	0xbe633dda	-0.22191563
12	0x3dc6c253	0.09705033
13	0x3e26d7ea	0.16293302
14	0x3dee83c4	0.11646226
15	0x3ccc0749	0.024905818
16	0x3e8cce32	0.27501065
17	0x3e383203	0.17987828
18	0xbe66cce9	-0.22539105
19	0x3e32ed27	0.17473279
20	0x3e822617	0.25419685
21	0xbdde76e6	-0.10862522
22	0xbe0dea65	-0.13858946
23	0x3e5d67f0	0.2162168
24	0x3d98c365	0.074591435
25	0xbdc708a0	-0.09718442
26	0x3e0187e2	0.12649491
27	0x3dc73d78	0.09728521
28	0x3e45d122	0.19318059
29	0xbd235165	-0.039872546
30	0x3dd6a667	0.104809575
31	0x3da74748	0.08167893

kenc0.encoder.9.weight f4 [32]
0	0x3f7338c5	0.950085
1	0x3f6c56c3	0.9231989
2	0x3f83188e	1.0241868
3	0x3f81c65f	1.0138663
4	0x3f8359ee	1.0261819
5	0x3f8050e2	1.0024683
6	0x3f877b5d	1.0584522
7	0x3f819273	1.0122818
8	0x3f82c7b4	1.0217195
9	0x3f8216f0	1.016325
10	0x3f78cf22	0.9719106
11	0x3f859171	1.043501
12	0x3f7666a3	0.9625036
13	0x3f7ad9ab	0.97988385
14	0x3f76a593	0.96346396
15	0x3f7f3fd6	0.9970678
16	0x3f8475d9	1.0348464
17	0x3f869278	1.0513449
18	0x3f86b68f	1.0524462
19	0x3f7acd50	0.9796953
20	0x3f805a76	1.0027606
21	0x3f8247e5	1.017819
22	0x3f8d5631	1.1041929
23	0x3f77167b	0.9651868
24	0x3f8b28cd	1.0871826
25	0x3f846337	1.0342778
26	0x3f7d5b13	0.98967093
27	0x3f7dd8e5	0.9915908
28	0x3f7d0640	0.9883766
29	0x3f7285ce	0.9473542
30	0x3f6e8bc7	0.93182033
31	0x3f837b92	1.0272086

kenc0.encoder.9.bias f4 [32]
0	0x3ce8d383	0.02842117
1	0x3d834a7d	0.06410692
2	0x3b8b8f02	0.004258991
3	0x3b8cceb7	0.0042971033
4	0xbbca83f5	-0.0061802813
5	0x3c9dcb6a	0.019262034
6	0x3d23b976	0.03997179
7	0x3d211920	0.0393306
8	0x3cc905cf	0.024538903
9	0xbcb686d4	-0.022281088
10	0x3da8905e	0.08230661
11	0x3c18fe91	0.009338037
12	0xbda51a90	-0.08061707
13	0x3ad33d27	0.0016116247
14	0xbc5e621e	-0.013573198
15	0x3c2aade6	0.010417437
16	0x3cecaaa9	0.02888997
17	0x3d93ec01	0.072227485
18	0x3ce35c82	0.027754072
19	0x3bddd1ea	0.0067694085
20	0x3d8d916f	0.06912505
21	0xbc5da1ea	-0.013527373
22	0x3d863e5d	0.065548636
23	0xbcb3c548	-0.021944657
24	0x3e381f2e	0.17980644
25	0x3c670383	0.014099958
26	0xbce5aaa6	-0.028035473
27	0x3bba98fc	0.0056945067
28	0xbc931447	-0.017954005
29	0xbdcaadcb	-0.0989643
30	0xbdb5636c	-0.08856854
31	0x3cb98918	0.02264838

kenc0.encoder.9.running_mean f4 [32]
0	0x3b5b5340	0.003346637
1	0x3d863ab7	0.06554168
2	0x3ed369d4	0.41291678
3	0xbe813aa3	-0.2524005
4	0x3ef2fc91	0.47458318
5	0xbdc431d2	-0.09579815
6	0xbe21da8f	-0.1580603
7	0xbe8f78ce	-0.28021854
8	0xbcd14623	-0.02554614
9	0xbed4e036	-0.4157731
10	0x3ea45959	0.32099417
11	0x3c603faa	0.013687054
12	0x3dc53fa7	0.09631281
13	0x3e2ca0cb	0.16858213
14	0x3d75daca	0.060023107
15	0xbe0d79fb	-0.13816063
16	0x3e0ae897	0.13565288
17	0xbcd21729	-0.02564581
18	0xbd042463	-0.032261264
19	0x3e76d574	0.24104863
20	0xbcbabf8e	-0.022796419
21	0x3dcd6e5e	0.100308165
22	0xbc1061cc	-0.008812379
23	0x3e408333	0.18800049
24	0xbef520f0	-0.47876692
25	0x3e558665	0.20852049
26	0x3cb465dd	0.022021228
27	0xbccda11a	-0.025101233
28	0xbd2ba7df	-0.04190814
29	0xbe11f5fc	-0.14253992
30	0xbcdc3e1e	-0.026885089
31	0xbdaf5d18	-0.08562678

kenc0.encoder.9.running_var f4 [32]
0	0x3e90f41f	0.2831125
1	0x3e83538f	0.25649688
2	0x3e020275	0.1269625
3	0x3dac1c3a	0.08403821
4	0x3e18c2e6	0.14918098
5	0x3e0be692	0.13662174
6	0x3e697cea	0.22801557
7	0x3eb72256	0.35768384
8	0x3e722e48	0.23650467
9	0x3e075e50	0.13219571
10	0x3ea7c9f3	0.32771263
11	0x3eb5e149	0.3552344
12	0x3de44983	0.11146834
13	0x3e686c37	0.2269753
14	0x3e53c5a7	0.20680867
15	0x3e8425a2	0.25809962
16	0x3e1f816e	0.15576717
17	0x3e0b842e	0.13624641
18	0x3e6eec31	0.23332287
19	0x3e410dfc	0.18852991
20	0x3e3540b5	0.17700465
21	0x3e34fcb0	0.17674518
22	0x3e45b373	0.19306736
23	0x3ddcde80	0.10784626
24	0x3e94a69f	0.29033372
25	0x3e9e5630	0.3092513
26	0x3ea48adb	0.32137188
27	0x3de3d6ce	0.11124955
28	0x3e41322b	0.18866794
29	0x3e11bffd	0.14233394
30	0x3e3e5a6d	0.18589182
31	0x3e66eb2d	0.2255065

kenc0.encoder.12.weight f4 [64, 32, 1]
0	0x3db465c7	0.08808475
1	0x3c1798bd	0.009252724
2	0xbdb95316	-0.090490505
3	0xbe15b48b	-0.14619653
4	0x3bd55930	0.006510876
5	0xbe393a15	-0.18088563
6	0x3d65f6aa	0.05614344
7	0xbd3fa091	-0.046783987
8	0x3d5e6209	0.054292712
9	0xbd8662c0	-0.06561804
10	0xbd879e34	-0.06621972
11	0x3e411de5	0.1885906
12	0xbcaf5395	-0.02140216
13	0xbd1d0851	-0.03833801
14	0xbd9c5cc1	-0.07634879
15	0x3e134e45	0.14385326
16	0x3dbf8999	0.093524165
17	0xbe1a8e8a	-0.15093437
18	0x3e214ee7	0.15752755
19	0x3e66c288	0.22535145
20	0xbdc37889	-0.09544475
21	0x3d8f669f	0.07001995
22	0xbcbc6081	-0.022995235
23	0x3e1c5990	0.1526854
24	0xbdbceb26	-0.092245385
25	0x3e5af5c8	0.2138282
26	0x3e0a3b60	0.13499212
27	0x3d3fdbe3	0.04684056
28	0x3dbcd237	0.09219783
29	0xba06cee3	-0.0005142523
30	0x3d84ed9f	0.06490635
31	0x3dad78b5	0.08470289
32	0xbdb0e3c2	-0.08637191
33	0x3deb03e8	0.114753544
34	0x3c7c5b77	0.015402666
35	0xbe074e21	-0.13213398
36	0x3e40a1a3	0.1881166
37	0x3e3af7a8	0.18258536
38	0x3cf060d8	0.029343054
39	0xbd930a87	-0.07179742
40	0x3e652ea9	0.2238108
41	0x3dc681f4	0.09692755
42	0xbd01e2d1	-0.03171045
43	0x3dfd0fe2	0.12356545
44	0x3de331cc	0.110934824
45	0x3df3b67e	0.11900042
46	0xbdd0714d	-0.101778604
47	0x3dc8f113	0.09811606
48	0xbd6e33bf	-0.058154818
49	0x3d8bb788	0.06822115
50	0x3d16ca7d	0.0368142
51	0xbdfb6b83	-0.122763656
52	0xbd9611a0	-0.073275805
53	0x3ded6d5a	0.11593123
54	0x3d46c20e	0.04852491
55	0xbdec2c2b	-0.11531862
56	0xbe4c864c	-0.19973105
57	0xbdffff61	-0.124998815
58	0xbe247118	-0.16058767
59	0xbdbdde23	-0.09270885
60	0xbc831300	-0.01600027
61	0xbd11e78f	-0.035621222
62	0x3e2f4a54	0.17118198
63	0xbe17fc83	-0.1484242
64	0x3d0a6a83	0.033792984
65	0x3dc4cfe8	0.096099675
66	0xbd1582e0	-0.036501765
67	0x3e1778bc	0.1479215
68	0x3d0219bd	0.031762827
69	0xbd1400ab	-0.03613345
70	0xbe1ab0b5	-0.15106471
71	0xbe11a960	-0.14224768
72	0x3e26af2b	0.16277759
73	0xbd849dcf	-0.06475412
74	0x3e3106e4	0.17287785
75	0xbe31fdca	-0.17381969
76	0xbe1788b6	-0.14798245
77	0xbd94b81e	-0.0726168
78	0xbb829f46	-0.003986272
79	0xbd9fc2aa	-0.07800801
80	0x3e133bad	0.14378233
81	0x3d3faa82	0.04679347
82	0xbda298a8	-0.07939273
83	0x3e2ca171	0.1685846
84	0x3da7aac2	0.08186866
85	0xbe1688e5	-0.14700659
86	0xbe68c8af	-0.22732805
87	0x3e17c75f	0.14822148
88	0xbdba525c	-0.0909774
89	0x3e2d39a3	0.16916518
90	0xbd89d98c	-0.06730947
91	0xbd880134	-0.066408545
92	0x3e0c4e0e	0.1370165
93	0xbda801bc	-0.08203456
94	0xbdc37511	-0.09543813
95	0xbe16be6b	-0.14721076
96	0xbdef0008	-0.11669928
97	0xbdfe82bf	-0.124272816
98	0x3e0dfbb9	0.13865556
99	0xbcab5c91	-0.020918163
100	0xbda4db26	-0.08049612
101	0x3d489e02	0.048978813
102	0x3dceeb40	0.10103464
103	0xbdf402a9	-0.1191457
104	0x3decab6f	0.11556136
105	0x3e11ff5b	0.14257567
106	0xbd7cfbaa	-0.061763443
107	0xbd833059	-0.06405706
108	0x3b9a9f3f	0.0047186906
109	0xbe58e5c4	-0.21181399
110	0xbddb44ba	-0.10706468
111	0xbe234ac3	-0.15946488
112	0xbe08721a	-0.13324776
113	0x3da9398e	0.08262931
114	0x3e4ee351	0.20203902
115	0xbc159c65	-0.009131526
116	0x3e072877	0.1319903
117	0xbbee8c70	-0.007279925
118	0x3e2e5dfe	0.17028043
119	0xbcd9004a	-0.026489396
120	0x3e5cf84c	0.21579093
121	0x3cb15eae	0.021651592
122	0xbd722e36	-0.0591261
123	0x3d0bf59e	0.034169786
124	0x3e23197e	0.15927693
125	0xbd8e6e03	-0.06954577
126	0x3d0ea41a	0.03482447
127	0x3c1c6a66	0.009546852
128	0xbc1dd28f	-0.009632721
129	0x3c880154	0.016602196
130	0xbca0f23d	-0.019646758
131	0xbe5b4b66	-0.21415481
132	0xbd988c0e	-0.07448588
133	0x3d99a57b	0.07502266
134	0xbdf5c465	-0.1200035
135	0x3d68c4ba	0.056828238
136	0xbdef353b	-0.11680075
137	0xbe5bf439	-0.21479882
138	0xbe377c74	-0.17918569
139	0x3dff2f5b	0.12460204
140	0x3d9cd65a	0.07658072
141	0xbbb1edd1	-0.0054299613
142	0x3e81f8b8	0.2538507
143	0xbd7b1a90	-0.06130463
144	0xbe2287ea	-0.1587216
145	0xbdc97fe0	-0.09838843
146	0xbe3e7ec3	-0.18603043
147	0x3d6d1b48	0.057887346
148	0x3d5fcf66	0.05464115
149	0x3dc4c824	0.09608486
150	0x3e1a7728	0.15084517
151	0x3ceb23ef	0.028703658
152	0xbe074127	-0.13208447
153	0xbe04772b	-0.12936084
154	0x3d769620	0.060201764
155	0xbcf499b4	-0.029858448
156	0x3cb1ee9a	0.02172022
157	0x3d68bbae	0.05681961
158	0x3cfa3d76	0.030546885
159	0x3e3fdd64	0.18736798
160	0xbe39abd5	-0.18131955
161	0x3cd6225a	0.026139427
162	0x3d408507	0.047001865
163	0xba936c68	-0.0011247518
164	0x3e2edb26	0.17075786
165	0x3e25e321	0.16199924
166	0xbdef3c2c	-0.11681399
167	0xbe345543	-0.1761065
168	0x3e2155cc	0.15755385
169	0x3daeced0	0.0853554
170	0xbd2cdb3d	-0.04220127
171	0xbe3fbe92	-0.1872504
172	0x3c0a04ec	0.008424025
173	0xbde2dfa8	-0.11077815
174	0x3dc5b08b	0.096528135
175	0x3d3f47f0	0.046699464
176	0xbe03a8d5	-0.12857373
177	0x3dbce26e	0.092228755
178	0xbcf6d6c7	-0.03013171
179	0xbe55c272	-0.20874956
180	0xbc40f158	-0.011776291
181	0xbd7cd178	-0.061723202
182	0x3dee4d68	0.11635858
183	0xbe18eb77	-0.14933573
184	0xbe638954	-0.22220355
185	0x3dedc1e4	0.11609247
186	0xbcad8118	-0.02117972
187	0xbe2bf4cb	-0.167926
188	0x3db4c204	0.08826068
189	0xbd4f3f68	-0.05059758
190	0xbe054546	-0.13014707
191	0xbe118c7e	-0.1421375
192	0x3dbda1d2	0.092593804
193	0xbe3625ce	-0.17787859
194	0xbe328301	-0.17432787
195	0x3e0fc964	0.14041668
196	0xb9db7ff2	-0.00041866262
197	0x3d78af0d	0.060713816
198	0x3db8a6b3	0.0901617
199	0xbd97e807	-0.074173026
200	0x3e4f7a44	0.20261484
201	0x3e224322	0.15845922
202	0x3d3b29eb	0.045694273
203	0xbd02d664	-0.03194274
204	0x3d2394fe	0.039937012
205	0x3d916dbc	0.07101008
206	0xbddd4e6b	-0.10805973
207	0x3c8a40a5	0.016876528
208	0x3e18c92e	0.14920494
209	0x3e31af47	0.17352019
210	0x3d204919	0.03913221
211	0xbc76e037	-0.015068105
212	0x3e3691c3	0.17829041
213	0x3e0d1fc2	0.13781646
214	0x3e5f49df	0.21805523
215	0xbd946f9a	-0.07247849
216	0xbe45cb7d	-0.19315906
217	0xbd38a084	-0.045074955
218	0xbc4b258a	-0.012399087
219	0xbd8e6839	-0.06953473
220	0xbdf5c41a	-0.12000294
221	0xbe20507d	-0.15655704
222	0xbe4e4d84	-0.20146757
223	0xbc7eb8ef	-0.015547021
224	0x3d2b60b3	0.041840266
225	0xbdf161e7	-0.117862515
226	0x3d85ca1f	0.06532692
227	0x3dd1a859	0.10237188
228	0x3d616e7e	0.055037014
229	0xbd26c0d0	-0.040711224
230	0x3e046074	0.12927419
231	0xbd592047	-0.053009298
232	0xbd3a403b	-0.04547141
233	0x3d6af1cf	0.057359513
234	0x3e1ce596	0.15321955
235	0xbd9c0353	-0.076178215
236	0xbcf9231b	-0.030412247
237	0x3b16dde8	0.002302045
238	0x3cf823db	0.030290535
239	0x3ddf916e	0.109164104
240	0xbd82af58	-0.063811004
241	0x3e4022b3	0.18763237
242	0x3b73ecab	0.0037219923
243	0x3da4dc90	0.080498815
244	0xbe22ae0e	-0.15886709
245	0xbdc8e0fb	-0.098085366
246	0x3e16219a	0.14661255
247	0xbe51eb9a	-0.20500031
248	0x3e0c4fc3	0.13702302
249	0x3db4c06d	0.08825765
250	0xbb625678	-0.0034536403
251	0xb92c7bb7	-0.00016449286
252	0xbd904b06	-0.070455596
253	0x3e2e031c	0.16993374
254	0xbd60b1c7	-0.05485704
255	0xbe14e020	-0.14538622

kenc0.encoder.12.bias f4 [64]
0	0x3d5a0abe	0.0532329
1	0x3dc6a047	0.09698539
2	0x3df59d6b	0.11992916
3	0xbdfe133e	-0.12406014
4	0xbe2a06bf	-0.16604136
5	0xbc8cedca	-0.01720323
6	0x3d02df54	0.031951264
7	0x3df389ea	0.118915394
8	0x3d5d2dda	0.053998806
9	0x3e01fe38	0.12694633
10	0x3d410c32	0.04713077
11	0x3df5e9ee	0.12007509
12	0xbd8b47a5	-0.068007745
13	0xbcb07b37	-0.021543128
14	0xbe0a27cc	-0.13491744
15	0x3d07c295	0.033144552
16	0xbe010e65	-0.12603147
17	0xbdade232	-0.08490409
18	0x3ccc93db	0.024972847
19	0xbd3f20a5	-0.04666199
20	0x3deb1c91	0.11480058
21	0xbde16a8f	-0.110066526
22	0x3da5e9ab	0.08101209
23	0xbe0aaa8a	-0.13541618
24	0x3d114f8a	0.035476245
25	0xbe07dd86	-0.13268098
26	0xbdfda60c	-0.123851866
27	0x3bf0361d	0.0073306696
28	0xbac6bb47	-0.0015162014
29	0xbe017ad2	-0.12644508
30	0x3d843f97	0.06457441
31	0x3cb608a7	0.022220923
32	0x3d4361e3	0.047700774
33	0xbe2864e7	-0.16444741
34	0xbb2837a1	-0.0025667923
35	0xbdb6eb08	-0.089315474
36	0x3d66d501	0.05635548
37	0x3c2f8851	0.010713653
38	0xbd9b2e99	-0.07577247
39	0xbca2a35b	-0.019853285
40	0x3d13352f	0.03593939
41	0x3db7edb6	0.08980887
42	0x3dcc03ae	0.09961639
43	0xbd2cb62b	-0.042165916
44	0x3d99f809	0.07518012
45	0x3db47c49	0.08812768
46	0xbdc1c6c3	-0.09461739
47	0xbd2dbca2	-0.042416222
48	0xbc16ff18	-0.0092160925
49	0x3dffc00b	0.12487801
50	0xbe244ca3	-0.1604486
51	0xbe1b2edb	-0.15154593
52	0xbe1b55bc	-0.15169424
53	0x3c81bd10	0.015837222
54	0xbdd97d5e	-0.10619615
55	0xbe220e30	-0.15825725
56	0xbe27b189	-0.16376318
57	0xbe0ae19f	-0.1356263
58	0xbdca0507	-0.0986424
59	0xbc8e4644	-0.01736749
60	0x3e1624dc	0.14662498
61	0x3ddb9b2b	0.10722955
62	0x3d420fee	0.047378473
63	0xbc1b4d0b	-0.009478818

kenc0.encoder.13.weight f4 [64]
0	0x3f76ff1f	0.96483034
1	0x3f879111	1.0591146
2	0x3f777d79	0.9667583
3	0x3f86921a	1.0513337
4	0x3f77b60f	0.96762174
5	0x3f6e2eee	0.9304036
6	0x3f68d510	0.9095011
7	0x3f6f19fe	0.93399036
8	0x3f71e765	0.94493705
9	0x3f7f89e8	0.99819803
10	0x3f7dbafe	0.9911345
11	0x3f7e63f9	0.99371296
12	0x3f71c482	0.9444047
13	0x3f819e0f	1.0126361
14	0x3f70f2b6	0.9412035
15	0x3f763c8b	0.9618613
16	0x3f7eb05d	0.9948786
17	0x3f72e972	0.9488746
18	0x3f821220	1.0161781
19	0x3f75cbc2	0.96014035
20	0x3f754dc2	0.95821774
21	0x3f726e14	0.94699216
22	0x3f83294e	1.024698
23	0x3f7e4750	0.99327564
24	0x3f82cab5	1.0218111
25	0x3f6d1748	0.9261365
26	0x3f712f9d	0.9421328
27	0x3f75f13a	0.9607121
28	0x3f79faa1	0.97648054
29	0x3f773d45	0.96577865
30	0x3f809c38	1.0047674
31	0x3f773f7f	0.9658126
32	0x3f80b19c	1.0054202
33	0x3f6cd392	0.9251033
34	0x3f787209	0.97049004
35	0x3f841ba1	1.0320932
36	0x3f70f668	0.94125986
37	0x3f6f1a2d	0.93399316
38	0x3f77bba8	0.96770716
39	0x3f81fd35	1.0155398
40	0x3f795b54	0.9740498
41	0x3f810bd0	1.008173
42	0x3f750320	0.95707893
43	0x3f6c8ae0	0.92399406
44	0x3f777fdd	0.9667948
45	0x3f5c0581	0.859459
46	0x3f76814c	0.9629104
47	0x3f77a47e	0.9673537
48	0x3f670688	0.9024434
49	0x3f7e711c	0.9939134
50	0x3f810c15	1.0081812
51	0x3f7dc44f	0.9912767
52	0x3f628175	0.88478786
53	0x3f8062f0	1.0030193
54	0x3f7688cf	0.96302503
55	0x3f79cb82	0.97576153
56	0x3f7d984e	0.99060524
57	0x3f8088fe	1.0041807
58	0x3f7d1093	0.98853415
59	0x3f7af68c	0.9803245
60	0x3f70fa59	0.94132
61	0x3f60588b	0.87635106
62	0x3f707b61	0.9393826
63	0x3f731bd7	0.94964355

kenc0.encoder.13.bias f4 [64]
0	0x3d2ce8f5	0.042214353
1	0x3d6f337b	0.058398705
2	0xbd807ed8	-0.062741935
3	0xbcf23206	-0.029564869
4	0xbda86593	-0.08222499
5	0xbcee7e6f	-0.029113023
6	0xbdb5c269	-0.088749714
7	0xbd6c5384	-0.057696834
8	0xbd3ea6ce	-0.046545796
9	0xbd1132c6	-0.035448812
10	0xbdc988ae	-0.09840523
11	0x3d0869f6	0.033304177
12	0xbd87b314	-0.06625953
13	0x3d8aa24f	0.06769239
14	0xbd658080	-0.05603075
15	0xbd1e47a8	-0.038642555
16	0xbd863001	-0.06552125
17	0xbd6c3fc0	-0.057677984
18	0x3d0c5a90	0.034266055
19	0xbb230151	-0.002487261
20	0x3d06c94f	0.032906827
21	0xbd82a473	-0.063790224
22	0xbc9a2b55	-0.01881949
23	0xbda1d160	-0.07901263
24	0x3d23367a	0.039846875
25	0xbdc0c7e6	-0.094131276
26	0xbced33f5	-0.02895544
27	0xbc1021ad	-0.008797091
28	0x3c4b4258	0.012405954
29	0xbcdc5f49	-0.026900904
30	0xbce202db	-0.027589252
31	0xbda4fb97	-0.080557995
32	0x3c200863	0.009767625
33	0xbd0c0361	-0.03418291
34	0xbd4c3dc8	-0.049863607
35	0xbcfa5df7	-0.030562384
36	0xbaf77603	-0.0018879775
37	0xbd3f223b	-0.046663504
38	0xbd46d2ac	-0.048540756
39	0x3d1f3506	0.038868926
40	0xbc46e8b5	-0.012140443
41	0x3b9acaa9	0.004723866
42	0x3dd4c031	0.1038822
43	0xbd90ab7e	-0.070639595
44	0x3cd2fd81	0.025755646
45	0xbddee61c	-0.10883734
46	0xbd87a3d9	-0.06623048
47	0xbd135c1e	-0.03597652
48	0xbd30a237	-0.04312345
49	0x3b971dae	0.0046116924
50	0x3c56704d	0.013088298
51	0xbd29067b	-0.041265946
52	0xbe0107d6	-0.12600645
53	0xbd4b77c7	-0.049674775
54	0xbc0955c9	-0.008382269
55	0xbd00c831	-0.031440917
56	0xbd92e9c4	-0.071734935
57	0xbd26213b	-0.040559035
58	0xbd293c7a	-0.04131744
59	0x3d12f88d	0.035881568
60	0xbcb7d777	-0.022441609
61	0xbd978c7c	-0.07399842
62	0xbd28851b	-0.041142564
63	0xbc29d5cf	-0.010365917
