neural_network/weights/model_weights_best.pth (torch, 462239 bytes, 160 tensors)

penc0.lin.weight f4 [36, 100]
0.074056104 -0.0005202737 -0.09118831 0.9911623 1.1615318 0.4294391 -0.117275625 -0.09858181
0.06750504 -0.086754955 0.01086004 -0.007476345 -0.013027848 -0.41853964 -0.7306563 -0.1329768
-0.04109786 -0.87034047 -1.2171811 -0.15729983 -0.06974534 0.03946635 -0.016089357 -0.24823636
0.15694517 -0.5971854 -0.17015705 -0.7292266 -0.28303984 -0.94095224 0.10060777 0.074539445
0.08494951 1.158279 1.5099304 0.7305828 -0.078049295 0.46991187 0.92875826 0.5539337
0.117268614 0.03070231 -0.057982657 0.082589544 -0.33488873 -0.9388282 0.025040578 -0.2973633
-0.83532715 -1.1141028 0.022235839 -0.22512278 0.07879885 -0.2893533 -2.4877238 0.25551355
0.17133269 -0.67213434 -2.600807 0.1968266 -0.13362442 0.11715006 -0.031703524 -0.67548233
1.255519 -0.09239297 -0.06860583 -0.93883514 0.9623622 -0.35750198 0.16821592 0.14308496
-0.05736222 0.65036345 0.4968583 -0.5620283 -0.12252242 0.25712913 0.27114302 -0.61895657
0.14062765 -0.06576117 -0.009341575 0.6133819 -0.61237985 0.65589666 -0.10343711 0.27584028
-0.8423419 0.42465776 0.008939126 -0.00540537 0.06966042 -0.9889538 0.33161476 0.11312399
-0.1073614 -1.1509211 -0.0055584814 -0.021856943 -0.19948564 -0.019852528 -0.11775586 -0.241152
0.5416589 -0.08648928 -0.10572596 0.052733492 0.05762682 0.052102353 -0.10362977 -0.027638664
-0.05715306 0.904183 0.39052653 0.18802321 -0.24297303 0.9260365 0.1846977 0.20299006
-0.19233322 0.1822392 -0.05385604 -0.026158277 1.2693715 1.1467091 -0.08555578 0.19166414
1.1719829 1.1637866 -0.20497173 0.035534017 -0.113614425 -0.5039014 -0.31796715 -0.29477403
-0.15352254 -0.27550125 -0.3866733 -0.23297873 -0.08062323 0.012914869 -0.070415586 0.49754918
-1.1063911 0.73690534 -0.20925058 0.67817706 -1.2688843 0.7330723 -0.16081512 0.22625855
-0.010055004 0.094338275 1.7143055 0.07580819 -0.21860367 0.041725807 1.4275055 0.14282846
-0.15694319 0.03037954 -0.18118654 -0.20383334 -0.7376606 -0.9621374 -0.24196249 -0.070272304
-0.8474583 -0.9352486 -0.04338598 -0.037254255 -0.23929292 1.0468019 -0.4754718 -1.7495795
0.01717076 0.8064452 -0.59990776 -1.2529529 -0.104874305 -0.02914376 -0.04889317 -0.6274877
-0.5545301 0.64287305 -0.16937244 -0.44380993 -0.7239549 0.69243175 -0.19506161 0.07238251
0.004098766 -0.8319308 -0.017670536 0.22130515 -0.25831184 -0.5712226 -0.030026238 0.31389883
0.057986412 -0.014460443 0.11026069 -0.5731836 1.5927184 1.391024 -0.058603883 -0.014484596
-0.06289035 -0.0039734244 -0.037940055 -0.06586807 -0.06442255 0.32842994 1.1115772 -0.74085045
-0.019489454 0.6920049 0.30208167 -1.6722596 0.03501169 -0.145369 -0.0067048576 0.73753273
-1.4017577 0.93422824 0.18186334 1.0720791 -2.2205474 0.13237737 0.023599448 0.01661998
0.067911774 0.10115389 0.54409057 -0.173202 0.032797303 0.3515922 -0.24652503 -1.0381888
0.06443555 0.048932843 0.115297906 -0.8263894 0.17208728 0.6032068 -0.05019684 -0.42546612
-0.5728527 -0.114735305 0.053298622 -0.122570984 0.03070587 0.6546766 -1.9272757 -0.43261126
00000000: baaa 973d fa62 08ba f0c0 babd d0bc 7d3f
00000010: 13ad 943f 71df db3e 342e f0bd 43e5 c9bd
00000020: 1540 8a3d 95ac b1bd 4fee 313c 21fc f4bb
00000030: c172 55bc d44a d6be 4b0c 3bbf 122b 08be
00000040: 3b56 28bd a2ce 5ebf 97cc 9bbf 3513 21be
00000050: a5d6 8ebd 78a7 213d d4cd 83bc ac31 7ebe
00000060: 3cb6 203e 24e1 18bf a63d 2ebe 98ae 3abf
00000070: 99ea 90be 3fe2 70bf 720b ce3d 23a8 983d
00000080: 02fa ad3d 7c42 943f 6645 c13f 7907 3b3f
00000090: 4fd8 9fbd 4a98 f03e 1ac3 6d3f 99ce 0d3f
000000a0: 872a f03d 6983 fb3c 397f 6dbd b524 a93d
000000b0: 8976 abbe 0b57 70bf e621 cd3c 0140 98be
000000c0: 00d8 55bf ec9a 8ebf ef27 b63c 9686 66be
000000d0: 4b61 a13d 1e26 94be de36 1fc0 acd2 823e
000000e0: d671 2f3e ff10 2cbf 9f73 26c0 ea8c 493e
000000f0: d7d4 08be 5fec ef3d 8edb 01bd 69ec 2cbf
00000100: d9b4 a03f 8738 bdbd 3781 8cbd 8057 70bf
00000110: 5e5d 763f 800a b7be cb40 2c3e dd84 123e
00000120: a6f4 6abd 387e 263f 3664 fe3e 16e1 0fbf
00000130: 09ed fabd 6ea6 833e 42d3 8a3e f073 1ebf
00000140: b200 103e cbad 86bd 680d 19bc 9906 1d3f
00000150: edc4 1cbf d8e8 273f d6d6 d3bd f03a 8d3e
00000160: b8a3 57bf be6c d93e 6975 123c 881f b1bb
00000170: 1faa 8e3d 142c 7dbf 69c9 a93e 8dad e73d
00000180: 4be0 dbbd 6251 93bf ec23 b6bb 550d b3bc
00000190: f745 4cbe c5a1 a2bc fc29 f1bd 8df0 76be
000001a0: 28aa 0a3f 4b21 b1bd da86 d8bd 13ff 573d
000001b0: 1a0a 6c3d 4769 553d d83b d4bd 7b6a e2bc
000001c0: 5419 6abd 8978 673f 18f3 c73e 2889 403e
000001d0: eccd 78be ba10 6d3f 6521 3d3e a0dc 4f3e
000001e0: 00f3 44be ea9c 3a3e 2798 5cbd e249 d6bc
000001f0: c47a a23f 5dc7 923f de37 afbd 9b43 443e
00000200: 8903 963f f6f6 943f 1ce4 51be 1e8c 113d
00000210: aeae e8bd afff 00bf 97cc a2be 9fec 96be
00000220: 0335 1dbe 800e 8dbe 0bfa c5be fa91 6ebe
00000230: cb1d a5bd e398 533c 0c36 90bd c4be fe3e
00000240: 399e 8dbf d4a5 3c3f c945 56be 039d 2d3f
00000250: cd6a a2bf a0aa 3b3f b8ac 24be 52b0 673e
00000260: bebd 24bc 6d34 c13d 5d6e db3f 5341 9b3d
00000270: a4d9 5fbe aee8 2a3d 80b8 b63f a041 123e
00000280: b7b5 20be 83de f83c f788 39be b0b9 50be
00000290: 53d7 3cbf a34e 76bf 04c5 77be edea 8fbd
000002a0: 07f3 58bf 746c 6fbf 7fb5 31bd eb97 18bd
000002b0: 3409 75be 9bfd 853f 0a71 f3be 39f2 dfbf
000002c0: b2a9 8c3c 3173 4e3f 8e93 19bf c360 a0bf
000002d0: 57c8 d6bd e5be eebc 3444 48bd 09a3 20bf
000002e0: aff5 0dbf 5493 243f f86f 2dbe 0e3b e3be
000002f0: 1c55 39bf 3543 313f 3bbe 47be 483d 943d
00000300: f14e 863b 6bf9 54bf cdc1 90bc d19d 623e
00000310: 7341 84be a53b 12bf 96f9 f5bc 59b7 a03e
00000320: 2983 6d3d 7eeb 6cbc 5bd0 e13d 29bc 12bf
00000330: 32de cb3f 130d b23f a00a 70bd cd50 6dbc
00000340: a8cc 80bd 8033 82bb 0867 1bbd d7e5 86bd
00000350: f8ef 83bd f827 a83e 2948 8e3f 60a8 3dbf
00000360: 59a8 9fbc 3c27 313f 73aa 9a3e 9a0c d6bf
00000370: 6b68 0f3d 9cdb 14be 6cb4 dbbb f2ce 3c3f
00000380: cc6c b3bf 9529 6f3f 623a 3a3e e339 893f
00000390: 731d 0ec0 ef8d 073e a153 c13c a026 883c
000003a0: 5415 8b3d c529 cf3d 8549 0b3f dd5b 31be
000003b0: 7756 063d e503 b43e 0f71 7cbe 5fe3 84bf
000003c0: c9f6 833d ce6d 483d 4f21 ec3d 418e 53bf
000003d0: a637 303e c36b 1a3f 349b 4dbd b2d6 d9be
000003e0: 79a6 12bf 58fa eabd a84f 5a3d 7f06 fbbd
000003f0: e08a fb3c e398 273f f8b0 f6bf 397f ddbe

penc0.bn.weight f4 [36]
1.2037859 1.5259378 1.6057495 1.1847532 1.613589 1.515809 1.8354155 1.4446855
1.2945399 1.5217134 1.7424995 1.6084938 1.9702039 1.5008996 1.6455338 0.7719226
1.2961421 2.0197184 1.3583322 1.3041271 1.6187875 1.5138032 1.2110254 1.5259532
1.5087333 1.515445 1.0988836 1.8466583 1.565485 1.473426 1.4691153 1.7706149
1.6566913 1.7598683 1.3772917 1.9038202
00000000: a815 9a3f ee51 c33f 3389 cd3f fea5 973f
00000010: 168a ce3f 0806 c23f e5ee ea3f 74eb b83f
00000020: 7cb3 a53f 81c7 c23f 390a df3f 20e3 cd3f
00000030: a42f fc3f 7a1d c03f daa0 d23f b89c 453f
00000040: fce7 a53f 1143 0140 d4dd ad3f a3ed a63f
00000050: 6e34 cf3f 4ec4 c13f e102 9b3f 6f52 c33f
00000060: 2c1e c13f 1afa c13f 38a8 8c3f 4d5f ec3f
00000070: d061 c83f 3999 bc3f f80b bc3f 82a3 e23f
00000080: 760e d43f 5d43 e13f 184b b03f 61b0 f33f

penc0.bn.bias f4 [36]
-0.25807884 0.41053662 0.15749045 0.18756835 0.18749157 0.083790116 -0.11491943 0.035951734
-0.06355142 0.26400545 -0.3218726 -0.031380873 0.018438919 -0.1848957 0.03819793 0.40744674
-0.056350444 -0.40631092 -0.10984001 -0.059550636 0.033971116 0.3961757 0.102827996 0.043346636
0.40256825 -0.12481834 0.09748157 0.3559763 -0.08610549 -0.12169392 0.28091025 0.07630055
-0.21617153 0.30229166 0.095858596 0.1401299
00000000: e922 84be db31 d23e 2d45 213e eb11 403e
00000010: cafd 3f3e 279a ab3d e15a ebbd 2042 133d
00000020: 3f27 82bd b92b 873e 7ccc a4be 3b89 00bd
00000030: 370d 973c 4c55 3dbe 6f75 1c3d dc9c d03e
00000040: b9cf 66bd fc07 d0be cdf3 e0bd 5eeb 73bd
00000050: 4c25 0b3d 8bd7 ca3e 7c97 d23d 3e8c 313d
00000060: 6d1d ce3e c2a0 ffbd 6ba4 c73d 8742 b63e
00000070: 1358 b0bd a93a f9bd 78d3 8f3e 7643 9c3d
00000080: 125c 5dbe f9c5 9a3e 8351 c43d 367e 0f3e

penc0.bn.running_mean f4 [36]
-0.4192134 -1.0223914 0.10460626 0.73260105 0.18481971 -0.5221417 -0.609109 0.41100845
-0.6092093 0.22233605 -0.23987535 -0.21425292 -0.18136431 0.6471535 0.19917004 0.35211462
0.3330305 -0.11289114 0.18931678 -0.035145056 -0.7103526 0.71113 0.21300493 -0.0045455275
-0.5399094 0.5449147 0.48432803 -0.57014304 -0.45741385 -0.60875916 0.44283924 -0.864541
-0.44990626 -0.15199332 0.5544539 -0.556978
00000000: 24a3 d6be b9dd 82bf cf3b d63d be8b 3b3f
00000010: 6141 3d3e 14ab 05bf 91ee 1bbf b36f d23e
00000020: 24f5 1bbf 10ac 633e e2a1 75be 1e65 5bbe
00000030: 91b7 39be daab 253f 3bf3 4b3e 5e48 b43e
00000040: f982 aa3e 7833 e7bd 42dc 413e 43f4 0fbd
00000050: abd9 35bf 9e0c 363f f71d 5a3e a6f2 94bb
00000060: 8137 0abf 887f 0b3f d8f9 f73e e5f4 11bf
00000070: 2632 eabe a4d7 1bbf d3bb e23e 8f52 5dbf
00000080: 1d5a e6be 23a4 1bbe b1f0 0d3f 1c96 0ebf

penc0.bn.running_var f4 [36]
0.14635275 0.73263866 0.17366977 0.5515982 0.14855167 1.3227663 0.1581604 0.4762721
0.13438366 0.104126155 0.3149723 0.19076449 0.14026967 0.17646407 0.15051332 0.17901288
0.16665794 0.2433239 0.34456384 0.121429235 0.30843887 0.23900701 0.1860623 0.46320584
0.4771641 0.30966955 0.20107433 0.21499768 0.15848523 0.1673788 0.1635369 0.27201265
0.26828492 0.1368122 0.23850134 0.28270495
00000000: 7fdd 153e 358e 3b3f 7dd6 313e 8a35 0d3f
00000010: ee1d 183e 6850 a93f cdf4 213e f0d9 f33e
00000020: df9b 093e 1840 d53d 0d44 a13e c457 433e
00000030: daa2 0f3e ffb2 343e 2a20 1a3e 274f 373e
00000040: 61a8 2a3e e729 793e ac6a b03e e4af f83d
00000050: b3eb 9d3e 41be 743e 1e87 3e3e 5129 ed3e
00000060: da4e f43e 028d 9e3e 6ee6 4d3e 5a28 5c3e
00000070: f449 223e 5965 2b3e 3876 273e 3e45 8b3e
00000080: a45c 893e 7f18 0c3e b239 743e b4be 903e

penc1.lin.weight f4 [36, 100]
-0.07905393 0.1013988 0.0463242 -0.46398196 1.069246 -1.2172017 0.008115939 0.07949988
-0.032385148 0.077753484 -0.042618927 0.007926674 0.14459966 -0.17841107 -0.40158415 1.6179904
-0.07145862 0.035314217 -1.1446651 2.2203863 -0.048303943 -0.1040932 -0.12694275 0.7693673
0.078253545 -0.8388941 0.23304348 0.8716432 -0.44032815 -0.04063826 0.050463416 0.08683493
-0.08247861 0.61119986 0.28103638 0.7194462 -0.17591056 0.85811627 -0.36071235 1.2151458
0.06847282 -0.034976304 -0.10229542 0.62672514 0.056660775 0.16805913 0.05620813 0.5765227
-0.589323 0.662555 -0.051864546 -0.04194822 0.012927926 -0.3512868 -0.26799983 1.0103098
-0.06430737 -0.106929794 -0.7273262 1.5024087 0.09564795 0.01217389 -0.1025441 1.742006
-0.082859255 -1.8621908 0.011671479 1.5719587 -0.5535564 -1.2967477 0.05710664 0.035731465
-0.07415439 0.10975856 1.3591492 0.59594005 -0.19172311 0.28659552 0.9267428 0.93703884
-0.08402606 -0.119868636 -0.047885086 -2.5755847 -1.8533465 0.34532425 -0.055195153 -2.2531996
-1.993909 0.75076616 0.03327899 -0.03763697 -0.106184654 -0.30410957 0.9224417 -0.6347961
0.05346668 -0.17834362 0.46039775 -0.30139455 0.19552724 -0.17754632 -0.02394526 0.8203276
-1.1517181 -0.12522718 0.023133025 -0.0966733 0.050366797 0.07066929 0.15641977 -0.17557234
0.06680828 0.4070914 -1.1803714 1.315924 -0.06479074 -0.26486793 -0.5799756 1.4562957
0.32613137 -0.20080684 -0.063972384 1.3080381 0.00027307804 0.31588742 0.120875135 0.71113116
0.56304276 0.252223 0.31601048 -0.13433719 0.09572887 1.3906146 -1.4738445 -0.47331324
0.009284329 0.8933317 -0.7225113 -0.41328368 0.16130006 -0.14645094 0.016133709 -0.5737183
1.4380931 -0.5475705 -0.07582233 -0.8560808 1.8828357 -0.45430723 0.21329093 -0.14056322
0.15483594 -0.7029758 0.3202571 1.4683211 -0.0047855214 -1.002796 0.6470271 1.324574
0.16411528 -0.10485735 0.02365139 -0.18711434 0.66348225 -0.7798417 -0.13110967 -0.56992346
1.0268861 -0.6665619 0.16403346 -0.15508628 0.058108497 0.044414133 0.18295725 -0.7624432
-0.088136554 -0.085258335 0.67676187 -0.67856824 0.20557025 -0.09624679 -0.08196674 -0.723758
-0.17061475 -0.056095343 -0.025753267 -0.92717564 0.33717436 -0.025623782 0.23451303 -0.18841124
0.097686306 -0.70462143 0.16694057 -0.14001928 -0.07183373 -0.86302453 0.46705177 -0.11716272
-0.115334995 -0.11660045 -0.10603829 -0.08851535 0.37926316 -0.17324935 -0.02069877 0.077282704
-0.053148832 0.04985844 -0.11917146 -0.049824856 0.075175636 -0.6981408 -0.09845343 0.37992832
0.091549434 -0.608265 -0.2874182 0.62894213 0.107496604 -0.12573434 -0.037123132 1.5221107
-0.8392062 -2.2880003 -0.02546973 1.6298153 -0.898401 -2.3710918 -0.09607803 -0.10525681
0.0691788 -0.053386327 -0.8680197 0.26949123 -0.11433398 -0.042838465 -0.9489795 0.43793526
0.111196555 -0.037670214 -0.12794581 1.9747324 -0.91868156 -0.5048106 0.15034114 1.9953996
-0.9508762 -0.47137958 -0.25049376 -0.019177442 0.19877957 -1.5390596 -0.025367647 1.829523
00000000: 07e7 a1bd 2daa cf3d 72be 3d3d 0b8f edbe
00000010: 0edd 883f 44cd 9bbf b7f8 043c d5d0 a23d
00000020: 4aa6 04bd 383d 9f3d 2f91 2ebd e1de 013c
00000030: ef11 143e 64b1 36be 709c cdbe 4f1a cf3f
00000040: e658 92bd a4a5 103d 6384 92bf cf1a 0e40
00000050: 5bda 45bd d12e d5bd 48fd 01be 41f5 443f
00000060: 6543 a03d c4c1 56bf f3a2 6e3e 0224 5f3f
00000070: b172 e1be 4e74 26bd bab2 4e3d 83d6 b13d
00000080: 8cea a8bd 9877 1c3f 00e4 8f3e a02d 383f
00000090: e621 34be 82ad 5b3f 4aaf b8be e689 9b3f
000000a0: 7a3b 8c3d 5043 0fbd 4380 d1bd 0f71 203f
000000b0: 2115 683d b117 2c3e 7f3a 663d fe96 133f
000000c0: dfdd 16bf 349d 293f eb6f 54bd e6d1 2bbd
000000d0: a7cf 533c dddb b3be 4637 89be d551 813f
000000e0: 95b3 83bd 02fe dabd 0d32 3abf ee4e c03f
000000f0: 13e3 c33d ff74 473c a402 d2bd 0dfa de3f
00000100: 1db2 a9bd 455c eebf bb39 3f3c f135 c93f
00000110: dfb5 0dbf d4fb a5bf a7e8 693d 285b 123d
00000120: 42de 97bd 19c9 e03d 9af8 ad3f 878f 183f
00000130: 1053 44be a6bc 923e 043f 6d3f c7e1 6f3f
00000140: db15 acbd b07d f5bd 2723 44bd 61d6 24c0
00000150: 753a edbf 57ce b03e 5014 62bd 6c34 10c0
00000160: 6938 ffbf 3632 403f 8d4f 083d 3929 1abd
00000170: 5777 d9bd 40b4 9bbe 2425 6c3f ff81 22bf
00000180: e1ff 5a3d b69f 36be 41b9 eb3e 6350 9abe
00000190: 4b38 483e b4ce 35be da28 c4bc fd00 523f
000001a0: 806b 93bf 8e3b 00be 7881 bd3c a7fc c5bd
000001b0: 6a4d 4e3d 10bb 903d 812c 203e 3cc9 33be
000001c0: c8d2 883d 496e d03e 6916 97bf 3370 a83f
000001d0: 02b1 84bd c59c 87be 4879 14bf e667 ba3f
000001e0: b1fa a63e 4fa0 4dbe f403 83bd cb6d a73f
000001f0: ea2b 8f39 ffbb a13e 628d f73d b10c 363f
00000200: 9223 103f 6023 813e 20cc a13e b08f 09be
00000210: 7f0d c43d a9ff b13f f0a6 bcbf 1d56 f2be
00000220: 4c1d 183c 63b1 643f 80f6 38bf eb99 d3be
00000230: d82b 253e 3cf7 15be d72a 843c 34df 12bf
00000240: 6f13 b83f 952d 0cbf bd48 9bbd 1c28 5bbf
00000250: c300 f13f f59a e8be f068 5a3e ceef 0fbe
00000260: 508d 1e3e 39f6 33bf bdf8 a33e f2f1 bb3f
00000270: ddcf 9cbb 9f5b 80bf 91a3 253f a48b a93f
00000280: d60d 283e 73bf d6bd 8fc0 c13c e79a 3fbe
00000290: f9d9 293f b5a3 47bf 9d41 06be 81e6 11bf
000002a0: 0171 833f cda3 2abf 63f8 273e f0ce 1ebe
000002b0: 2d03 6e3d 98eb 353d 2559 3b3e 7a2f 43bf
000002c0: f080 b4bd ec9b aebd 4440 2d3f a6b6 2dbf
000002d0: 0281 523e 091d c5bd 2ede a7bd 3448 39bf
000002e0: a2b5 2ebe 3bc4 65bd 84f8 d2bc 625b 6dbf
000002f0: 1ea2 ac3e f7e8 d1bc 2f24 703e e0ee 40be
00000300: c20f c83d 1262 34bf 78f2 2a3e 3761 0fbe
00000310: 901d 93bd 2def 5cbf 6921 ef3e 02f3 efbd
00000320: c134 ecbd 37cc eebd 9a2a d9bd 8947 b5bd
00000330: c82e c23e 4768 31be 7890 a9bc 6546 9e3d
00000340: 97b2 59bd 5d38 4c3d 2b10 f4bd 2615 4cbd
00000350: aff5 993d 5bb9 32bf f4a1 c9bd f785 c23e
00000360: 457e bb3d 41b7 1bbf 7a28 93be 5a02 213f
00000370: 2e27 dc3d 81c0 00be 6d0e 18bd 86d4 c23f
00000380: 38d6 56bf 996e 12c0 e5a5 d0bc ca9d d03f
00000390: 9cfd 65bf f8bf 17c0 8fc4 c4bd e290 d7bd
000003a0: 9dad 8d3d 9fab 5abd 8a36 5ebf c1fa 893e
000003b0: ef27 eabd 6377 2fbd 52f0 72bf 0d39 e03e
000003c0: 05bb e33d 154c 1abd 3a04 03be 08c4 fc3f
000003d0: b72e 6bbf 443b 01bf 07f3 193e 4169 ff3f
000003e0: 9f6c 73bf aa58 f1be b840 80be 031a 9dbc
000003f0: df8c 4b3e e8ff c4bf d0cf cfbc cf2d ea3f

penc1.bn.weight f4 [36]
1.8176074 1.1545268 1.3795267 1.7147645 1.438508 1.4331031 1.0460559 1.4454745
1.8550798 1.7259116 1.1672821 1.4650061 1.7765931 1.5287305 1.3948246 1.6452647
1.4232967 1.4442415 1.5779643 1.6331859 1.4582663 1.3653948 1.4723035 1.669302
1.5907938 1.3407005 1.5101669 1.5479074 1.646059 1.5153906 1.6704019 1.4769623
1.6882387 1.2142798 1.6850201 1.7402387
00000000: 5ca7 e83f 89c7 933f 5594 b03f 677d db3f
00000010: 0821 b83f ec6f b73f 29e5 853f 4f05 b93f
00000020: 4173 ed3f acea dc3f 8069 953f 5285 bb3f
00000030: 6767 e33f 71ad c33f 9d89 b23f 0998 d23f
00000040: 962e b63f e8dc b83f bcfa c93f 3c0c d13f
00000050: 78a8 ba3f 42c5 ae3f 7174 bc3f b0ab d53f
00000060: 229f cb3f 139c ab3f 264d c13f d421 c63f
00000070: 10b2 d23f 52f8 c13f bbcf d53f 1a0d bd3f
00000080: 3518 d83f 856d 9b3f bdae d73f 24c0 de3f

penc1.bn.bias f4 [36]
0.069630176 -0.057698663 0.16519082 -0.28495592 -0.3867826 0.1228032 -0.3338147 0.104766816
0.097676545 0.021561034 -0.18680727 0.2500272 0.078882135 -0.13830358 0.24092668 0.20308448
-0.00842939 0.17765109 0.020456132 0.022886146 0.06505742 -0.2867409 0.23694159 0.25216395
-0.2692741 0.18685786 -0.082052305 -0.21758223 0.22854336 -0.15352939 0.20048693 -0.07293656
-0.08171613 -0.28082642 0.0021115858 0.19206873
00000000: 449a 8e3d 6f55 6cbd c827 293e bee5 91be
00000010: 5e08 c6be 3e80 fb3d c3e9 aabe fc8f d63d
00000020: a40a c83d c4a0 b03c 684a 3fbe 9103 803e
00000030: f58c a13d 749f 0dbe 7cb5 763e 61f5 4f3e
00000040: 6d1b 0abc 2bea 353e 9e93 a73c ba7b bb3c
00000050: d33c 853d b4cf 92be d1a0 723e a21b 813e
00000060: 4bde 89be ab57 3f3e 0a0b a8bd e0cd 5ebe
00000070: 4507 6a3e cf36 1dbe 724c 4d3e c35f 95bd
00000080: c95a a7bd 7bc8 8fbe 8862 0a3b aaad 443e

penc1.bn.running_mean f4 [36]
-0.15713875 -0.35536653 -0.18347292 -0.20900938 -0.6000189 0.13520509 -0.3264062 0.15463167
0.19470298 -0.19478028 0.087024145 -0.06987931 -0.054636024 -0.31842697 -0.44560894 -0.45474914
-0.44519928 -0.5884207 0.5703488 0.042740643 -0.6511131 0.41962072 0.4102205 0.25719288
-1.0271316 0.34587872 -0.117243506 -1.116597 0.03443406 0.22201408 -0.47244263 1.2656811
-0.41656363 -0.7290307 0.30764738 -1.7139289
00000000: fbe8 20be 9af2 b5be 53e0 3bbe 8e06 56be
00000010: d79a 19bf 3473 0a3e b71e a7be c457 1e3e
00000020: 3860 473e 7b74 47be b739 b23d e21c 8fbd
00000030: 06ca 5fbd dc08 a3be db26 e4be e1d4 e8be
00000040: 29f1 e3be bda2 16bf 6102 123f d010 2f3d
00000050: 59af 26bf 87d8 d63e 6c08 d23e c9ae 833e
00000060: 0c79 83bf 0417 b13e 5d1d f0bd a7ec 8ebf
00000070: bb0a 0d3d a957 633e 00e4 f1be d701 a23f
00000080: d447 d5be c2a1 3abf f583 9d3e 0662 dbbf

penc1.bn.running_var f4 [36]
0.15353344 1.9046831 0.17692699 0.19508867 0.23287922 0.107324876 0.35267696 0.246699
0.1540136 0.116231374 0.66443735 0.26465127 0.15654702 0.34900182 0.95221037 0.11179714
0.45756263 0.25642276 0.2859513 0.1293325 0.37212545 0.73480237 0.68864566 0.12968668
0.9247412 0.21235617 0.296277 0.6268856 0.12298066 0.29257035 0.57187605 0.45379055
0.29542208 0.5486206 0.22711307 0.71775895
00000000: df37 1d3e a8cc f33f 592c 353e 53c5 473e
00000010: e477 6e3e 25cd db3d 1392 b43e aa9e 7c3e
00000020: beb5 1d3e b70a ee3d 9118 2a3f 5f80 873e
00000030: dd4d 203e 5eb0 b23e 0fc4 733f e6f5 e43d
00000040: a645 ea3e d849 833e 3568 923e bd6f 043e
00000050: 3a87 be3e 021c 3c3f 154b 303f 96cc 043e
00000060: d7bb 6c3f e573 593e 9eb1 973e 937b 203f
00000070: 49dd fb3d c8cb 953e 7866 123f 3c57 e83e
00000080: 9041 973e 6672 0c3f 5490 683e 0dbf 373f

kenc0.encoder.0.weight f4 [8, 3, 1]
0.21568738 -0.621559 0.23407535 -0.08494774 -0.026395261 0.64668137 0.37750947 0.44624373
-0.53499043 -0.47796217 0.10448424 -0.369604 0.30589262 -0.13564128 0.3334787 0.41320992
-0.21683474 0.6003337 0.3262257 -0.14811084 0.51704365 0.5481068 0.062009342 0.5867666
00000000: 27dd 5c3e 7e1e 1fbf 73b1 6f3e 15f9 adbd
00000010: e03a d8bc e98c 253f ec48 c13e 0f7a e43e
00000020: 22f5 08bf 75b7 f4be d5fb d53d bc3c bdbe
00000030: f59d 9c3e 8ce5 0abe b8bd aa3e 4090 d33e
00000040: ed09 5ebe 78af 193f 0e07 a73e 5eaa 17be
00000050: f95c 043f ba50 0c3f 82fd 7d3d 5636 163f

kenc0.encoder.0.bias f4 [8]
0.53302324 -0.34959403 -0.55021715 -0.5255152 0.13482541 -0.6684269 -0.31766453 0.076221
00000000: 3674 083f fdfd b2be 08db 0cbf 2a88 06bf
00000010: ac0f 0a3e 061e 2bbf eda4 a2be c119 9c3d

kenc0.encoder.1.weight f4 [8]
0.9118937 0.8709004 0.969465 0.80021447 1.0926872 1.3628589 1.4804268 1.1167705
00000000: de71 693f 54f3 5e3f dc2e 783f dbda 4c3f
00000010: 2ddd 8b3f 2972 ae3f a07e bd3f 56f2 8e3f

kenc0.encoder.1.bias f4 [8]
-0.31817284 -0.030606553 -0.42563614 0.36784798 -0.3383447 -0.64702916 -0.61744076 -0.526439
00000000: 8de7 a2be 98ba fabc fbec d9be 9256 bc3e
00000010: 843b adbe b4a3 25bf 9910 1ebf b5c4 06bf

kenc0.encoder.1.running_mean f4 [8]
0.53366655 -0.34872815 -0.5505006 -0.52541125 0.13448918 -0.669135 -0.3178464 0.075813726
00000000: 5f9e 083f 7f8c b2be 9bed 0cbf 5a81 06bf
00000010: 88b7 093e 6e4c 2bbf c3bc a2be 3a44 9b3d

kenc0.encoder.1.running_var f4 [8]
0.092869334 0.051883932 0.09509476 0.048359238 0.028666385 0.070314534 0.045682758 0.06573222
00000000: 4732 be3d 3f84 543d 0bc1 c23d 5614 463d
00000010: c4d5 ea3c 1101 903d d81d 3b3d 9d9e 863d

kenc0.encoder.4.weight f4 [16, 8, 1]
-0.5415077 0.06448677 0.49140805 0.052100778 -0.13121335 -0.35430065 -0.17465803 0.3538709
0.26594272 0.1667743 -0.15091336 -0.37665617 0.06237256 0.09148044 0.44042215 0.32901037
-0.21980007 0.048533134 0.30214942 -0.530971 -0.0656178 0.37859112 -0.07384276 0.32624176
-0.27245483 0.09554797 -0.076737285 0.051287595 -0.577641 -0.10095297 -0.0069551617 -0.19796316
-0.22631848 0.11251459 0.19713932 0.06876155 -0.37331298 -0.30470547 -0.5340662 -0.013900535
0.037127722 0.25345352 -0.26398146 -0.20149776 0.28521878 0.22176564 0.07169584 0.40097085
0.2733654 -0.08380861 -0.022441257 0.6396139 -0.031194003 -0.17700273 -0.15313068 -0.32570073
0.07271577 -0.64172477 0.3380932 0.012657729 -0.25544015 -0.23184384 -0.32594684 0.15719768
-0.30755088 0.10424041 0.11378443 -0.047066025 -0.272338 -0.5250027 -0.2751581 -0.080421835
0.09540542 -0.37123302 0.6123748 -0.10750972 -0.12477036 -0.33281973 -0.098678045 0.16194667
0.017553516 -0.13635142 0.031444557 -0.10834536 -0.20702931 -0.5400796 -0.4485622 -0.42190182
0.0951008 -0.04733615 -0.02914057 -0.6100654 0.20198551 0.55258065 0.2557733 0.05939665
-0.13327792 -0.21907343 -0.0058621727 0.32164222 -0.2510292 -0.57653457 -0.42687854 -0.32693824
-0.39487734 0.15207773 0.29052487 0.022577573 0.014022166 -0.73491526 -0.41182306 -0.27455127
0.016518928 0.12557337 0.29590845 0.014603896 0.42569888 0.37725383 0.40965986 0.11325099
0.03299554 0.09353784 0.25400382 0.18141854 -0.24009606 -0.21543969 -0.3418352 -0.36726236
00000000: 40a0 0abf a411 843d d699 fb3e a067 553d
00000010: cb5c 06be e566 b5be 8ed9 32be 912e b53e
00000020: a529 883e e2c6 2a3e 0889 1abe 14d9 c0be
00000030: 5f7a 7f3d 195a bb3d 037f e13e 0c74 a83e
00000040: 4513 61be aeca 463d 54b3 9a3e b7ed 07bf
00000050: a062 86bd b2d6 c13e df3a 97bd 2909 a73e
00000060: 337f 8bbe a7ae c33d 7028 9dbd f112 523d
00000070: 48e0 13bf 6ec0 cebd 20e8 e3bb dbb6 4abe
00000080: 08c0 67be 0d6e e63d e4de 493e dbd2 8c3d
00000090: e122 bfbe 5b02 9cbe 90b8 08bf 12bf 63bc
000000a0: 3d13 183d a9c4 813e 9428 87be 6e55 4ebe
000000b0: 3208 923e 8816 633e 45d5 923d 0d4c cd3e
000000c0: 8df6 8b3e d9a3 abbd bad6 b7bc bdbd 233f
000000d0: 918a ffbc 3440 35be 4ace 1cbe 3fc2 a6be
000000e0: 01ec 943d 1348 24bf 8d1a ad3e 5d62 4f3c
000000f0: 0dc9 82be 7968 6dbe 81e2 a6be 6ef8 203e
00000100: 4f77 9dbe ff7b d53d d007 e93d 4ec8 40bd
00000110: e36f 8bbe 9466 06bf 86e1 8cbe 34b4 a4bd
00000120: eb63 c33d 4112 bebe 98c4 1c3f 0e2e dcbd
00000130: 9a87 ffbd 5967 aabe b717 cabd 59d5 253e
00000140: 64cc 8f3c b59f 0bbe 02cc 003d 2ce4 ddbd
00000150: 7eff 53be a842 0abf f2a9 e5be 8403 d8be
00000160: 35c4 c23d 8de3 41bd 34b8 eebc 3f2d 1cbf
00000170: 4ad5 4e3e ed75 0d3f b8f4 823e e749 733d
00000180: 027a 08be c954 60be 7817 c0bb 4aae a43e
00000190: e686 80be c597 13bf d38f dabe 7364 a7be
000001a0: 5d2d cabe 44ba 1b3e adbf 943e 9af4 b83c
000001b0: 3abd 653c 6823 3cbf 79da d2be fc91 8cbe
000001c0: b452 873c 4e96 003e 5081 973e 2e45 6f3c
000001d0: 34f5 d93e 6a27 c13e f0be d13e 23f0 e73d
000001e0: 5526 073d c490 bf3d ca0c 823e c8c5 393e
000001f0: bedb 75be 399c 5cbe 0605 afbe d009 bcbe

kenc0.encoder.4.bias f4 [16]
-0.04194963 0.19768257 -0.21436149 -0.38638934 0.05792271 -0.2417906 -0.16395542 0.2715322
-0.65920377 0.023901103 0.14000735 -0.19993803 0.3370741 0.00788808 -0.24757029 -0.35300845
00000000: 60d3 2bbd 4d6d 4a3e 9481 5bbe d3d4 c5be
00000010: 5d40 6d3d f497 77be eee3 27be 4506 8b3e
00000020: 94c1 28bf 3fcc c33c 165e 0f3e 8ebc 4cbe
00000030: fa94 ac3e 013d 013c 1183 7dbe 86bd b4be

kenc0.encoder.5.weight f4 [16]
0.86170316 1.2976173 0.97138995 1.3448755 1.2609125 1.1569871 0.9575559 1.0652606
1.4516765 0.8537771 1.0581436 1.7365773 0.99065965 1.0736989 1.1380752 1.177628
00000000: 9498 5c3f 5318 a63f 03ad 783f e124 ac3f
00000010: 9565 a13f 2718 943f 6222 753f 765a 883f
00000020: 89d0 b93f 2391 5a3f 4071 873f 2a48 de3f
00000030: df9b 7d3f f76e 893f 73ac 913f 84bc 963f

kenc0.encoder.5.bias f4 [16]
-0.54187316 -0.40180394 -0.31414074 0.04731048 0.07388365 -0.30798674 -0.4162121 -0.33945605
0.26363394 -0.2764326 0.043194596 -0.33289015 0.18088093 0.21140444 -0.38456234 0.001534056
00000000: 33b8 0abf 3fb9 cdbe 0ed7 a0be a2c8 413d
00000010: 5050 973d 70b0 9dbe c119 d5be 2fcd adbe
00000020: 07fb 863e 9388 8dbe d1ec 303d 9470 aabe
00000030: da38 393e 687a 583e 5be5 c4be 6112 c93a

kenc0.encoder.5.running_mean f4 [16]
-0.12643366 0.34320793 -0.3384731 -0.64247924 -0.24464671 -0.05391335 0.025792498 -0.05788552
-1.0262636 -0.13219741 -0.40294516 -0.21985945 -0.039032754 -0.3542224 0.25055465 -0.48559985
00000000: d377 01be f3b8 af3e 594c adbe 8579 24bf
00000010: ab84 7abe 3fd4 5cbd ca4a d33c 5e19 6dbd
00000020: 9b5c 83bf c25e 07be d44e cebe d622 61be
00000030: cfe0 1fbd a35c b5be b348 803e 8ba0 f8be

kenc0.encoder.5.running_var f4 [16]
0.35033932 0.60180604 0.25346908 0.28903592 0.6702681 0.42037275 0.36699644 0.45590404
0.5495976 0.24526705 0.76422703 0.77156955 1.117735 0.8761191 0.5743196 0.44885868
00000000: ad5f b33e f60f 1a3f b3c6 813e 84fc 933e
00000010: b196 2b3f 193b d73e f5e6 bb3e 416c e93e
00000020: 6eb2 0c3f 4927 7b3e 62a4 433f 9585 453f
00000030: f111 8f3f 5749 603f 9c06 133f ced0 e53e

kenc0.encoder.8.weight f4 [32, 16, 1]
0.19275148 -0.33751747 0.16067448 -0.014579483 0.016549885 -0.32471 0.034363504 0.08159023
0.10865132 0.035216663 0.10570493 -0.5417326 0.087940246 0.19653217 -0.4292438 -0.04194085
-0.018760545 0.40558228 0.12305084 -0.013238724 0.030445794 0.35245112 0.07645523 0.11302242
-0.30202708 -0.0599711 -0.34277207 0.5320812 -0.22328421 0.068386056 0.18942928 -0.13281444
0.21787281 0.114124 0.24968761 -0.12851125 -0.036184393 0.17059019 -0.31067175 0.117092
-0.14522462 -0.0056127883 -0.08791619 -0.2408606 -0.24478889 -0.061032254 -0.12673949 -0.35407105
0.1307225 0.06716953 0.22159414 -0.33136353 -0.38853273 0.26136017 -0.117428735 -0.11862596
-0.3947584 -0.215458 -0.19155608 0.13488336 -0.120891504 -0.2599062 0.13973539 -0.22010463
0.3077859 -0.1942796 0.16487516 0.06989304 -0.16820912 -0.15175141 -0.3379822 0.21947132
-0.020083355 0.09003696 -0.10906296 -0.2790588 -0.24654712 -0.2069704 -0.33425567 -0.0044527487
0.1055074 -0.23912752 -0.06119233 0.26149064 0.062086664 -0.09899334 -0.2854633 0.11444732
0.120687895 -0.009594109 0.06564845 -0.1333354 0.041825987 0.30960476 0.0740597 0.45255962
0.6438787 0.05576968 0.3129877 0.08558297 0.08902689 -0.0056541944 0.041788235 0.21217614
0.009517109 0.4088779 -0.093895175 0.19660029 -0.026126293 0.08565008 0.07738934 0.16504876
-0.1649143 0.0410787 0.19814664 -0.03098568 -0.14886723 0.22974028 -0.09104978 -0.45843884
-0.14881615 -0.3428384 -0.072272316 0.15961176 -0.10012147 -0.099598445 -0.10675543 -0.11003268
0.1610179 -0.33148208 0.26138854 0.015989453 0.24413012 -0.23319818 -0.42092553 0.042187173
0.21570435 -0.032605566 0.053111866 -0.13465099 -0.08922968 0.28366825 -0.10021742 0.15557577
-0.17008086 -0.25147572 -0.1039474 -0.06927955 0.05736894 -0.05873348 0.34517175 0.13024944
0.10372933 0.056255214 0.16252738 -0.31614783 0.14702919 -0.10480939 -0.078987114 0.28043145
0.08196427 -0.36245975 -0.10368671 0.090018466 0.107926 -0.12062412 -0.037550375 -0.10707055
0.16420259 -0.08661968 0.029170565 -0.41818222 0.1015919 0.0738386 -0.39002886 0.2013161
0.10540656 -0.23429532 0.18139692 -0.07484268 0.046112206 -0.42024636 0.14701553 0.26756468
-0.2380487 0.33296168 -0.13936757 -0.2391144 0.17131299 0.090233095 -0.08200104 -0.06037996
-0.10121325 -0.07055902 0.055397317 -0.40139422 -0.38829648 -0.0675632 -0.039636087 -0.03330414
-0.5816177 -0.0409621 -0.28358614 0.109751135 -0.20196418 -0.24734272 0.09841118 -0.12820053
-0.031801656 -0.13944714 -0.039267156 -0.23281458 -0.35171318 -0.4260973 -0.14223392 0.19727811
-0.28196654 0.0012229354 -0.014704157 -0.24805358 -0.09624297 -0.06053431 -0.3431873 -0.04454683
-0.2651705 -0.0895428 -0.021442411 -0.018901493 -0.11757544 0.05931137 0.07011824 -0.048967
0.2537673 -0.44822854 0.24593653 -0.16120107 0.23238042 0.38564485 -0.03325608 -0.058369312
0.10633557 0.066105984 -0.0514966 -0.20735195 -0.15181814 -0.029672902 -0.14191781 -0.20192847
-0.366013 -0.045585852 -0.30152556 0.034896813 -0.09971681 -0.3879412 0.17092696 0.046993066
00000000: a560 453e 17cf acbe da87 243e c9de 6ebc
00000010: a093 873c 6440 a6be bfc0 0c3d c718 a73d
00000020: 9584 de3d 593f 103d d47b d83d fdae 0abf
00000030: 041a b43d bb3f 493e d8c5 dbbe 2bca 2bbd
00000040: b7af 99bc 7ba8 cf3e 1402 fc3d 3ce7 58bc
00000050: 7569 f93c 7974 b43e 8f94 9c3d 4c78 e73d
00000060: 4ba3 9abe 42a4 75bd d27f afbe 7936 083f
00000070: 9ea4 64be fd0d 8c3d c0f9 413e 8200 08be
00000080: 0d1a 5f3e d8b9 e93d 1cae 7f3e 7498 03be
00000090: 1636 14bd 32af 2e3e 5e10 9fbe eecd ef3d
000000a0: c3b5 14be 7beb b7bb 670d b4bd 29a4 76be
000000b0: f0a9 7abe f5fc 79bd ffc7 01be cd48 b5be
000000c0: 1edc 053e 2e90 893d 93e9 623e 7ba8 a9be
000000d0: c3ed c6be 00d1 853e 7a7e f0bd 2bf2 f2bd
000000e0: c61d cabe 06a1 5cbe 4727 44be dd1e 0a3e
000000f0: f795 f7bd 6d12 85be cb16 0f3e 1c63 61be
00000100: 1d96 9d3e 3bf1 46be 09d5 283e 1524 8f3d
00000110: 033f 2cbe b964 1bbe 010c adbe 17bd 603e
00000120: d985 a4bc 4c65 b83d 675c dfbd cce0 8ebe
00000130: d976 7cbe 0cf0 53be 8f23 abbe 5de8 91bb
00000140: 4414 d83d d8dd 74be cfa4 7abd 1ae2 853e
00000150: 964e 7e3d 05bd cabd 3f28 92be 5b63 ea3d
00000160: 372b f73d 9c30 1dbc b272 863d 1389 08be
00000170: ba51 2b3d 8484 9e3e 9dac 973d e5b5 e73e
00000180: 3cd5 243f bf6e 643d ec3f a03e 2046 af3d
00000190: bb53 b63d d246 b9bb 242a 2b3d b444 593e
000001a0: a6ed 1b3c 7258 d13e 1d4c c0bd 9651 493e
000001b0: cf06 d6bc 4f69 af3d 4d7e 9e3d 8b02 293e
000001c0: 4bdf 28be 2442 283d f4e6 4a3e aed5 fdbc
000001d0: a770 18be 0941 6b3e 4f78 babd 7fb8 eabe
000001e0: 4363 18be 8488 afbe 8203 94bd 4471 233e
000001f0: 7c0c cdbd 45fa cbbd 97a2 dabd d058 e1bd
00000200: e0e1 243e 05b8 a9be b8d4 853e 50fc 823c
00000210: 3ffd 793e 81cb 6ebe 8d83 d7be 75cc 2c3d
00000220: 9ae1 5c3e 6a8d 05bd d48b 593d f3e1 09be
00000230: 0dbe b6bd f73c 913e ca3e cdbd 414f 1f3e
00000240: ad29 2ebe 6dc1 80be 60e2 d4bd 70e2 8dbd
00000250: b2fb 6a3d 8492 70bd 5aba b03e 1c60 053e
00000260: 0b70 d43d de6b 663d 946d 263e 21de a1be
00000270: d28e 163e 4ea6 d6bd ffc3 a1bd b694 8f3e
00000280: e2dc a73d 5394 b9be b359 d4bd 9a5b b83d
00000290: 4f08 dd3d c709 f7bd 6cce 19bd ce47 dbbd
000002a0: b924 283e a965 b1bd 1cf7 ee3c fb1b d6be
000002b0: 6a0f d03d b138 973d ddb1 c7be cf25 4e3e
000002c0: 65df d73d 1deb 6fbe 1dc0 393e 1e47 99bd
000002d0: 27e0 3c3d 882a d7be 3d8b 163e 3dfe 883e
000002e0: 0ac3 73be f479 aa3e 5fb6 0ebe 68da 74be
000002f0: ac6c 2f3e 21cc b83d 29f0 a7bd fa50 77bd
00000300: e448 cfbd 3f81 90bd 4ce8 623d 8b83 cdbe
00000310: ccce c6be 935e 8abd 7359 22bd ec69 08bd
00000320: e6e4 14bf e0c7 27bd 3432 91be 34c5 e03d
00000330: b3cf 4ebe 6947 7dbe cd8b c93d 0047 03be
00000340: 7442 02bd 3bcb 0ebe 99d6 20bd f266 6ebe
00000350: c013 b4be 6d29 dabe c5a5 11be 4603 4a3e
00000360: eb5d 90be e74a a03a b4e9 70bc c201 7ebe
00000370: 091b c5bd d3f2 77bd 3fb6 afbe bd76 36bd
00000380: 6ec4 87be 3762 b7bd ffa7 afbc 4ed7 9abc
00000390: 64cb f0bd 7bf0 723d 279a 8f3d 9f91 48bd
000003a0: caed 813e 367e e5be c9d6 7b3e e511 25be
000003b0: 22f5 6d3e 3e73 c53e 8737 08bd a914 6fbd
000003c0: 77c6 d93d 9362 873d 19ee 52bd 1254 54be
000003d0: 3776 1bbe 9614 f3bc e752 11be 56c6 4ebe
000003e0: 0e66 bbbe 3bb8 3abd 8f61 9abe f6ef 0e3d
000003f0: 5438 ccbd 3ba0 c6be 7a07 2f3e cd7b 403d

kenc0.encoder.8.bias f4 [32]
0.30433306 -0.4541872 -0.049599882 0.39543194 -0.5298059 -0.13268645 -0.27110648 0.008700509
-0.22078426 -0.022451365 -0.27829725 -0.06321654 -0.5308411 -0.19401525 0.29225236 0.3700601
0.12667431 -0.13138728 -0.17512557 -0.27800235 -0.18353009 0.0062161256 -0.6107287 -0.11251535
-0.2646588 -0.34014952 0.042097393 0.2700986 0.25304028 0.40097165 0.10659115 0.4242858
00000000: 8bd1 9b3e 3a8b e8be 3f29 4bbd 0e76 ca3e
00000010: 5ca1 07bf f5de 07be 78ce 8abe 948c 0e3c
00000020: 4515 62be edeb b7bc fa7c 8ebe ac77 81bd
00000030: 34e5 07bf efab 46be 1aa2 953e 8478 bd3e
00000040: e9b6 013e 638a 06be 1e54 33be 5356 8ebe
00000050: 50ef 3bbe a4b0 cb3b b758 1cbf 736e e6bd
00000060: 5c81 87be 1428 aebe 516e 2c3d 5d4a 8a3e
00000070: 7f8e 813e 284c cd3e 764c da3d fd3b d93e

kenc0.encoder.9.weight f4 [32]
1.2436076 1.3192793 1.0538572 1.5335234 1.0612051 1.1838263 0.9496759 0.95413643
1.0212212 1.1301031 0.7525491 1.0813667 1.3706485 1.0326549 0.69586927 1.2636822
1.0988626 1.3584633 1.2212213 0.8048291 0.7702613 0.9998221 1.6234974 0.9289138
1.4022733 1.3635288 1.0142947 1.3753246 0.8829627 1.2040162 1.3087425 1.1292853
00000000: 892e 9f3f 25de a83f cbe4 863f 7f4a c43f
00000010: 92d5 873f 9f87 973f f61d 733f 4942 743f
00000020: 60b7 823f 38a7 903f 0fa7 403f 396a 8a3f
00000030: 6971 af3f 092e 843f 7d24 323f 57c0 a13f
00000040: 88a7 8c3f 20e2 ad3f fb50 9c3f 4809 4e3f
00000050: d82f 453f 57f4 7f3f c3ce cf3f 4bcd 6d3f
00000060: b17d b33f 1d88 ae3f 69d4 813f a30a b03f
00000070: d809 623f 341d 9a3f e084 a73f 6c8c 903f

kenc0.encoder.9.bias f4 [32]
0.1379814 0.017912747 -0.16170777 -0.009202933 -0.13872705 -0.021539805 -0.55501336 -0.042240225
0.033451773 0.089477435 -0.052605424 -0.09628034 -0.38198915 -0.067978576 -0.36265597 -0.3946624
-0.18454008 0.019444857 -0.053837117 0.056917436 -0.15687534 0.024700144 -0.15015554 -0.31564552
-0.08962482 0.31511799 -0.52675635 -0.21436408 -0.016821504 -0.112010136 -0.31690094 -0.006519485
00000000: ff4a 0d3e c1bd 923c b996 25be e6c7 16bc
00000010: 770e 0ebe 3f74 b0bc 5b15 0ebf 1604 2dbd
00000020: ba04 093d f23f b73d c978 57bd a02e c5bd
00000030: 1594 c3be 5a38 8bbd 0bae b9be 3111 cabe
00000040: 13f8 3cbe d24a 9f3c 4f84 5cbd 4222 693d
00000050: eea3 20be f557 ca3c 60c2 19be 4a9c a1be
00000060: 388d b7bd 2557 a13e 81d9 06bf 4282 5bbe
00000070: 40cd 89bc 9265 e5bd d740 a2be 67a1 d5bb

kenc0.encoder.9.running_mean f4 [32]
-0.0033400708 -0.2712788 -0.5990827 -0.41186762 -1.1770654 0.30818123 0.27926654 -0.36118066
-0.05040634 0.018295655 -0.44387075 -0.36451718 -1.704785 -1.2059542 0.57951707 -0.4172399
-0.048293 0.044199593 -0.95418656 -0.42136478 -0.05998425 0.48376215 -0.7881339 0.9928531
-0.07725735 -1.0839148 -0.5302013 -0.2986215 0.89998937 -0.29183426 -0.462679 0.6482104
00000000: 17e5 5abb 0ee5 8abe 7c5d 19bf 50e0 d2be
00000010: 14aa 96bf eec9 9d3e 06fc 8e3e acec b8be
00000020: e176 4ebd c5e0 953c 0743 e3be ffa1 babe
00000030: 6536 dabf b55c 9abf 3b5b 143f 78a0 d5be
00000040: e1ce 45bd a20a 353d 9245 74bf 20bd d7be
00000050: 0cb2 75bd acaf f73e 25c3 49bf 9f2b 7e3f
00000060: 1a39 9ebd b8bd 8abf 46bb 07bf ebe4 98be
00000070: b465 663f 4d6b 95be 43e4 ecbe 1ef1 253f

kenc0.encoder.9.running_var f4 [32]
2.6348364 2.7514856 0.2096056 1.4731246 0.5954865 0.570948 0.31835365 0.5710844
0.7248408 0.88386184 2.0374682 0.7784224 0.79858327 0.7914963 0.2883474 0.49302596
1.4032133 3.0182436 1.067463 2.1058502 0.38163742 1.1927594 2.224317 0.33994016
1.7492689 3.397274 0.51544803 1.1105599 0.61538726 0.24236307 1.1254082 1.5276024
00000000: 29a1 2840 5718 3040 daa2 563e 598f bc3f
00000010: ce71 183f a629 123f 40ff a23e 9632 123f
00000020: 2b8f 393f c544 623f e165 0240 b146 473f
00000030: f46f 4c3f 809f 4a3f 45a2 933e e66d fc3e
00000040: 7e9c b33f e72a 4140 a1a2 883f 40c6 0640
00000050: fb65 c33e 57ac 983f 365b 0e40 a30c ae3e
00000060: 0be8 df3f f06c 5940 67f4 033f d426 8e3f
00000070: 058a 1d3f 062e 783e 600d 903f 7a88 c33f

kenc0.encoder.12.weight f4 [64, 32, 1]
-0.35590008 -0.08656634 -0.08730669 -0.07464469 -0.031958204 -0.34435713 -0.40022716 0.08883095
-0.32393223 -0.10492944 -0.19185619 0.06960507 0.38410115 0.22536999 -0.16101247 -0.04121212
-0.3589585 -0.01636851 -0.06292633 -0.2690447 -0.16311286 -0.18491527 -0.05696952 -0.14778711
0.033968553 -0.10927851 0.17447673 -0.18782744 -0.17804162 -0.08101555 -0.16672683 -0.52304685
0.24374093 0.048630755 0.020437976 0.0013717883 -0.04836318 -0.13140708 -0.026473142 -0.14161812
0.12542401 -0.26654384 0.10186855 0.11504298 -0.10491489 0.09099414 -0.07451056 -0.14725216
0.25397134 -0.46064928 -0.41976017 0.23984045 -0.021777498 0.05076816 -0.06357385 -0.26713398
-0.26207858 0.10972169 -0.0004693196 0.023823567 -0.1244573 0.18077353 -0.24024858 -0.14743471
0.15373665 -0.13845763 0.20967522 0.0058437823 0.31771693 -0.11228015 0.13663957 0.0414006
-0.116356425 -0.33169204 -0.033810355 -0.030285098 0.11232371 0.25530335 -0.04282264 -0.0282155
0.22543125 -0.19253193 -0.10810057 0.18945804 -0.03958636 0.09333818 -0.110324815 -0.23310988
0.07182505 0.047948703 -0.21351296 0.014041461 0.16233595 0.17444924 -0.27705908 0.20516506
-0.27486077 -0.024969498 0.03463056 -0.02181967 -0.11126442 -0.18996745 -0.1393861 0.40572977
-0.2706665 -0.35783052 -0.12965108 -0.41258842 0.1456315 -0.22203767 0.07552676 0.10221713
-0.10345095 0.0017262646 0.0011528139 -0.09017145 -0.07600885 -0.12042576 -0.066242576 -0.124424346
0.14142153 -0.560041 -0.19307902 0.17026216 0.006285163 0.07390105 0.27794233 -0.09949641
-0.11249795 0.050401993 -0.1995616 0.001321127 0.10368245 -0.078071885 -0.15094763 -0.17834158
-0.021206124 -0.114100225 -0.23627774 0.22442588 0.29325655 0.18784273 -0.14827274 0.07040309
0.04110964 -0.19793849 -0.030900514 -0.0373786 -0.18757229 -0.21035512 -0.1445187 0.034044374
-0.23013698 0.09911481 -0.00063149165 -0.108689226 -0.35169604 0.17432956 -0.19889252 -0.31591955
0.22590719 -0.2767189 -0.19681174 -0.2832805 -0.13452451 0.027010078 -0.32291546 0.09649257
0.03516598 0.08649512 0.10069277 -0.06369292 -0.14960603 -0.08023854 -0.025838293 -0.29563162
-0.034465075 -0.07138031 -0.100738235 0.19071834 -0.11268841 0.045410052 -0.19600067 0.050487053
0.0007409779 0.18290618 -0.023751773 -0.2633206 0.097542025 -0.06176771 -0.081708826 0.27298066
-0.16554022 0.08187264 -0.009039603 0.10815536 -0.101738326 -0.45442045 -0.18025775 0.071978815
-0.010992718 0.042069037 -0.24483007 0.055106726 0.20128913 -0.033858858 -0.26951268 0.2189609
-0.20450525 0.060148932 0.36045372 -0.23870848 0.09379578 -0.35170957 0.0457551 -0.28824532
-0.024118826 -0.08479879 -0.18436389 0.050787207 -0.21398106 0.024001177 0.2042475 -0.39645654
0.0902632 -0.37751225 -0.0916048 -0.11746383 0.057908114 -0.17214115 -0.13237797 -0.06817634
-0.216912 0.08706901 0.035639532 0.112878636 0.040540077 0.13059255 -0.005283293 -0.119996294
0.1433688 -0.4575867 -0.15456183 -0.088081524 0.045223482 -0.1553591 -0.14164157 -0.14078218
-0.57774824 0.07025228 0.08643709 -0.16082913 -0.20147698 0.008358321 -0.22735687 0.06931523
00000000: 8938 b6be b149 b1bd dacd b2bd 51df 98bd
00000010: 9be6 02bd 944f b0be 93ea ccbe 00ed b53d
00000020: 72da a5be 3fe5 d6bd f375 44be 1a8d 8e3d
00000030: e8a8 c43e 64c7 663e 74e0 24be 0ace 28bd
00000040: 69c9 b7be 4117 86bc 85df 80bd 3ac0 89be
00000050: 0f07 27be 6e5a 3dbe df58 69bd 8155 17be
00000060: 9c22 0b3d 69cd dfbd 07aa 323e d655 40be
00000070: 8b50 36be 7beb a5bd 70ba 2abe 66e6 05bf
00000080: 3997 793e 0b31 473d 8b6d a73c 94cd b33a
00000090: 7818 46bd 948f 06be 34de d8bc 5704 11be
000000a0: 276f 003e 6f78 88be 75a0 d03d a79b eb3d
000000b0: 9edd d6bd 235b ba3d fe98 98bd 45c9 16be
000000c0: 8808 823e 39da ebbe ceea d6be bc98 753e
000000d0: b966 b2bc 46f2 4f3d 0233 82bd c9c5 88be
000000e0: 2a2f 86be c4b5 e03d 030f f6b9 a429 c33c
000000f0: 78e3 febd b21c 393e b903 76be 20f9 16be
00000100: 246d 1d3e d6c7 0dbe 1ab5 563e 337d bf3b
00000110: cbab a23e 23f3 e5bd 3eeb 0b3e ad93 293d
00000120: 474c eebd 8ad3 a9be ba7c 0abd 7418 f8bc
00000130: f909 e63d 1fb7 823e cb66 2fbd 3124 e7bc
00000140: 73d7 663e 1727 45be d563 ddbd 4a01 423e
00000150: 4f25 22bd 1628 bf3d faf1 e1bd 5bb4 6ebe
00000160: 0319 933d dc65 443d 24a3 5abe 280e 663c
00000170: 653b 263e d2a2 323e b0da 8dbe ca16 523e
00000180: 8dba 8cbe d58c ccbc c6d8 0d3d 2abf b2bc
00000190: 9ade e3bd d486 42be 3bbb 0ebe d0bb cf3e
000001a0: cd94 8abe 9035 b7be 41c3 04be ca3e d3be
000001b0: 6d20 153e d85d 63be c6ad 9a3d 3757 d13d
000001c0: 17de d3bd d443 e23a 041a 973a cfab b8bd
000001d0: 87aa 9bbd c8a1 f6bd 30aa 87bd 31d2 febd
000001e0: ced0 103e d95e 0fbf 82b6 45be 3459 2e3e
000001f0: c5f3 cd3b 6f59 973d 754e 8e3e c6c4 cbbd
00000200: 5365 e6bd 5272 4e3d e059 4cbe ab29 ad3a
00000210: 7757 d43d 27e4 9fbd 0492 1abe 2d9f 36be
00000220: 77b8 adbc 61ad e9bd cbf2 71be e6cf 653e
00000230: b925 963e d859 403e cfd4 17be 7f2f 903d
00000240: 9562 283d 63b0 4abe 1323 fdbc 4e1a 19bd
00000250: f312 40be 5567 57be b6fc 13be 1d72 0b3d
00000260: 07a9 6bbe b5fc ca3d b08a 25ba 7598 debd
00000270: 8111 b4be 7383 323e 7baa 4bbe 35c0 a1be
00000280: 3754 673e 1aae 8dbe 0489 49be 240a 91be
00000290: cbc0 09be 3d44 dd3c 2d55 a5be e69d c53d
000002a0: 340a 103d 5a24 b13d 0338 ce3d 6f71 82bd
000002b0: 5332 19be 1b54 a4bd d4aa d3bc 075d 97be
000002c0: 402b 0dbd d72f 92bd d94f cebd ab4b 433e
000002d0: 2ec9 e6bd e4ff 393d 66b4 48be 83cb 4e3d
000002e0: 2f3e 423a c24b 3b3e 1493 c2bc f5d1 86be
000002f0: 1dc4 c73d 2300 7dbd f556 a7bd 1fc4 8b3e
00000300: 6083 29be d8ac a73d d81a 14bc 8f80 dd3d
00000310: 2f5c d0bd cca9 e8be 7d95 38be a169 933d
00000320: cd1a 34bc 9550 2c3d bcb4 7abe 97b7 613d
00000330: bd1e 4e3e 96af 0abd 91fd 89be 4937 603e
00000340: d369 51be ba5e 763d 648d b83e ff6f 74be
00000350: 0018 c03d 4713 b4be b369 3b3d e494 93be
00000360: d894 c5bc fdaa adbd e3c9 3cbe 3f06 503d
00000370: da1d 5bbe 1e9e c43c 4226 513e 5afc cabe
00000380: eadb b83d 4949 c1be 4c9b bbbd e090 f0bd
00000390: 0f31 6d3d c545 30be 178e 07be 09a0 8bbd
000003a0: 2e1e 5ebe 3d51 b23d c2fa 113d ea2c e73d
000003b0: 5a0d 263d 0eba 053e 791f adbb 9ec0 f5bd
000003c0: 45cf 123e ce48 eabe 7545 1ebe 1664 b4bd
000003d0: 423c 393d 7516 1fbe 7d0a 11be 3429 10be
000003e0: 4fe7 13bf 6de0 8f3d ee05 b13d 64b0 24be
000003f0: fb4f 4ebe 57f1 083c 3dd0 68be 25f5 8d3d

kenc0.encoder.12.bias f4 [64]
-0.3071433 0.13394056 0.21404079 -0.14155857 -0.1972344 -0.08283079 -0.22371413 0.09503051
-0.17061986 0.07531236 -0.011674335 -0.15011165 -0.04330324 0.08236309 0.100980416 -0.13108276
-0.19327746 0.20172238 0.12504351 0.08228464 -0.052037645 0.21382652 -0.07110495 -0.101127915
0.09245812 0.38728777 0.14645351 0.2134117 -0.27080157 -0.18871942 0.22315298 0.3454016
-0.1295568 -0.37139437 -0.22348772 0.2156005 -0.009110594 -0.16986413 -0.0724878 -0.18390816
0.04004142 -0.04987488 0.21574873 0.22342171 -0.22445858 0.14053409 0.39575973 -0.13319544
0.057788998 -0.48216173 -0.33555347 -0.051782537 0.20437981 -0.04106518 0.019058002 -0.044266455
-0.13162468 -0.054643504 -0.07770045 0.15575798 -0.08347198 0.38424376 -0.094108894 0.27976406
00000000: e341 9dbe b727 093e 822d 5b3e bbf4 10be
00000010: d1f7 49be 30a3 a9bd 5115 65be 5b9f c23d
00000020: f9b6 2ebe 5e3d 9a3d b645 3fbc deb6 19be
00000030: bd5e 31bd fbad a83d d2ce ce3d 8f3a 06be
00000040: 87ea 45be 5090 4e3e 680b 003e d984 a83d
00000050: 6d25 55bd 57f5 5a3e 799f 91bd 271c cfbd
00000060: af5a bd3d 954a c63e e9f7 153e 9988 5a3e
00000070: 81a6 8abe aa3f 41be 3782 643e 7ad8 b03e
00000080: 8aaa 04be 6727 bebe f7d9 64be 61c6 5c3e
00000090: 9a44 15bc ddf0 2dbe 7c74 94bd 6c52 3cbe
000000a0: 7902 243d 9a49 4cbd 3ced 5c3e a9c8 643e
000000b0: 78d8 65be 2be8 0f3e 05a1 ca3e 6364 08be
000000c0: 28b4 6c3d e7dd f6be aacd abbe ed19 54bd
000000d0: f148 513e f633 28bd 871f 9c3c be50 35bd
000000e0: 9fc8 06be ded1 5fbd 6a21 9fbd 057f 1f3e
000000f0: 5cf3 aabd 99bb c43e 2abc c0bd 3c3d 8f3e

kenc0.encoder.13.weight f4 [64]
0.005216653 0.013989165 0.025972432 0.028754527 0.025749214 0.021371974 0.0036037324 0.0044801137
0.025898494 0.023450937 0.044356376 0.018393165 0.020879721 0.052350298 0.033228874 0.06057697
0.011366848 0.027646307 0.011053733 0.0010725459 -0.001993321 0.0022289369 0.0025919375 -0.010492778
0.019284202 0.0061458223 -0.02045384 -0.020872056 0.02934869 -0.020535653 0.010657254 0.017759258
0.025619192 -0.0036524683 -0.0019636448 0.0040482297 0.010311047 0.001934444 0.04128992 0.011142598
0.027725203 0.033742968 -0.0030920713 0.0038466486 0.009580412 0.012774189 -0.011208226 0.005061059
0.014738644 0.0095860725 -0.015552468 -0.014728809 0.010829352 0.022908708 0.0041824626 0.0061470573
0.0151581215 0.045444656 0.00033276988 0.0064080954 0.0036353401 0.024658704 0.031235956 0.015871564
00000000: 75f0 aa3b d032 653c 23c4 d43c 9d8e eb3c
00000010: 04f0 d23c 4714 af3c 992c 6c3b ebcd 923b
00000020: 1429 d43c 2e1c c03c 08af 353d 43ad 963c
00000030: f30b ab3c 446d 563d 001b 083d 8f1f 783d
00000040: 043c 3a3c 827a e23c b71a 353c ab94 8c3a
00000050: 61a2 02bb 5b13 123b 7fdd 293b e7e9 2bbc
00000060: e7f9 9d3c e562 c93b d08e a7bc e0fb aabc
00000070: aa6c f03c 633a a8bc c39b 2e3c dd7b 913c
00000080: 57df d13c 405e 6fbb 7eb0 00bb 03a7 843b
00000090: aaef 283c 2b8d fd3a 9f1f 293d 728f 363c
000000a0: f71f e33c 1136 0a3d 59a4 4abb 0e18 7c3b
000000b0: 29f7 1c3c d54a 513c b5a2 37bc 3dd7 a53b
000000c0: 5a7a 713c e70e 1d3c c7cf 7ebc 1a51 71bc
000000d0: 986d 313c 0bab bb3c 0a0d 893b 416d c93b
000000e0: c559 783c 2d24 3a3d 9e77 ae39 00fb d13b
000000f0: e33e 6e3b 0d01 ca3c 8ce2 ff3c 1505 823c

kenc0.encoder.13.bias f4 [64]
-0.087583356 -0.11694773 -0.14971179 -0.050009537 -0.13527599 -0.059800755 -0.022361452 -0.012785946
-0.11657993 -0.03657511 -0.075548135 -0.06654859 -0.07034736 -0.082612574 -0.047381185 -0.13037087
-0.090549015 -0.11278283 -0.08700223 -0.15663432 -0.009556701 -0.10782726 -0.09824724 -0.07139581
-0.035689402 -0.09391437 -0.04073067 -0.12221718 -0.026713148 -0.078498416 -0.084439576 -0.024967194
-0.05835402 -0.17695415 -0.25353944 -0.06074801 -0.13245183 -0.15774676 -0.014118558 -0.045698997
-0.102300115 -0.060509376 -0.08247968 -0.07052978 -0.02695485 -0.008974863 -0.06904116 -0.036737125
-0.1018344 -0.020340107 -0.018623576 -0.045608137 -0.0046554618 -0.11543711 -0.08595952 -0.030107362
-0.0070827957 -0.023903532 -0.047009047 -0.049188 -0.048931513 -0.08773644 -0.039899316 -0.035983868
00000000: e75e b3bd 4b82 efbd 0c4e 19be cdd6 4cbd
00000010: ca85 0abe a3f1 74bd 5d2f b7bc 257c 51bc
00000020: 75c1 eebd c8cf 15bd fbb8 9abd a14a 88bd
00000030: 4712 90bd c830 a9bd c612 42bd f17f 05be
00000040: c371 b9bd affa e6bd 3a2e b2bd bf64 20be
00000050: b693 1cbc 8ad4 dcbd d935 c9bd f737 92bd
00000060: 0d2f 12bd 2d56 c0bd 34d5 26bd 004d fabd
00000070: 88d5 dabc c7c3 a0bd a8ee acbd 0088 ccbc
00000080: a004 6fbd 7833 35be eccf 81be e8d2 78bd
00000090: 74a1 07be 5e88 21be 8651 67bc df2e 3bbd
000000a0: b982 d1bd aed8 77bd 1beb a8bd eb71 90bd
000000b0: 6bd0 dcbc 4e0b 13bc 7465 8dbd ab79 16bd
000000c0: 8e8e d0bd 4ca0 a6bc 7890 98bc 99cf 3abd
000000d0: d88c 98bb 4b6a ecbd 8b0b b0bd b7a3 f6bc
000000e0: cc16 e8bb 57d1 c3bc 8f8c 40bd 5b79 49bd
000000f0: 696c 48bd 2aaf b3bd 776d 23bd d263 13bd

kenc0.encoder.13.running_mean f4 [64]
-1.6852765 -0.44146436 0.31717956 -0.9439876 -0.8788287 -0.5708705 -0.61133605 -1.0878254
-0.9842437 -1.0667998 -1.9906802 -1.2506313 -0.77372915 -0.10768573 -0.93122846 -0.6062898
-0.6081433 -0.86096036 -0.14387916 -0.15494044 0.12439589 -0.2294872 -0.4718903 0.20495415
-1.1994358 1.3582293 -0.85357106 0.42037803 -1.8979342 0.008426491 0.16045938 -0.5981512
-1.4640474 -0.6001857 -0.40181965 -0.701045 0.05555578 -0.037935443 -0.4580337 -0.9457524
-0.9561145 0.067637965 0.22077067 -0.31808767 -1.3779335 0.6382245 -0.403025 -1.1575186
-0.23443921 -1.9938738 -1.6843876 -0.53944695 -0.3080271 -0.93091863 0.6861659 -0.22871199
-0.124096066 -0.6538859 -1.2091713 0.26987386 0.20455399 -0.30664963 -1.4980142 -0.7580475
00000000: 24b7 d7bf 9e07 e2be 5c65 a23e 2ca9 71bf
00000010: ebfa 60bf 9224 12bf 8580 1cbf dd3d 8bbf
00000020: 65f7 7bbf e58c 88bf 9cce febf b014 a0bf
00000030: 1d13 46bf 568a dcbd fd64 6ebf cf35 1bbf
00000040: 48af 1bbf e667 5cbf 0f55 13be b5a8 1ebe
00000050: 46c3 fe3d b1fe 6abe 9b9b f1be 80df 513e
00000060: 1d87 99bf 75da ad3f a283 5abf ca3b d73e
00000070: 82ef f2bf 440f 0a3c 774f 243e 7020 19bf
00000080: e865 bbbf c5a5 19bf 4ebb cdbe af77 33bf
00000090: 758e 633d 3262 1bbd 6583 eabe d41c 72bf
000000a0: ebc3 74bf c685 8a3d b511 623e 63dc a2be
000000b0: 2060 b0bf ae62 233f 4b59 cebe 9229 94bf
000000c0: d510 70be 4237 ffbf 039a d7bf 3219 0abf
000000d0: bab5 9dbe af50 6ebf 92a8 2f3f 7a33 6abe
000000e0: 1426 febd 1165 27bf 20c6 9abf e82c 8a3e
000000f0: 9a76 513e 2e01 9dbe eebe bfbf 670f 42bf

kenc0.encoder.13.running_var f4 [64]
0.8280003 3.1057363 0.6044365 2.4612308 0.7131343 4.189704 2.8097723 6.9003034
0.54478383 9.282003 13.026397 4.7754526 1.5724211 1.6573001 7.704569 6.1542516
1.3938272 7.5415154 0.51998824 1.5104221 3.0335379 1.0906823 0.3361531 1.2831311
5.3933954 0.8774443 8.537155 0.3962746 14.919618 1.4166569 0.33941376 2.494259
4.234679 1.8275821 1.3518771 0.43803138 0.6237288 1.8019724 3.5171523 1.9449522
0.7099564 0.9417376 0.44582513 0.60644287 6.861903 4.2696733 1.0725211 1.2707165
1.8624551 8.7704315 8.155213 1.0399494 3.0399501 4.3885818 1.7077086 4.564852
5.343322 3.3652627 6.185553 2.82115 1.6307194 2.2728891 11.158994 6.0943837
00000000: d4f7 533f 62c4 4640 5abc 1a3f ce84 1d40
00000010: f88f 363f 0e12 8640 4fd3 3340 49cf dc40
00000020: f476 0b3f 1683 1441 1f6c 5041 82d0 9840
00000030: 1845 c93f 6922 d43f d48b f640 a1ef c440
00000040: ee68 b23f 1854 f140 f31d 053f 8355 c13f
00000050: 7c25 4240 7a9b 8b3f 421c ac3e a43d a43f
00000060: b296 ac40 31a0 603f 3098 0841 81e4 ca3e
00000070: c1b6 6e41 0355 b53f a4c7 ad3e f1a1 1f40
00000080: 7e82 8740 36ee e93f 4f0a ad3f a645 e03e
00000090: b1ac 1f3f 08a7 e63f 0619 6140 32f4 f83f
000000a0: b4bf 353f b715 713f 3143 e43e d73f 1b3f
000000b0: b694 db40 2aa1 8840 5f48 893f d7a6 a23f
000000c0: ee64 ee3f b053 0c41 c17b 0241 101d 853f
000000d0: 8b8e 4240 436f 8c40 3296 da3f 4513 9240
000000e0: 7efc aa40 7760 5740 0df0 c540 b98d 3440
000000f0: 6abb d03f 0477 1140 3d8b 3241 3105 c340
