neural_network/weights/model_weights.pth (torch, 462431 bytes, 160 tensors)

penc0.lin.weight f4 [36, 100]
000000 6e bf 2a be 60 2a 4c 3d fc a1 b2 3d 37 9b 09 bd
       -0.16674587 0.0498451 0.08722302 -0.03359529
000010 2c 18 2a 3c 75 5d 9e 3b 65 62 cc bc c3 02 c6 bd
       0.01038174 0.0048329183 -0.024949262 -0.096684955
000020 68 1c 80 bd cc 64 f3 3c 5a db a2 bd 0f 15 9b bc
       -0.06255418 0.02971115 -0.07951994 -0.01893094
000030 b7 39 93 3d 91 6d 74 bd 63 e9 4e bb 4c 7d 15 3e
       0.071887426 -0.059674803 -0.0031572215 0.14598578
000040 de c0 28 3d 54 58 84 3c 22 b8 4e 3d 61 c1 cd 3d
       0.041199557 0.0161554 0.05046857 0.1004665
000050 ce 0f b2 bd bb 4e ef bd ec 60 f2 3d 13 7f 25 bc
       -0.08694421 -0.116849385 0.11834893 -0.010101098
000060 3e 1d 05 3e 32 62 a8 3a 66 c1 0b bd 54 76 c4 3c
       0.12999436 0.0012846647 -0.034119986 0.023982204
000070 ee c6 2e bc 8e 78 94 bc 6c 25 dd bd d6 6e 06 be
       -0.010667546 -0.018123891 -0.10798153 -0.13128218
000080 a0 90 e2 3d c2 e4 24 3d bd 88 03 3d 55 59 40 bb
       0.11062741 0.040257223 0.032112826 -0.002935012
000090 a7 3d bf 3d a0 3f c8 3d 33 2b 0c 3c ca b4 37 bd
       0.09337931 0.097777605 0.008555221 -0.04485015
0000a0 c9 80 9f bd 92 91 67 bc dd a8 35 3e 30 3a 31 3c
       -0.07788236 -0.014133828 0.17740197 0.010817096
0000b0 96 c1 54 bd e7 62 21 be 7c 41 4a bd 3a e0 fd 3d
       -0.05194243 -0.15760385 -0.049378857 0.123962834
0000c0 11 eb d9 bd 9e a9 ff bd b9 3b e4 bb 77 29 b5 3c
       -0.106405385 -0.12483524 -0.0069651273 0.022114499
0000d0 ca d4 12 3e 99 f2 87 bd b8 0b ab 3d 75 b7 37 bd
       0.14338985 -0.06638069 0.083518445 -0.044852693
0000e0 39 f1 9c bc d6 3e c2 bd d7 f9 0d 3c 9c e8 09 be
       -0.019157993 -0.09484641 0.0086655235 -0.1346764
0000f0 13 77 a8 3c 92 66 42 bd 92 55 92 3d 8e b3 54 3e
       0.020564592 -0.0474611 0.071452275 0.2077162
000100 bf 98 dd bd 16 e2 b7 3d 9c 10 98 3b 33 c7 0c 3e
       -0.1082015 0.08978669 0.004640652 0.13747863
000110 fa d7 d0 3c 8d 00 b9 3d cf e7 23 bd e7 76 8f bd
       0.02549361 0.09033308 -0.04001599 -0.07005101
000120 37 76 20 3e 6d 86 8d bd e3 89 0d bd fa dd 3d 3d
       0.15670095 -0.06910405 -0.034555327 0.04635427
000130 c1 06 08 3d 01 94 c6 bd 93 83 1c 3d c9 7f 38 bd
       0.033209566 -0.09696198 0.038211416 -0.04504374
000140 e0 31 1f bd 15 0c c9 bd 0c cf 3f 3e 5e 40 0b bd
       -0.038865924 -0.098167576 0.18731326 -0.033996932
000150 9d ce d6 bc 66 41 02 3e 90 e8 d1 3c 10 2e 0f bd
       -0.026221568 0.1272026 0.02562359 -0.034956038
000160 01 03 17 be 32 cb 3d 3c 35 af f7 bd 32 80 0b be
       -0.1474724 0.01158409 -0.12093965 -0.13623121
000170 30 84 6e 3e 9e ce b5 bd f3 23 a1 bd 39 82 cd 3c
       0.23292613 -0.088773 -0.07868185 0.025086509
000180 d8 c2 73 3d a7 ca 9f 3d 5d e3 24 bc 14 0b b0 bd
       0.05951199 0.07802325 -0.010063973 -0.08595863
000190 af 06 c6 bc 0f 02 0f 3d bd 8d 9e 3d b2 cd ee bd
       -0.024173109 0.034914073 0.07741878 -0.11660327
0001a0 d4 0f 47 3d 2b 95 23 be 4f 7a 1d be c2 ab 20 3d
       0.04859908 -0.15974872 -0.15378688 0.0392263
0001b0 6a 34 6f 3d 73 8b 63 bd 94 3f 7d bd c7 8b ba 3c
       0.058399595 -0.05555291 -0.06182821 0.02277173
0001c0 f8 84 e8 bc e2 a7 43 bd 50 73 12 be 3e a4 be bc
       -0.028383717 -0.047767527 -0.143018 -0.023271676
0001d0 d4 f1 8f bd 6e 0d 5f 3d 1c 27 06 be 55 8c 66 bd
       -0.07028547 0.054456167 -0.13100857 -0.056286175
0001e0 8e ec 3a be 03 f0 b8 bd a1 7e 7d bd 4b 4e ac bd
       -0.18254301 -0.090301536 -0.06188834 -0.08413371
0001f0 89 ff fb 3d 1d 4f 64 3d 8b 68 e5 bc 9e 01 02 be
       0.12304599 0.05573951 -0.028003952 -0.1269593
000200 6d f4 e2 3d b5 21 f6 3d d2 b6 8e bd 87 ec f3 bd
       0.11081777 0.12018148 -0.06968464 -0.119103484
000210 6a 78 b8 3d 61 52 18 3e a0 84 95 3a 45 ca d0 3d
       0.09007342 0.14875175 0.0011407323 0.1019483
000220 d3 8b 04 be fb 53 91 bc 7e 4a 84 3c f3 f9 1f 3d
       -0.12943964 -0.01774024 0.016148802 0.03905673
000230 d2 7b 28 bd 6e 83 5f bc 40 8c 08 3d 51 c7 88 3d
       -0.04113371 -0.013642175 0.033336878 0.066786416
000240 b3 27 cc 3d bd 71 c9 bc 90 93 00 be 72 66 98 bd
       0.099685095 -0.024590367 -0.1255629 -0.07441415
000250 e5 b2 7f 3d b8 e3 a6 3c 0c fa 2c be 5e a4 88 bd
       0.062426466 0.020372257 -0.1689226 -0.066719756
000260 ee 95 48 3c 8d 47 14 bd a4 f7 82 bd ed ec c8 bd
       0.012242777 -0.03620105 -0.0639489 -0.09810815
000270 33 a0 de bd 2c 42 f0 3c cc cf 3a bd da 68 35 3c
       -0.10870399 0.029328428 -0.045608327 0.011072362
000280 a0 18 9a bd 35 5a 14 be ee ed 1b 3d cd d1 94 3c
       -0.07524228 -0.14487536 0.038068704 0.018166447
000290 24 5f 9b bd c0 8f b5 bc 1c d8 19 be 40 67 2d 3d
       -0.07586506 -0.022163272 -0.15023845 0.042334795
0002a0 b4 df d4 bd 7a 12 c4 bc 34 92 a0 bd bf 22 6b bd
       -0.103942305 -0.023934592 -0.07840386 -0.057406183
0002b0 38 89 8b 3c c5 6c 03 bd a1 df df 3c 04 d2 84 3c
       0.017033204 -0.032086153 0.027328314 0.016213425
0002c0 d0 69 14 be 9d 8c 90 bd 7c c7 d3 bd 49 71 ae bd
       -0.1449349 -0.0705807 -0.10340783 -0.08517701
0002d0 fb 30 05 be bf ad bc ba 3f e2 d9 3c bf 48 a4 bd
       -0.13006966 -0.0014395042 0.02659714 -0.08021688
0002e0 89 1a b5 3d 4f 78 40 3d a4 59 93 bd 45 25 cd bd
       0.08842952 0.046989735 -0.07194832 -0.10016874
0002f0 a6 7c 2a 3d 7a 88 6e 3a bc fe 32 3c ab e9 e5 bd
       0.04162278 0.0009099316 0.010924991 -0.11226209
000300 bc 91 6f 3d 31 71 d1 3d e5 a5 94 3c a3 29 9f 3d
       0.058488593 0.10226668 0.01814551 0.077716134
000310 3a 4b 0d bb 18 4a 89 3d 30 8a e6 bd 9d 56 20 bd
       -0.002155973 0.067035854 -0.11256826 -0.0391451
000320 11 5c 0f 3e 9a df 16 3d 49 0f 51 3b 1f 61 1c 3e
       0.13999964 0.036834337 0.003189998 0.15271424
000330 40 df 64 3c af ad 84 bd 2d 74 81 3d 33 d8 98 3d
       0.013969243 -0.0647844 0.06320987 0.07463112
000340 f4 3c c8 3c 56 e6 12 3d 77 fa 14 3e 46 73 c2 bd
       0.024443127 0.035864197 0.1454867 -0.09494643
000350 a5 a4 aa 3c cd d3 2b 3e 81 3e 84 3c d0 f9 d4 3b
       0.020830462 0.16780014 0.016143085 0.0064995065
000360 a7 df d2 bc f5 24 bc 3c 81 90 b5 bb 77 c1 98 3d
       -0.025741411 0.022966841 -0.005540908 0.074587755
000370 41 5e 52 3e 9e ce ab 3c 93 5e d0 bc 19 7d 58 3d
       0.20543768 0.020972546 -0.025435722 0.052853677
000380 a0 2e 91 bd a1 5c 4a be 50 30 20 bd 85 5a 91 3d
       -0.07088971 -0.19761898 -0.039108574 0.07097343
000390 db 7b 56 bd 04 a2 49 bd 8f 0a 6b 3e 05 c1 89 3d
       -0.05236421 -0.049226776 0.22953247 0.06726269
0003a0 91 ed 03 be 44 01 0d bc 2b 2f f8 bd b0 0e 8c 3d
       -0.12883593 -0.008606259 -0.121183716 0.06838739
0003b0 d7 45 0f bd 7a b5 87 bd fc da 1e be 87 de de bd
       -0.034978714 -0.06626411 -0.15513223 -0.108822875
0003c0 01 b1 4b 3e 2e c2 24 bd 6f 26 b0 bd 7c a8 10 3d
       0.1989174 -0.040224247 -0.086010806 0.03531693
0003d0 93 cd a1 bd a1 ea ee 3d 92 e8 1f 3d 3b 3b e1 bd
       -0.07900538 0.11665846 0.039040156 -0.109976254
0003e0 f6 b2 4c 3c 45 af 45 bd 6c 7b 16 3e eb b8 dc 3c
       0.0124938395 -0.048262853 0.14695519 0.026943645
0003f0 56 1a b6 bc 6c f9 47 3d 16 05 35 3e 80 fa ae bd
       -0.022229355 0.04882185 0.17677721 -0.08543873

penc0.bn.weight f4 [36]
000000 ae ac 86 3f 30 aa 6b 3f d0 a7 69 3f 07 ef 82 3f
       1.0521448 0.9205656 0.91271687 1.0229195
000010 59 79 75 3f 50 e9 82 3f 80 10 7a 3f 4f 6b 7e 3f
       0.95888287 1.0227451 0.97681427 0.9938249
000020 87 06 81 3f 3b 9d 7a 3f a3 5e 7a 3f 8a b1 82 3f
       1.0080117 0.97896165 0.97800654 1.0210431
000030 18 3a 7c 3f c6 70 98 3f 5b 0e 8c 3f fa b0 89 3f
       0.98526144 1.1909416 1.0941881 1.0757134
000040 43 a3 74 3f 6d 86 88 3f dd 6c 61 3f e1 22 69 3f
       0.9556162 1.0666023 0.8805674 0.91068846
000050 2d 44 89 3f ad 7c 7f 3f 3a 70 59 3f 86 8a 5e 3f
       1.0723931 0.99799615 0.8493687 0.8693012
000060 49 73 67 3f fa b2 55 3f 02 1e 85 3f 9e 60 72 3f
       0.90410286 0.8347622 1.0399783 0.94678676
000070 05 ec 88 3f b5 36 83 3f ad c2 68 3f a4 f3 73 3f
       1.0697027 1.025107 0.9092205 0.9529364
000080 a9 57 81 3f 27 96 8a 3f f2 d1 66 3f a1 49 81 3f
       1.0104877 1.0827073 0.901641 1.0100595

penc0.bn.bias f4 [36]
000000 28 47 be 3c ae 8e c4 bd 0d 4e f8 bd dc cc dd bc
       0.02322729 -0.095975265 -0.12124262 -0.027075224
000010 7d 4e 60 3d 30 82 05 3e 51 1e 80 3c 61 b2 93 bc
       0.054762352 0.13037944 0.015639456 -0.018029394
000020 25 74 fc 3c 28 76 d2 bd 26 ae 09 be b9 4b f1 3d
       0.0308171 -0.10276443 -0.13445339 0.11782021
000030 12 38 54 bd 8d 9a 3b 3e 14 4d 55 3d 5e 69 3d 3d
       -0.051811285 0.18320675 0.05207546 0.046243064
000040 6f f2 ec ba 72 be ce 3c bb 0a 8e bc e8 26 13 bd
       -0.0018077622 0.025237296 -0.017339101 -0.035925776
000050 62 d3 9f 3d d5 0c 0c 3e d4 81 17 bd 59 a7 c7 bd
       0.0780399 0.1367677 -0.036989048 -0.09748716
000060 a1 a0 b9 3d 6b a8 3f bd 9b 21 cb 3d 8b 08 e1 bc
       0.09063841 -0.046791475 0.09918519 -0.027469894
000070 99 ba f7 3d f2 ba 79 bd 4a 35 cf bd e6 8b bd bd
       0.120961376 -0.0609693 -0.10117586 -0.09255199
000080 a9 41 b7 3d 74 e8 32 3e 3a d6 80 bd 8c ce 31 bb
       0.089480706 0.17471486 -0.062908605 -0.0027131168

penc0.bn.running_mean f4 [36]
000000 be 46 bf bc b7 2a 12 bf ae f7 c5 3d 5b d4 61 3e
       -0.023349162 -0.5709643 0.09666382 0.22053663
000010 1b dc b8 3e 0e 5b 19 3f c7 3e a4 be ec e2 59 be
       0.36105427 0.59904563 -0.32079145 -0.2127797
000020 1f 50 72 3f 5f 8e f7 3d 84 ef e7 be b2 fc b1 3c
       0.94653505 0.12087702 -0.45299923 0.02172694
000030 73 94 d7 3e a6 f0 64 bf de 85 a0 be c9 22 e0 3e
       0.42105445 -0.894297 -0.31352133 0.4377654
000040 75 31 34 be ac f6 26 bf e7 aa 9c 3e 40 52 3d bf
       -0.17596991 -0.6522014 0.30599138 -0.7395363
000050 82 d1 28 3e 79 7f f4 bd 74 1e 24 3f c0 4b 93 bf
       0.16486171 -0.11938376 0.6410897 -1.1507492
000060 33 de f8 be db 37 41 be 25 9b b1 3e 10 c6 d2 3e
       -0.48607025 -0.18868963 0.34688678 0.41166735
000070 8f dc 5a bf 3b 17 6f 3e 13 eb 3b be 63 3d b9 bd
       -0.85492796 0.23348705 -0.18351392 -0.09044912
000080 20 4f 0e bc f0 80 90 3e ae a7 c2 be a8 f4 f2 3e
       -0.008685857 0.28223372 -0.38018554 0.47452283

penc0.bn.running_var f4 [36]
000000 17 08 b4 3e 91 43 5a 3e c6 6a 01 3f 24 9a 46 3e
       0.35162422 0.21314837 0.5055355 0.19394737
000010 a8 86 1e 3e 1c 6c 7f 3e f9 0b 7d 3e 09 2f ad 3e
       0.15481055 0.24943584 0.24711598 0.33824947
000020 8b fa 5b 3e d4 c4 77 3e 4b 23 b4 3e ab cc 93 3e
       0.21482293 0.24196178 0.35183176 0.28867087
000030 50 ba 34 3e 15 c8 44 3e 2a 63 ef 3e d8 90 94 3e
       0.17649198 0.1921695 0.46755344 0.29016757
000040 c1 a4 8d 3e 22 b3 99 3e 74 de 5c 3e ba 95 db 3e
       0.2766476 0.3001948 0.21569234 0.4288767
000050 e3 4f 05 3e 95 68 39 3e 0d 48 46 3e 9e 29 56 3e
       0.13018756 0.18106301 0.19363423 0.20914313
000060 fa 62 c0 3d 2b 1e f3 3d 74 f0 be 3e da 3e 55 3e
       0.09393878 0.118709885 0.37292826 0.20824757
000070 5c cb 6f 3e a0 7d 8b 3e 7e aa 93 3e 5f f4 79 3e
       0.23417419 0.27244282 0.28841013 0.24409626
000080 b4 72 99 3e 59 2e 8c 3e 41 2b 61 3e 68 cd 86 3e
       0.29970324 0.2737911 0.21989156 0.26328588

penc1.lin.weight f4 [36, 100]
000000 8e b1 01 bd 22 ae 70 bd 5d 72 6c 3d 21 99 83 3d
       -0.03166347 -0.058759816 0.057726253 0.064256914
000010 5e ea 8e bd 46 94 c9 3d 33 b0 eb bc d8 1e d8 bc
       -0.06978296 0.09842734 -0.028770542 -0.026381895
000020 23 5b 68 bd de 92 4a 3d 3e be 63 bc 70 3a 9d bd
       -0.05672754 0.04945647 -0.013900338 -0.07677162
000030 1d b3 f5 3d d5 2f 01 be 71 94 a3 bc 9a 2b 8e 3c
       0.11997054 -0.12615903 -0.019968243 0.017354775
000040 8b 69 fa bd f3 42 4f be be 14 7a bd 1d d0 60 bd
       -0.12227162 -0.20240383 -0.061054938 -0.054885972
000050 d5 f2 23 bd 68 28 00 bb dd 74 25 3e 73 01 67 3d
       -0.040026505 -0.0019555334 0.16157861 0.056397866
000060 a8 b1 a2 3d a9 5b 97 bc 3c 11 1a bd b2 16 58 bd
       0.079440415 -0.018476324 -0.037614092 -0.05275602
000070 65 b5 87 3d df f0 73 3d ba b0 eb 3a 70 5c 9e 3d
       0.06626395 0.059555884 0.0017981746 0.07732475
000080 87 7c 34 ba 4e 34 82 3e 0b 92 91 bd d7 1d e5 bb
       -0.0006885011 0.2543053 -0.071079336 -0.0069920826
000090 f9 78 ca bd f8 5c 76 3e 67 99 3d bd 14 89 5b 3d
       -0.09886355 0.24058902 -0.046288874 0.053597525
0000a0 2a b1 0d be 88 46 01 bd 7d f9 a4 3d 8f 2a eb bd
       -0.13837114 -0.031561404 0.080553986 -0.11482727
0000b0 0a 96 9b bb ef 5b 22 be a3 f4 2c bc a3 9a 9d 3c
       -0.0047481107 -0.15855382 -0.010556373 0.019238776
0000c0 95 fe d6 bd e4 7f c1 bd 8b d3 8f bc 6f 36 e6 3c
       -0.104977764 -0.09448221 -0.017556926 0.028102128
0000d0 67 f6 2a 3e 10 7b 5e bd c9 32 cf bd fe ae a1 3c
       0.16695558 -0.05431658 -0.101171084 0.019736763
0000e0 1f 17 0b be d7 d5 83 bd de c8 a9 bd 92 8e 95 bc
       -0.13583039 -0.06437271 -0.082902655 -0.01825646
0000f0 75 85 ad bd d6 f2 a4 3d 04 ff f1 3d 5e 49 46 bc
       -0.084727205 0.0805413 0.118162185 -0.012102453
000100 e8 df 4b bd 2a 25 50 3e fb b5 37 be ac 1c 94 bd
       -0.04977408 0.20326677 -0.17940514 -0.07232031
000110 6c 03 db 3d 80 d1 2f 3e ef 80 d9 ba 19 da 42 bd
       0.10694012 0.17169762 -0.0016594211 -0.047571275
000120 51 80 b4 3c 7f 56 51 3e 37 00 14 3e 53 a5 78 3d
       0.022033842 0.20443152 0.14453207 0.06070454
000130 0e e4 89 bc d7 f2 53 3e 3d a3 27 3e ad c9 01 bd
       -0.016832378 0.20698105 0.16370864 -0.031686474
000140 ee f1 c2 bd 39 d1 1c bc a8 03 c0 3d 8d ea 12 3e
       -0.09518801 -0.009571367 0.093756974 0.14347287
000150 80 03 80 3c 53 2d 45 bc 85 4e d6 bd 2a 32 c2 3d
       0.015626669 -0.012034732 -0.10464195 0.09482224
000160 0e 22 c4 bc a3 48 13 bb 28 64 af bd 96 de 76 3d
       -0.02394202 -0.0022473715 -0.08564025 0.06027087
000170 95 d3 ea 3d 10 e7 1e be 94 3b 4f 3d 4a 6c 5d 3c
       0.11466137 -0.15517831 0.050593928 0.013514588
000180 da 4c d7 bd a6 2d 02 be a2 83 16 3d 2b 16 9b bd
       -0.10512705 -0.12712726 0.03674663 -0.075725876
000190 7c c4 af 3d f0 d6 23 be b2 5c 87 3d 80 3e 97 bc
       0.08582398 -0.15999961 0.06609477 -0.01846242
0001a0 eb d0 02 be 98 24 58 bd fb dd ae bc d4 6a ea bc
       -0.12775008 -0.052769274 -0.021346083 -0.028615393
0001b0 95 30 86 3d c0 7e dc ba 2f d5 e8 3b c8 2e ea bd
       0.06552235 -0.0016822442 0.0071054916 -0.11434704
0001c0 b9 5a 61 bd a0 83 e1 bd 8b 82 35 bd c9 51 95 3d
       -0.05501816 -0.110114336 -0.04431395 0.0729099
0001d0 25 ee 72 3b 44 db 73 3b 96 31 2d 3d d6 a6 52 3d
       0.0037068215 0.003720955 0.042283617 0.05142864
0001e0 00 4c a4 3c 84 85 2b be f7 d4 36 bd c0 cc e1 3d
       0.02005577 -0.16750151 -0.044636693 0.11025381
0001f0 e4 d1 49 bd 9a ac af 3d a3 7c 86 bd 62 5f 98 39
       -0.049272433 0.08577843 -0.06566741 0.00029062765
000200 ce cf 59 3d 28 4a 89 3e 0f 3a 84 bc 0e 5b 25 be
       0.053176694 0.2681439 -0.016140966 -0.16148016
000210 8e fa c1 bc f8 55 13 bd db 78 13 be 4f 71 ea bd
       -0.023679044 -0.035970658 -0.14401571 -0.11447393
000220 c6 ed 3a 3d 4c ea 90 3c c0 4c 85 3c 34 ea c2 bd
       0.045636915 0.017689846 0.016271949 -0.09517327
000230 6c 48 8b 3d a8 77 8a bc e4 fa c8 bc 95 e2 26 3e
       0.06800923 -0.01690276 -0.024533696 0.16297372
000240 8e 6c 28 bd 94 78 ca 3d 81 07 1f 3d 41 e2 2d 3c
       -0.04111915 0.0988628 0.038825516 0.010613025
000250 46 f1 99 3c 49 45 45 3b c8 35 e3 3d c2 81 03 3c
       0.018791806 0.0030101112 0.11094242 0.008026542
000260 bd 8d 7d bd 80 c3 3e 3d b9 63 ab 3c df 36 57 bc
       -0.06190275 0.046573162 0.020921575 -0.013135641
000270 76 fe b5 bd 62 15 23 b9 43 0b c6 3d 84 f7 8c bc
       -0.08886425 -0.00015552857 0.09670117 -0.017207868
000280 20 77 2f 3b 9a 0b 2e be 62 4e aa bd 1c e7 08 3c
       0.0026773885 -0.16996613 -0.083157316 0.008355882
000290 3d b2 7f bc 53 42 1a 3e e7 52 88 3d 1f fb ed bd
       -0.01560646 0.15064363 0.06656437 -0.11620163
0002a0 cb 32 07 bd 44 f2 98 bb db eb 84 3d dd 47 ec bd
       -0.033007424 -0.004667552 0.06490298 -0.11537144
0002b0 a0 bd 69 3d d3 34 7e 3d d5 2e a7 3d e9 58 08 3d
       0.057065606 0.062062096 0.081632294 0.033287916
0002c0 97 73 e0 3c cc a1 13 3c 2c c2 3d 3e 3e 0c 09 be
       0.027398868 0.009010743 0.18531102 -0.13383576
0002d0 29 07 73 3d 15 35 0d be 08 6b 3f bd f7 51 10 be
       0.059333 -0.1378978 -0.046732932 -0.14093767
0002e0 77 6a 8a 3c 0b 79 26 3d cf d0 85 bd 18 ec a8 bd
       0.01689647 0.04064278 -0.06533968 -0.08248156
0002f0 05 30 40 3d 27 67 7c bb 5c c7 cb bc 81 a4 8a 3c
       0.046920795 -0.0038513632 -0.024875335 0.016924145
000300 7d 6f c6 bd 73 8b e5 bc 1a 87 a5 3d 8e 39 e7 3c
       -0.096892335 -0.028020596 0.08082409 0.028225686
000310 9d 5e f0 3c 01 23 8d 3c 3d 24 24 3e ad 8a 97 bd
       0.02934199 0.017228605 0.16029449 -0.07399497
000320 4c 6e c0 bc ed 19 4a bc b5 58 2e be 0d 28 19 3e
       -0.023490094 -0.012335283 -0.17026027 0.14956684
000330 f5 7d 45 3d 1a 12 b8 bd 94 4e e7 3c 8d 29 81 bd
       0.048215825 -0.089878276 0.028235711 -0.06306753
000340 70 e9 0a 3c 64 5b fb 3c c4 23 55 3d 79 89 33 3e
       0.008478507 0.030683227 0.052036062 0.1753291
000350 79 47 23 3b 05 85 97 bc e2 b7 d9 3d 7a f2 8c 3d
       0.0024914427 -0.018496046 0.10630776 0.06882186
000360 69 d2 4e 3d d3 d9 9d bd d3 39 3d 3e d1 ec 70 3d
       0.05049363 -0.07707562 0.1847909 0.058819596
000370 5c 47 83 3c 35 3b 02 3e d5 4f 5a bd 8c 1c 64 bd
       0.016025238 0.12717898 -0.05329879 -0.055691287
000380 ba 83 0a be 5d 0f ea 3c 81 ce d4 3c 27 9c 13 be
       -0.13526812 0.028571779 0.025977375 -0.14415036
000390 7d 73 27 bd a9 6a 82 3d d5 5d 29 bd d3 3c 52 3d
       -0.040881623 0.06368 -0.04134925 0.051327538
0003a0 46 9a 2f be de ea 2f 3e ca eb dc bd cf 01 77 be
       -0.17148694 0.17179438 -0.10787161 -0.24121784
0003b0 72 0a 1c 3d da 30 3a 3e 1f 4c 18 be ac c8 50 be
       0.0380959 0.18182698 -0.14872788 -0.2038905
0003c0 9e f5 92 3d b6 28 29 3e f1 b3 22 be bf 33 cb 3d
       0.07175754 0.16519436 -0.15888955 0.09921979
0003d0 fe 66 1b 3e fc da d0 3c 97 6d be bc 8c c1 22 3c
       0.15176007 0.025495045 -0.023245616 0.0099338405
0003e0 d8 06 7e 3e cf e3 3d 3e e8 7f 18 3b e9 ce 88 3d
       0.24807298 0.18543933 0.0023269597 0.0668009
0003f0 3a 1d 00 be 93 8f 1f bd a9 89 00 bc 24 e2 20 be
       -0.12511149 -0.038955282 -0.007845321 -0.15711266

penc1.bn.weight f4 [36]
000000 e5 ec 5c 3f 39 fb 6e 3f 73 91 88 3f 03 b2 62 3f
       0.8629897 0.93352085 1.0669388 0.88552874
000010 ac b6 5d 3f 48 68 72 3f 8d f2 6d 3f 0b f7 70 3f
       0.8660686 0.9469037 0.9294823 0.9412696
000020 3f d9 7d 3f 53 ab 7c 3f ea 3c 8b 3f d0 68 79 3f
       0.99159616 0.9869892 1.0877964 0.97425556
000030 d2 80 66 3f 9d 4c 86 3f bb b3 73 3f 27 8b 89 3f
       0.90040314 1.049213 0.9519612 1.0745591
000040 f1 17 69 3f 35 dc 6f 3f 0e 65 8d 3f 2d ba 6f 3f
       0.91052157 0.93695384 1.1046464 0.93643457
000050 f0 4e 75 3f b7 ee 82 3f 5d 89 75 3f 16 41 62 3f
       0.95823574 1.02291 0.95912725 0.88380563
000060 bc a6 85 3f 0d ff 80 3f 36 0c 77 3f c3 90 7a 3f
       1.0441508 1.0077835 0.9650301 0.9787714
000070 0a bd 64 3f 8c 24 85 3f 8e ae 7d 3f 9c 29 83 3f
       0.8935095 1.0401778 0.99094474 1.0247073
000080 d8 c0 82 3f af ad 7b 3f 3e 7b 80 3f c3 5c 88 3f
       1.0215101 0.98311895 1.003761 1.0653309

penc1.bn.bias f4 [36]
000000 5d e7 ef bd 91 41 7e bd 4d 56 ed 3c be 95 08 be
       -0.11714051 -0.062074248 0.028971815 -0.13338372
000010 44 60 06 be f9 99 e1 bd a2 d7 b0 bd 9f b5 14 be
       -0.1312266 -0.11015696 -0.08634879 -0.14522408
000020 d6 e8 a6 3c 9b e0 1e 3d 30 05 3e 3d ee 83 89 bc
       0.020374697 0.03878842 0.046391666 -0.016786542
000030 1a b6 00 3d 2c 2b 83 3e 87 28 a2 3c d6 c9 44 3e
       0.031423666 0.25618875 0.019794716 0.1921762
000040 76 55 da bd a2 33 31 bd 23 26 89 3d c1 3d 0a bd
       -0.10660832 -0.04326213 0.06696727 -0.0337503
000050 5a d3 56 3d 57 27 e9 3c 5e b7 a0 bd cc 00 1e be
       0.052447654 0.028461142 -0.078474745 -0.15429991
000060 d1 45 5a 3d fe 81 aa bd fd 96 38 bd 6f fe 9c 3d
       0.05328924 -0.08325575 -0.04506587 0.07665717
000070 0c b2 ae bd 57 6d 00 3e 3e 15 85 3b 0d 51 90 3d
       -0.085300535 0.1254171 0.00406137 0.07046709
000080 c9 6b ad 3d 4f ba 6e bc bc 7c d6 bc b2 eb 2b 3c
       0.08467824 -0.014570787 -0.026182525 0.010493206

penc1.bn.running_mean f4 [36]
000000 99 71 0b bf 22 f4 4d 3d ce db 40 3e ff 1e 4b bf
       -0.5447021 0.05028165 0.18833849 -0.7934417
000010 d1 08 1b bf 76 d2 1e 3f af bf 1c bf 33 68 59 3e
       -0.6056033 0.6203989 -0.61229986 0.21231155
000020 e1 cd 01 3f 3f 38 3e 3f 7a 94 29 3e ae 75 bf be
       0.5070477 0.74304575 0.16560546 -0.3739447
000030 63 c5 8a 3e c6 41 24 bf 8c 0d f7 bd 22 88 7a 3e
       0.2710372 -0.6416286 -0.12063131 0.24465993
000040 db 38 a4 3d 32 b7 24 3e 3a 82 09 3f 90 9f 15 3e
       0.08018657 0.16085508 0.53714335 0.1461165
000050 60 a8 b2 be e0 da ff 3e a9 c9 25 3f b0 39 4f 3e
       -0.34894085 0.49971676 0.64760834 0.2023685
000060 e3 86 70 bf a2 42 f4 3e 78 02 52 3d 1d 01 12 3f
       -0.9395582 0.47707087 0.051271886 0.5703295
000070 91 14 b1 be d9 c6 c8 bd 7e 59 44 3f 7c c1 ec be
       -0.34586003 -0.09803552 0.76699054 -0.46241367
000080 d0 ae 1f 3f 9c fa cb 3e 27 ca 32 be ec e0 be 3e
       0.6237612 0.39839637 -0.17459927 0.37280977

penc1.bn.running_var f4 [36]
000000 4d be 84 3e b0 80 70 3e 81 c2 80 3e 32 68 46 3e
       0.25926438 0.2348659 0.25148395 0.19375685
000010 7f b1 84 3e 37 dd 1d 3e 45 b2 21 3e a3 b5 98 3e
       0.2591667 0.15416418 0.1579066 0.29826078
000020 21 db 54 3e ec bd a6 3e 5a 4e 98 3e 6c 5f 93 3e
       0.20786716 0.32566774 0.29747277 0.2878374
000030 be 88 56 3e f2 47 31 3e e7 50 b2 3e cb 74 4a 3e
       0.209506 0.17312601 0.3482735 0.19771115
000040 ed dc 4c 3e 81 d0 2d 3e 60 d9 26 3e bd cc 87 3e
       0.20006151 0.16974069 0.1629386 0.2652339
000050 67 06 62 3e 7b 2a 26 3e 5a 5c b4 3e 67 3f 30 3e
       0.22072755 0.16227143 0.3522671 0.17211686
000060 50 db 7e 3e 1c 2a c7 3e c8 9e d3 3e b1 1c 67 3e
       0.24888349 0.38899314 0.41332078 0.22569539
000070 58 d0 c9 3e 19 83 a1 3e af 30 8c 3e 45 78 a6 3e
       0.39416766 0.31545332 0.27380893 0.32513633
000080 c9 68 95 3e c7 f8 08 3f 05 8a 5c 3e 9f a8 7e 3e
       0.29181507 0.53504604 0.21537025 0.24869011

kenc0.encoder.0.weight f4 [8, 3, 1]
000000 20 fe c8 3d b8 7f a8 be 0c e4 a1 3e 7c 8c 48 bd
       0.098140955 -0.32909942 0.31619298 -0.0489621
000010 72 59 92 bd 04 9a 0b bf 2d aa 1f 3e 05 b8 95 be
       -0.071459666 -0.54531884 0.1559226 -0.29241958
000020 b2 f0 e5 3e 6b d6 c3 bd 2a 1a ca 3e 07 0e e5 be
       0.44910198 -0.09562381 0.39473087 -0.44737265
000030 83 71 47 be 4d b8 6f bc f0 f0 16 3e ed 09 84 3e
       -0.19476895 -0.014631343 0.14740348 0.25788823
000040 f2 ba 3c 3e 82 d6 70 3e 0f 58 0b 3e da c3 1f be
       0.18430689 0.23519328 0.1360781 -0.15602055
000050 9d d3 ff be 2d e3 27 3e 8a 0f 0a 3f a2 09 28 be
       -0.49966136 0.16395254 0.5392996 -0.16409925

kenc0.encoder.0.bias f4 [8]
000000 69 b8 a1 be eb 20 29 bf da 07 3f 3e ab 3d d9 3d
       -0.31586006 -0.66065854 0.18655339 0.10607465
000010 e2 b9 57 3e 4d 4f 80 3e 82 7c 29 be 6d ab c1 be
       0.21067002 0.25060502 -0.16551402 -0.378261

kenc0.encoder.1.weight f4 [8]
000000 cf d6 71 3f 76 48 84 3f f2 6e 8b 3f ef f0 7d 3f
       0.94468397 1.0334613 1.0893233 0.9919576
000010 cb 14 91 3f 17 eb 8c 3f 0d ca 6f 3f be 65 79 3f
       1.133447 1.1009244 0.9366768 0.9742087

kenc0.encoder.1.bias f4 [8]
000000 cd 60 08 bc 51 b0 0f bd 2e 52 cb 3d 6f d0 ff bc
       -0.00832386 -0.035080258 0.09927784 -0.031227319
000010 74 f2 b6 3d a5 03 9f 3d 58 7f b9 3d 49 89 38 3c
       0.08932963 0.07764367 0.09057492 0.0112632

kenc0.encoder.1.running_mean f4 [8]
000000 c9 4b bf be 71 a5 1a bf c7 3f 0f 3e c3 2d 0d 3e
       -0.37362507 -0.60408694 0.13989173 0.13786988
000010 39 a7 4e 3e 77 e5 63 3e 08 81 04 be 64 2d c4 be
       0.20180978 0.22255503 -0.12939847 -0.3831588

kenc0.encoder.1.running_var f4 [8]
000000 52 0e 07 3d 6c 1c 1b 3d ff 3c 38 3d 0f f1 59 3d
       0.03297264 0.037868902 0.044980045 0.053208407
000010 40 b4 27 3c c3 71 bd 3c 2b af 37 3d 7e 65 57 3d
       0.010235846 0.023125535 0.044844788 0.052587025

kenc0.encoder.4.weight f4 [16, 8, 1]
000000 e0 0e bc be 63 ff 41 3e a7 f7 64 3e 2c ec 1c 3e
       -0.367301 0.18945079 0.22360097 0.15324467
000010 9e a4 a0 bd ff f9 9f 3e 46 c1 9e bd 67 02 7e 3e
       -0.07843898 0.3124542 -0.07751708 0.24805604
000020 85 44 78 3e d7 2e d7 bd c6 43 85 be 4e 4f 3c be
       0.24244888 -0.10506981 -0.2602827 -0.18389627
000030 b8 bd b5 be ea 6c aa 3e 5f 85 b3 be 24 d2 22 be
       -0.35496306 0.3328622 -0.35062692 -0.15900475
000040 94 12 fc bb 79 3c 91 be de d3 34 be 08 2d 3b 3e
       -0.0076926444 -0.2836645 -0.17658946 0.18278897
000050 67 97 bf 3e 38 3b 87 3d e4 0c 19 3e d4 82 2f be
       0.37420198 0.06603092 0.14946324 -0.1713975
000060 02 8d 72 3e 77 d4 c4 be 45 96 ba 3e 11 55 6a be
       0.23686603 -0.38443348 0.36442772 -0.22884013
000070 48 a8 4f 3e 8d 59 2c be 7c 54 e7 bd 49 cb 8d be
       0.20279038 -0.16831036 -0.11295411 -0.27694157
000080 d8 6f 8a be e7 12 7e bc c3 a0 c9 be 5e 13 55 bd
       -0.27038455 -0.015507436 -0.39380464 -0.052020423
000090 a1 81 7d be e8 d9 5d be c5 a4 03 be 08 ad ad be
       -0.24756481 -0.21665156 -0.12855823 -0.33921075
0000a0 08 b0 a8 3e a9 e2 70 3d ce 90 60 3e 3d 19 a9 3d
       0.329468 0.05880991 0.21930239 0.08256767
0000b0 a2 96 8c 3e a3 af eb be c6 85 03 be dc 34 96 be
       0.27458674 -0.46032438 -0.12844 -0.29337204
0000c0 39 c1 80 be 8e f8 3c be 73 b5 01 3e ca d9 bc be
       -0.25147417 -0.18454191 0.12666874 -0.3688491
0000d0 61 3d 61 be 56 4f 4e be 13 5b 44 3e 7d ab 0e bd
       -0.2199607 -0.20147452 0.19175367 -0.034831513
0000e0 6b 7e b8 be e4 57 61 3c 21 05 f2 3d 27 7d fc 3d
       -0.3603395 0.013753865 0.118173845 0.123285584
0000f0 9b 59 ad be 8d b3 cb be 95 b8 04 3e e6 f7 ca bd
       -0.33857426 -0.39785424 0.12961037 -0.09910564
000100 4c 07 63 3d 68 4c a8 bd bb 32 b7 bd 65 0b 81 3e
       0.05542688 -0.08217698 -0.08945223 0.25204006
000110 e3 b6 97 be 8a 6c 72 be c3 43 ff 3d 02 62 c2 bd
       -0.2963172 -0.23674217 0.124640964 -0.0949135
000120 03 eb 59 3d fe 3d f2 bc 03 41 ea be b8 42 8e 3e
       0.05320264 -0.029570576 -0.45752725 0.27785277
000130 f0 f3 95 3c 0e 7c d0 3e fa 12 8c be 51 50 86 3e
       0.018304795 0.40719646 -0.27358228 0.26233152
000140 4b 34 d4 3e 2b 1b 74 be 04 2e 5c 3e a4 d5 12 be
       0.41446146 -0.23838489 0.21501929 -0.1433931
000150 0c 0c 8d 3e 17 19 8a be 1f 1f 9f 3e 48 d6 00 3e
       0.27548254 -0.26972267 0.3107843 0.12581742
000160 cc 7f b7 be 6f 27 b8 bc b7 4c 84 be e5 09 05 be
       -0.3583969 -0.02247974 -0.2583978 -0.12992056
000170 85 ea 45 3e 81 11 be bc a2 66 04 be f2 b5 94 be
       0.19327743 -0.023201706 -0.12929776 -0.29045063
000180 e9 9a 95 bd d7 a9 cb 3e 9a e9 2b 3e b7 74 61 3e
       -0.073049374 0.39778015 0.1678833 0.2201718
000190 9c 6c 75 bd 7e 03 10 be 27 f9 69 bd d4 e6 2f 3d
       -0.05991803 -0.14063832 -0.057122376 0.042944744
0001a0 e7 ae 69 be f4 e4 2b be b2 28 d3 3e c3 fc ca 3a
       -0.22820626 -0.16786557 0.41241986 0.0015486706
0001b0 47 c8 a9 3e 5c 72 11 3e 62 ca a7 3d 08 c0 24 3e
       0.33160612 0.14203781 0.08192898 0.16088879
0001c0 8c 60 4e 3e 9d 26 54 bc 44 54 d9 3c 10 41 ef bb
       0.20154017 -0.012948659 0.026529439 -0.007301457
0001d0 de a9 25 be bb 4f c1 be 23 16 e8 bd 11 fe db 3d
       -0.1617808 -0.37756142 -0.11332347 0.10741819
0001e0 6d a7 ad 3e b2 57 44 3e 72 42 1c be a8 2d 0f be
       0.33916798 0.19174078 -0.15259722 -0.1398226
0001f0 a4 0a 34 3e 58 a4 8a be a2 56 c1 3e 76 ee 62 3e
       0.17582184 -0.2707851 0.37761408 0.22161278

kenc0.encoder.4.bias f4 [16]
000000 d9 46 8e 3e f6 ac 09 be 88 c8 20 be 85 39 9c 3d
       0.27788427 -0.13444886 -0.15701497 0.076281585
000010 5b e2 d5 3c 30 17 39 be 03 40 24 3e af 38 24 3e
       0.026108911 -0.18075252 0.16040044 0.16037248
000020 d6 9c ad bd b6 ab 0f be 02 fd 58 be 76 5d 5f be
       -0.0847718 -0.14030346 -0.21190265 -0.21812996
000030 d3 8c 96 be 5b e0 a2 be 79 26 a7 be 3f 2f 6e 3e
       -0.29404315 -0.31811795 -0.3264654 0.2326021

kenc0.encoder.5.weight f4 [16]
000000 5b ff 57 3f 3f 6d 80 3f d5 96 84 3f 7e 20 8d 3f
       0.84374017 1.0033339 1.035853 1.1025541
000010 e1 d1 69 3f e0 f0 87 3f e4 e0 6d 3f 80 db 50 3f
       0.91335875 1.0620384 0.9292128 0.8158493
000020 0b 52 8b 3f c1 10 86 3f c7 5f 83 3f 47 cf 84 3f
       1.0884413 1.0473863 1.0263604 1.0375756
000030 58 64 8d 3f 42 96 88 3f 4f 06 52 3f e3 de 6f 3f
       1.1046247 1.0670855 0.82040876 0.93699473

kenc0.encoder.5.bias f4 [16]
000000 60 a7 61 be 82 f2 1c bd c5 28 81 3d 11 df 00 3c
       -0.22036505 -0.03831721 0.06306604 0.007865683
000010 74 87 8f bc 13 af 49 3e 93 39 9e bd 05 ec e1 bd
       -0.017520644 0.19695692 -0.07725825 -0.11031345
000020 71 ac 0e 3e e2 94 96 3d 6c 8d af bd ed 70 e3 bc
       0.13932969 0.07352616 -0.08571896 -0.027763808
000030 0b 44 0f bd f4 c9 b5 3d cd c6 2b be b1 ba 19 bd
       -0.034977 0.0887641 -0.16775055 -0.03753156

kenc0.encoder.5.running_mean f4 [16]
000000 5c af 0d 3f 4a e2 02 bf c0 bc 65 bd f0 81 e1 bd
       0.553457 -0.5112654 -0.05608821 -0.11011112
000010 a8 68 37 bf 35 cb 3d be d2 57 5d be 5e be 50 be
       -0.7164407 -0.18534549 -0.21615532 -0.2038512
000020 cd 3f 95 be bb 90 3b bd d7 40 d1 3d 3c 5f 24 bf
       -0.2915024 -0.045792323 0.10217445 -0.64207816
000030 41 52 2b be 8e 4b 24 3d 3b 49 0a bf 52 32 0e 3f
       -0.16730596 0.040111117 -0.5401799 0.5554553

kenc0.encoder.5.running_var f4 [16]
000000 36 9e 4c 3e 1b 78 90 3e 8c 05 03 3e 9b 50 21 3f
       0.19982228 0.28216633 0.12795085 0.6301362
000010 61 03 90 3e 43 c0 cd 3e 1c 1b 0d 3e 24 68 67 3e
       0.28127578 0.40185747 0.13779873 0.2259832
000020 4a 6b 09 3e d1 aa b4 3e 5e bb 83 3e 1e 1d 5a 3e
       0.13419834 0.35286573 0.25728887 0.2130017
000030 9e 2d fa 3d 89 8a 2d 3e 84 7c c6 3d a9 e0 48 3e
       0.12215732 0.16947378 0.09691718 0.19616951

kenc0.encoder.8.weight f4 [32, 16, 1]
000000 52 03 85 3d 53 01 02 3e 1e d4 d4 bd 19 6b db bd
       0.06494774 0.12695818 -0.10392021 -0.10713787
000010 21 0d 84 bd 1a de 19 3b cb 42 52 be b0 d7 01 be
       -0.06447817 0.002347833 -0.20533292 -0.12679935
000020 39 d5 0a 3e 54 c9 6e 3e c3 bf 52 3e 88 b3 7e be
       0.135579 0.23318988 0.20580964 -0.24873173
000030 0d b5 c8 be a7 ba 72 3e fe ba 6a 3e 88 2c 70 3e
       -0.3920063 0.23704015 0.22922894 0.23454487
000040 85 66 e4 bc d4 c3 a2 bd ea b3 6b bc 29 1f 89 be
       -0.027880916 -0.079475075 -0.014386157 -0.26781586
000050 36 b9 58 be 5a c0 91 bd ed 73 81 bd 4c dc 16 3e
       -0.21164402 -0.07116766 -0.06320939 0.14732474
000060 b8 96 5c 3e f5 61 1d 3d ca 3e 9a 3d c3 1a 81 bd
       0.2154187 0.038423497 0.07531507 -0.063039325
000070 09 ca 0c 3e 94 48 ea bd cb 6b 53 3e c5 8f 32 3e
       0.13748945 -0.114396244 0.20646589 0.17437656
000080 a2 df 6e 3e 45 b6 0b be 60 60 69 3e 78 69 e8 3d
       0.23327497 -0.13643749 0.2279067 0.113482416
000090 e1 67 bd bd 2c b7 87 3e ec 01 a0 bd 75 70 cf 3c
       -0.09248329 0.26506937 -0.078128666 0.025322178
0000a0 93 8f cc bd a2 2d 31 be f2 72 89 3e bb f7 80 3d
       -0.09988322 -0.17302564 0.2684551 0.06297251
0000b0 99 ab 11 be 0e 07 85 be 7f f1 c4 bd 0d dc f1 3c
       -0.14225616 -0.25981945 -0.09616374 0.029523874
0000c0 2a 3c dd 3c 47 21 f6 3d 5d 05 a8 bd ae 7d 82 be
       0.027006228 0.12018066 -0.08204148 -0.2548651
0000d0 20 73 49 3e 5e 19 07 be 00 93 63 3e 61 a0 38 be
       0.19672823 -0.1319327 0.22224045 -0.1802993
0000e0 9e e6 a7 be e7 bb de bc 0a bf 18 be 7b b5 14 3d
       -0.32793134 -0.027189208 -0.14916626 0.036305886
0000f0 8e 23 90 be 1d e3 55 bb eb 6f 11 3e d7 50 49 be
       -0.28152126 -0.003263659 0.1420285 -0.19659744
000100 a0 d5 1e be a5 20 55 3d 0b 0f c6 bd aa ce a7 3c
       -0.15511179 0.052033085 -0.09670838 0.020484287
000110 d5 6f d9 bc 22 20 6a bc 5e 7e ea bd f9 77 f8 3c
       -0.026542583 -0.014289888 -0.11449884 0.030330645
000120 16 c2 5c bb 88 36 88 3e 63 f7 63 3c 17 e0 59 3d
       -0.003368502 0.26604104 0.013913962 0.053192224
000130 b1 8d 22 be ba fb 9a be 89 2d bf 3c 43 b5 b9 bc
       -0.15874363 -0.30270177 0.023337143 -0.02266944
000140 04 73 a9 3d a5 0c 58 bd 6a d6 ca 3d 4e 55 60 be
       0.082738906 -0.052746434 0.099041775 -0.21907541
000150 3b 60 34 3e 19 dd 63 3d 30 22 34 bc 14 a7 37 be
       0.17614834 0.055630777 -0.010994479 -0.17934829
000160 b9 20 7a be 31 91 2b bd 0f f1 8b 3e 21 50 96 be
       -0.24426545 -0.041886512 0.2733235 -0.29358009
000170 37 8f e1 bd 3c ca 96 bd 98 82 ba 3d 49 4a 13 3e
       -0.11013644 -0.07362792 0.0910694 0.14383806
000180 e3 97 b3 3d fa b1 27 bd 2f b7 f5 3b 86 f5 21 3e
       0.087692045 -0.040941216 0.007498644 0.15816316
000190 57 87 7a 3c e4 3f a5 bd f1 4a 36 be ab 4d 92 3d
       0.015291057 -0.08068827 -0.17802025 0.0714372
0001a0 d9 84 70 be 3b 6a 57 3e 8e 6a a4 bd 21 e2 0f 3e
       -0.23488177 0.21036617 -0.08028136 0.14051105
0001b0 b9 b2 64 be 28 35 91 3e 8e 2e 8c 3c 78 3e 2d 3d
       -0.22333802 0.28360868 0.017112043 0.042295903
0001c0 77 8d 0b 3d d3 d6 48 3d eb ed c3 bd db 08 53 be
       0.03407046 0.049032997 -0.095668636 -0.20608847
0001d0 d9 6f 6b 3e 84 ef 04 be f7 91 5a 3e fd 33 63 3d
       0.22991885 -0.12981993 0.21344744 0.0554695
0001e0 50 b8 41 3e 77 54 0e be fe 1c 9c 3a 99 3f 5e 3e
       0.18917966 -0.13899408 0.0011910496 0.21703948
0001f0 17 2a 6c be 83 8b ba bd 0c 7c 0f be 8b 07 89 3e
       -0.23062931 -0.09108641 -0.14012164 0.26763567
000200 2c 82 97 3d ea af 55 3e 31 3b 15 3e 7d 51 b2 bd
       0.07397875 0.20867887 0.14573361 -0.08706949
000210 a2 81 2d be 11 10 8e be e2 d3 94 bd 07 88 89 be
       -0.16943982 -0.27746633 -0.07266976 -0.26861593
000220 17 2b 0a be 94 7d 00 be 42 2a 34 be be 58 1f 3e
       -0.13493 -0.12547904 -0.17594245 0.15561196
000230 ca 44 a3 bc e1 94 dd 3d 95 e5 89 be 4c 2c 15 be
       -0.019930262 0.10819412 -0.2693297 -0.14567679
000240 7f a8 05 be cd c7 af be 9a 46 fb 3d f1 1a 41 3d
       -0.13052557 -0.34332123 0.122693256 0.047144834
000250 02 87 75 3c e5 77 98 be db 58 13 3e c5 0a 08 be
       0.014985802 -0.29778972 0.14389364 -0.13285358
000260 3c c2 4e 3e f7 e4 66 be e7 a0 96 bd 37 80 ee 3d
       0.20191282 -0.2254828 -0.073549084 0.11645549
000270 15 65 bd bd e6 2d d9 3d 64 8a 7e be 74 c0 3a 3e
       -0.092477955 0.106044576 -0.2485748 0.18237478
000280 32 40 d3 3c a6 10 a0 3d c6 95 f2 3d 32 c3 af 3d
       0.025787447 0.078156754 0.11844973 0.085821524
000290 d8 e9 17 bd af c3 32 3e 57 fd 0a 3e e6 5b c8 3c
       -0.037088245 0.1745746 0.13573204 0.024457883
0002a0 77 85 12 3e 2a 67 da bd b1 c7 83 3e cf 7f ea 3d
       0.14308725 -0.10664208 0.2573829 0.11450159
0002b0 7c b5 b8 bc 79 a6 a2 be 7b 6d 7b bd e5 a7 fb bd
       -0.022547476 -0.31767634 -0.061383706 -0.12287883
0002c0 bb 78 15 bd bd b2 95 3e bf ee 54 3e e1 d8 4a be
       -0.03649209 0.2923793 0.207942 -0.19809295
0002d0 ef 9a 3f 3e 1c 9b 04 bd 16 b6 83 be df 48 a2 bd
       0.18711446 -0.032374486 -0.25724858 -0.07924055
0002e0 67 d4 9b be 42 3e d5 3d bf 95 18 be f1 43 94 3e
       -0.30435488 0.10412265 -0.14900874 0.28958085
0002f0 5c a0 ca 3d 38 3f af 3c 79 49 55 3d 2f 09 32 be
       0.098938674 0.02139245 0.052072022 -0.17386316
000300 7f 22 75 be 92 e8 04 3e e4 04 49 3d 0b 68 cf 3e
       -0.2393894 0.12979344 0.04907693 0.40509066
000310 03 25 51 3e 3f 32 fb 3c fd 55 12 be f9 5f 4d 3e
       0.20424275 0.030663608 -0.14290614 0.20056142
000320 f7 ef 54 be 48 66 e6 bd 7e 0c 46 3c a6 dd 02 bd
       -0.20794664 -0.11249977 0.012087939 -0.03194966
000330 50 47 3c 3e 1e 16 62 3e f0 0c b1 bd 1c 98 2e 3e
       0.18386579 0.2207875 -0.08645046 0.17050213
000340 6b c1 4c 3d b7 40 75 3c 76 f3 0c be 1a f1 ef bc
       0.049989145 0.0149690425 -0.13764748 -0.02928977
000350 4c b0 cb 3d 55 1a b2 3e ab 8a c0 3d 49 23 54 be
       0.09945735 0.34785715 0.09401449 -0.20716585
000360 d1 d3 84 bd 9b af 42 bc 39 ee aa 3e 08 9c 0d be
       -0.06485713 -0.011882688 0.33384874 -0.13829052
000370 b7 ee 7d bb b4 83 87 bd 33 60 45 bc d4 a5 e2 bd
       -0.0038747021 -0.06616917 -0.012046861 -0.110667855
000380 91 76 1c bd 99 88 5a 3d 05 89 3a bd 8d 49 5c be
       -0.03819901 0.053352926 -0.04554083 -0.21512432
000390 64 06 36 be 5d 87 c7 bd e6 a1 15 be 9a 33 27 be
       -0.17775875 -0.09742615 -0.1461254 -0.16328278
0003a0 02 33 8f 3d 83 57 15 bd 94 d6 1a be b8 33 cc 3d
       0.06992151 -0.03646041 -0.15120918 0.09970802
0003b0 38 ac c6 3e 5f 51 5e 3e 9f f5 55 be a0 db cb 3d
       0.38803267 0.21710728 -0.20894478 0.099539995
0003c0 20 10 9c bc 28 49 20 be 8c 77 05 be 2d 58 6e 3e
       -0.019050658 -0.15652907 -0.13033885 0.23275824
0003d0 39 f1 35 bc 2f 53 7d 3e 8d 1d b2 bd 01 33 44 bd
       -0.011104875 0.24738763 -0.086970426 -0.047900204
0003e0 99 d5 88 be f0 5a 11 3e b2 3e 4b 3e 08 c3 64 3e
       -0.26725462 0.14194846 0.19848135 0.22340024
0003f0 71 ca a7 3d 8d cf 55 be 04 33 5c 3e b1 a0 4e be
       0.081929095 -0.20879956 0.21503836 -0.20178486

kenc0.encoder.8.bias f4 [32]
000000 7e c1 4b 3e 38 43 2b 3e 51 58 40 3c b3 17 64 bd
       0.1989803 0.1672486 0.011739806 -0.055686664
000010 7f 4b 4e 3e b2 91 d4 3d c5 eb 63 bd 9b c5 91 3d
       0.20145987 0.10379352 -0.05564477 0.071177684
000020 34 8a 83 be 1f a6 82 3c 66 a4 99 bd 8c 38 08 be
       -0.25691378 0.015948353 -0.0750206 -0.13302821
000030 2b 99 68 3e f2 28 98 be d1 59 28 be 73 dd 73 3e
       0.22714679 -0.2971874 -0.16440512 0.23814945
000040 9f 3b c1 bd 78 5e 96 3d fb 3b 97 3d ec 8c 05 be
       -0.094352 0.07342237 0.07384487 -0.13042039
000050 b7 56 33 3e b4 7f 00 3e b4 f5 30 be c7 50 f5 bd
       0.17513548 0.12548715 -0.17281228 -0.11978298
000060 87 c5 13 3d b9 f9 55 be ef 9a 08 be ac cb ea 3d
       0.03607705 -0.20896043 -0.13340352 0.114646286
000070 10 b1 83 be 86 71 14 be 5a 5d 4c bd b6 a6 15 bc
       -0.25721025 -0.14496431 -0.049893714 -0.009133985

kenc0.encoder.9.weight f4 [32]
000000 05 85 7d 3f 73 d9 93 3f ab fd 7c 3f 04 90 8b 3f
       0.99031097 1.1550735 0.98824567 1.0903325
000010 54 05 7d 3f 85 0d 78 3f ef df 69 3f ea e2 78 3f
       0.98836255 0.9689563 0.9135732 0.97221243
000020 b8 8f 86 3f e7 37 59 3f 25 8f 6f 3f ae 1d 88 3f
       1.051261 0.84850925 0.93577796 1.0634058
000030 c1 ab 7c 3f 11 c3 8c 3f b8 ab 80 3f 47 d7 97 3f
       0.98699576 1.099703 1.0052404 1.1862572
000040 05 af 7b 3f 6e ac 85 3f 01 90 84 3f cf 04 8c 3f
       0.98313934 1.0443246 1.0356447 1.0938967
000050 64 1f 79 3f 56 b9 70 3f 95 ec 7b 3f cb 21 75 3f
       0.97313523 0.940328 0.9840787 0.9575469
000060 db 8d 72 3f 9f c7 6d 3f 65 ee 87 3f 4f 59 72 3f
       0.94747704 0.9288272 1.0619627 0.94667524
000070 8b 87 83 3f 44 8f 8b 3f d3 5d 9c 3f ba 21 87 3f
       1.027574 1.0903096 1.2216133 1.0557168

kenc0.encoder.9.bias f4 [32]
000000 bd 80 b0 3d 15 87 df bb ee 6f d4 3d 50 6b 26 3e
       0.08618305 -0.006821523 0.103729114 0.16251874
000010 06 56 9c 3d 13 7b 0e bd 5b bd f3 bd 11 dd 46 bc
       0.07633595 -0.03478534 -0.11901351 -0.012137667
000020 fb 8f 27 3d 74 40 e4 bd 37 63 14 bd 86 ca 04 3d
       0.040908795 -0.11145106 -0.03622743 0.032419704
000030 ce e4 8d bd 9b 5b 03 bd f2 25 04 3d 8a 71 92 3d
       -0.06928407 -0.032069784 0.03226275 0.07150562
000040 57 14 e5 bc 33 cc e6 bc 56 c3 62 3d eb eb d7 3d
       -0.0279638 -0.028173542 0.055362068 0.10543045
000050 8b 25 d6 bd f7 7c 3f bd 4e 06 76 3c b4 cb 88 bd
       -0.104563795 -0.046750035 0.015016152 -0.06679478
000060 a0 86 a6 bc c4 62 93 bd 59 2e 51 3c 56 97 14 3a
       -0.020327866 -0.071965724 0.012767398 0.0005668303
000070 d4 08 fa 3d 53 9a 28 3e 26 04 a0 3e 32 44 b3 3d
       0.12208715 0.1646512 0.31253165 0.087532416

kenc0.encoder.9.running_mean f4 [32]
000000 61 73 94 3e 8e 3c d3 3d 8e 0f b6 3d 0a 92 f4 be
       0.28994277 0.10314284 0.088896856 -0.4776767
000010 d2 9e 36 3d bb f0 60 bd 84 92 4e bd 09 a6 19 3e
       0.044585057 -0.05491708 -0.050432697 0.15004744
000020 c5 e0 24 bf 0b 7d 0e be 47 e9 f1 3d 44 6f c4 bd
       -0.6440547 -0.13914888 0.11812072 -0.09591535
000030 0d 09 fc 3e fa eb 66 be 26 20 7d be 6c 1a 98 3e
       0.49225655 -0.22550955 -0.24719295 0.29707658
000040 58 78 4f be a4 7d aa 3e 69 d7 77 be 02 e4 b0 3c
       -0.20260751 0.3329898 -0.24203266 0.021593098
000050 ca ce 48 3e a1 5d ac bc 37 4f 09 bf 03 48 0b 3e
       0.19610134 -0.02104074 -0.536365 0.13601689
000060 0f 0c 82 be ec 9e 4d 3e 31 5d 8e be 9d b1 99 be
       -0.25399825 0.20080155 -0.27805474 -0.3001832
000070 3d 7e 7b bf b6 f1 e1 be 50 7a 28 3e 00 de f5 3d
       -0.982395 -0.44129723 0.16452909 0.12005234

kenc0.encoder.9.running_var f4 [32]
000000 9f 77 96 3e 7e 94 92 3e f2 44 a2 3e 93 e5 aa 3e
       0.2938814 0.28628916 0.31693226 0.33378276
000010 a4 8e e5 3d dd ec d2 3d 9c 9d 80 3e 5d ca 91 3e
       0.11208847 0.10299084 0.25120246 0.28474703
000020 5e ed 97 3e 83 7a 7b 3e af 80 14 3e fd ec a5 3e
       0.29673284 0.24558453 0.14502214 0.3240737
000030 c6 33 8a 3e 9e 9e 45 3e a8 f7 63 3e e9 3a 83 3e
       0.26992625 0.19298789 0.22262442 0.25630882
000040 9d 2e 81 3e ea 45 a8 3e 30 ff da 3e b3 8f 3a 3e
       0.25230876 0.3286584 0.42772818 0.1821888
000050 a7 17 94 3e 6c 36 24 3e f0 3f b6 3e bc 2b 67 3e
       0.28924295 0.16036385 0.35595655 0.22575277
000060 0b 7e 54 3e cf 73 0e 3e 1c 8b 58 3e 8d ab ba 3e
       0.20751207 0.13911365 0.21146816 0.36459008
000070 ae 60 dc 3e ee cc 0a 3e cd 38 63 3e 0e f1 c9 3e
       0.4304251 0.13554737 0.22189637 0.39441723

kenc0.encoder.12.weight f4 [64, 32, 1]
000000 5d 41 ed bd 8a 55 d0 bc 7a 45 7f be 7d f3 33 3e
       -0.11584733 -0.025431413 -0.24928847 0.17573352
000010 58 d5 ef 3c 6b 5c b8 bd e7 1c dc bc 20 9f 27 be
       0.029276535 -0.09002002 -0.02686925 -0.16369295
000020 1f fd 5d 3e 53 48 43 3d ff d1 05 3c a0 77 22 3e
       0.2167859 0.047676396 0.008167743 0.15865946
000030 70 d8 8b 3c cc 45 a2 3c e0 ad 1b 3e fb ff 67 be
       0.017070979 0.019808672 0.15203047 -0.22656243
000040 2a 2c 66 3c 2b 51 80 be 7b e3 fd bd 94 2f 6a bd
       0.0140486155 -0.25061926 -0.12396904 -0.05717428
000050 55 7c 68 3e 66 81 cb 3d 76 17 8d bd 89 ec 68 3d
       0.22703679 0.0993679 -0.068892404 0.056866203
000060 bb 75 d2 bd 14 41 91 bd c6 f8 0f be 87 81 36 3d
       -0.102763616 -0.07092491 -0.14059743 0.04455712
000070 16 6f 19 be 26 a7 98 3c 95 7f b2 3d 63 15 a8 bd
       -0.14983782 0.01863439 0.087157406 -0.08207204
000080 a9 2a fd bd 9c 8f 8f bd c7 5d 3f 3e e7 ae 18 be
       -0.123616524 -0.07009813 0.18688117 -0.1491047
000090 ee 45 f9 bc 44 2b 84 3d c0 95 77 3b d6 43 41 be
       -0.030428853 0.06453565 0.0037778467 -0.18873534
0000a0 79 d7 ad 3d fe 5a bb 3c 62 ca c2 3d b6 91 85 be
       0.08488364 0.022870537 0.09511258 -0.2608773
0000b0 9c 23 d9 bc e2 67 d9 3d fc dc af 3d b8 59 e4 3d
       -0.026506238 0.10615517 0.08587071 0.11149925
0000c0 0c 2f 94 be 44 06 5a 3e fe 96 09 bc 86 13 93 3c
       -0.28942144 0.21291453 -0.008397816 0.017953645
0000d0 bd d8 8e be f7 07 36 bb bb da 8d 3a e2 4c 01 3e
       -0.27899733 -0.0027775744 0.0010822633 0.12626985
0000e0 5a 3e b6 3d b7 a6 9c 3d 76 57 fc bd 39 61 05 be
       0.08898611 0.07648986 -0.12321369 -0.13025369
0000f0 9f 4b db bc 65 4b 72 be 8d 68 39 3e 04 d9 40 3c
       -0.026769457 -0.23661573 0.18106289 0.011770491
000100 ec da 74 be 3a 81 e5 bc a6 d7 86 bd 0f 16 a7 bd
       -0.23911637 -0.028015722 -0.065841004 -0.08158504
000110 e2 cc 7b be f7 43 3a 3c 82 9b 96 3c 00 ab 49 3e
       -0.24589875 0.011368743 0.018384699 0.19694138
000120 bd 45 90 3e c8 12 15 3d 87 b6 d4 3c c6 d0 f2 bb
       0.28178206 0.036394864 0.025965942 -0.0074101416
000130 7e 12 79 bd c6 08 86 bb b1 57 31 be fc 12 50 bd
       -0.06080865 -0.0040904013 -0.17318608 -0.050799355
000140 1d 70 c1 bc 98 56 b8 bd 66 b2 ec 3d 61 63 71 be
       -0.02361303 -0.090008914 0.11557464 -0.23573066
000150 82 50 8c 3e 07 98 5f be a4 1e 15 bb 66 60 8a bc
       0.27405173 -0.21835338 -0.002275386 -0.01689167
000160 01 af d5 bd ee f6 4c be 2c 5a 33 bc 72 94 a8 3c
       -0.1043377 -0.20016071 -0.010946792 0.020578597
000170 2e 94 31 3d 8f 29 a6 bc a1 69 bc 3e 5d 58 01 3d
       0.043354206 -0.020283489 0.36799338 0.03157841
000180 76 cc 2b 3c 32 b5 dc 3c e5 42 b4 bd 6b 8b c8 3d
       0.010485759 0.02694187 -0.088018216 0.09792217
000190 96 8f 22 be 20 65 7b be 5e 5a a6 bd 84 1c 9a 3d
       -0.15875086 -0.24550295 -0.08122705 0.0752497
0001a0 5f 73 d5 3d 28 fa ff 3d be 4c 20 be 1d f9 05 3e
       0.10422396 0.124988854 -0.15654275 0.1308331
0001b0 62 34 4d be d5 5f 23 be 1f 99 00 3e 04 ad 69 3d
       -0.20039514 -0.15954526 0.12558411 0.057049766
0001c0 cf 36 83 3d 93 5e 87 bc 66 c3 1f bd ab 29 2f be
       0.06406938 -0.016524589 -0.039004706 -0.17105739
0001d0 4f 8c 30 3d 2b b0 59 be 51 93 86 bd 96 68 27 be
       0.04310256 -0.21258609 -0.06571067 -0.1634849
0001e0 cb bd fc 3d 9f e0 a3 bd 27 b5 1d be 7b b5 c0 3d
       0.12340888 -0.080018274 -0.15401135 0.09409615
0001f0 85 9f 1a be 6c ef 02 be 2d b2 10 3e 8d 70 03 bd
       -0.15099914 -0.12786645 0.14130469 -0.03208976
000200 47 0c 22 bd dc ec 64 bd f1 25 7d bd a3 06 b8 bb
       -0.03956249 -0.05588995 -0.061803762 -0.0056160255
000210 9b eb 0e 3d 62 fb 35 be 79 07 44 be 37 f9 08 3e
       0.03489266 -0.17771676 -0.19143476 0.13376318
000220 a9 71 1b 3e fc cd c2 bd 61 4a 80 bd 18 d0 03 be
       0.15180077 -0.09511945 -0.06264187 -0.1287235
000230 c1 25 2e be d3 0c 7f be 87 3d ec 3d 57 0e 92 be
       -0.1700659 -0.24907236 0.11535173 -0.28526565
000240 5f b9 e0 3d 0a d8 1f 3d 15 55 f2 3c a7 38 2d 3e
       0.10972857 0.03902439 0.029581586 0.16916142
000250 2c af 92 3b a5 5c 5c be 9e 30 ea bd bf 80 a9 bd
       0.0044764485 -0.21519716 -0.11435054 -0.082765095
000260 4f 06 e0 b9 15 b4 91 3d 3f d8 6b 3b ab b8 1b be
       -0.0004272931 0.07114426 0.0035987047 -0.15207164
000270 f3 5f c3 3d d6 64 9e be 11 b4 f2 3d b7 65 96 bd
       0.09539785 -0.30936307 0.11850751 -0.07343619
000280 3b 3e 09 be 01 ef 85 3d a2 c9 72 be a2 8d 01 3d
       -0.13402645 0.06539727 -0.2370973 0.031629212
000290 8e bc fe 3c a5 eb a7 bd 80 d7 e3 3d c5 b0 28 3e
       0.03109577 -0.081992425 0.11125088 0.16473682
0002a0 61 0e 52 be 86 d3 d1 bd 1f 2c 89 bd b9 50 64 be
       -0.20513298 -0.10245423 -0.066978686 -0.22296418
0002b0 d9 d8 d7 3d b3 c6 7e be 1a 50 23 be 32 e5 3d be
       0.10539407 -0.24880485 -0.15948525 -0.18544462
0002c0 3d 98 05 be a8 b8 9e 3d a7 5a 3c 3e c5 b4 86 bd
       -0.13046356 0.07750064 0.18393956 -0.06577448
0002d0 d7 4c 19 bd 0d ad 00 bd d1 f7 4e be a3 1c c0 3a
       -0.037426796 -0.031415034 -0.20211722 0.0014656972
0002e0 57 62 78 bd 8f 0d 0a 3d 5b 5e f7 3d 15 f8 a3 3d
       -0.06064066 0.033704337 0.12078544 0.08006302
0002f0 7d f7 50 3e 5f 87 45 3d f1 1c 75 be fa 0c f0 ba
       0.2040691 0.048224803 -0.23936822 -0.0018314414
000300 79 bb d8 3c 02 db f4 bd 4c fe 5e bd 95 15 81 3e
       0.026456581 -0.11955835 -0.054441735 0.25211778
000310 51 52 b4 3d ac ae 05 3d 49 c8 69 bd 48 17 bb bd
       0.08804763 0.032637283 -0.057075772 -0.091353
000320 94 d1 a2 3e 59 1e f4 bd 0c e8 d6 bd 73 f7 be 3d
       0.3180052 -0.11919851 -0.10493478 0.09324541
000330 e9 63 97 bc 54 ae 0c be 9a 8b 0e 3e aa 84 f2 3d
       -0.018480258 -0.13738376 0.13920441 0.1184171
000340 43 36 9f bd 12 ca d1 bd c0 f0 1a 3b a3 6e 5a be
       -0.077740215 -0.1024362 0.0023642033 -0.21331267
000350 0d 18 fb bd 77 5e 7b 3d 72 a5 3f be fc 74 0d 3e
       -0.12260447 0.061369386 -0.18715456 0.13814157
000360 eb ef a7 3d 59 0a eb bc 9f 01 5e bd 34 76 44 be
       0.082000576 -0.028691458 -0.054200765 -0.19185716
000370 14 7d b6 bd c0 13 c2 bd 5e 60 b4 bd dc 49 d5 bd
       -0.089105755 -0.09476423 -0.08807443 -0.10414478
000380 64 86 63 be 62 a6 e1 bd f8 5b 2c be 0c 8c fb 3d
       -0.22219235 -0.11018063 -0.16831958 0.12282571
000390 c2 76 55 be 9c b6 6b bd 94 a9 af 3d f0 56 71 be
       -0.20846084 -0.057547197 0.08577266 -0.2356832
0003a0 7b 07 7b bd 13 15 ad bd ec a7 06 3e 8f b9 ca ba
       -0.06128643 -0.08451285 0.13149995 -0.0015466678
0003b0 c6 06 42 be ad fb 2e bd 5b ed a5 bd b6 a3 07 be
       -0.18947896 -0.042720485 -0.081019126 -0.13246045
0003c0 7b 73 7f be b8 94 9e 3d fd 9f 5b 3d 4c 79 26 be
       -0.24946396 0.077432096 0.053619374 -0.16257209
0003d0 33 e8 0a 3d bd 46 3e 3d 9c e5 ca 3d ac 59 36 be
       0.03391285 0.04645418 0.09907076 -0.17807645
0003e0 8c a6 e6 bd 39 05 9c 3c c8 81 89 3d c9 f0 f8 3d
       -0.11262235 0.01904546 0.06714207 0.12155301
0003f0 22 d1 84 3e 10 5c 2b bd 2a eb 54 be 26 f9 8f 3d
       0.25940806 -0.041835845 -0.20792833 0.07029943

kenc0.encoder.12.bias f4 [64]
000000 b0 7e c9 3c d1 b8 93 3c f4 64 b3 3c 44 70 c3 bd
       0.024596542 0.018032463 0.021898724 -0.09542897
000010 5c f2 a0 bd 99 96 3e be 86 b8 9e 3b a7 fd a6 bd
       -0.078587264 -0.18612136 0.0048437743 -0.08153849
000020 37 55 6e bd a6 86 66 bd 9e 86 8c 3d 27 09 e7 bd
       -0.058186736 -0.056280755 0.06861614 -0.112810425
000030 64 a0 0f be bc d1 4a be cd 74 d6 bd c3 55 88 3d
       -0.14026028 -0.1980657 -0.10471497 0.06656983
000040 93 f8 cc 3d 82 e9 ee 3d fc 4e 0a 3c 47 65 5a bd
       0.10008349 0.11665632 0.008441683 -0.05331924
000050 aa f0 84 3d ee 77 2e be 0a 97 7e 3d fd e4 52 3d
       0.064912155 -0.17037937 0.06215576 0.05148791
000060 13 a0 ef bd 9a d1 a0 bd ab ec 8b 3d 32 b4 41 bd
       -0.117004536 -0.07852478 0.0683225 -0.04729099
000070 39 b5 dd bd dd 1f b3 bd ca f5 c6 3b 3c 37 00 3e
       -0.10825581 -0.08746312 0.006071781 0.1252107
000080 0c 1d 10 3e a8 22 46 be 2c 40 0c 3e 19 c2 61 be
       0.1407358 -0.19349158 0.13696355 -0.22046699
000090 57 59 04 3e 0e 30 1a 3c b0 35 bd bc 0c 37 a0 bd
       0.12924705 0.009410871 -0.02309689 -0.07822999
0000a0 0f 02 9a bb f8 d2 9a bd d6 d4 0b be 8d c5 75 bc
       -0.0046999524 -0.0755977 -0.13655409 -0.015000713
0000b0 bc 92 9f bc f2 1d 73 3c 1f cf e2 3c 34 15 1d 3e
       -0.019479148 0.0148386825 0.027686654 0.1534012
0000c0 28 5f a1 3d 79 6b 39 be 56 df bd 3d 89 65 3e be
       0.07879478 -0.18107404 0.092711136 -0.1859342
0000d0 f0 25 26 3e 93 0b 60 3d 2f 57 11 3e c1 c5 f3 bd
       0.1622541 0.054698538 0.14193414 -0.11902953
0000e0 e2 18 06 be 42 5e 2c bd 42 ff 19 be d6 d0 7e 3d
       -0.1309543 -0.04208208 -0.1503878 0.06221088
0000f0 b0 e2 ac 3c 9b 78 c9 bd 5b 7b 47 3e cb 02 58 3d
       0.021104187 -0.09837457 0.1948065 0.05273704
